climate/2025-2-15_22-46-54-186708/best_model.pth (torch, 29282 bytes, 29 tensors)

encoder.0.weight f4 [16, 16]
00000000: 90fa abbf 90f8 e9be 0e9a 4fbe 4739 27be
00000010: 0188 c5be 0fd7 1abe c32b ef3d 4168 8a3e
00000020: fdb8 073f 7668 573d a91a 1cbf edd4 c8b8
00000030: ce6b 1b3f f07c 2c3f 1cf5 f73e 2d77 873e
00000040: e33b 223f bdee 62be f755 9f3e 3ec1 833d
00000050: 18d7 b1be c2a2 a4bf 069f e13d 7fef 1cbe
00000060: 4f81 84be f579 a2bd ec2e 5ebd d7e6 2f3e
00000070: 0fc6 403e c82d 193e fe35 923e abb7 d83f
00000080: 23e6 573e 35d7 9bbe 4aa8 eebe 8d92 9ebd
00000090: 2362 c43c f4eb 45bf aa78 59be fc64 ca3e
000000a0: 66e1 30bf 0299 823e 3aa1 273f 4921 913e
000000b0: 4786 593e df60 4ebf a282 ac3d 8690 6c3f
000000c0: c0e7 593f fcba acbe 2d44 aa3e d527 4f3d
000000d0: 558c 113e fa8a 9abf 38b4 25be bfa4 99be
000000e0: 110e 81bf 7dd3 203e aea5 2d3f cfbf 373d
000000f0: 7dce a73e 43d8 86be d138 75be 7aa9 513f
00000100: 1c3b 243f d000 85be d16c 693d e4fb 243d
00000110: 6fa6 cdbe b428 c0bf 2052 55bd e336 04be
00000120: a350 c7bf 2016 2f3f eb46 233f 7a2d 71be
00000130: 96a3 be39 6e19 f0be 3c92 5b3e 9691 8ebf
00000140: 577c 5e3f a502 66be 5777 e6be 893d 093e
00000150: 8f61 2c3d 7997 173d e60b fc3a d6a1 233e
00000160: 4b2b 363d 26d4 033d 0ec6 6b3e 6c50 8e3d
00000170: 9640 b7bc 42bb 24be 9df8 cb3e 6e4d 613f
00000180: 6867 f5bf d05f dcbe 6be8 72be eb99 913c
00000190: fc3f f2be 114b 54be b5aa 96bb 1fdc 7a3e
000001a0: 6430 b33f cb78 443f 17fc c1be 6ff1 83be
000001b0: a05a eabd f5af 323f bdef 3dbe 4a34 1c40
000001c0: e1cb 75be 8981 2d3e a346 d8be 2805 863c
000001d0: 5bab 01bf 9093 68be 08d1 05bd 4ded 983d
000001e0: 8115 07bf d67d ed3e 525f 4d3f 9411 9e3e
000001f0: fcca 1a3f 1445 aebd 7e0d ddbd 13f2 a2be
00000200: 2389 6e3f d6ef 84bf c442 f6be 7f03 c43e
00000210: 5f89 b73e 32c0 8c3c 93c3 15bd fa0e 82be
00000220: 4610 8fbe 274d 78be 6b5a 11bf fde7 2b3d
00000230: 7dea 303f b296 45be 71a1 be3c dcba 0bbf
00000240: 5f65 a1be 2a98 73be 1b96 e1bd 997c 953c
00000250: 5ad7 f4be c586 febe a10c e3bd e424 53be
00000260: 5a77 e23e b440 07be 3219 38be 6900 d1be
00000270: 7f60 30bf aad8 b9bc efa9 cebd fd18 b83f
00000280: 137c 86be 1942 983e 729f 94be 99b1 853e
00000290: b610 01be fead 49bf 1935 483d d5f1 1ebe
000002a0: 2a63 3bbf 7721 173f ae7d f53d 1f66 cab9
000002b0: 6bc1 b2be 8038 d0bd 2329 92be 1bb7 31bf
000002c0: a8df b3bf c8f3 293c cf09 503e 3fb3 0ebd
000002d0: 806f 03bf 3ef3 97bf 2c96 923c bf19 5b3e
000002e0: a853 b83f 3ea2 9b3f dd29 9c3d 3e74 0fbe
000002f0: 10da 373d becf c4bd dba8 76bf fc6e ea3e
00000300: 5199 61bf 1532 47bd 76e7 8c3e 28b1 743e
00000310: 2a39 9c3e 2cd5 f93e d507 61be 2ceb c2bc
00000320: c6cb 053f 3aa0 50bf 0d76 fdbe cf7b 343d
00000330: c7e8 88be 8129 8cbe 6ffa 0bbf 50ac 5240
00000340: 2943 0740 5e6b fb3d fdc6 ad3e 7b44 cabd
00000350: 93c6 84be 45a5 f4be 7349 36be 06bc b3bc
00000360: 9856 f9bf c1f7 56bf a5ec adbf 54a0 51bc
00000370: 8239 a8bd b128 1d3f 7875 173f ed1a 5ec0
00000380: 7f13 15bf d713 f1bc 7e02 d4bd 9c22 1e3e
00000390: f7b6 a23d 54e2 ec3e 7b97 1bbd b25a ff3d
000003a0: 335a 493f 91c1 d3bf 58d8 f0be b0f4 233e
000003b0: ace5 a33e a82d 50bf 0b27 1abf 75bb c33f
000003c0: 4888 21bf c51a 483e 077c 67be 06c1 3fbd
000003d0: b5a5 253f f255 1f3f e735 60bc 5351 b63e
000003e0: 58b6 403f c53a 37bf 0083 87bf 2f23 b3bc
000003f0: 740b 553d 092c de3f dc3c 7f3f 4f94 473f
-1.3435841 -0.4569745 -0.20273611 -0.16330443 -0.38580325 -0.15121101 0.11678269 0.27032664
0.53016645 0.052589856 -0.6097818 -9.576404e-05 0.6071137 0.6737814 0.4842919 0.2645811
0.6337263 -0.22161384 0.31120273 0.064333424 -0.34734416 -1.286217 0.110166594 -0.15325736
-0.25879905 -0.07933418 -0.054243967 0.17177902 0.18825553 0.1495887 0.28556818 1.6931051
0.21083884 -0.30437627 -0.4661277 -0.07742796 0.023972576 -0.7731316 -0.21237436 0.3953017
-0.6909393 0.2550736 0.6548039 0.28345707 0.21242629 -0.80616564 0.08423354 0.92408025
0.8511925 -0.33736408 0.3325514 0.050575096 0.14213689 -1.2073662 -0.16182029 -0.30008504
-1.0082418 0.15705676 0.6783093 0.044860657 0.32774726 -0.2633687 -0.23947455 0.81899226
0.64152694 -0.25977182 0.05698854 0.040279284 -0.4016604 -1.5012422 -0.052080274 -0.12911563
-1.5571483 0.68393135 0.6378009 -0.23552504 0.00036361505 -0.468944 0.21442503 -1.1138179
0.8690848 -0.22461946 -0.45012924 0.1340238 0.042085227 0.03700969 0.001922962 0.15979704
0.04447488 0.032184742 0.2302477 0.06948933 -0.022369664 -0.16087058 0.39838114 0.88008773
-1.9172182 -0.4304185 -0.23721473 0.01777359 -0.4731444 -0.2073176 -0.0045979866 0.24498032
1.3999143 0.76746815 -0.37887642 -0.25770137 -0.114430666 0.6979974 -0.18548484 2.4406915
-0.24003555 0.16943945 -0.42241392 0.01635988 -0.5065209 -0.2271254 -0.03267005 0.074671365
-0.5276719 0.46385068 0.8022357 0.30872786 0.6046598 -0.08509269 -0.10793589 -0.31825313
0.93178004 -1.0385692 -0.48097813 0.38283917 0.35846993 0.01718149 -0.036563467 -0.2540205
-0.27942103 -0.24248181 -0.5677859 0.04196929 0.691078 -0.19295767 0.02327034 -0.54582
-0.31522653 -0.23788515 -0.110149585 0.01824789 -0.4782055 -0.49712196 -0.11086393 -0.20619541
0.44231683 -0.13208276 -0.17978361 -0.40820625 -0.6889724 -0.022686321 -0.10091006 1.4382626
-0.26266536 0.29737929 -0.29027897 0.2611206 -0.12604031 -0.78781116 0.048878763 -0.15521939
-0.7319819 0.5903544 0.11986862 -0.00038604529 -0.3491319 -0.101670265 -0.2854701 -0.6942002
-1.405263 0.010373063 0.20316242 -0.03483891 -0.5134201 -1.1871107 0.017893873 0.2139654
1.440053 1.2158887 0.07625172 -0.14009187 0.044885695 -0.09609936 -0.96351403 0.457878
-0.8812457 -0.048631746 0.2752034 0.23895705 0.30512363 0.4879545 -0.21975644 -0.02379378
0.5226406 -0.81494486 -0.49504128 0.044063386 -0.26740095 -0.27375415 -0.54679006 3.2917671
2.1134741 0.12276338 0.3394088 -0.09876343 -0.2593275 -0.4778234 -0.17801456 -0.021940242
-1.9479551 -0.8397179 -1.3587843 -0.012794573 -0.08214094 0.61390215 0.5916362 -3.4703934
-0.58232874 -0.029428406 -0.10352038 0.1544289 0.07945054 0.46266425 -0.03798626 0.12468471
0.7865326 -1.6543447 -0.47040057 0.1601131 0.32011163 -0.81319666 -0.60215825 1.5291582
-0.63098574 0.19541462 -0.22605906 -0.04681494 0.64705974 0.6224052 -0.013684726 0.3560892
0.75278234 -0.7157405 -1.0586853 -0.021867363 0.052012876 1.7357188 0.9970224 0.77960676

encoder.0.bias f4 [16]
00000000: 18e7 8fbf 6504 acbf dba2 d9be 9ee4 4bbf
00000010: 4ab6 1abf 11db 5cbf 6881 a7be 225a a1bf
00000020: cde0 babf c1aa 79bf 304e bfbf 13c6 55bf
00000030: a5b1 1bc0 a966 0cbf 0d5a 04c0 4ec3 84bf
-1.1242399 -1.3438841 -0.4250706 -0.7964572 -0.604344 -0.8627177 -0.32715917 -1.2605631
-1.4599854 -0.97526175 -1.4945736 -0.8350536 -2.4327176 -0.54844147 -2.0679963 -1.0372102

encoder.2.weight f4 [16, 16]
00000000: bf0d 39bf bb33 5bbe d2db 423e c474 52be
00000010: 61e5 b23e 4cf8 58bf dcca b13d a010 443e
00000020: df46 80be 0b07 5e3e c529 0d3f 96e7 07bf
00000030: 43aa abbe ba6b a1bf 1afd c8be 9734 0dbf
00000040: 2a2a 7fbf fc13 043e 97d4 b43d 60d9 433e
00000050: 2e9c 003e 87e2 15be c5d0 8fbf b4de b8be
00000060: f789 6abe 6a65 80be a052 ce3e 0470 82bf
00000070: e073 57bd ced4 cdbf a635 8bbf 5b43 b33d
00000080: 73fd 14bf e312 0f3f 95b8 a6bf 7ad7 dc3d
00000090: b42c 3abf 703f 29bf 71fb 8ebf e917 0ebe
000000a0: 81a4 dbbc 720f ccbf d07d cfbd a409 a5bf
000000b0: 15f9 cc3d 1ef0 123f fdb3 57be ba10 76bf
000000c0: 2c81 0f3f 47d2 ebbe 4a8b a3bf 2308 2fbf
000000d0: 5c1f 8f3d 1992 07bf 4e0e 023c 062f 1dbf
000000e0: f904 803f 987c 49bf fba1 30bf 44fb 4abe
000000f0: 519e febe 5af8 68bf 2eab 39bf 4f73 92be
00000100: c067 a2bf 6a30 bcbe 5b1e 16be 52ad 93be
00000110: 3177 85be 7081 fbbd 2cd6 50be 074a 2dbf
00000120: e88b ed3e d454 afbd 3b4d cfbe b86b 1d3f
00000130: f477 04bf ee05 abbe b17f e2be dece 3d3e
00000140: 869b e8bd e071 73be 378b 40be e060 0dbf
00000150: db16 8dbe 9a97 7ebd 6c89 2cbf 1856 c13c
00000160: 9b38 81be 43e4 e5bd 12f8 3dbe 5921 4e3e
00000170: 29e3 ddbe dce7 92be d932 77be 5579 cbbd
00000180: 010f 1d3f d7c0 4bbf b75e 2dbf 4a65 303c
00000190: 4ea3 00bf 70b3 57bf cc40 073f f98b ee3d
000001a0: af04 1fbf 64aa b53d 5677 d43e 810f adbf
000001b0: 6f44 d2bf f197 99bf a25a a1be 0e00 9bbe
000001c0: 8164 b7be 37f0 8fbe d652 17be 0a6b 24be
000001d0: 0020 5cbe 2649 103f 3b4a f23e 3b78 06bf
000001e0: 32cd 7e3d 0bd6 8abe 7553 bbbe e98f 41be
000001f0: bddc 13be b281 90be c665 73bf ad63 84be
00000200: 0019 9f3e e6be 42bf 6518 42bd a357 18bf
00000210: 7f43 6fbf 93f0 09c0 b257 ce3e 7862 5bbf
00000220: 8908 1cbf cdcd e43e 20f4 ea3c 14b8 2bbe
00000230: 9340 843e 2774 55bf 5b44 4e3f 34b6 dc3e
00000240: 7125 7e3e 0204 f1be c263 fcbd 85da a8bd
00000250: 2461 86be b8a2 32bf 8708 353d bd0a 0fbf
00000260: b827 913c 47bf e2be 5187 04bf c417 26bf
00000270: 6d08 90bc d6d9 6ebf 48a8 c8be 0bae 81be
00000280: 2ff8 cabc ef80 c63e cf20 6c3d ada1 663e
00000290: 53a0 c83e 379d bc3d d6ca 633d 5319 943e
000002a0: b5e9 fcbe 4f7e 0d3e c27e a1be ef77 50be
000002b0: 20d6 1ebf fced b7be ef52 f1be 483a dbbf
000002c0: 020a d73d 1249 f4bd 7abd dcbe 7339 09bf
000002d0: 3739 69be ae2f 11bd 2c1b 41bf 6f2b 27bf
000002e0: 43ae 413f 94c7 debe e4c3 05be aa0c 2b3f
000002f0: 9941 0abf 35d5 c1be 24bb 2cbf 863f 78be
00000300: 8775 e6be 92a3 22bf f2c5 2dbe ec04 0fbf
00000310: b281 40bf c575 283f dbb2 263e 2cfd 80bf
00000320: c56a 3dbe 579c 79bf a857 b8be ce41 8dbe
00000330: 93ca 1a3d 1c80 98be b8e0 cebf 13ae bbbd
00000340: 68b2 85be 9a4f 37be f6f5 9f3d 3309 23bf
00000350: 90db d9be 9b66 913e 5508 7bbf 55e4 c6be
00000360: 1db6 833c 12bf bcbe a27e 4abe 575b 37bf
00000370: e318 c23d f989 a3be f83f 76bf 6164 b6be
00000380: 7b9f 893d 4515 26bf 5507 35bf 498a f7be
00000390: d08a 0a3e 4bea 36be be64 b5bd 191b a5be
000003a0: 1da9 e2be c65a 0d3d a91c 05bf a89a 70be
000003b0: f7e7 a3be 85ba 0cbf d485 14bd a13e f6be
000003c0: 0d67 18bd 0236 243f 51ae a73d 2484 d83d
000003d0: 7f1d 363e f20a f2be ceda a2be 9035 0e3e
000003e0: 9cb5 35be e849 373e f598 c23d bbaf 54bf
000003f0: 28a3 53bf 665e e6be 2266 b33d bf7a bebe
-0.722866 -0.21406452 0.19029167 -0.20552355 0.34940627 -0.8475387 0.086812705 0.19146967
-0.2505407 0.21682374 0.5514186 -0.5308775 -0.33528337 -1.2611 -0.392556 -0.5515837
-0.9967371 0.12898248 0.08829611 0.1912589 0.12559578 -0.14637195 -1.1235586 -0.3610741
-0.22904192 -0.25077373 0.40297413 -1.0190434 -0.05260074 -1.6080568 -1.0875747 0.087530814
-0.5819923 0.55888194 -1.302508 0.107832864 -0.7272446 -0.6611242 -1.1170484 -0.13876309
-0.02681184 -1.5942214 -0.10131419 -1.2893567 0.10008446 0.5739764 -0.21064754 -0.9611927
0.56056476 -0.46058866 -1.2776883 -0.6837179 0.06988403 -0.529573 0.007937981 -0.6139988
1.0001518 -0.7870574 -0.6899716 -0.19822413 -0.4973016 -0.91003954 -0.72526824 -0.28603598
-1.2687912 -0.36755687 -0.14660017 -0.2884317 -0.26067498 -0.122805476 -0.203942 -0.6769108
0.46395802 -0.085611016 -0.4048861 0.6149249 -0.51745534 -0.33402961 -0.44238046 0.18535945
-0.11357789 -0.23773909 -0.18803106 -0.55225945 -0.275565 -0.062156297 -0.6739719 0.023600623
-0.252385 -0.11225178 -0.18551663 0.20129909 -0.43337372 -0.2869252 -0.2414049 -0.099352516
0.6135102 -0.79591125 -0.6772265 0.010766337 -0.50249183 -0.84258175 0.5283325 0.116477914
-0.6211652 0.0887039 0.41497296 -1.3520356 -1.6427134 -1.1999494 -0.3151446 -0.3027348
-0.35818866 -0.28112957 -0.14777693 -0.16056457 -0.21496582 0.56361616 0.47322258 -0.5252721
0.06220741 -0.27116427 -0.3658711 -0.18902554 -0.14439674 -0.2822395 -0.9507717 -0.25857297
0.3107376 -0.7607254 -0.047386546 -0.59508723 -0.93462366 -2.1553085 0.4030128 -0.85697126
-0.60950524 0.44688264 0.028680861 -0.16769439 0.25830516 -0.8338036 0.8057305 0.4310776
0.2481897 -0.4707337 -0.12323715 -0.08244804 -0.26245987 -0.6977954 0.044197585 -0.5587576
0.017719135 -0.44286558 -0.51768976 -0.64880013 -0.017582143 -0.9330114 -0.39190888 -0.25328097
-0.024776546 0.38770244 0.057648476 0.22522612 0.39184818 0.09209674 0.05561336 0.2892557
-0.49397054 0.13817714 -0.3154202 -0.20358251 -0.6204548 -0.35923755 -0.47133586 -1.7127161
0.10499956 -0.119279996 -0.4311331 -0.53603286 -0.22775732 -0.03544586 -0.75432086 -0.6530065
0.7565653 -0.4351164 -0.13063008 0.668162 -0.54006344 -0.37857977 -0.67473054 -0.24242982
-0.4501154 -0.6353084 -0.16970041 -0.55866885 -0.751979 0.658047 0.16279165 -1.0077262
-0.1849776 -0.9750418 -0.36004376 -0.27589267 0.037790846 -0.2978524 -1.6162329 -0.091640614
-0.26112676 -0.1790146 0.07810585 -0.6368591 -0.42550325 0.28398594 -0.9805959 -0.3884608
0.01607805 -0.36864525 -0.19774869 -0.7162375 0.09477403 -0.31941202 -0.9619136 -0.35623458
0.067198716 -0.64876205 -0.7071431 -0.4834769 0.13529515 -0.17862813 -0.08857106 -0.32247236
-0.44269648 0.034510396 -0.51996857 -0.23496497 -0.32012913 -0.54972106 -0.03626044 -0.48094657
-0.037207652 0.6414491 0.08187545 0.10572079 0.1778469 -0.47273976 -0.3180756 0.1388762
-0.1774506 0.17899287 0.095018305 -0.83080643 -0.8267083 -0.44993895 0.08759715 -0.37203023

encoder.2.bias f4 [16]
00000000: 3fa3 1b3e b42f 133f 2515 0cbf d908 7b3d
00000010: dc09 52bf 3b36 e7be 56ca 45bf 3027 49be
00000020: b3e3 55bf 62c1 93be 1156 833f f644 de3d
00000030: 66f8 8dbe ee9e 6c3d 510a 1cbe a39b ec3d
0.15198992 0.57494664 -0.54719764 0.061287735 -0.82046294 -0.45158562 -0.77261865 -0.19643855
-0.83550566 -0.28858477 1.026064 0.10852997 -0.27728575 0.057768755 -0.1523831 0.11553123

encoder.4.weight f4 [32, 16]
00000000: d61e 1b3e bb48 3dbe 579a 983e 663b 4fbd
00000010: 1687 ffbe 6d64 b4bd 6302 0fbe b122 d13e
00000020: e080 2c3f a8be 733e d7d7 6cbc 55f5 20be
00000030: 2313 0a3f 9494 bc3e f7d0 573e c7f6 783e
00000040: 3002 1c3e 4ae7 3b3f cfb4 4fbe 31c7 bd3e
00000050: a80e ff3e b6f9 313e 1ddc 123f 08c1 a7bd
00000060: 8c80 03bf dcb8 053e 9368 513f 28a1 e43e
00000070: b486 9fbe 3653 e63e 1f48 bf3e 9395 073e
00000080: d661 f33e 2fcb 7c3e 5d04 993e eddc 273d
00000090: 2e94 123e c322 dd3d 8060 1dbe 5ab7 f2be
000000a0: 943a 143d ba88 b23e cb8c f6bd e5ea 9fbe
000000b0: f080 2cbf 2ee9 32bf 110c 823d 38ba 663f
000000c0: 236c 143d 5471 65bd 5bba eabe 7dbc 8fba
000000d0: ba23 4e3e 66e7 8cbe a2b9 393e b95d 0abf
000000e0: 6866 74be 7207 3f3e 9c59 38be 3a92 c4bc
000000f0: 3d95 bc3d 6fcc 2bbf bd95 063d 04ca f63d
00000100: f599 1abd dcb6 9e3e 015c 0d3f 2257 953e
00000110: 6ff3 e2bd f8f5 7abe e0c7 97be 9133 a9bb
00000120: 303e 6a3e 8020 7c3d 2cea 3d3c 7518 a23e
00000130: a600 4e3e 39a7 193f cd07 2fbe e3e9 ffbd
00000140: 3e56 ec3e 3e19 423d 9e26 193f 9521 dc3b
00000150: b4e3 db3d e4e1 b13d 5120 91be 5189 a23e
00000160: d3d8 973e 0dc4 83be fc8c b63d 2f71 983e
00000170: ef26 c7be 63e3 5d3e d53f b2bb 1e20 82bd
00000180: 3103 553e 543e 2abe dedf 6dbf 52d9 e5bd
00000190: 5d8e 803e 07ed b3be ffe2 013e 52f7 c8be
000001a0: def2 35be ce5c 013e 55f1 d5bd 7223 4cbe
000001b0: 76e0 86be c547 f5be ef87 cb3e 30ff dcbd
000001c0: c659 003e dc9b ebbb 652e 05be 65c8 113e
000001d0: b8f3 25be 1bf3 9dbe 870d aa3d 145d 97bd
000001e0: 83de ef3d 37d8 40bd 89d6 dfbd 4251 933e
000001f0: 6547 553e 5899 743c 536f b6bc 950e 76be
00000200: 8e80 78bc 6dcd ec3e 1141 edbe ce85 d23c
00000210: 7412 3c3e 34e7 babe f2f9 dd3e 2999 113e
00000220: b54f 55be 3740 a63e a81e 4a3f bf97 8cbd
00000230: 07a1 d1be 3d5b bc3e 7a75 0ebe c353 8fbe
00000240: e06d 24bd df94 edbb f821 b5be b9a4 cbbc
00000250: 720a a63d 5ffb 283d e485 ae3d 435f c9be
00000260: 3e59 07be 98db 97be 881e 29bd 6f94 91be
00000270: 32dd 943e 301f 943d 5f72 a2be 09f8 963d
00000280: 8f6f a9be 2867 8d3e 6258 cdbe d4ea 01be
00000290: 4849 183f c73d 303d 5645 91bd 6a17 afbe
000002a0: 5ee2 7dbe 27f6 b3be 12a4 203e 7d4b f7bd
000002b0: afaa b3be 588c 25be 89fb 833d d8c9 b93c
000002c0: 908a 0dbf 46ff 8dbd 5d1f 03bf 8914 89bc
000002d0: 43ce f2be e46c 7d3e 07dd 63be 2923 bd3e
000002e0: 4708 e23d 9b02 723e 2658 063d 6ad1 9b3d
000002f0: f9c3 503f 175c 983e 2600 cb3e fd78 c6be
00000300: fc53 ee3d de3e b63c 41d5 823e f72e 223e
00000310: 1b6a 4dbd 3323 78be c1cc 723e cf79 9d3b
00000320: 23af 1fbe c598 903b a424 f1bd 9dc2 77bd
00000330: cbd2 38be c614 273d 643e ffbd 7b31 e83d
00000340: 3fdf 6f3e 37ee 23bd 8df5 12bf 4cbe b3be
00000350: 75d3 ae3e b66f 863e 98f2 f43d 5cc4 4bbe
00000360: 63a1 f5be aee6 5f3e 1eab 82be 54a2 0cbc
00000370: 6156 6abd 3f52 de3b 6631 923d 96aa 3abd
00000380: 0c3c 49bd f92f 93bd 0133 443e 6d49 253f
00000390: b7b0 01bf 5ad7 1dbe 316b 0cbe e413 a43e
000003a0: 7c10 5d3d 8ca8 77be 4905 bdbd f961 003f
000003b0: 093a c73d ef4c 5f3e cb95 043e afe1 4a3d
000003c0: 2042 163f b5ac 753c e009 173f 5d52 ea3e
000003d0: 08d7 3cbd edeb 50be 07a4 b9be d1fd 3e3e
000003e0: 001c 91bd 0703 74bc 59b6 18bd 70ed 49be
000003f0: 55f5 983e eada 2b3d 9b51 8b3e 602d 133f
0.15148482 -0.18484776 0.29805252 -0.050593756 -0.4990775 -0.08808217 -0.13965754 0.4084678
0.6738415 0.23803198 -0.014455757 -0.15718587 0.5393545 0.36832106 0.21075808 0.24312888
0.1523521 0.73399794 -0.20283817 0.37066033 0.4981587 0.17380413 0.57367116 -0.08191115
-0.5136802 0.130588 0.8180019 0.44654202 -0.31157458 0.4498536 0.37359712 0.13240652
0.4753558 0.24686883 0.2988614 0.040982176 0.14314339 0.10797646 -0.15368843 -0.4740551
0.036188677 0.3486994 -0.12038573 -0.31233898 -0.67384243 -0.69887054 0.06349958 0.901279
0.03623594 -0.05601628 -0.45845303 -0.0010966208 0.20130816 -0.27520293 0.1813722 -0.5404926
-0.2386719 0.18655184 -0.18002933 -0.023995508 0.092081524 -0.67108816 0.032857645 0.1205025
-0.03774448 0.30998886 0.5521851 0.2916804 -0.110815875 -0.24507892 -0.2964468 -0.005163618
0.22875285 0.061554432 0.011591475 0.31659284 0.20117435 0.60020787 -0.1709282 -0.12495782
0.46159548 0.047387354 0.5982455 0.0067178705 0.1073679 0.08685663 -0.28344968 0.3174539
0.2965761 -0.25735512 0.089136094 0.29773852 -0.3889689 0.21668772 -0.0054397383 -0.06353782
0.20801999 -0.16625339 -0.9291972 -0.11223091 0.25108615 -0.35141775 0.12684248 -0.3925119
-0.17768428 0.12633058 -0.10446421 -0.19935396 -0.26343125 -0.47906318 0.39752147 -0.10790861
0.12534246 -0.0071902107 -0.1300598 0.142366 -0.16206253 -0.30849537 0.083033614 -0.073908
0.117123626 -0.0470812 -0.10929591 0.28772932 0.20828016 0.014929138 -0.02226988 -0.24029
-0.015167369 0.46250477 -0.46338704 0.025698569 0.18366414 -0.3650452 0.43354756 0.14218582
-0.20831187 0.32470867 0.7895303 -0.06864881 -0.40943167 0.3678836 -0.13912001 -0.27993593
-0.040143847 -0.007250413 -0.3537748 -0.02485882 0.08107461 0.04125535 0.08521631 -0.3933049
-0.13217637 -0.29659724 -0.041288882 -0.28433558 0.2907501 0.07232511 -0.31727883 0.07371528
-0.33092925 0.27617764 -0.40106493 -0.12687236 0.5948682 0.043027665 -0.07093303 -0.3419755
-0.24793383 -0.35148737 0.15687588 -0.12074945 -0.3509116 -0.16166818 0.06444461 0.022679254
-0.55289555 -0.06933455 -0.5121973 -0.016733425 -0.4742299 0.2474857 -0.22252284 0.36940888
0.11036735 0.23633806 0.03279891 0.07608302 0.8154903 0.2975776 0.3964855 -0.38764182
0.116371125 0.022246774 0.25553325 0.15838228 -0.05015002 -0.24232177 0.2371092 0.0048057805
-0.15594153 0.004412743 -0.11774567 -0.060488332 -0.18049161 0.040791295 -0.12463072 0.11337563
0.23425005 -0.0400221 -0.5740593 -0.35106122 0.34145704 0.26257104 0.119603336 -0.19899124
-0.4797469 0.21865341 -0.25521177 -0.008583624 -0.057211284 0.006784707 0.07138328 -0.04557284
-0.04912953 -0.071868844 0.19160081 0.64565164 -0.5066027 -0.15414181 -0.13712765 0.32046425
0.0539708 -0.2418539 -0.09229524 0.50149494 0.09727866 0.21806692 0.12947766 0.049531635
0.5869465 0.01499479 0.58999443 0.45765963 -0.046103507 -0.20402499 -0.36257955 0.18651511
-0.07085419 -0.0148933 -0.037283275 -0.19719481 0.29874673 0.04195682 0.27210698 0.5749111

encoder.4.bias f4 [32]
00000000: 2976 d0be e25b 9a3f 28da b9bc 568d 273e
00000010: 8300 0ebe feab 09be 7c89 11bb 7d36 69bd
00000020: 4742 603f 261d 543d fadd f93e dc6f 3ebd
00000030: df0a 803c a60f 6f3e 5846 acbb e6ef dc3d
00000040: d87b 223c 804e 14be 1b6c 313e e475 93bc
00000050: 297a 4d3f 1f7a 843d 9644 a7bd 9a34 a4bd
00000060: 1373 31be cf2a 2cbf 9f5c 10be 46ec 623f
00000070: 6f14 4bbe 4f0a 6a3e eb61 23bf 2592 82bf
-0.4071515 1.205929 -0.022687033 0.16362509 -0.13867383 -0.13444516 -0.0022207191 -0.05693673
0.8760113 0.05178561 0.48802167 -0.046493396 0.015630184 0.23345813 -0.005257409 0.107879445
0.009917222 -0.1448307 0.17326395 -0.01800055 0.80264527 0.06468605 -0.081673786 -0.080178455
-0.17329054 -0.6725282 -0.14097832 0.88641775 -0.19832014 0.22855495 -0.63821286 -1.020085

residual.0.weight f4 [16, 32]
00000000: 6f1a 03be 7c25 12be ea23 fcbd 1638 823d
00000010: 485f fcbe 30d3 93be 3be6 96be 94a3 363d
00000020: dd60 e43c d300 b7bd e660 383e dd0d fbbe
00000030: 48f6 513e a1bb f93e 4503 e33d 1f2a 1bbd
00000040: 40cc 5bbe e62f 34be 42dc e73e 965c a83e
00000050: 8f82 433e 8f1d 23be 5578 bebd beda 833e
00000060: c952 c4be c57b 65bd f853 b3be 2331 cebe
00000070: 8cec 34be a732 ac3e 9441 c73e 80bb 173f
00000080: 6cd3 a43d bf01 6b3c fbeb acbe 1437 7c3f
00000090: 0f1b 4dbf 9246 b83e 0afd 3c3e 1322 87bd
000000a0: d561 8ebe 109f 02bf cbd0 873e 5e21 4ebe
000000b0: cc55 a23d 8aac cfbd 7a10 693c 2400 91be
000000c0: b679 c1be 7f5f 5ebe e780 d5be 9de4 243f
000000d0: d11c bbbe c2de b5bd 9e2e 24be d976 09bf
000000e0: 79b1 7e3e 913f 833e 98d5 e53e 4de1 04bd
000000f0: f07e 4ebe 73cf a1be 5694 bbbe aedb 123d
00000100: 121f 5abe 1cae 80be b4b0 88bf ddd7 30bf
00000110: 0c55 01be 0c4f e1bd 40e9 40be 0821 b7bd
00000120: 7661 6c3e cb17 ba3d 00fc f93d 0c3d 013f
00000130: 737d 9ebe d1ee b13c 680e a03c 38ce 4ebe
00000140: 976f 013f 5b29 823b 4916 493f 16ae 853f
00000150: 99a4 0fbe b68c b8bf 6d2b 0fbf dcd5 a7be
00000160: 4f8f 453e aa79 573d 730e a13e df19 cf3c
00000170: ace0 7f3e edab f53e f0d1 2e3e 0b1a a93d
00000180: 68c7 08bc 8a6c 733e 8419 63be aa6f 2ebe
00000190: e0e7 75be 6537 38bd e344 1c3d 6546 4b3e
000001a0: 32cc 253e 1b87 233d a318 bc3d 84dd 2d3e
000001b0: 05b6 693e 7ccc c53c 39e9 fcbd 2b7c 1fbe
000001c0: 4780 32be 64e5 b0be bb77 d13e 74a8 b0be
000001d0: b3e6 6fbe d329 0fbe 583e 033e 8fa6 833e
000001e0: 885e 163c cb39 e03e a10c 7ebe b643 d0be
000001f0: bc3f a13c be6a 773b f3ca ee3d e1e5 143e
00000200: 9682 1cbe b5f1 d8be 83c4 6abe 19af 47bc
00000210: b684 403e 8224 53be 2413 d8bd 84f7 c33e
00000220: cdb1 843e 0ff6 aa3b b12f d23c 23a0 9e39
00000230: ff47 653e b2e5 eebc 9d27 7fbc abf5 89be
00000240: 3461 7bbc 3cf6 23be 089a a6be 7665 6abd
00000250: d290 3bbe 0085 003e b538 37be 03a7 803c
00000260: 879a 98be 1efb 923e 9ed7 93be f24f c5be
00000270: e586 bdbd b0be 80be 54ae a1bd acca 2a3d
00000280: 6979 08bf 0192 34be 2489 57be 88d5 b83e
00000290: ce7b 55bd 4e18 04bd b7f0 b93e da57 7f3d
000002a0: 7aac 8f3e 8cba e83e 6938 f4bd 9b91 d73e
000002b0: 13eb 2c3e 31d7 a73d 998c 4e3e fd1a b5bd
000002c0: 35c0 87be e679 d3bc a646 95be a079 c43e
000002d0: d899 e43d e3a3 22be dc72 0dbf 9ca7 e63e
000002e0: 96c6 20bf 14a9 07be 321d c4be e703 26bf
000002f0: cdb0 24be d91b 073f 7cdb 5e3e 207a ec3e
00000300: 5107 bfbe a781 f8be a9b8 b3bd cc83 923d
00000310: f0bb 92be 9aa9 3dbe b9db 123e 7779 b6be
00000320: 1b48 77be 58c0 5f3e 9c9b 4bbe 7cff dcbd
00000330: ff03 bdbd e562 8d3d 94bf f8be 40e3 67be
00000340: a49c cc3d c472 763e 9dd6 613e 33dd 6e3e
00000350: 5d95 0ebf 533b d6bd 90ee c9bd b2f3 1cbe
00000360: 7904 c03e 5407 6cbd 6a87 edbd 65c2 a4be
00000370: 121e 80bd fd7e 34be 33cf 91bd cd82 00bd
00000380: 0c18 13be da72 9b3e f5e9 a3bf 8a9d 71bf
00000390: f24f 4a3f 29fc b53e d831 a7be 4717 f83e
000003a0: fbd4 da3e c135 a7be b049 813d d0b7 383f
000003b0: e073 11be 53c2 bebd d95d 693d e0e0 ffbe
000003c0: 085e 0d3e bcf9 08bf a1b6 0f3f 5d0d b53f
000003d0: e32e c73d 61d8 b2bf db93 b1be 958b d1be
000003e0: 1665 363f 04be b43d c473 86bd 40dc f53d
000003f0: b867 bb3e 47a2 833e fdd0 9a3e 947b a1be
-0.12803052 -0.14272112 -0.123115376 0.06358354 -0.49291444 -0.2887206 -0.29472527 0.044589594
0.02787822 -0.08935704 0.18005714 -0.49034014 0.20504105 0.48775962 0.11084608 -0.037881967
-0.21464634 -0.17596397 0.4528523 0.32883137 0.19092773 -0.15929244 -0.09300295 0.25752825
-0.3834441 -0.05602624 -0.35025 -0.40271863 -0.1766836 0.33632395 0.3891722 0.5927048
0.08048138 0.014343678 -0.3377379 0.9852154 -0.80119413 0.3599134 0.18455902 -0.06598296
-0.27809015 -0.5102396 0.26526484 -0.20129916 0.07926521 -0.10140331 0.01422512 -0.2832042
-0.3778817 -0.21716116 -0.41699907 0.64411336 -0.36545423 -0.08880378 -0.16033408 -0.5369697
0.24872388 0.25634435 0.44889522 -0.032441426 -0.2016561 -0.31603584 -0.3663661 0.035854034
-0.21300915 -0.25132835 -1.0678926 -0.6907938 -0.12630099 -0.11001405 -0.18838978 -0.08941847
0.23084053 0.090865694 0.12206268 0.50483775 -0.30955085 0.021720322 0.01953812 -0.20195854
0.505609 0.003972215 0.7854963 1.0443752 -0.14027633 -1.4417942 -0.5592564 -0.3278035
0.19292949 0.052606262 0.31456336 0.025280891 0.2498805 0.4798273 0.17072272 0.082569204
-0.008348323 0.23771873 -0.22177702 -0.17034784 -0.24014235 -0.044974703 0.038151633 0.19851072
0.16191176 0.03992377 0.091843866 0.16979033 0.22823341 0.024145357 -0.12349171 -0.1557471
-0.17431746 -0.3455001 0.4091166 -0.3450352 -0.23427849 -0.13980798 0.12816751 0.25713012
0.009177811 0.43794093 -0.24809505 -0.4067666 0.019683711 0.0037752832 0.11659803 0.14540817
-0.1528419 -0.42371908 -0.22926526 -0.012187743 0.18800625 -0.20619395 -0.10550526 0.38274777
0.259169 0.0052173208 0.025657507 0.0003025542 0.22390746 -0.029162262 -0.015573409 -0.26945242
-0.015342999 -0.160119 -0.32539392 -0.057225667 -0.18316963 0.12550735 -0.17892726 0.015704637
-0.29805395 0.28707212 -0.2887544 -0.38537556 -0.09254245 -0.25145483 -0.078945786 0.04169719
-0.5331026 -0.17633821 -0.21048409 0.3610041 -0.052120022 -0.03224974 0.36316463 0.06233964
0.28061277 0.45454824 -0.11924822 0.42103276 0.16886549 0.081953414 0.20170821 -0.08843038
-0.2651383 -0.025814962 -0.29155463 0.38374043 0.11162156 -0.1588283 -0.55253386 0.4504975
-0.6280302 -0.13248092 -0.38303524 -0.64849705 -0.16083069 0.5277687 0.21763414 0.46186924
-0.3731027 -0.48536417 -0.087754555 0.071540445 -0.2865901 -0.18521729 0.1434163 -0.35639545
-0.241486 0.21850717 -0.19883579 -0.10790917 -0.09229278 0.06903628 -0.48583663 -0.22645283
0.09990814 0.24067217 0.22054525 0.23326568 -0.5569666 -0.10460534 -0.09859955 -0.15327337
0.37503412 -0.057624176 -0.11598094 -0.3217956 -0.062557355 -0.17626567 -0.07119598 -0.03137474
-0.14364642 0.30361062 -1.2805773 -0.9438101 0.79028237 0.35543945 -0.32655215 0.4845526
0.42740616 -0.32658198 0.06312883 0.72155476 -0.14204359 -0.09314408 0.056974266 -0.49976254
0.13805401 -0.53506064 0.56138045 1.4144703 0.0972574 -1.3972284 -0.34683117 -0.40926805
0.71247995 0.08825305 -0.06565049 0.120049 0.3660257 0.25709745 0.3023757 -0.31539595

residual.0.bias f4 [16]
00000000: 38c8 94be a376 e1bd 54d7 48be 1248 b3bd
00000010: 385f d8bd ce6d a3be 7725 28be c44d 9abe
00000020: 5aa9 a0be 6d11 f3bd 029c d4bd 70f8 453e
00000030: 0414 bbbe cf37 8cbe 5d42 2ebe 3a6f 3fbe
-0.29059005 -0.11008956 -0.19613391 -0.08753981 -0.105650365 -0.31919712 -0.16420542 -0.30137455
-0.31379205 -0.11868558 -0.10381319 0.19333053 -0.36538708 -0.2738633 -0.17017503 -0.18694773

residual.2.weight f4 [16, 16]
00000000: afc3 02be 0589 dcbe 116f 9ebe 9e94 c7be
00000010: ae76 7ebe 0b6d 46bd 33c7 0c3e 28ee 3fbf
00000020: 080f 69bd aa20 963e 07f9 51be 3766 b8be
00000030: 2863 a43e d73c 983e a788 d33e a727 88be
00000040: 39da 8e3e 87d1 7bbe efbf 20bc 4fa1 973e
00000050: 8d13 753e ea86 063f ddc5 50be ed29 e9be
00000060: a81e aebd 680d 973d ab73 e1be be86 42be
00000070: 5553 e9bd 1ac4 98be 874e c93e 74cb 743e
00000080: 5c86 bb3d 075d d7be 0a58 e8be 7917 88be
00000090: 7acd 783e 9656 c83e 45d0 f3be 5306 0a3d
000000a0: cd0e 41bf b458 4b3d d6de b83e b70a 31be
000000b0: 37f9 33be 2d0d b13e fa2a e5be dfad 733b
000000c0: c618 943e c2b0 2c3e c677 18be 7fbc abbe
000000d0: 8a85 493e 6b43 773d c0c2 2a3e e854 013f
000000e0: 128a eb3e e42a 0b3e ecb7 f0bc 681c 11bf
000000f0: 62d2 43bd 6f86 b13e e941 433d 6faf 4a3e
00000100: 15c6 25be d5d2 a7bd b916 383e 642d 503e
00000110: 9afa 973e e281 b9bd faa0 27bf a3cb 03be
00000120: 8938 57be 26a6 153c d454 bcbe 0ae0 683e
00000130: 25fe 9ebe 9f28 42be 3f3f 05be d7b8 91be
00000140: 6e62 b8be 636e 143e 1c4f 9fbe c8a2 90bd
00000150: 803e 4cbd 1422 cfbe b48a c8be f8eb 8fbe
00000160: 9815 9d3d 309c 9bbe ab8d 7a3e 8230 ffbc
00000170: 4c7c a03d 834e 0fbd 7912 1ebd 73f1 28be
00000180: 3edf c1bd 36a0 923f 8e74 b73e f154 29bd
00000190: cf07 c6be ae5f 8f3e 7a1a 0d3f 64c6 573e
000001a0: eef1 c4be dd2e e0be 6f58 2c3e 5c8d cfbc
000001b0: 53f6 c13e e8ed 083e 24ab 253d 75ad e1be
000001c0: b6de b53e 1b42 acbd b00a c73e f21d 99bc
000001d0: 48ed f13d 5da9 b53d 96d1 91be b552 ac3e
000001e0: 58d5 713e 3957 e2be 7ee8 8d3d 5386 adbe
000001f0: 2efb 3f3d 36ff ce3d 07c2 07bf 1132 dc3e
00000200: f732 d73d b89b 183e 9545 62be af01 603e
00000210: c539 033f 6b7b 51be 4cc4 533f 8aee 9fbe
00000220: 0a09 08bf 2b8f cd3b 9d22 4cbe 68b5 6b3e
00000230: 2bba bbbe 5872 0cbe b9e0 003f f2f6 a5be
00000240: d6c8 ac3e c10b e3be dedd 923e 6fcb 353d
00000250: 09fb e9be d4e5 d73e 98b1 66be f16c 21bd
00000260: 981d a03d c879 b3bd 3da8 b2be 4f0a abbe
00000270: 6172 8bbc cef5 143e 8511 99bd 7ec9 87be
00000280: 1941 7ebd a874 99be 32cb 493c 9b89 a53e
00000290: 80f4 bcbd 72ed 823e 834e 483e 3dc5 eebd
000002a0: 9b48 91bd d31b 34be be76 fdbe f174 613e
000002b0: 57ce 103e 1032 463e 4814 ba3d c282 693e
000002c0: 0d64 68be 8169 dabe 114f 42bd 7663 9ebe
000002d0: e7bb a63d 96c2 23be 1ec7 d2bd 1609 d0be
000002e0: 7967 c33d c4e1 c8be 5424 9fbe 335d adbd
000002f0: 1b63 863e 6be9 163f 049e efbd fcde c2be
00000300: 077d c63e 9b67 dbbe 2ef0 be3d 4e1d 973e
00000310: 8843 bcbe fc4a e7bd 108e b6be be35 e2be
00000320: ff25 ddbe d138 81be 3dad fabd 3643 3a3e
00000330: 6c36 7abe 3507 a63e fd06 143f 3d06 9dbc
00000340: 160a acbe 835e 4f3f adee 993e b6ab 22be
00000350: c183 a6be 5b35 5f3e ade4 1b3f e606 05bd
00000360: f0d6 08be 1784 9abe 1288 d7be ce22 17bf
00000370: e021 bd3e 8569 bdbc 1ad8 8a3e 0cc0 62be
00000380: f8a2 ba3c e1bf 223e 34c9 8d3e 3fcb 37be
00000390: d929 4a3e e2ea d03e c7d6 bb3d 1337 b63e
000003a0: 63df 21bd 64f2 8b3e 2bc9 a63e d672 3f3e
000003b0: a153 2bbe f23c 983d 9570 70be 8e5e 0f3f
000003c0: 464b 843e ad4f 20be 7c4a 61be 5429 8ebe
000003d0: 6d66 8a3e 2fbc f73e 70b5 813e 0d8d e53d
000003e0: 9bef 9bbe 38c0 833d 725f bfba ba38 69bf
000003f0: 6d08 89be 5861 253f 44d1 c73e 16d3 283e
-0.1276996 -0.43073288 -0.30944112 -0.38980573 -0.2484996 -0.048443835 0.13747863 -0.7497277
-0.0568991 0.29321796 -0.20505153 -0.36015484 0.321069 0.29733917 0.41315195 -0.26592752
0.27900866 -0.24591647 -0.009811386 0.29615256 0.2393324 0.5254961 -0.20387979 -0.455398
-0.08501941 0.07375604 -0.4403356 -0.18996713 -0.113928474 -0.29837114 0.39317724 0.23905736
0.091564864 -0.42063162 -0.45379668 -0.26580408 0.24297133 0.3912856 -0.47619835 0.033697437
-0.7541321 0.04964514 0.3610751 -0.17289244 -0.17575537 0.34580365 -0.4475935 0.0037182493
0.2892515 0.16864303 -0.1488944 -0.3354225 0.19679847 0.06036703 0.16675854 0.5052018
0.46003777 0.1359058 -0.029384576 -0.5668397 -0.04780806 0.34672877 0.04767028 0.19793485
-0.16188844 -0.0819451 0.17977418 0.20329815 0.2968338 -0.09057976 -0.65480006 -0.1287065
-0.2101766 0.009133851 -0.3678347 0.22741714 -0.31053272 -0.18960808 -0.13012408 -0.28461334
-0.36012596 0.14495234 -0.31115043 -0.07062298 -0.049864292 -0.40455687 -0.39168322 -0.28109717
0.07670134 -0.303926 0.24468105 -0.03115106 0.07836208 -0.034986984 -0.038591836 -0.16498356
-0.09466408 1.1455142 0.35831112 -0.041340772 -0.38677832 0.28002685 0.55118525 0.21071774
-0.38465828 -0.43785754 0.1683061 -0.02533596 0.37883243 0.13372004 0.040446416 -0.4407765
0.35521477 -0.08411046 0.3887534 -0.018691037 0.11812836 0.08870194 -0.28480214 0.3365685
0.2361654 -0.4420717 0.0692911 -0.33891544 0.046870403 0.101072714 -0.5303044 0.43006948
0.10507768 0.14903152 -0.22096856 0.21875642 0.51260024 -0.20457236 0.827214 -0.31236678
-0.5313879 0.0062731705 -0.19935079 0.2301842 -0.36665472 -0.13715494 0.503429 -0.32414967
0.33746976 -0.44344905 0.28684896 0.044383463 -0.45699337 0.42167532 -0.22528684 -0.039410535
0.078181446 -0.08763462 -0.3489398 -0.33406302 -0.017022314 0.14546892 -0.07474045 -0.26520914
-0.0620738 -0.29971814 0.012316512 0.32331547 -0.09226322 0.2557178 0.195612 -0.11658714
-0.070939265 -0.17588739 -0.49504656 0.22017266 0.14141212 0.19355035 0.090858996 0.22803786
-0.22694416 -0.42658618 -0.047438685 -0.30935258 0.08141308 -0.15992197 -0.10291885 -0.40631932
0.0954122 -0.39234746 -0.31082404 -0.08465042 0.26247486 0.5894992 -0.11700061 -0.3806075
0.38767263 -0.42852482 0.093231544 0.29514545 -0.36770272 -0.11293599 -0.3565526 -0.44181627
-0.4319305 -0.2523866 -0.12240074 0.18189701 -0.24434823 0.32427374 0.57823163 -0.019168014
-0.33601445 0.8100359 0.30064908 -0.15885815 -0.32522395 0.21797697 0.60895807 -0.032477282
-0.13363242 -0.30178902 -0.42096 -0.5903748 0.36939907 -0.023121605 0.27117997 -0.22143573
0.022782788 0.15893508 0.27692568 -0.17948626 0.19742526 0.408042 0.09171825 0.35588893
-0.03951968 0.27333367 0.32575354 0.1869615 -0.1673112 0.074334994 -0.23480447 0.56003654
0.2583868 -0.15655394 -0.2200107 -0.27765906 0.2703127 0.4838576 0.25333738 0.11208544
-0.30456242 0.06433147 -0.0014600588 -0.9110218 -0.2676424 0.6460166 0.39026845 0.16486773

residual.2.bias f4 [16]
00000000: a1b5 9bbe 3185 3ebe 7574 e3bd c828 80bd
00000010: 4809 74bc f669 76bd c05b debe 468c b939
00000020: 464a acbd 2a63 0ebd e534 92bd df0e 9dbe
00000030: 407a dabe 5dd0 c8be 7b22 5d3d 2c22 c3be
-0.3041201 -0.18605496 -0.11106197 -0.062577784 -0.014894791 -0.060159646 -0.43429375 0.00035390462
-0.08412604 -0.03476254 -0.07138995 -0.30675408 -0.42671394 -0.3922147 0.05398796 -0.3811201

residual.4.weight f4 [8, 16]
00000000: 5afe f7be 0ea4 cc3e 737e e6be f14f 5d3b
00000010: b847 9fbe 8a52 173e a236 93bd f155 7ebd
00000020: 98b3 d4be 786e d2be 875f a6be 3d7b ff3d
00000030: 8aa2 b83d 90a7 e83d 2249 683d 346c d5be
00000040: 61e9 393d 5c79 803e ca5e 23be df7e 583e
00000050: f932 39be 9a75 0ebe eda3 0cbf 64b6 753e
00000060: edd4 933e bb67 0fbe 6a61 9c3c 2c5e fbbd
00000070: 4ed6 92bd d6cc d7be 8017 d63e 7647 75bd
00000080: fc20 8f3f dc75 953e 9c5a 84bf ccde 27be
00000090: d41d ba3f 20ba 3ebd 0918 c63e 3cbb 233e
000000a0: 1f56 263e 0c71 73be f874 83bf c702 97be
000000b0: e934 4f3e cc96 b93e e8c9 b83d a626 37be
000000c0: 2b45 1ebe e36b 523e 7c65 273e b745 0fbf
000000d0: 4635 81bd 28fa fcbd d32f 753e ccbb 3e3c
000000e0: 803e c4be 3e0a e5bd 6bf3 abbe 5d2c 4c3e
000000f0: 603d 06bf 51ff f1be db7a 743d 368f 8c3e
00000100: 98a4 e83e 96f5 24be 845e 1a3f 63a0 9cbc
00000110: 8611 34be 0084 45bd e32d 9e3d 83e6 233e
00000120: 9c16 14bf 31a0 e63e 53c9 da3c a826 4a3e
00000130: 1892 a1be a92d f3be 144c 59be 0fe0 4d3e
00000140: c0dc 03be 89f8 e6bd 4bb4 c83e 0611 11bf
00000150: 237d f7be acc6 a63e e3de bcbe b673 06bf
00000160: 9c0b 77bf 38ce e23e 7102 d33e 0e09 bdbd
00000170: f71a 20bf 6626 8a3e 7717 7a3e a672 0fbf
00000180: 2a5d 173f 1f83 50be 22b0 523e 2ee4 773e
00000190: a6ab 11be 8e89 bfbe 7e30 2b3e 18b3 053f
000001a0: 9e3e 76be 168f 8d3e fea8 383d 4037 a5bd
000001b0: 2965 15be 7b66 563d a71b 133f 0670 083e
000001c0: 00b3 7ebd 7b16 2f3e aa8e 1ebf 56ee 70be
000001d0: c6a7 d4be 442b e43e 1653 f2be c34a 2c3e
000001e0: 5f75 26bf e6db c13e 01e4 84be d437 ecbe
000001f0: 017f 4fbe 6f6d 6abe 4b00 8d3d a57e 7ebe
-0.48436242 0.39968914 -0.45018348 0.0033769573 -0.31109405 0.1477758 -0.07188155 -0.06209368
-0.4154327 -0.41099906 -0.32494757 0.12474678 0.09015377 0.11360085 0.05671037 -0.41684115
0.045388583 0.2509259 -0.15954128 0.21142147 -0.18085851 -0.13912049 -0.5493763 0.23995358
0.28873387 -0.14004414 0.01908942 -0.12273821 -0.071697816 -0.42148465 0.41814804 -0.059882604
1.1181941 0.29191482 -1.0340152 -0.16393584 1.4540353 -0.04656422 0.38690212 0.15989393
0.1624379 -0.23773593 -1.0270071 -0.29494306 0.20235027 0.3624786 0.090228856 -0.17885837
-0.15456073 0.20548968 0.16347307 -0.5596575 -0.06308989 -0.12352401 0.23944025 0.011641454
-0.38328934 -0.11183594 -0.3358415 0.19938798 -0.524374 -0.47265103 0.059687477 0.2745301
0.45438075 -0.16109309 0.6030047 -0.019119447 -0.1758481 -0.048221588 0.07723596 0.16005902
-0.57847 0.4504409 0.026707327 0.19741309 -0.31556773 -0.47495773 -0.21220428 0.20105003
-0.12877178 -0.11277873 0.39200053 -0.566666 -0.4833766 0.3257345 -0.368888 -0.5252031
-0.9650209 0.44297957 0.412128 -0.09230243 -0.62541145 0.2698242 0.24423014 -0.56034315
0.5912653 -0.20362519 0.20575002 0.24208137 -0.14225635 -0.37409633 0.16717717 0.522264
-0.24047324 0.27648228 0.04508304 -0.08067179 -0.14589371 0.052343827 0.5746407 0.13323984
-0.062182426 0.1709842 -0.6193644 -0.23528418 -0.4153425 0.4456426 -0.47329015 0.16825394
-0.65022844 0.37863082 -0.25955203 -0.46136343 -0.20263292 -0.22893308 0.068848215 -0.24852999

residual.4.bias f4 [8]
00000000: 01be a9bd dea2 773e 6817 d9be 2808 dbbd
00000010: 9fe3 ad3a 1021 003e 2737 643e 6928 6bbd
-0.082881935 0.24183223 -0.4240067 -0.10694915 0.0013266689 0.12512612 0.22286664 -0.057411585

residual.6.weight f4 [1, 8]
00000000: 1f50 1a3b 8641 2b3f 743b 933c 64c4 29bf
00000010: 5677 813c 47ce d23e 9a94 063f ee15 03bf
0.002354629 0.66896856 0.017972685 -0.66315293 0.015803974 0.41173002 0.525705 -0.5120534

nee_decoder.0.weight f4 [16, 32]
00000000: 1303 ed3e c0d3 18be 27d8 d5be 0df6 b13e
00000010: db4d 9cbd acf3 cebd f599 953e 5a6d ddbe
00000020: d4c1 ed3d 53e3 3c3d 8597 abbd 9943 30be
00000030: f14c 4a3e 5f01 16bd ac79 b6bd 7238 22bf
00000040: d408 04bc 637a 28bf 4bcf 753e 1727 1dbe
00000050: 4009 463d 1505 95be 2603 95be cf64 763d
00000060: b5b0 393d 059d debd 67af 483e eb5c 98be
00000070: 715b eebe 54be 1ebe f82e cb3d 935f 003e
00000080: 6b73 a23e 7b72 71bf 4330 1fbf e1bb 52be
00000090: 1aa0 4f3e 22fa c7bd aefc 853f 6afb 9b3e
000000a0: 45b7 0abf ff89 2b3f a867 7dbf 8f07 463e
000000b0: c60f 793f 94de 18bd 1b5e 14bf f198 d0be
000000c0: 23dc 1f3f cdbe 91bd 3f5c 323e e390 a63e
000000d0: 0cf7 a0bf a699 7bbf 2f59 e2be 97b4 30be
000000e0: e6a2 d0be 5eaf 223f 994a ef3d 2260 0cbf
000000f0: 525f 6ebf df9e cdbd c9c3 5c3f 0cab bd3f
00000100: 7ad2 d2bd 2375 823d 6c1f d0be e80e 15be
00000110: b266 183c 49a0 1bbe a9b1 90bd 965c 14be
00000120: b75f 22be 57f7 543c e220 183e e115 633e
00000130: 4dfe a5bd 36f0 e6bc aee7 80be 5451 ddbd
00000140: 6e67 c93d d9dd 53be 8025 c43e 3623 05be
00000150: 4286 e63d e78e f83d f787 493e 5cf7 073d
00000160: 6d7d 68be 0bd3 043e e6bc 0a3e b810 d2be
00000170: bdb0 b13d fc75 943e 3c92 6ebe f57f 543e
00000180: 23da 05be e5db 8dbf 4eb6 bebd c3a7 183e
00000190: 2b78 05be 0361 c5be 1270 133f b086 c43d
000001a0: 1059 23bf 4d36 6ebe ebc1 8abf 2fb0 babe
000001b0: 5341 f53e f876 f4bd 4249 fabd 5193 e8bc
000001c0: 265d f63c 466d 96be be4f fb3e ff81 b5bd
000001d0: 617d 2abf ce78 f9be 3eed 88ba c475 dbbe
000001e0: 995c f3be 9613 40bd f492 c63d 804d a8bf
000001f0: de58 d1be e1c8 143d ce07 1f3d fb9f 3b3f
00000200: d193 0a3f b32e 28be e28e 0c3e 2bf6 aabe
00000210: d115 963e 5711 93be e95c c03e c98b cd3e
00000220: e094 4cbf 427a 863e 6e54 51be f066 f93e
00000230: 9275 523f 6cb0 da3e bad5 663f b88a 393f
00000240: c63a cb3e 6add 96be 3bdd 0b3f 31e5 a3be
00000250: b08c 56be cc4c 1e3e 085e 473f b985 03bf
00000260: e9d6 aebe 15a6 c93e 2e8b ed3e 0745 39be
00000270: b341 33bf 08da b5be a9b5 063f c325 073f
00000280: 77f7 af3e 5f2b 91be 619c 85bd 3c6d 103e
00000290: 9553 013c 7591 d6be 332b 2e3f 1493 bcbd
000002a0: 0167 c6be 741b 7cbd 723f 86be c75c eb3e
000002b0: aa59 383f 968c 2a3e 2b13 4a3f 624d b8bd
000002c0: 976d 2c3f 0be1 0d3e 3ace f63e ea2d 183e
000002d0: e964 70be 0e7a 2f3e c043 243f 64c1 bdbe
000002e0: bceb 15be 1490 173f 2d7c 063f f6b4 a2be
000002f0: 7a63 eebd a9fb 8abe 6207 1f3f 4e7b 783e
00000300: 7e4b 923e 2bc3 1bbe f697 233e 9ef2 00bd
00000310: 6d3a 403e 1d30 09bf 966c 623f 7cb1 cebd
00000320: b170 8abf 87f8 173e 16b7 4bbf 1a55 4a3f
00000330: 4154 5b3d 7951 803e 3996 afbe d13d dabe
00000340: 683b 89be f46f c9be b231 0dbe fc1c 423d
00000350: 109b 56be 5727 373c 3576 97ba ef62 d63e
00000360: 20bb e3be 84d8 d23d c032 31be 285a cabe
00000370: 0131 9dbf 5a3d 003e 3f69 b9bd 2654 40be
00000380: ba1a b33d 2df4 f4be fa37 703d 55b7 dd3c
00000390: 410b b33e 141e 5dbf 1b54 4f3f 1574 723e
000003a0: d651 35be 4817 1d3f 4c0d 55bf 20c3 5dbf
000003b0: ed18 673d 027c 843e bf8d 24bf 84e2 a83e
000003c0: eb0d c03e 758d d6be 5403 563f dbd6 24bf
000003d0: 3d83 2fbf b3de 2d3e b194 0f3e e6ae 053e
000003e0: 9017 42bf 47f1 8d3e aef8 9c3d 85ca ecbe
000003f0: bb32 7ebf f5b5 56be 759b 823e b433 b7bc
0.46291408 -0.14924526 -0.41766474 0.34758034 -0.07632037 -0.101050705 0.29219022 -0.4324749
0.116092354 0.04611523 -0.083785094 -0.17213286 0.19755913 -0.0366224 -0.08909926 -0.6336738
-0.008058745 -0.6581175 0.24004857 -0.15346943 0.048348665 -0.2910544 -0.29103965 0.060154732
0.045334537 -0.10869793 0.1959816 -0.2975839 -0.4655414 -0.15502292 0.09921068 0.12536459
0.31728682 -0.9431531 -0.62183017 -0.20579483 0.20275918 -0.09764506 1.0467737 0.3046525
-0.541859 0.6700744 -0.9898629 0.19338821 0.97289693 -0.037321642 -0.57956094 -0.40741685
0.62445277 -0.071164705 0.17418002 0.32532415 -1.2575393 -0.98281324 -0.44208667 -0.1725639
-0.40749282 0.6354884 0.1168415 -0.5483419 -0.931142 -0.10040068 0.86236244 1.4817824
-0.102940515 0.06369998 -0.40648973 -0.14556468 0.009301828 -0.15197863 -0.07065136 -0.14488444
-0.15856825 0.012998424 0.14856294 0.22176315 -0.08105145 -0.028190713 -0.25176758 -0.10806528
0.09834181 -0.20690097 0.3830986 -0.13001713 0.112560764 0.121366315 0.19680773 0.033194885
-0.22704096 0.12971132 0.13548622 -0.4102838 0.08676288 0.28996265 -0.23297971 0.20751937
-0.13071494 -1.1082731 -0.093121156 0.14907746 -0.13034122 -0.38550577 0.5759288 0.09596002
-0.63807774 -0.23262902 -1.0840429 -0.36462542 0.479014 -0.11936754 -0.12221004 -0.028390558
0.030073714 -0.29380244 0.49084276 -0.088626854 -0.66597563 -0.4872498 -0.001044668 -0.42863286
-0.47531584 -0.04689368 0.09695998 -1.3148651 -0.40888113 0.036324386 0.038825803 0.73290986
0.541318 -0.16424064 0.1372638 -0.33390936 0.2931352 -0.28724167 0.37570885 0.4014571
-0.79914665 0.2626515 -0.20442364 0.48711348 0.8221065 0.42712724 0.9016987 0.72477293
0.39693278 -0.294658 0.54634446 -0.32010797 -0.20952106 0.15458983 0.77877855 -0.5137592
-0.34148338 0.39384523 0.46395248 -0.18092738 -0.70022124 -0.35517907 0.5262094 0.52791995
0.34368488 -0.28353402 -0.065239675 0.1410417 0.007893463 -0.4190785 0.68034667 -0.092077404
-0.3875046 -0.06154962 -0.2622028 0.4596922 0.72011817 0.16655192 0.789355 -0.089991346
0.6735472 0.13855378 0.48204213 0.14861265 -0.23475994 0.17136404 0.6416588 -0.37061608
-0.14640707 0.5920422 0.5253323 -0.31778687 -0.116400674 -0.27145126 0.6212064 0.24265787
0.2857322 -0.1521117 0.15975937 -0.031481378 0.18772288 -0.5358904 0.8844694 -0.10092446
-1.0815641 0.148409 -0.7957624 0.79036105 0.053547148 0.2506216 -0.34294298 -0.42625287
-0.26803136 -0.39343226 -0.13788489 0.047390923 -0.20957589 0.011178813 -0.0011555614 0.41872355
-0.44478703 0.10295203 -0.17304516 -0.3952191 -1.228058 0.12523404 -0.09053277 -0.187821
0.08745332 -0.4784254 0.058647133 0.027064959 0.34969524 -0.8637402 0.8098771 0.23677094
-0.17706999 0.6136365 -0.83223414 -0.8662586 0.056420255 0.2587586 -0.6427879 0.32985318
0.3751062 -0.41904798 0.8359883 -0.64390343 -0.6855963 0.16979484 0.14021565 0.13055
-0.75817204 0.27723143 0.076646194 -0.4624826 -0.9929616 -0.20967849 0.2550923 -0.022363521

nee_decoder.0.bias f4 [16]
00000000: fdae 8cbe 96b6 30bf 09b1 febd 344c 3fbf
00000010: 7a41 c1be 9be1 f4be f9cf 2ebf 146a fdbe
00000020: 2b03 ca3d 6561 f3be c657 f9be 21e6 30be
00000030: 4b3b ac3f 9baf 66be 3340 aebe 6630 05bf
-0.27477255 -0.69028604 -0.124361105 -0.7472565 -0.37745267 -0.47828373 -0.6828609 -0.49494994
0.098638855 -0.47535244 -0.48699778 -0.17275287 1.3455595 -0.22527926 -0.34033355 -0.52026975

nee_decoder.2.weight f4 [16, 16]
00000000: 168e 4d3d 88ee 3fbe 1019 57be 4865 783e
00000010: e2ac b6be 1fb5 91be c507 c9be e765 3cbe
00000020: ee9c 9bbe d313 dcbe 90be a8bd 4b74 87bd
00000030: 9245 aebd a528 753e 7894 ca3d 4422 11bf
00000040: 6dd8 983d 374c 253e 57eb 0f3e 2c05 a73d
00000050: 51a5 73be 7bd8 d8be a95b c53d 0749 05bf
00000060: 1489 56be beff 1d3e e4e7 0fbd 1ed0 de3c
00000070: bcce 5fbc 47ac 943e 2106 193e 138c b73e
00000080: c5c3 eabe 2085 b2be 588b 853e 1f56 213e
00000090: 92f5 83bb cdd0 10be 9f55 053d 79ec cdbe
000000a0: 7b9c a3bd 128e e5be 6441 4e3d 39d4 9abd
000000b0: 5b17 6cbe f126 963e 2245 08be 30bf d4bc
000000c0: 443a 703e 2419 bdbd de20 683c 4e13 fa3b
000000d0: 5677 b5be e2a5 c7be 1ea5 283d 7405 553f
000000e0: 4336 36bd 1bd5 263e 11ab 1bbf 907d 42be
000000f0: 3551 5cbe f23f a03a ad63 023e b9a4 2cbe
00000100: f503 a03e 9e63 ddbe 7a44 3cbc a346 dabe
00000110: 8406 eebe c145 02bf e05e d0be f87f 7f3c
00000120: e907 9cbd 78bc 26bf 08b8 10bf 3bf9 2cbe
00000130: 4e36 03bf 4c3b 83be 1111 d8bd d83f febd
00000140: 0209 86bd e776 db3e b57a c9be ad76 a1be
00000150: 5dfe 97be f47b 55be 149b be3d 4b48 8ebc
00000160: 0f21 81be e03b 133e 4303 a9bf 1f33 a53e
00000170: 1d99 08be c952 a33d a869 ecbd 6f5e 9bbd
00000180: 0528 9dbe 6b7b c7be c3d2 dc3e 68a7 7cbd
00000190: 28e4 54be 5d64 b1be 83d7 8e3e 347f 41be
000001a0: e7c6 7b3c 51cf 513e 999c bdbd 058a 8a3e
000001b0: 3653 cfbe fb2e 873d 832f 78bc b7aa 753e
000001c0: ad34 0e3e 9b2f bbbe 2fb7 79be af6f 9cbd
000001d0: 0479 6c3c 8c51 da3d 4f04 0fbe d119 65be
000001e0: 5dd4 a6ba 5b9d 02bf 1a21 8fbc a2e5 2fbe
000001f0: e875 95be 77f7 3dbe 3e1b e6be 6f3b 283e
00000200: 0961 c7bc 8911 14bf 1dfc b93e 3afc 14be
00000210: 1287 71be 4f37 39bd 3751 96be 48c5 43bd
00000220: 5763 36bd 5c94 3b3e ec94 20bf 3b5b 7ebe
00000230: a589 58bf a11a 803d 583d ddbe f25a b5bd
00000240: 11f1 463e a564 d43c 102b ac3d 3fec 963e
00000250: b997 ebbe a056 58be e84e 3ebe 10eb 67be
00000260: bdcb f8bc eb3a c8be c407 e2be 5ded 343d
00000270: 9584 66be 7718 33be e75c b7bd e623 a0be
00000280: 4509 96be b651 043e 7e9d b93e 7d0a 03be
00000290: 215d 053e aa1b 153f 590c 703c e969 1cbf
000002a0: b3e8 c0bd 4973 fa3e 7122 083f bf50 0a3e
000002b0: 1198 a3bf a35a 8f3d 5e01 91be 3346 383e
000002c0: 526c 0bbf 0ae7 a4be 4893 023d 9882 f6bd
000002d0: 7295 c1be 0103 09bf 682a f7bd b076 17be
000002e0: 9802 3abf 3d5e 7dbe 7bba 37bf a185 c7be
000002f0: 09f1 cc3a be3d 983b a8b3 843b 51f4 6fbd
00000300: 8ac7 17be 7e6a 5ebe 180d 4d3d 3a9d a53d
00000310: 2310 c2be 4e86 933e 6e6c 74be 02c6 6cbe
00000320: ed07 223f 2601 a13d 6ba4 91bd e931 4cbe
00000330: b3a9 443f a8e7 abbe 34d9 f13d 2c8f fb3d
00000340: 848d 2e3d 656b ab3e 1aea 5f3e 6009 823e
00000350: c702 febd 16a7 6e3e ad03 153d 526f cbbe
00000360: 234d 90bf 245b 95bd 9a34 dcbe 839a 5ebe
00000370: 5586 7e3e 4629 3a3e 6725 f8bd 8842 cdbe
00000380: fd8d f0bd 0607 3fbe 3c51 df3e bec1 ca3e
00000390: baa2 1bbf 5f18 d5be f8f0 133d 95ce b7bd
000003a0: 4616 943d c6ad f0be 9752 41bf e2a4 c63e
000003b0: 6a38 e5bd 44d2 b63e 25ed e23d 7a74 9cbe
000003c0: ed33 683d 6d42 603c e65a d3bb 8545 79be
000003d0: c501 05be 02ec 0cbd 03db debe 6fc4 fabe
000003e0: 0a7e 11bd 5236 c23e 70ab 1cbe 04d3 c3be
000003f0: 18a6 2cbf 7804 e7be b837 bfbd f6ec 63be
0.05018433 -0.18743336 -0.21005654 0.24257386 -0.35678774 -0.28458497 -0.3926374 -0.18398248
-0.30393165 -0.42983875 -0.08239472 -0.06613978 -0.08509363 0.23941286 0.098915994 -0.5669291
0.07463155 0.16142355 0.14054619 0.08155283 -0.23793532 -0.42352661 0.096366234 -0.52064556
-0.20950729 0.15429589 -0.035133258 0.027198847 -0.013660129 0.29037687 0.14943744 0.35849056
-0.45852485 -0.3486719 0.26082873 0.15755509 -0.004027077 -0.14142151 0.032552358 -0.40219477
-0.07988831 -0.44834954 0.05035533 -0.075600095 -0.23055784 0.29326585 -0.13307622 -0.025970072
0.23459727 -0.09233311 0.014167992 0.007631696 -0.3544261 -0.38993746 0.041173093 0.83211446
-0.04448534 0.16292231 -0.608079 -0.18993211 -0.21515353 0.0012226088 0.12733336 -0.16859712
0.3125302 -0.43240064 -0.011490935 -0.42632017 -0.46489346 -0.50887686 -0.40697384 0.015594475
-0.07618696 -0.6513133 -0.5653081 -0.16891949 -0.5125474 -0.25631177 -0.1055013 -0.12414521
-0.06544687 0.42864153 -0.3935143 -0.31535855 -0.2968625 -0.20848066 0.093069226 -0.017368456
-0.25220534 0.14378309 -1.320412 0.32265565 -0.13339658 0.079747744 -0.1154359 -0.07586371
-0.30694595 -0.38961348 0.43129548 -0.06168309 -0.2079016 -0.34646884 0.27898797 -0.1889618
0.015367246 0.20489241 -0.09258384 0.27058426 -0.40493172 0.06600758 -0.015148046 0.23990904
0.13887282 -0.36559758 -0.24386285 -0.076384895 0.014433149 0.10660085 -0.13966487 -0.2237313
-0.0012728084 -0.51021355 -0.017471839 -0.17177442 -0.29191518 -0.18551432 -0.4494266 0.16428922
-0.024338262 -0.57839257 0.3632516 -0.14549342 -0.23586681 -0.045218762 -0.29358837 -0.047795564
-0.04452833 0.18318313 -0.62727237 -0.24839489 -0.8458503 0.06255079 -0.43210864 -0.08855237
0.19427897 0.025926897 0.08406651 0.29477116 -0.46014193 -0.21126795 -0.18584788 -0.22648263
-0.030370587 -0.3910745 -0.4414655 0.04417168 -0.22511514 -0.17489801 -0.089532666 -0.31277388
-0.29303947 0.12921795 0.3625297 -0.1279697 0.13023807 0.58245337 0.014651381 -0.61099106
-0.09419384 0.4891608 0.53177553 0.13507365 -1.2780782 0.069997095 -0.28321356 0.17995529
-0.5446216 -0.3220752 0.03187874 -0.120366275 -0.3780933 -0.5352021 -0.12068635 -0.1479137
-0.7266021 -0.2474298 -0.7176892 -0.38969138 0.0015635799 0.004646032 0.004049737 -0.058582608
-0.14822212 -0.21720311 0.050061315 0.08086629 -0.37902936 0.28813404 -0.23869488 -0.23122409
0.63293344 0.07861547 -0.07111438 -0.19940914 0.7682144 -0.33575177 0.11809006 0.12283167
0.04261543 0.33480373 0.21866646 0.25397778 -0.124028735 0.23305926 0.03638046 -0.39733368
-1.127354 -0.07292774 -0.43008882 -0.21738629 0.24855931 0.18179807 -0.12116509 -0.40089822
-0.11745832 -0.18655023 0.43616664 0.3960094 -0.60795176 -0.41620156 0.036118478 -0.08974949
0.07230811 -0.4700758 -0.7551665 0.3879767 -0.11192401 0.35707295 0.11080388 -0.30557615
0.056690145 0.013687712 -0.006450045 -0.24342926 -0.12988956 -0.034404762 -0.43526468 -0.48977992
-0.03552059 0.37932068 -0.15299773 -0.3824693 -0.6744094 -0.45120597 -0.093367994 -0.22258362

nee_decoder.2.bias f4 [16]
00000000: 70cb 7cbe 7f9b 06bf 1a33 cdbe ee44 7abe
00000010: 9244 b3be f683 d8bd 9cfa 44be 16ea 90bd
00000020: a8c4 5dbf 11a9 49bf e460 8dbe 4499 0ebf
00000030: 0464 f2bc c90c 7ebf 18a8 18bf 0642 c5be
-0.2468698 -0.5258102 -0.4007805 -0.24440357 -0.35013252 -0.105720446 -0.19236225 -0.07075898
-0.866282 -0.787736 -0.27612984 -0.55702615 -0.029588707 -0.9923826 -0.5963149 -0.38526934

nee_decoder.4.weight f4 [1, 16]
00000000: 96d2 1dbd 9782 033e c4eb a63e b799 b93e
00000010: a36b f03d 12d6 ba3e a6fb 703e d9d7 003e
00000020: 5544 95bd 7b7e 193d ebea 563e 1f73 1dbd
00000030: 2682 cbbe c87f 683e 2633 d33b bffe a13e
-0.03853091 0.12842785 0.3260175 0.36250088 0.1173928 0.36491448 0.23533496 0.1258234
-0.07288424 0.037474137 0.20988052 -0.038439866 -0.39747733 0.22704995 0.0064453064 0.31639668
