climate/Final Experiments/PERNN123/best_model.pth (torch, 29282 bytes, 29 tensors)

encoder.0.weight f4 [16, 16]
000000 33 f3 ee 3e 77 68 e0 3d 28 33 29 be af b6 5b bd
       0.4666992 0.10957425 -0.16523421 -0.053641018
000010 e1 96 50 3e d1 11 55 3c 79 a6 3c bf a2 04 b9 3e
       0.20370056 0.013004736 -0.7369152 0.36136347
000020 6c b6 18 be 4b e7 a1 3d 1c 08 ac 3d 22 69 4a bf
       -0.14913338 0.07905444 0.08399984 -0.7906667
000030 0c 5c 93 3e ff cc fb 3d ae 73 3d be d6 3f 0e be
       0.28781164 0.12294959 -0.1850116 -0.13891539
000040 1f f3 08 bf 7f e4 b6 bd da c0 f1 3e bf 4a 08 bf
       -0.53495973 -0.08930301 0.47217447 -0.53239053
000050 4a 85 0d 3e 1d fc 07 3e 28 db aa bd ce ac 69 bd
       0.13820377 0.13279767 -0.08342582 -0.057049565
000060 b5 53 17 bd 80 2f 85 3d 10 24 84 bd 74 7b 82 be
       -0.036945064 0.065032005 -0.06452191 -0.25484812
000070 eb de 75 bc a4 eb 73 3d 73 ae 27 bf f9 0e 3c be
       -0.015006761 0.059550896 -0.65500563 -0.18365087
000080 06 c8 6c be a2 c4 5b 3e 49 a0 a2 be 39 ad 7b bc
       -0.23123178 0.21461728 -0.31762913 -0.015361124
000090 38 6e fb be 1b c2 ff b9 38 6d 95 be 40 51 8c bd
       -0.49107528 -0.0004878201 -0.2918489 -0.06851435
0000a0 fa 69 4d bd fd 28 ae 3d bb b3 c8 bd 60 22 39 bf
       -0.050149895 0.08503912 -0.09799906 -0.7231808
0000b0 56 3b b0 3e 65 81 10 be c8 c3 07 be c3 a1 98 bc
       0.3442027 -0.1411186 -0.13258278 -0.018631821
0000c0 c1 84 33 3c c3 57 8f be 32 3b 08 bf 5f 10 de bd
       0.010956944 -0.27996644 -0.53215325 -0.10842966
0000d0 a9 23 50 bc a9 b3 da 3c 24 e7 ed be ee 4c 8b 3d
       -0.012703815 0.026696997 -0.4646541 0.068017825
0000e0 2e 9a 0b 3e 45 0b a7 be 7a e8 1a 3f b7 06 2b bf
       0.13633034 -0.32625785 0.6051098 -0.6680712
0000f0 40 0c 86 bd 70 57 87 bd 02 3f 85 be 02 dd db 38
       -0.06545305 -0.06608474 -0.26024634 0.000104839
000100 d9 e4 56 be a7 c2 e2 be b5 c4 3f 3e b7 00 ff bd
       -0.20985736 -0.44289133 0.18727382 -0.12451308
000110 d5 41 bb 3d 1c 55 53 be e7 d6 0d be 90 f7 44 be
       0.09143416 -0.20637935 -0.1385151 -0.19235063
000120 d3 93 c0 bd 90 d8 81 be e1 13 8c be 55 f1 89 bd
       -0.09403195 -0.25360537 -0.27358916 -0.067354836
000130 87 f6 18 be ad 22 52 3d d5 07 2a 3e 41 09 6d 3e
       -0.14937793 0.0513026 0.1660455 0.23148061
000140 2e e7 0f 3f 6a eb 13 3d 7d 54 04 bf fd 22 53 bc
       0.5621213 0.03611318 -0.5169142 -0.01288676
000150 4d e0 bb 3d e9 de 77 bd 17 33 ab bc b3 75 1d be
       0.09173641 -0.060515318 -0.020898385 -0.1537693
000160 63 bb a6 3e 9f 7d d1 be c5 d4 0a 3f 9e ae ed 3c
       0.3256484 -0.40916154 0.5423091 0.029013928
000170 ed 80 ba be cb b7 d7 be e7 48 f9 3d 68 87 85 bd
       -0.36426488 -0.4213241 0.12172108 -0.06519967
000180 9a 64 1e 3d e5 92 84 bd ce e0 08 be 1b d0 af bd
       0.03867016 -0.064733304 -0.13367006 -0.08584615
000190 39 b3 36 be fc 5b 6a be 5f 6d 0f 3f 87 3d 55 3e
       -0.17841806 -0.22886652 0.5602626 0.20824252
0001a0 72 56 29 be da b8 fa bd 65 1b 73 bc 59 7e 0a bd
       -0.16536883 -0.12242289 -0.014838074 -0.0338119
0001b0 b2 85 2f be 95 4f 9b be 34 f8 ec bd 2c f4 8b 3e
       -0.17140844 -0.30334154 -0.115707785 0.27334726
0001c0 c2 a9 41 be 9a 8e ec 3d 3d 53 7d 3e d8 7a 97 3d
       -0.18912414 0.115506366 0.24738784 0.073964775
0001d0 f4 13 1c 3d 73 fc 09 3e ab f3 39 3e 10 91 16 be
       0.038104966 0.13475208 0.18159358 -0.14703774
0001e0 83 59 f5 3e 8e 62 df bc 73 50 f6 bd 72 0a c2 3d
       0.47919855 -0.027268674 -0.12027063 0.094746485
0001f0 4f ec c8 be bc 72 27 3e be 06 90 be 45 c5 18 be
       -0.3924279 0.16352361 -0.28130144 -0.14919002
000200 aa 92 dd 3e ea da 22 bd ec cb 86 3d 82 bc 14 3b
       0.43275958 -0.039759554 0.06581864 0.0022695367
000210 5d fd 48 3d ae b9 a2 3d dd c3 85 be 5f 8a 8d be
       0.04906975 0.07945572 -0.26125994 -0.2764463
000220 2d 30 40 3d 85 3d f6 bc e9 6f d0 3e 8b 9a 55 3f
       0.046920944 -0.030058632 0.4071038 0.8343894
000230 d1 44 1d 3f 07 0e ac 3e b4 27 ea be c9 9f dd bd
       0.6143313 0.33604452 -0.45733416 -0.10821492
000240 22 7f b1 be 14 62 36 3e f5 a9 70 be ec 87 29 3e
       -0.34667307 0.17810851 -0.23502333 0.16555756
000250 1d 84 d3 be aa 5f 8c bd ee dd 97 bd 59 09 72 3e
       -0.41311732 -0.06854184 -0.074153766 0.23636378
000260 88 59 0f bd 6c 8e af 3e dd 07 50 3b ac 89 05 3f
       -0.034997493 0.34288347 0.0031742968 0.52163196
000270 9d 5f a2 3e 48 9a 2f 3d 9a ce 78 be da 50 8a 3e
       0.31713572 0.042871743 -0.24297562 0.2701481
000280 e9 5a 19 be c0 70 2b 3e ab c1 07 bd 48 8f 4e be
       -0.14976086 0.1674223 -0.03314368 -0.20171845
000290 9d 08 23 bf d2 0f 86 be 27 05 a5 3d a0 d4 bc 3e
       -0.6368502 -0.26183945 0.08057623 0.3688097
0002a0 ee aa 54 3c d9 7f 8f bd 5d 34 6a 3e 03 0e 91 3e
       0.012980206 -0.07006807 0.22871538 0.28331003
0002b0 e7 18 d1 be 7f b5 c7 bd b0 c5 a7 be 28 23 88 bd
       -0.4083931 -0.097514145 -0.3276801 -0.066473305
0002c0 37 3d 9f be 39 94 91 3e 0e 4a d5 3e 6c 61 7a bd
       -0.3110139 0.28433397 0.41658062 -0.061128065
0002d0 97 76 60 3e fe a4 d6 bc d1 e5 3e 3f d1 2c ac be
       0.21920238 -0.026201721 0.7456942 -0.33627942
0002e0 c7 75 64 3e 33 6a 81 bd fc a0 b2 be 2a 98 0f be
       0.22310553 -0.06319084 -0.34888446 -0.1402289
0002f0 33 e1 98 3e e5 53 c0 bc 71 07 d4 3e da 64 83 3e
       0.29859313 -0.023477504 0.41411927 0.2566288
000300 6c 59 ec bb c8 7d 97 be e3 24 81 3e 38 45 b2 bd
       -0.0072128084 -0.2958815 0.25223455 -0.08704609
000310 5e 90 55 3e 99 3b bb bd 02 73 5b bf 7e 89 5a 3e
       0.20855853 -0.09142227 -0.85722363 0.21341512
000320 59 4a 72 3e 8e 6b 42 3e 2d b6 0e 3f 41 17 b7 3e
       0.23661174 0.18986341 0.5574673 0.3575993
000330 2c bf a8 be 9c 2a d5 be 3c c9 35 be d2 dd 01 bd
       -0.32958353 -0.4163407 -0.17752546 -0.031705685
000340 ec 97 c3 3e 91 9b 1d bf f5 91 6e be e0 81 8d 3c
       0.38201845 -0.615655 -0.23297866 0.017273843
000350 5d 73 15 3d e3 f7 dc bd f6 07 dd 3e 93 0a c9 3d
       0.036486972 -0.10789468 0.43170136 0.0981647
000360 2e 7e 45 3d cf 98 87 3d 80 e6 e9 3d fe 26 a3 3e
       0.048216037 0.06620943 0.114209175 0.31865686
000370 9c ab 44 be 93 16 23 3e 8f 23 db 3e bd 6a 82 be
       -0.19206089 0.1592658 0.42800567 -0.2547206
000380 84 f8 55 be 8f e4 48 be 9f e7 8c be ac c2 12 3e
       -0.20895582 -0.19618438 -0.27520463 0.14332074
000390 ab fe 2b 3d 72 74 af be f4 ae 22 bf d5 b7 b2 3e
       0.041990917 -0.34268528 -0.6354821 0.34905878
0003a0 b9 a0 c0 bd ab 82 c8 be 92 6f 5e be 45 17 a5 be
       -0.094056554 -0.39162192 -0.21722248 -0.32244316
0003b0 58 a7 1f 3e 36 3d db 3e d0 cd d1 3d 9e 68 bc 3e
       0.1559118 0.42820138 0.10244334 0.36798567
0003c0 a0 1b 21 be 08 05 91 bd f0 87 fa bd ac 3d 01 3e
       -0.15733194 -0.07081038 -0.12232959 0.12621182
0003d0 0c c9 83 3e 4f 4f a1 3d fa 93 30 bf 95 1f 93 be
       0.25739324 0.07876455 -0.68975794 -0.28735033
0003e0 54 95 fd be 01 09 c7 be 1f ff f5 3b f0 21 64 3f
       -0.4952799 -0.38874057 0.0075072194 0.89114285
0003f0 43 c1 0a be 0b 52 5d 3e c8 dd 6a be fc c2 89 3e
       -0.13550286 0.21613328 -0.22936165 0.26906574

encoder.0.bias f4 [16]
000000 6f 39 fc 3e dc 0f 2f be 9d cd 9c 3e 45 15 b6 3e
       0.49262568 -0.17095894 0.3062562 0.35563102
000010 ce 3b 07 3e 66 f7 f7 3e e1 8b 70 3d 02 0d 30 3e
       0.13206407 0.48430938 0.05872715 0.17192462
000020 10 b9 ce 3e e1 e3 6a 3e 07 6f b5 3e 8f b4 fc bb
       0.40375566 0.22938491 0.3543627 -0.007711954
000030 eb eb df 3e f9 42 2d 3e a7 30 99 3e b2 b4 8a 3e
       0.4373468 0.1692008 0.2991993 0.27090985

encoder.2.weight f4 [16, 16]
000000 b5 3a e3 3e 55 5e ab be 9d 1e 45 3e 76 c8 e4 3e
       0.44380727 -0.33470407 0.1924996 0.4468419
000010 2a 74 9b be a7 81 21 3f 90 e8 6d be 36 0e 42 be
       -0.30362064 0.6308846 -0.23233247 -0.18950734
000020 e1 9e ab 3e 28 9c 4b bd 3a 6d f3 3d 09 f2 e6 3c
       0.33519652 -0.04970947 0.11886068 0.028191583
000030 1f 2a 8e 3e db 3c b4 3e 6f 49 69 3e 11 0a 63 3d
       0.2776651 0.3520268 0.22781919 0.055429522
000040 ba 0c 08 3f 1f 3a bb be 3d 9f 27 3e df 93 00 3e
       0.5314442 -0.3656778 0.16369338 0.12556408
000050 fa 06 5f 3c 6e e4 57 bc 9e d5 80 3c 3f ba f1 3e
       0.013612503 -0.0131770205 0.01572686 0.47212407
000060 ae 50 a3 3e 45 05 42 3e cd cd 7d 3d d7 2a b7 be
       0.3189749 0.18947323 0.061963845 -0.35774872
000070 de 6e d8 3e 25 6f 45 3e fe 94 54 be 61 2b 84 be
       0.42272085 0.1928068 -0.20759961 -0.25814345
000080 f8 eb e8 3e 2f c8 1c bf 53 af d7 3e 5c 14 c8 bd
       0.4549253 -0.61242956 0.4212595 -0.09769508
000090 61 f6 8c be c1 db f0 3e de 2e 88 be 27 6b 41 3e
       -0.27531722 0.4704266 -0.26598257 0.18888532
0000a0 f0 ec 71 3e 86 55 54 be 6b 5e d2 3e 8a 1c 5c be
       0.2362554 -0.2073575 0.4108766 -0.21495262
0000b0 a5 fc e3 3e e5 86 6d 3e bc 43 ab 3e 62 b3 c7 3e
       0.4452869 0.2319599 0.33450115 0.39004046
0000c0 93 43 8b 3e 03 1c a1 3c 7c 29 0c 3f 0e a3 f6 3a
       0.27199993 0.019666677 0.547508 0.0018816905
0000d0 80 a4 aa be 55 95 07 3d 5d a2 5b 3e 8a 9a f3 3e
       -0.3332863 0.0331014 0.21448655 0.4757884
0000e0 be 3b 11 3f 54 42 dd 3d 87 6d c7 3e 4f a4 84 3e
       0.56731784 0.10803667 0.3895075 0.25906608
0000f0 a4 85 d0 bb af ca b0 3d 34 74 a5 be 83 a0 21 be
       -0.0063635875 0.08632409 -0.32315218 -0.15783887
000100 69 9e e1 be 97 3d cd bc ce 41 52 3e 03 ac b3 3e
       -0.4406617 -0.025053782 0.20532915 0.35092172
000110 33 bd db bc e1 d0 ce 3c d3 68 35 bd 16 d6 0d 3e
       -0.026823616 0.025246086 -0.04428942 0.13851199
000120 60 3c d5 bd fc e3 94 be 96 aa 95 3d a4 71 e7 3c
       -0.10411906 -0.29080188 0.07307927 0.02825243
000130 49 3d 66 be 6e d7 fd be fe 71 fb bc fe f1 93 be
       -0.22484316 -0.49578422 -0.030694004 -0.28895563
000140 27 32 28 be 77 7b 22 bf 02 58 28 be 3f 7d eb 3e
       -0.16425382 -0.6346964 -0.16439822 0.45993993
000150 26 29 07 be 68 04 8b 3e b5 78 b5 3e de 17 91 be
       -0.1319929 0.271518 0.35443655 -0.28338522
000160 86 d0 65 bd a3 6b 7f 3e a2 8b b3 3e b5 0d 16 3e
       -0.056107067 0.24943404 0.3506747 0.14653666
000170 b5 8c 98 3e 41 c5 08 3e 11 f9 14 3e 1d 2c 6d bd
       0.2979485 0.13356496 0.14548136 -0.057903398
000180 7a 3f 04 3f 38 63 23 bd f6 94 44 3c d2 69 72 bb
       0.5165936 -0.039889544 0.011998406 -0.0036989343
000190 06 b6 6f 3e f6 f3 b2 be b0 c0 f2 3d d7 02 d2 3e
       0.2340928 -0.34951752 0.118531585 0.41017792
0001a0 f9 fd b6 be 0a 68 9a 3e 31 a9 9d 3e 5a 6a aa be
       -0.3574064 0.301575 0.30793145 -0.33284265
0001b0 1c f0 1d be 5a 14 35 be eb 67 a7 be 81 c8 de be
       -0.15423626 -0.17683545 -0.3269647 -0.43512347
0001c0 5e 32 01 3f 65 02 d7 be 24 2a a3 be 32 31 4c 3e
       0.5046748 -0.41994014 -0.31868088 0.19940642
0001d0 a1 dc 02 3b d6 ea 10 3f b4 3a bc 3e 3c 52 80 3e
       0.001996793 0.5660833 0.36763537 0.2506274
0001e0 1f ca 40 be 5a d5 43 3e 14 00 53 be d6 70 ca bd
       -0.18827103 0.19124356 -0.20605499 -0.09884803
0001f0 dc d3 9d 3e 32 eb c8 3d 62 88 8d 3e c0 9e f3 3c
       0.30825698 0.09810485 0.27643114 0.029738784
000200 ef 77 95 3d db 52 c7 be 61 3c c0 3c 01 31 e2 3e
       0.07298266 -0.389304 0.02346629 0.44178012
000210 37 30 1e 3e 2b ac 55 3d 5a 14 01 3e d5 df a6 3c
       0.1544808 0.052166145 0.1260542 0.020370403
000220 a0 44 35 be e3 15 ed be 2f 3b 04 3d a1 9f c6 3e
       -0.1770196 -0.4630576 0.032283004 0.38793662
000230 42 b4 c4 be 21 61 21 be 5d 9e 8c 3e 9c 27 b3 be
       -0.38418776 -0.15759708 0.27464572 -0.34991157
000240 ca 1d ab ba 32 26 ef be 2e a4 3a be 07 38 96 be
       -0.0013055142 -0.46708828 -0.18226692 -0.2933962
000250 e6 d8 60 3d 58 84 f0 bd bd 9d 4f 3d d6 1b 2e be
       0.05489435 -0.117439926 0.05068754 -0.17002806
000260 90 fe d6 3e 64 b5 40 be 68 8d 81 be 73 d6 08 3e
       0.4199109 -0.18819195 -0.25303197 0.13363056
000270 0b 57 bb 3d 98 26 f2 bd b3 c2 d8 3d 77 fb 00 bf
       0.091474615 -0.118237674 0.10584011 -0.50383705
000280 78 11 8d 3e 4b 86 ca 3c 82 86 aa 3e ca 78 a9 3e
       0.2755239 0.024722239 0.33305746 0.33099967
000290 7e 65 af 3e cd 9b f2 3e 08 0b 9c 3e 5b 13 a0 3d
       0.3425712 0.47384492 0.30477166 0.07816192
0002a0 07 c9 2c be 97 76 e2 be 16 3a 40 be 6a a9 92 3e
       -0.16873561 -0.44231102 -0.18772158 0.28644878
0002b0 85 03 b6 3e 17 94 55 3e 02 7b 21 3e 74 5c 3a be
       0.3554956 0.20857273 0.1576958 -0.1819933
0002c0 8d 4f 2a be f0 05 88 3d f0 95 c9 be cf 99 27 be
       -0.16631909 0.066417575 -0.39372206 -0.16367267
0002d0 06 ce 86 3e 70 87 05 bf 65 47 eb 3d 51 c9 26 be
       0.26329058 -0.52159786 0.11488227 -0.16287734
0002e0 d0 09 93 be 81 4c 6d be 1f e0 b2 be ff 4d 85 be
       -0.28718424 -0.23173715 -0.34936616 -0.2603607
0002f0 1e e1 2b bf 20 dc 08 3f 24 06 b0 bd e4 bc 4d 3e
       -0.67140377 0.53460884 -0.08594921 0.20091587
000300 bd 88 09 3f a5 6f 0d 3e b6 9c 6e be 56 b5 19 3f
       0.5372427 0.1381212 -0.23301968 0.6004232
000310 3f 0b 4d be b3 b4 10 3f 57 42 95 be 61 f7 a7 be
       -0.20023821 0.56525725 -0.29152176 -0.32805923
000320 b0 ec 18 3f ea 3c 3b 3e 03 10 d5 3c 38 35 7d 3e
       0.59736156 0.18284956 0.026008612 0.24727333
000330 ba 1a fe bd 8c 61 92 3e ee 98 c5 bd 15 a1 dc 3d
       -0.124074414 0.28590047 -0.0964831 0.107729115
000340 3b 59 5c 3e fd eb af be 44 a5 90 be 23 c0 1c be
       0.21518414 -0.34359732 -0.28251088 -0.1530767
000350 4f e4 a4 3d 20 ad 7e bd d2 b8 5b 3e 3a 8f f8 3d
       0.08051359 -0.062176824 0.21457222 0.12136693
000360 39 44 9e be c5 fd 92 3e b7 95 50 3e a9 ae 66 3e
       -0.30911425 0.28709236 0.20369612 0.22527565
000370 ad bb a5 3d 86 ff 4a 3e 9e 34 eb bc 7c c8 5c 3e
       0.08092437 0.19824037 -0.028711613 0.21560854
000380 27 0b 0f 3e 99 5c 1c bf 45 9e ae 3d 19 9f 80 bd
       0.13969098 -0.6107879 0.08526281 -0.062803455
000390 c8 23 91 3e e6 c3 dc 3e 98 0a 55 3d de b2 90 3e
       0.2834761 0.4311821 0.052012056 0.28261465
0003a0 66 ca e9 3e 59 3c 86 be ec 17 46 3d 97 4e d7 be
       0.4566223 -0.26217917 0.048362657 -0.42052147
0003b0 1b 71 0e bd b5 c3 23 bd 2c cd 3d 3e 14 79 28 3d
       -0.034775835 -0.039981563 0.18535298 0.041131094
0003c0 e9 2a 17 bd fe 08 25 bf a3 d0 f9 3d 9e 83 f1 3e
       -0.036906157 -0.64466846 0.121979974 0.47170728
0003d0 38 9c e5 3e 91 5d cf 3b 9c 6d c6 3d 73 1f 9f be
       0.44845748 0.0063282927 0.09688875 -0.3107868
0003e0 11 5e 11 3f 1a b2 9f 3e 63 ee 75 3e cb 36 95 be
       0.5678416 0.31190568 0.24016719 -0.29143366
0003f0 01 a1 af 3e fe c1 91 bd bc 32 58 3e 96 ff dc 3e
       0.34302524 -0.07117079 0.21113104 0.43163747

encoder.2.bias f4 [16]
000000 66 9d c2 3e 3f 96 02 3f 66 9f ce 3e f0 e2 ea 3e
       0.3801071 0.5101051 0.40355986 0.45876265
000010 99 90 75 be 12 de 97 3e a0 b5 8b 3e a0 35 94 3e
       -0.23980941 0.29661614 0.27287006 0.28947163
000020 76 10 b3 3e 17 da c8 3d a2 e6 b3 3e 5c 37 17 3e
       0.34973496 0.09807222 0.35136896 0.14767212
000030 f6 ce f0 3e d9 aa 44 3e 18 39 de 3e 54 44 b5 3e
       0.470329 0.19205798 0.43402934 0.35403693

encoder.4.weight f4 [32, 16]
000000 d9 b1 d7 3e 1e c3 4b 3e 25 29 01 3e 73 52 4e 3e
       0.42127874 0.1989865 0.12613352 0.2014864
000010 ee 72 37 3d cb 4c a9 3d 77 4d 2c 3d ef 9a 20 be
       0.04478734 0.082666 0.042066064 -0.15684102
000020 74 97 ee bd 06 1d 29 be 7c 8a b7 3d 0a b1 ad 3e
       -0.11649981 -0.16514978 0.08961961 0.33924133
000030 c6 c3 19 bd ce d9 36 3e bf 59 55 3d 0b ab be 3e
       -0.03754022 0.17856523 0.05208754 0.3723987
000040 89 fe 4f 3d a4 a6 91 be 8c 17 d1 be 9f 2a 8e be
       0.050779853 -0.2844745 -0.40838277 -0.27766892
000050 2b 65 8c bb 1b 03 55 bd 23 7f c5 bd 31 60 77 bd
       -0.004284521 -0.052004915 -0.0964339 -0.06039447
000060 4a a5 bf bd bb d2 4d 3e 9d 01 e5 bd 73 d0 7c be
       -0.09357698 0.20099919 -0.11181948 -0.24688892
000070 ae 30 29 be 3d 85 c3 bc fc b4 f6 be 7e f2 6e bc
       -0.16522476 -0.023867244 -0.48184955 -0.014584182
000080 43 e5 fb bc 90 3f 04 3d d8 88 85 3e 8b 4b 98 bd
       -0.030748969 0.03228718 0.26080966 -0.07436284
000090 b4 9e cb be 22 52 70 be 95 2f 80 3e 53 e1 ac bc
       -0.39769518 -0.23468831 0.25036302 -0.021103537
0000a0 f9 51 9c 3e a8 d5 02 bd 3e 80 cd 3e 69 99 d3 bd
       0.3053129 -0.03194204 0.40136904 -0.10331995
0000b0 99 4e 8d bd 28 ce a8 3e 87 ba 99 3e 5d a9 d7 3e
       -0.06899757 0.32969785 0.30025122 0.421214
0000c0 75 82 a9 bd 33 0d d9 be 1c 15 6d be d4 9e d0 3d
       -0.08276836 -0.42392883 -0.23152584 0.10186544
0000d0 7a f5 67 3d 6b e8 19 bd 82 4a 04 3c 30 ba 60 bb
       0.05663059 -0.037575167 0.008074405 -0.0034290664
0000e0 0c f7 b7 bd b5 3d b7 be c0 c5 01 be a3 5b 8f be
       -0.08982667 -0.35789266 -0.12673092 -0.279996
0000f0 dd d7 0d 3d d2 21 e7 3d 30 37 23 bf 3c 93 ba be
       0.03462969 0.112857476 -0.63756084 -0.36440456
000100 88 46 99 bd 47 df 09 bf 3e cb 1f 3d c5 8d dc be
       -0.07484156 -0.5385632 0.039012186 -0.43076912
000110 d3 de 7a 3c 71 3a 3f 3e 45 c5 83 be 02 e7 a6 be
       0.0153119145 0.18674637 -0.25736442 -0.3259812
000120 4e 4d df be 81 9a be 3c 33 18 9e bb 3a 00 87 be
       -0.43613666 0.023267033 -0.004824662 -0.2636736
000130 14 8e 40 be 89 f4 9d be 52 9b 11 3d 77 99 18 3e
       -0.18804199 -0.30850628 0.035548516 0.14902292
000140 13 8b 1d 3e 6e 0e 1e 3f 48 66 e2 3e 49 33 9d bd
       0.15385084 0.6174077 0.4421866 -0.076757975
000150 03 46 09 3e 8e c7 c5 3e 30 a4 f7 3e e3 82 03 3e
       0.13405614 0.3862881 0.48367453 0.12842898
000160 28 29 07 3e 80 6a 06 3e 17 f7 26 3e fd 51 e9 3e
       0.13199294 0.13126564 0.16305195 0.45570365
000170 17 d9 03 3b 40 80 b3 3e 60 d1 33 3c 16 c2 33 3e
       0.002011841 0.35058784 0.010975212 0.17554507
000180 b9 d6 fd 3e 97 c3 c9 3e 78 45 c8 3e 32 a2 b3 3e
       0.49577883 0.39407036 0.391155 0.35084683
000190 91 7d aa 3d 2a ea c1 3e da 4b 06 3e 44 7c 2e 3d
       0.08324731 0.37873966 0.13114873 0.042598978
0001a0 d1 e7 a4 3e d4 d5 04 be c9 49 ca 3e 04 21 d3 3e
       0.32208112 -0.12972194 0.3950942 0.41236126
0001b0 ce 55 08 3f 6b 9d 33 be 62 00 de 3e ff 54 aa 3e
       0.5325593 -0.17540519 0.43359667 0.33267972
0001c0 78 8d 94 be 3c 5c dd be 11 9d 82 bd fd 1a da be
       -0.29014182 -0.43234432 -0.06377614 -0.42598715
0001d0 d9 91 26 be 7b ba ef bd 19 ab 3a 3e e5 e9 1c be
       -0.16266574 -0.1170549 0.18229331 -0.15323599
0001e0 fc 79 be 3b 00 77 55 bd 4b 3e 63 be a0 88 a2 3d
       0.0058128815 -0.05211544 -0.22191732 0.079362154
0001f0 d5 f5 fe be ec ba 12 3c a1 dc 1a be 38 eb 9c bd
       -0.4979693 0.008955698 -0.15123226 -0.07662052
000200 1f 2a e5 3e 6f fb e8 3d e9 2c 91 3d ce db bb bc
       0.44758698 0.11376082 0.07088644 -0.02293196
000210 a6 e6 17 3e a1 2d 5f 3e ee a8 95 3c 41 c0 26 be
       0.14834079 0.2179475 0.018269029 -0.16284277
000220 e7 1b d4 3d b1 08 63 3d ad 9d 11 3e 52 07 93 bd
       0.103568844 0.05542821 0.14220305 -0.071791306
000230 09 eb eb 3e 17 e7 ba 3e d0 62 01 3f bd 8b 6d 3d
       0.46077755 0.36504433 0.505414 0.057994593
000240 44 e3 86 3e 74 69 85 3e 6e 6d 83 3e f6 ff 0c 3f
       0.26345265 0.26057017 0.25669426 0.55078065
000250 c7 de 8c be 7b 2d 8e 3c fe f3 be 3e 19 9c 14 3e
       -0.27513716 0.017355671 0.37295526 0.14512672
000260 95 ce f2 3e 24 3c 9b be e4 60 47 3e 32 60 7d 3e
       0.47423235 -0.3031932 0.19470555 0.24743727
000270 93 8b 2e 3e 61 0d 93 be 45 e3 ac 3e d4 27 cd 3e
       0.17045431 -0.28721145 0.33767143 0.4006945
000280 7d 5b bb 3e 6d 8f 70 bd a7 97 75 3e 70 66 9f bd
       0.36593238 -0.05873053 0.23983632 -0.0778321
000290 77 5e 90 3e 00 15 01 3d 29 00 f3 3d 3c 56 ac 3e
       0.2819707 0.031514168 0.11865265 0.33659542
0002a0 f7 12 56 be c7 6d a5 be 17 83 13 be a5 ea 48 3d
       -0.20905672 -0.32310316 -0.14405476 0.0490519
0002b0 93 8b de bc f7 08 2c bd 82 21 0d 3c 05 7b 05 3e
       -0.027166164 -0.042000737 0.008613946 0.1303521
0002c0 e4 a4 c6 3d 0a 5a fa 3e 2f f4 99 3e d8 b9 11 3f
       0.09699419 0.4889682 0.3006911 0.569242
0002d0 52 5d 69 be fd b1 01 3c d0 9d f8 3d 3d 51 8f be
       -0.22789505 0.007915971 0.12139475 -0.27991667
0002e0 3b 4d c7 3e 61 0d 6c 3e 94 c6 92 3e f8 ee 8c 3d
       0.3892611 0.23051979 0.28667128 0.06881517
0002f0 95 3a 14 3d 7b 48 38 3e f3 89 a7 3e 94 b2 ac 3d
       0.03618868 0.17996399 0.32722434 0.084324986
000300 f6 60 e3 3d 57 1d 64 bd 41 0a bf 3e 7e fb ac 3c
       0.11102478 -0.055692043 0.3731251 0.021116015
000310 4b bb 63 3e 06 f2 72 bd 73 6a 50 3d 45 68 fa 3d
       0.22239415 -0.059312843 0.050882768 0.12226919
000320 0d c5 5a 3e e6 dd 9e 3e f4 92 9d bd 96 53 b3 3e
       0.21364231 0.3102867 -0.07694045 0.35024709
000330 9a 02 b8 3e b9 32 a4 bc 46 5a a5 bc 2d 2f 99 bb
       0.35939485 -0.020043718 -0.020184647 -0.0046748132
000340 f8 07 ee 3e 2a 54 17 bd f8 81 29 3e 39 4b c4 3c
       0.46490455 -0.0369455 0.16553485 0.02396165
000350 09 40 3a be 5d 9f a1 3e f3 0c f0 3d 96 2c 1c 3e
       -0.1818849 0.31566897 0.1172122 0.15251383
000360 cb 83 35 3e 1e 2f 66 be 60 54 9c be 75 82 da bc
       0.17726056 -0.22478911 -0.30533123 -0.026673535
000370 96 ee 09 3e 35 cf 13 be 7e 66 29 3e 4d 3f 42 3e
       0.1346992 -0.14434512 0.16543004 0.1896946
000380 56 02 31 3e 8d 2a 9e 3e a2 27 14 bd 77 3f ed 3e
       0.17286047 0.3089184 -0.03617061 0.46337482
000390 d6 d8 44 be e7 88 05 3d fd 6c ad 3e 95 a5 b6 3e
       -0.19223341 0.032601263 0.33872214 0.35673204
0003a0 f3 db 86 bd 6d 84 97 be 2a 52 67 be 39 ec 89 3e
       -0.06584921 -0.2959322 -0.22589937 0.26938036
0003b0 98 3b c2 3e 8d 40 15 be 40 8c c4 bb ee 8d 8f bc
       0.3793609 -0.14575405 -0.0059981644 -0.017523732
0003c0 e0 4d 01 3e 8e 91 4b 3d ee df 34 be 44 d1 6d bc
       0.12627363 0.04969936 -0.17663547 -0.014515225
0003d0 17 ed 84 bd 24 05 83 3e 66 06 ee bd 3f 0e 9e bd
       -0.06490534 0.2558986 -0.11622314 -0.07717561
0003e0 e4 5a 0e be ef e1 56 3e f1 84 6c 3d 40 fd dc 3e
       -0.1390186 0.20984624 0.05774397 0.43161964
0003f0 8f 54 8c 3e 00 20 08 bd 9b 3c 1a 3f 58 ff 99 3e
       0.27408263 -0.033233643 0.60248727 0.30077624

encoder.4.bias f4 [32]
000000 1b d4 ac 3e 61 19 9b be 55 ee b7 3e 51 84 c7 be
       0.33755574 -0.302928 0.3592402 -0.38968137
000010 43 d5 c6 be 22 88 b5 3e 3d d2 c1 3e 9f 47 bd be
       -0.3883458 0.35455424 0.37855712 -0.36968705
000020 01 8d b9 3e 77 61 c0 3e eb 2a 99 3e 36 cb bc 3e
       0.3624039 0.3757436 0.29915556 0.36873788
000030 61 6e bd 3e 96 01 b7 3e db 94 bb 3e 03 a5 c0 3e
       0.36998275 0.35743397 0.36637005 0.37625894
000040 f8 78 ab be 5b 22 80 be 4b 4d 9d 3e f0 68 b4 3e
       -0.3349073 -0.2502621 0.30723032 0.3523631
000050 38 c8 b9 be 51 f6 bf 3e 4f 31 a5 be 81 bb cf be
       -0.36285567 0.37492612 -0.32264182 -0.40572742
000060 4a bc c2 be be 3c 3d 3d bc aa ba be 5e 1d a8 3e
       -0.38034278 0.046200506 -0.36458385 0.32834905
000070 b5 fa b3 be b4 dd b8 be 3f 0c c7 be 25 0a c2 3e
       -0.35152212 -0.36106646 -0.3887653 0.37898365

residual.0.weight f4 [16, 32]
000000 c1 ee 88 3e b0 4e 9c 3e d1 2d a4 be e6 f1 6c be
       0.26744655 0.30528784 -0.32066205 -0.23139152
000010 d7 d7 83 3d fd 27 a8 be 4f f5 07 3d 78 4c e1 ba
       0.064376526 -0.3284301 0.03319293 -0.0017188927
000020 8c 75 a1 3e 23 db d3 3d d7 98 e4 bc e7 18 17 3d
       0.31534994 0.103445314 -0.027904911 0.036888983
000030 5e f9 af be fc a1 7b be a9 d5 77 be 86 fc 60 be
       -0.3436994 -0.24573511 -0.24202599 -0.2197133
000040 ff b9 be 3e 2c a7 34 be a7 8d 85 3e 71 d0 3c 3e
       0.3725128 -0.17641896 0.26084635 0.18438889
000050 33 7d 4d be c6 05 8b be c0 10 60 3e a3 a9 e6 3d
       -0.20067291 -0.27152842 0.2188139 0.112628244
000060 bf 93 c0 bd e4 57 84 3d 9c bd 0f be 76 66 43 be
       -0.0940318 0.06462076 -0.14037174 -0.19082054
000070 09 1b 9e 3e 90 a1 89 bd 43 c1 bf 3e a2 26 c2 be
       0.3088 -0.06720269 0.37452134 -0.379201
000080 9f 6e 15 bd b4 83 a0 be c3 19 a3 3d b6 3b af 3e
       -0.03648245 -0.31350482 0.07963898 0.34225243
000090 3d ed 82 3e 13 83 a4 3e a4 31 34 be 16 59 00 3e
       0.25571623 0.32131252 -0.17597061 0.12533984
0000a0 e1 82 7a be ac 11 aa 3e 23 52 c3 bd 55 de 81 3e
       -0.24463989 0.33216608 -0.09537151 0.25364938
0000b0 48 4e 5a bd a9 4f 82 3d 3b 5b 24 bd 5a 84 a2 3e
       -0.05329731 0.0636285 -0.040126067 0.317416
0000c0 34 11 97 be 1c e1 a0 be e1 83 04 3d 0b ea 62 be
       -0.29505312 -0.31421745 0.032352332 -0.22159593
0000d0 7e ee 71 bd 71 69 70 3d b4 d8 15 3e d6 86 84 3d
       -0.059065334 0.058694307 0.14633447 0.064710304
0000e0 ef ca 9d 3e f2 03 87 be 0d e5 a5 be b6 73 29 bd
       0.3081889 -0.26370198 -0.32401314 -0.041370116
0000f0 67 7b 09 3d 81 4d 87 3e 41 ab 1c be 14 fb a3 3e
       0.03356495 0.26426318 -0.15299703 0.32027495
000100 7d 5f 84 3e dc 90 92 be da c8 6d 3e 89 bb 9c 3b
       0.25854102 -0.28626144 0.2322115 0.004783098
000110 dd 17 55 3e 93 0d 36 be b4 b0 37 3d dc 46 34 3e
       0.20809884 -0.17778616 0.04484625 0.17605156
000120 40 c1 3d be 64 f9 86 be 3f 6f 41 bd 23 18 70 3e
       -0.1853075 -0.26362145 -0.047225233 0.23446707
000130 6e c7 12 3e a6 9b ad bd b7 e5 ea 3d a6 bb fe 3d
       0.14333889 -0.08476953 0.11469596 0.12438135
000140 dd 75 91 be 29 4c 02 3e fd e5 9a 3d 1c fd c4 bc
       -0.28410235 0.12724365 0.07563398 -0.024046473
000150 ba 80 86 be b7 04 58 be 3c 26 b8 3e b5 76 9c 3e
       -0.26270086 -0.21095549 0.3596667 0.30559316
000160 21 c7 da bd 30 7e 47 3e ad 39 ad 3d 70 a1 51 3e
       -0.10682512 0.1948173 0.084582664 0.2047174
000170 d5 b2 81 bd f2 d1 a3 be aa 4b 85 3e f2 71 0f be
       -0.06332938 -0.31996113 0.2603429 -0.1400831
000180 82 9c 45 bc 39 c5 86 be bd d0 83 be 86 d5 13 3e
       -0.01206124 -0.26322344 -0.25745192 0.14436921
000190 7b f6 33 be 86 4c c4 3d 77 c9 6a 3e d5 08 3e bc
       -0.17574494 0.09584908 0.22928415 -0.011598785
0001a0 f6 72 6c 3e 7b 6d f1 3d 97 4e 87 3d 12 0d 5c 3e
       0.23090729 0.1178846 0.06606787 0.21489361
0001b0 a8 4d 73 3d 3c 17 85 3e 36 6d a6 be 00 f4 97 be
       0.05940023 0.2599429 -0.32505196 -0.29678345
0001c0 45 d5 f3 bd be f7 3c 3e bc bc dc 3d 97 85 6a 3e
       -0.11905912 0.18453881 0.10778186 0.22902523
0001d0 21 ab af 3e b6 a6 a5 be 40 39 77 be 0c c3 35 3e
       0.34310248 -0.32353753 -0.24142933 0.17750186
0001e0 6b 24 08 3d ff 2e 0e 3e f9 3c 06 be da 87 ef 3c
       0.033237856 0.13885115 -0.13109197 0.029239584
0001f0 a6 12 0e be f6 5f 32 be f5 dc 30 3e fd 08 ad 3e
       -0.13874301 -0.17419419 0.17271788 0.3379592
000200 76 44 8b 3d b0 66 bc 3c 9a 6e aa be 16 2f b8 bd
       0.06800167 0.022998184 -0.33287507 -0.08993356
000210 0c 53 b7 be 76 16 25 be f4 01 00 3d bd 1d 73 bd
       -0.35805547 -0.1612185 0.031251863 -0.059354533
000220 37 10 ea 3d 3d 51 1e 3d e9 8b 3c 3d 2b 44 54 be
       0.11428874 0.038651694 0.046031866 -0.20729129
000230 b9 bd 99 be 72 7c a1 3e a4 a3 b3 3e 55 25 97 be
       -0.3002756 0.31540257 0.35085785 -0.2952067
000240 45 55 87 3e 43 9d 9a be b1 a3 1d be a1 38 1a 3e
       0.26432243 -0.30198106 -0.15394475 0.15060665
000250 bd 56 dc bd 8a ff e1 3d 2e 03 21 3e c6 43 8d be
       -0.107587315 0.11035068 0.15723869 -0.2759077
000260 88 ee 9a 3e 42 7f 2e 3e 05 66 f6 3d 9d 23 88 3e
       0.3026011 0.17040733 0.120311774 0.2658967
000270 39 96 52 be bc e5 73 3e 0e 27 c4 bd 22 39 55 be
       -0.20565118 0.23818105 -0.095777616 -0.20822576
000280 89 9b 0b be e6 d7 1e be 41 b5 b7 bd 72 9a 27 be
       -0.1363355 -0.15512046 -0.08970118 -0.1636751
000290 e4 58 7c 3e fd 2e e6 3d eb e4 fa ba d3 4d 65 3e
       0.24643284 0.11239431 -0.0019141709 0.22392969
0002a0 ee 45 f8 3d 32 9b 4a be 9d d0 33 3b 87 fa be 3e
       0.12122713 -0.19785765 0.0027437576 0.37300512
0002b0 0f b0 2f 3e 22 92 9a 3d d3 7d 45 3d e2 20 97 3c
       0.17157005 0.07547404 0.0482157 0.018448297
0002c0 5d 45 25 be 92 83 ac be 03 9f 8f 3e 40 a9 46 be
       -0.16139741 -0.3369413 0.28051004 -0.19400501
0002d0 cd 2d bc 3d e6 ba 10 be 0f e3 9e 3e 18 f5 ac 3d
       0.09188423 -0.14133796 0.31032607 0.084451854
0002e0 42 1f 47 3e 11 3e b5 3d 67 9c af be 33 ab b0 be
       0.19445518 0.08849729 -0.34299013 -0.34505615
0002f0 5a 0a 72 3e 37 17 0d be f6 37 b1 be b1 f4 6d 3e
       0.23636761 -0.13778387 -0.34613007 0.23237874
000300 c8 b1 b6 bd be 1e 6b be 4c 1e 51 be 42 c2 89 3d
       -0.08920628 -0.22960946 -0.20421714 0.06726505
000310 37 e6 a0 be 74 0d 4e be 8e 67 42 be f6 0e 6a bd
       -0.3142564 -0.2012232 -0.18984815 -0.057143174
000320 6a 37 83 be 90 63 ac bc f7 2c 9b 3e 55 db 4b be
       -0.25628215 -0.021043569 0.30307743 -0.19907887
000330 86 05 cd bc 22 25 12 3c a1 6b 47 3c 6e 4b 9d be
       -0.025027048 0.008919986 0.012171657 -0.3072161
000340 03 82 55 3d 97 26 9f 3e da 90 20 3e 3e e2 04 be
       0.052125942 0.3108413 0.15680256 -0.1297693
000350 50 6b 94 3e 19 11 33 be 3f 5f 16 be 87 c0 a8 be
       0.28988123 -0.17486991 -0.14684771 -0.32959387
000360 3c 4d 31 be 69 ad 0b 3e 43 05 7c 3d 2d 99 89 3e
       -0.17314619 0.1364037 0.061528455 0.26874676
000370 6e 8a c4 3c ef 25 9e be ca ec 84 3e 4f 8c 6f be
       0.02399179 -0.30888316 0.25961906 -0.23393367
000380 3d 13 04 be 27 a1 fb 3a 6f 92 a1 3e d9 8c 88 be
       -0.12897964 0.0019197807 0.31557032 -0.26669958
000390 2a 73 78 3e d7 7e 13 be c3 a6 a8 be c2 fc 58 be
       0.24262682 -0.14403854 -0.3293973 -0.2119017
0003a0 cd 59 9a be b5 01 af 3d f4 ab 10 3e 30 7d 02 be
       -0.30146638 0.085452475 0.14128095 -0.12743068
0003b0 e6 5d 9f 3d 90 b3 89 3d ed c9 ad bd 99 30 b3 be
       0.077815816 0.06723702 -0.0848578 -0.34998015
0003c0 2e 23 84 3e 4a 9d bf 3c 49 56 80 bd b0 28 27 3e
       0.2580809 0.023390431 -0.062664576 0.16324115
0003d0 9f 9d d7 3b ef 5a 48 bd 88 49 18 3e f7 a0 71 3e
       0.006580069 -0.048914846 0.148718 0.2359656
0003e0 96 98 41 be f2 9e 86 3e e2 a0 4f be 52 08 e7 bd
       -0.18905863 0.2629314 -0.20276216 -0.11280884
0003f0 26 be d3 3d 7e e8 14 be 28 ef 46 3e 47 c0 ae bd
       0.10339002 -0.14541814 0.19427168 -0.08532768

residual.0.bias f4 [16]
000000 86 0d 0a bd 49 7a f1 3b f0 a0 bb bc bd 55 1e bc
       -0.033704303 0.007369314 -0.02290389 -0.009663996
000010 be 4e 66 3c 5a cc 04 3d d3 a5 fc 3b 71 a6 1d 3b
       0.01405686 0.032421447 0.0077101975 0.0024055506
000020 24 9b e1 3a 8a d3 6c 3a 4e 0c e0 bb bd 0f ae 3b
       0.0017212373 0.00090342073 -0.0068374043 0.0053119347
000030 6b 36 9f 3a dc 08 29 3b f0 de c7 bc b6 b0 a9 bc
       0.0012146955 0.0025792634 -0.024398297 -0.020714145

residual.2.weight f4 [16, 16]
000000 61 e1 d9 be 9e 82 d0 3e bb 64 9c 3c ac 06 bf bd
       -0.42554763 0.40724653 0.019091 -0.093274444
000010 6c 37 ac be 5e 3f 6a bc 8f 80 ba 3e 9d 73 7d 3e
       -0.33636034 -0.0142973345 0.36426207 0.24751134
000020 71 43 7f 3e 18 ef fe bc 90 f0 db 3e 8f 2c 7d 3e
       0.2492807 -0.031119868 0.42956972 0.24724029
000030 a6 d3 19 3e 26 be a4 bd d2 0f a1 3e c7 a3 6a 3e
       0.15022144 -0.080440804 0.31457382 0.22914039
000040 1c 94 45 3e 90 a0 14 be 13 7b 7f be af 47 ba 3c
       0.1929478 -0.14514375 -0.24949293 0.02273926
000050 a2 77 81 3e 72 42 ac 3d 30 54 e0 3d ae b0 42 3e
       0.25286585 0.08411111 0.109535575 0.1901271
000060 b7 b7 d6 3b 59 19 96 be ed dd 8f be c3 97 58 be
       0.0065526622 -0.29316214 -0.28099003 -0.21151643
000070 87 75 3d be 11 e8 c3 3d cf 7d c4 bc 78 12 ab 3d
       -0.18501864 0.095657475 -0.023985771 0.08353132
000080 29 39 32 3e 01 0e 75 be 22 dd c1 3e 1a 17 51 be
       0.17404617 -0.23931123 0.37864023 -0.20418969
000090 60 3a a8 3e ec 1c 37 be 92 0c aa be 0b 70 ad be
       0.32857037 -0.17882127 -0.33212715 -0.33874545
0000a0 05 41 98 be 99 1c 38 be 7d 94 57 be 98 df 73 be
       -0.29737106 -0.17979659 -0.21052738 -0.23815763
0000b0 fe a2 29 be 81 ce 2c be dd 11 5c 3e f3 63 a0 3e
       -0.16566083 -0.1687565 0.2149119 0.31326255
0000c0 7f 2b be 3e be 03 71 be d8 c6 ae 3e c5 49 16 be
       0.3714256 -0.23536584 0.3413608 -0.14676578
0000d0 cc 72 17 3e 3a 2c 93 3e 22 e7 bc 3e 97 26 0d be
       0.14789885 0.2874468 0.3689509 -0.13784252
0000e0 4c 03 a9 3e 90 8a 0b 3e 86 5f ae be 68 2d a1 3d
       0.33010328 0.13627076 -0.34057254 0.07869989
0000f0 48 1b c4 be 9d 00 69 be 8d d6 5c bd ad 67 c2 3e
       -0.38302064 -0.2275414 -0.05391555 0.37969723
000100 32 ff d5 bd 04 88 bf be 8b 97 ad 3e 33 7f 48 3d
       -0.10449065 -0.3740846 0.3390468 0.04894943
000110 52 ca a5 3e 04 54 85 be cb 61 0d bd 3f ba ac be
       0.3238092 -0.2604066 -0.03451709 -0.33735844
000120 9e a5 ed bc 8d 06 76 bd c1 5e c7 be 71 05 f0 bd
       -0.029009636 -0.06006484 -0.3893948 -0.11719788
000130 3f f9 83 3e 9a f6 8b be af 36 d6 be f5 a6 9f be
       0.25776097 -0.2733658 -0.41838595 -0.31182066
000140 f4 da 9a be d5 bf ae be 23 d1 70 3e e2 34 b9 3e
       -0.30245173 -0.3413073 0.2351728 0.3617316
000150 e5 c0 ce 3e 9f 1f e0 3e 4e dd 84 3d 2f 1d 59 be
       0.40381542 0.43774125 0.06487523 -0.21202539
000160 b1 a8 b1 3e 6a 83 34 bc 04 18 39 3e 35 a6 b1 be
       0.34699014 -0.01101766 0.18075567 -0.34697118
000170 73 64 7c 3e 98 ca 5e be eb 14 1c 3e 77 8e 1b 3e
       0.24647693 -0.21756971 0.15242355 0.15191065
000180 64 70 91 be 6c 49 c2 3d 05 c6 6b be a4 15 9e 3e
       -0.2840606 0.0948666 -0.23024757 0.30875885
000190 85 c1 80 3e f5 94 d0 be e4 86 67 3d 08 e7 ac 3d
       0.25147644 -0.40738645 0.056525126 0.08442503
0001a0 9e e8 dc 3e b1 a0 ae 3e b9 27 91 be f0 1e 5f be
       0.43146223 0.34106973 -0.28350618 -0.21789145
0001b0 3f 97 38 3e bc fd 6f be 65 7e 90 3e d1 18 2a be
       0.18026446 -0.23436636 0.2822143 -0.16611029
0001c0 f4 87 3f be 34 0d a2 bb a2 70 bd be 21 d9 c7 3e
       -0.18704206 -0.0049454216 -0.36999995 0.39032844
0001d0 e4 d6 b1 3e 44 4b 92 bd 81 f4 97 3d 76 48 d7 be
       0.3473426 -0.07143262 0.07419682 -0.4204747
0001e0 56 e0 66 be 10 bd b5 bd df 55 97 3e 73 c1 43 bd
       -0.22546515 -0.088739514 0.29557702 -0.04779191
0001f0 3b f7 81 3e 9f 77 2e 3d eb f6 1f 3d ff 55 8a 3d
       0.25383934 0.04259455 0.03905384 0.06754684
000200 e6 ce c4 be 2b ae 04 be f6 02 c0 be 70 6c 5a be
       -0.384391 -0.12957065 -0.3750226 -0.21330428
000210 f3 7b b2 3e 97 03 1d 3e f8 8a 62 be 9c b8 cf 3e
       0.3486019 0.153334 -0.22123325 0.40570533
000220 d0 89 5c bd 9d a8 2f 3e 0c a9 c8 be ab be dd bd
       -0.053842366 0.17154165 -0.39191473 -0.10827383
000230 40 2f ad 3e 97 c6 4f 3e 67 b2 83 3e d7 c3 90 be
       0.3382511 0.202906 0.25722048 -0.28274414
000240 46 e2 1b bd 1c 3f db 3e 05 68 c0 bd 0d 25 62 3d
       -0.038057588 0.42821586 -0.0939484 0.055211116
000250 9a ac fc 3c 54 dc b1 3e fa 96 b0 3e 72 62 9e 3c
       0.030844022 0.3473841 0.34490186 0.019334052
000260 77 a3 89 3e bc 7d ee bd d6 8f c5 be c7 29 49 3e
       0.26882526 -0.11645076 -0.385863 0.19644843
000270 3a 37 63 be 20 65 ad 3e cd 57 b8 3c a7 f7 b7 be
       -0.22189036 0.33866215 0.022502804 -0.3593113
000280 a2 c7 d1 bd 1e a9 a4 be 1d 18 95 be 09 12 23 be
       -0.10243155 -0.32160276 -0.2911996 -0.15924849
000290 cc 2b 97 3d 1e 25 20 be a0 76 a0 3e 1b f1 ef 3c
       0.073814005 -0.15639159 0.31340504 0.029289773
0002a0 0d 36 d1 3e d4 23 ae 3e 27 9e c3 be 28 49 29 3e
       0.4086155 0.3401171 -0.38206598 0.16531813
0002b0 0c 5c 6a be 09 6f ba 3e 3c 16 c3 be 84 fd dc bd
       -0.22886676 0.36412838 -0.381029 -0.10790542
0002c0 7d 33 75 3e 57 e5 86 be 84 ea 8f be 6f 8b c3 3c
       0.23945422 -0.26346847 -0.2810861 0.023870198
0002d0 66 4d d7 3e 51 06 cd 3e c5 a6 6e be ff 30 ce 3e
       0.42051238 0.40043882 -0.23305805 0.40271756
0002e0 2a 98 eb 3b 31 1b c6 3e f1 a2 9d be 46 8e 98 be
       0.00718977 0.3869262 -0.30788377 -0.29796046
0002f0 9f fb 2c bc 26 30 b0 be ee b7 f9 bb fa 54 cf 3d
       -0.010558038 -0.34411734 -0.007620803 0.1012363
000300 99 ec 25 3e 98 70 05 3e f1 4b 28 3e 07 a6 fa 3d
       0.16203536 0.13031232 0.1643522 0.122386985
000310 d9 13 95 3e ac 95 4a 3e ff 20 d0 3e 15 fb b5 be
       0.29116705 0.19783658 0.40650174 -0.35543123
000320 0d 73 df bc c6 cd 02 bd 71 39 06 be 5c 57 b9 3e
       -0.02727654 -0.031934522 -0.1310785 0.36199462
000330 4b 66 08 be 96 fe 6a be a6 d8 27 3e db ac 5c 3e
       -0.13320272 -0.2294868 0.16391239 0.21550314
000340 bc 1b aa 3e ac 1b 8c be b5 a6 c5 be 2b 77 0d 3d
       0.33224285 -0.27364862 -0.3860375 0.034537476
000350 0d 42 a8 be 0e 03 b7 3e 15 72 84 be 64 f2 51 be
       -0.32862893 0.35744518 -0.25868288 -0.20502621
000360 ea 02 88 bd ac 47 3b 3e 5d 56 91 be b9 6c 83 be
       -0.06641181 0.1828906 -0.28386202 -0.25668886
000370 7f 0c 3f 3e 4d 5c ae 3e d1 b5 48 3d a8 a3 02 be
       0.1865711 0.34054795 0.04900152 -0.12757742
000380 ed 3f 51 3e 52 be 54 be b8 8c d0 bd 40 c1 c6 3e
       0.20434542 -0.20775726 -0.1018309 0.38819313
000390 45 99 c1 3e 38 4b 5b 3e 2d b9 40 3e 61 84 a8 3e
       0.37812248 0.21415412 0.18820639 0.32913497
0003a0 9d f6 64 be de e6 bd be 4d f7 4f be 00 9e 8f 3e
       -0.223597 -0.370902 -0.20309182 0.28050232
0003b0 96 ad 0a be 8b 8f 57 3e 6f 7b 6a 3e d6 8e 96 3e
       -0.1354278 0.21050851 0.22898649 0.2940585
0003c0 15 d8 c8 be 6d 0f e9 3d 39 9f d5 3e bd 5e 31 be
       -0.39227358 0.11379895 0.4172304 -0.17321296
0003d0 ed 74 79 bc b3 d1 d3 3e 1a 71 41 be f5 64 d4 3e
       -0.015225631 0.41370925 -0.18890801 0.41483274
0003e0 fa 11 aa 3d 6d 59 e1 be 21 a1 e0 3e 42 38 4e bd
       0.0830421 -0.4401354 0.43872932 -0.05034662
0003f0 fd d3 e5 3d 1b a0 51 be ba cb e1 3d 7e 28 fb 3d
       0.11222074 -0.20471232 0.11025186 0.12263583

residual.2.bias f4 [16]
000000 6a 89 15 3a 35 0f 19 3c 06 78 04 bc 1b 46 40 3c
       0.0005704375 0.009342005 -0.008085256 0.011735464
000010 17 1d 83 3b 3b 77 55 bb 37 c0 15 bd 96 b8 33 3c
       0.0040012705 -0.0032572288 -0.036560263 0.010969302
000020 83 cb c8 3c 09 ff ea 3c bc b4 11 3c 8d aa 97 3b
       0.024511104 0.028686063 0.008893188 0.0046284855
000030 81 b3 8d 3b c1 ad c6 bb b8 14 6d bc 87 65 4b bc
       0.004324377 -0.0060631935 -0.014470272 -0.012414343

residual.4.weight f4 [8, 16]
000000 72 48 88 bc 61 98 a4 be 99 49 c0 3e 2e a6 72 be
       -0.016636107 -0.32147506 0.3755615 -0.23696205
000010 05 53 6d bd bf 06 c1 be fb ca 94 3d d9 fa 18 bd
       -0.0579405 -0.3770046 0.07265278 -0.037348602
000020 b6 ce 9f be d9 bc 7c bd e6 40 e6 bd 94 54 f2 be
       -0.31212395 -0.061703537 -0.11242847 -0.47330153
000030 e8 02 a1 3e 1c 0c cf 3c 7c 46 50 be 2c cb 39 3e
       0.3144753 0.025274329 -0.20339388 0.1814391
000040 d4 da d9 be f6 00 ee be f9 60 b4 3e fb 3e ac be
       -0.42549765 -0.46485108 0.35230234 -0.336418
000050 34 53 cf 3d 37 91 29 3e 1e 47 c9 3e 93 1a 04 3e
       0.101232916 0.16559301 0.3931207 0.12900762
000060 a0 ea cd be 6c 69 f2 be e5 c6 a0 be ba aa 94 bc
       -0.40218067 -0.47346056 -0.31401744 -0.018147815
000070 cb 60 e4 be ce 9d aa 3e c6 76 89 3e 49 eb c0 bd
       -0.44605097 0.3332352 0.2684843 -0.09419877
000080 1e 73 ea be af 59 e3 3e 71 da 81 3d 65 1e c0 bd
       -0.45790952 0.4440436 0.063404925 -0.09380797
000090 a1 0b a0 be ec 25 19 be aa f9 34 3d d7 5c b8 3e
       -0.31258872 -0.14955872 0.04418341 0.3600833
0000a0 e5 8a 29 3e c7 21 bd be b8 29 f9 3e 39 71 9a be
       0.1655689 -0.36939833 0.4866464 -0.30164507
0000b0 e7 d7 37 be 4b 74 8d 3e f9 0b ab bd ad 93 ab 3d
       -0.17953454 0.27627787 -0.08351893 0.08377776
0000c0 16 ac e3 be 06 b4 06 bc 26 f1 b3 3e cf 01 20 bd
       -0.4446723 -0.008221632 0.3514492 -0.039064225
0000d0 d1 d5 be 3e eb 9e b5 3d a2 f9 b3 3d 4b 14 a7 be
       0.37272504 0.08868202 0.08787848 -0.3263267
0000e0 f7 c6 6a bd 8c 24 93 bd e1 ee 4a 3e 4d 3e 24 be
       -0.057318654 -0.07184705 0.19817688 -0.16039391
0000f0 24 63 f1 3e c4 62 ad 3e 6f 5e 63 be ee 02 81 3d
       0.4714595 0.33864415 -0.22203992 0.06299387
000100 77 3f 2a 3e 45 c2 3d 3e 23 51 80 3e bd 27 d3 bd
       0.16625772 0.18531139 0.25061902 -0.10310314
000110 78 a9 39 bd 04 27 53 3e b9 78 bf 3d 3e cc a6 be
       -0.045327634 0.20620352 0.09349198 -0.325777
000120 c4 1a ef be 89 4f cd be e0 56 f5 be 3d aa fb be
       -0.46700108 -0.40099743 -0.47917843 -0.4915332
000130 80 7f 23 be a1 c0 89 3e 76 de af 3e 2b 71 53 3e
       -0.15966606 0.26904777 0.34349412 0.20648639
000140 88 10 ab bb 0e d0 2f 3e d8 e1 3e 3e 5a 9f a8 be
       -0.0052204765 0.1716921 0.1864084 -0.32934076
000150 02 61 52 be 77 67 fe 3e bb d4 49 be a3 b7 9b 3e
       -0.20544818 0.49688312 -0.19710056 0.3041354
000160 10 3d e1 be ff 1f d6 be a3 aa 60 3e d5 af 9c be
       -0.439919 -0.41821286 0.21940093 -0.306029
000170 7a 61 8d 3d 33 6b f3 bd 99 78 ea be e0 8e d6 3e
       0.06903358 -0.11885681 -0.45795134 0.4190588
000180 ca ce d5 bd 62 2e 17 3d ae 65 82 3e 64 74 4e 3e
       -0.104398325 0.03690947 0.254682 0.20161587
000190 86 1a 19 3d 5a 6f b5 3e 00 19 10 be 7b bb b9 3e
       0.03737881 0.35436517 -0.14072037 0.3627585
0001a0 4f 5b 8a be 81 88 e6 3d 0b 7e 51 be 48 5b 6e 3e
       -0.27022788 0.11256505 -0.20458238 0.23277009
0001b0 9d 25 4b 3e 50 77 c5 be 2b 20 dc be 18 16 10 3e
       0.19838567 -0.3856759 -0.42993292 0.14070928
0001c0 76 5f 17 3e 23 48 9e be b7 fd d9 bd 0e 2e c2 3e
       0.14782509 -0.3091441 -0.106440954 0.37925762
0001d0 54 0e f4 be 34 6e b4 be 9c 0c a6 3e 35 0d f5 be
       -0.47667181 -0.35240328 0.32431495 -0.4786164
0001e0 a0 3a 8a be 4f d6 88 be d5 26 9b 3e be fd cd 3e
       -0.26997852 -0.26726004 0.30303064 0.40232652
0001f0 ea 7c b3 3e b7 90 b2 be ee 6f 2a bd 53 d5 96 3e
       0.3505624 -0.34876034 -0.04161065 0.29459628

residual.4.bias f4 [8]
000000 71 8e 6d bc d7 ab 74 bc 3f b5 b8 3b db 6c dd 3b
       -0.014499293 -0.014933548 0.0056368406 0.0067573613
000010 c0 c4 83 bc 08 de b4 3b d3 9e dd 39 5d 37 83 bb
       -0.016085029 0.0055196323 0.00042270738 -0.0040044026

residual.6.weight f4 [1, 8]
000000 f2 bb 93 3d 1e 10 85 be eb db 6a bd 19 fa 48 3b
       0.07213582 -0.2598886 -0.057338636 0.0030666648
000010 a1 3a 0e bf c9 38 43 bf 33 5a cb 3c 26 3d a7 3e
       -0.5555821 -0.7625852 0.024823284 0.3266384

nee_decoder.0.weight f4 [16, 32]
000000 8e 3f b6 3e 44 1d 27 3b 79 13 10 be 20 45 cd 3e
       0.35595363 0.0025499621 -0.14069928 0.400918
000010 c8 b2 9f be ad 78 c8 bc 08 fe 13 3e ed 5a 72 be
       -0.31191087 -0.024471605 0.14452374 -0.23667498
000020 f4 49 53 3d 99 c0 c2 bd 34 c4 4c 3d 9c 0d b4 3d
       0.0515842 -0.09509391 0.0499918 0.08791658
000030 5b 46 a4 be e9 90 32 3e 71 c5 bd 3e d7 e3 fb bd
       -0.32084927 0.17438091 0.37064698 -0.122993164
000040 43 d8 8d be 23 a6 34 be f2 d7 b0 be 1f ea 05 bf
       -0.27704057 -0.17641501 -0.34539753 -0.52310365
000050 fd b8 7e bd 64 7c 75 3d 59 35 10 3e 27 79 44 3e
       -0.062188137 0.05993308 0.1408285 0.19186841
000060 0f bd 87 3e 46 d6 23 be 71 c8 98 bc 25 c2 8d be
       0.26511428 -0.15999708 -0.018650265 -0.27687183
000070 16 d7 75 be 84 dd 80 3e 31 4e 5b be 63 a3 c1 3e
       -0.2400783 0.25169003 -0.21416546 0.37819967
000080 68 7c 8e be 02 08 8b be 3b 3b b2 bc 68 8c 89 be
       -0.2782929 -0.27154547 -0.021756759 -0.26864934
000090 18 6c 64 3e 10 2f ca bc fc f5 91 bd 00 9d b6 3e
       0.2230686 -0.024680644 -0.07126996 0.35666656
0000a0 7f 2e 4c be 70 3c 88 3e 1c d9 5d be 53 c6 3c 3e
       -0.19939612 0.2660861 -0.21664852 0.1843503
0000b0 e2 76 f5 bd 90 8e 39 be fa a2 27 3e 3c fd 6c be
       -0.11985566 -0.1812079 0.16370764 -0.23143476
0000c0 f1 4b c0 3e 78 01 90 3e 7d 59 6d 3e 39 a4 e9 bd
       0.3755794 0.2812612 0.23178668 -0.11408276
0000d0 88 8e 6e bd 55 4d 4a 3e 57 38 8f 3e 4f f0 12 3b
       -0.058241397 0.19756062 0.2797267 0.0022421067
0000e0 f8 3d 8a bd 25 8c a8 3e 02 21 e8 3e d0 17 da 3e
       -0.06750101 0.32919422 0.45337683 0.42596292
0000f0 04 f4 de 3e be 52 9f 3d 8f 57 91 be 56 a4 63 be
       0.43545544 0.07779454 -0.28387114 -0.22230658
000100 28 8f 32 be 7b 4e 97 3e 34 4e a4 3a 42 09 3b bc
       -0.17437422 0.29552063 0.0012535513 -0.011415781
000110 bf ca 98 be 68 e9 96 3e 49 e8 4e 3d 0a a0 d9 3d
       -0.29842183 0.2947495 0.050514493 0.10626228
000120 85 68 18 be 48 42 c0 bc e1 b7 9b be c8 92 2f be
       -0.14883621 -0.023469105 -0.30413726 -0.17145836
000130 73 5d 90 3d ed c2 47 be 62 76 4d be f1 13 f5 3b
       0.07049074 -0.19507952 -0.2006469 0.007479184
000140 f2 56 38 be f5 2f 9f bd 67 9e 01 3e 34 10 78 bf
       -0.18001917 -0.07772819 0.12658082 -0.96899724
000150 9c 99 42 3c ef 6e 3a 3e e5 a5 bf bd bd 52 0a 3f
       0.011877444 0.1820638 -0.09357814 0.540325
000160 4b c3 ba bd 48 98 2f be de ab 6a be 25 cb 87 3d
       -0.091192804 -0.17147934 -0.22917125 0.066305436
000170 86 92 97 bb 2d 62 5b 3b 27 4a f1 3c d5 48 85 bd
       -0.0046256213 0.0033475265 0.029454304 -0.06508032
000180 13 b1 b4 3e 19 64 fa bd bf d5 93 3e f5 47 49 3e
       0.35291347 -0.12226123 0.28874013 0.19656356
000190 d8 80 34 3e 1c a2 0a be 51 76 06 3e e1 f9 86 3e
       0.17627275 -0.13538402 0.13131072 0.26362517
0001a0 26 4a 8e 3e 33 fb 78 3e 56 5f a9 3d 8e 73 1c be
       0.27790946 0.24314575 0.08270137 -0.15278456
0001b0 47 45 9e be 05 29 95 3e 6e 60 6e be d2 69 e7 3d
       -0.3091223 0.29132858 -0.23278973 0.112994805
0001c0 2e 67 d2 bd 14 88 89 3d 60 61 9a 3e fb 5d 8b bc
       -0.10273586 0.06715408 0.30152416 -0.017012587
0001d0 33 d5 08 be 6d d6 fa 3d b4 c3 36 be 59 b2 25 3f
       -0.13362579 0.1224793 -0.17848092 0.6472526
0001e0 c5 74 56 3e 79 05 7a 3e 0b 8e cb be c9 cc 8c be
       0.20942982 0.2441615 -0.39756808 -0.2749999
0001f0 ce fa d3 bd 87 96 c5 bc 1b 64 aa 3e c3 0d ce 3e
       -0.103505716 -0.024119629 0.332795 0.40244874
000200 61 74 9a be 21 10 05 be 35 94 86 3d 8c 44 78 be
       -0.30166915 -0.12994434 0.06571237 -0.24244899
000210 47 b2 9d 3e d1 bc 68 be d4 cc 91 bd 1e 9b 67 3e
       0.30800077 -0.22728278 -0.07119146 0.22617766
000220 4c aa ab 3e a6 54 33 3e 1d 64 86 be 29 17 68 bd
       0.33528364 0.1751276 -0.26248255 -0.056662712
000230 a3 d4 20 3e 78 a8 9c 3d a9 26 97 bd 25 2b 1e be
       0.15706114 0.0764932 -0.07380421 -0.15446146
000240 29 c6 9c 3e 66 e0 ab be 87 32 93 be 05 33 85 bd
       0.30619934 -0.3356964 -0.28749487 -0.06503872
000250 69 44 bd 3d d3 ee a1 3d 80 dc bc 3e 75 de e2 be
       0.09241564 0.0790688 0.36886978 -0.44310346
000260 ca a9 e3 3d 47 a2 36 3e d9 fd 47 be f6 9b dc bd
       0.11116369 0.17835341 -0.19530429 -0.10771935
000270 f3 92 1c be 16 9b 0d bc dd 26 a1 be 28 3d a8 be
       -0.15290432 -0.008642932 -0.31474963 -0.3285916
000280 1d 0d 65 3e e7 f1 c1 bd 33 16 78 3e eb d6 3e be
       0.22368284 -0.09469967 0.24227218 -0.18636672
000290 2b 9c c7 be 90 ae 2d 3d 9c 31 8d 3e 88 ee 38 be
       -0.38986334 0.042402804 0.2757691 -0.18059742
0002a0 36 c5 4e 3c f9 cf 85 bd ce 2d 76 3e db 41 21 3d
       0.012620261 -0.06533808 0.2404091 0.039369445
0002b0 3e 7c bf be 42 e6 3d 3e 65 96 cf 3e 6c ef 23 be
       -0.37399477 0.18544868 0.4054443 -0.16009301
0002c0 71 8b 0d 3e 30 80 a5 be f6 cf da bc d0 37 79 bd
       0.13822724 -0.32324362 -0.026710492 -0.060844243
0002d0 02 88 9b 3e d4 0a 7c be e1 cc c9 be 51 21 10 3e
       0.30377203 -0.24613506 -0.39414123 0.14075209
0002e0 b5 14 d4 3e cc d9 07 3e f8 45 8f be 5e 68 b7 be
       0.41422048 0.13266677 -0.2798307 -0.35821813
0002f0 24 08 7a be 77 2f 99 be 04 87 1d be 88 e4 db bd
       -0.24417168 -0.29919025 -0.15383536 -0.10736948
000300 9e 14 7a 3e 2b 8a d9 bc ea 82 2d 3e 4a 86 24 3e
       0.24421927 -0.026555141 0.16944471 0.16066852
000310 55 19 1e 3e 80 61 34 be 88 46 24 be 5a cf 85 be
       0.15439351 -0.17615318 -0.1604253 -0.2613476
000320 c3 c7 50 bd c9 f8 85 bd 34 07 fd bc 61 91 d2 3d
       -0.050971758 -0.06541593 -0.030887224 0.10281635
000330 ea a1 57 3e 5c f9 ee be d3 5d f2 be d4 04 66 3e
       0.21057859 -0.4667462 -0.47337207 0.2246278
000340 ff d0 26 be d7 d4 c5 3e 8b c9 77 be af 5c d4 3d
       -0.16290663 0.38638946 -0.24197976 0.103692405
000350 11 b7 90 3e 6f 7d 67 be 36 2f 8b be df 26 82 3e
       0.2826467 -0.22606443 -0.27184457 0.2542028
000360 10 b9 e8 3e e7 ed 9a be 8c bf 77 3e 10 e9 88 3e
       0.4545369 -0.3025963 0.24194163 0.26740313
000370 a5 43 be bd c7 ce 86 be e8 a2 ad be c2 e8 b8 3d
       -0.09290246 -0.26329634 -0.3391335 0.0902877
000380 9d ff 43 3e c0 b6 1a 3e b6 06 a8 3c 5f 80 51 3e
       0.19140477 0.15108776 0.020511013 0.20459126
000390 54 08 7c 3e bf 77 49 3e 63 63 42 3e ef 38 81 3e
       0.24612552 0.19674586 0.18983226 0.2523875
0003a0 af 6f 99 3d 08 2b 8e 3e 8a 0f 87 3e 38 c4 c0 3e
       0.07492005 0.27767205 0.26379043 0.37649703
0003b0 fb e5 86 3e 5c bd 38 be b8 ef 3b be 5a 91 86 3e
       0.26347336 -0.18040985 -0.18353164 0.2628277
0003c0 ff cf 81 3e 3b a8 91 3e 1c 61 2a 3e 52 0f 90 3c
       0.25354 0.28448662 0.16638607 0.01758543
0003d0 ed 1c da 3d d8 40 43 be c3 85 6c 3e 82 cc f0 be
       0.106500484 -0.19067705 0.23097901 -0.47031027
0003e0 55 9e 51 3e 08 73 80 be a5 4a be bd 9a 68 18 3e
       0.20470555 -0.25087762 -0.09291581 0.14883652
0003f0 3b ca ae 3e 2f 49 48 be dd e2 7f bd 83 cb 62 bd
       0.34138665 -0.19559167 -0.062472213 -0.055369865

nee_decoder.0.bias f4 [16]
000000 24 08 00 be 76 17 f1 3d 2f 00 22 be f5 af a2 bd
       -0.12503105 0.11772053 -0.15820383 -0.079437174
000010 6d 07 5c 3e b7 82 2b be 37 7f 34 bd 94 5b 77 3e
       0.21487208 -0.16749083 -0.044066634 0.24156028
000020 2b 5d b5 bd e4 32 5e be ee 54 2b 3e 07 cb 1c be
       -0.08855661 -0.216991 0.16731617 -0.15311824
000030 a5 e1 70 3e 89 eb 48 3e a5 97 1c be 3b 8f cc 3d
       0.23523577 0.196211 -0.15292223 0.099882565
