climate/Final Experiments/PERNN41/best_model.pth (torch, 29282 bytes, 29 tensors)

encoder.0.weight f4 [16, 16]
000000 16 ba a6 be 87 30 e2 3e 55 7c 19 bf f5 8f 87 be
       -0.32563847 0.44177648 -0.5995534 -0.26477018
000010 b7 99 b2 be a4 5b a7 be a7 3e 9d be 0e 9b 0b 3e
       -0.348829 -0.32687104 -0.30711862 0.13633367
000020 49 5f 87 3e 32 d1 85 3e 6e f4 29 bd 65 45 20 bf
       0.26439884 0.26136166 -0.041492872 -0.6260589
000030 ff af 9c be 23 1a 06 3e 8c 05 5f be 52 26 a6 3e
       -0.30603024 0.13095908 -0.2177946 0.3245111
000040 0f eb a0 3e 8b 9f 75 3e ca 83 76 be 32 3a 9e 3d
       0.31429335 0.23986642 -0.24073711 0.077259436
000050 ec 83 bf 3e 26 64 91 bd ff 10 b6 3e 94 ba 6b 3e
       0.37405336 -0.0709918 0.35559842 0.23020393
000060 3f 02 36 3e 57 94 b5 3e d0 ce 2c bd 02 67 eb 3e
       0.17774294 0.35464737 -0.04218942 0.45977026
000070 44 90 03 3f 91 2b e6 3e 35 18 f6 3e 25 f4 08 be
       0.51392007 0.44955114 0.48065343 -0.13374384
000080 1e 33 b9 3c f0 9e b6 be e1 d0 4c 3e b2 7a 34 be
       0.022607382 -0.35668135 0.20001556 -0.1762493
000090 8f eb b7 be 3e ac ae be 39 8e 2d bf 81 4e f6 3e
       -0.35921904 -0.34115785 -0.6779514 0.4810677
0000a0 49 ed f2 bd be eb 98 3d 91 18 b7 3e 94 e9 92 be
       -0.11861665 0.07466839 0.3576093 -0.2869383
0000b0 ac cd b0 be ed 6a 75 be 47 5a f7 bd 22 ca cf 3c
       -0.34531915 -0.2396657 -0.12077766 0.02536494
0000c0 00 b6 e4 bd 43 f3 c1 bd af dc db 3e f8 d0 6d 3e
       -0.11167526 -0.094702266 0.42941806 0.23224247
0000d0 90 3c 9c be 7c 20 52 3b cc c5 11 be 87 1d 95 3d
       -0.30514956 0.003206282 -0.1423561 0.072810225
0000e0 d6 2e 58 3c d8 9e 79 3d cd 75 0b 3d 90 22 27 be
       0.01319476 0.0609425 0.03404789 -0.16321778
0000f0 0f a6 b4 bd fb 7c 38 be bb 42 19 3d 11 de 62 be
       -0.08820736 -0.18016426 0.037417155 -0.22155024
000100 21 23 52 3e 5b e6 9f 3d 99 b8 75 be b0 d6 7e be
       0.20521213 0.07807609 -0.239962 -0.24886584
000110 b5 b0 cb 3d 51 7b 5b be 65 c6 e3 be cf b4 9a 3e
       0.099458136 -0.2143376 -0.444873 0.3021607
000120 d2 89 c8 bb f8 3c 23 3e d1 86 30 3e a4 92 bf be
       -0.006119945 0.15941226 0.17238928 -0.37416565
000130 be c1 54 be d9 f8 99 be 01 a2 cb be c5 c7 c5 3e
       -0.20777032 -0.30072668 -0.39772037 0.38628975
000140 a0 b5 3d be 05 9e 19 be 0b 64 a0 be a9 0a 56 3e
       -0.18526316 -0.15001686 -0.31326327 0.20902504
000150 96 ba f5 3d 91 c1 ae 3e a5 59 35 be d3 49 88 bd
       0.11998479 0.34132054 -0.17709978 -0.06654706
000160 fd 5c b3 3e d4 f2 76 3e 0f 46 84 3e 1e 29 78 bd
       0.35031882 0.24116069 0.258347 -0.060586087
000170 9b 87 8d 3e 33 02 81 3e 8c 69 b4 be b7 6d 9b 3d
       0.2764252 0.2519699 -0.35236776 0.07589286
000180 0f e4 b3 be a1 f2 c9 3e d8 f9 49 bd 43 5c 88 3d
       -0.35134932 0.39442924 -0.049310535 0.066582225
000190 f2 ad a7 bd fb 99 e5 be 27 d5 26 bf 4d 56 a0 be
       -0.08187474 -0.4484404 -0.65168995 -0.31315842
0001a0 b1 a3 a0 3e 6e 0d b8 3e b7 e8 0b 3f 06 ef b7 3d
       0.31374887 0.35947746 0.5465197 0.08981137
0001b0 64 84 d8 be 89 55 b3 3e 49 a2 e5 3e eb ef f4 3d
       -0.42288506 0.35026196 0.44850376 0.11959823
0001c0 fc 60 bc 3e 55 b3 fb bd 5c 49 3c 3e a0 bb 39 be
       0.36792743 -0.12290064 0.1838736 -0.1813798
0001d0 50 5a df be 66 cb d4 3e f4 66 a5 3e e8 2d 8e be
       -0.4362359 0.4156143 0.3230511 -0.277694
0001e0 e5 d2 cb bd 59 96 42 3a ea 5c b2 be ba af 84 3e
       -0.09952334 0.0007422916 -0.34836513 0.2591532
0001f0 d6 75 11 bf 75 02 a1 be ce d0 da be 2a 6f 82 3e
       -0.5682043 -0.31447187 -0.4273743 0.25475436
000200 33 0f 9e 3d 0d dc a8 bd dc 4b 50 3d ef e0 17 3e
       0.07717743 -0.08245096 0.050853595 0.14831899
000210 f0 e9 f2 be 8a 59 60 3d 8e 1d b1 be 4b 43 d8 be
       -0.47444105 0.05477289 -0.3459286 -0.4223884
000220 64 2d 15 3d fe a6 11 3d ec 82 d6 3e a7 e5 27 3f
       0.03642024 0.035559647 0.4189676 0.65584797
000230 73 7b a6 be 7e 51 a5 be 70 b2 89 3e 67 45 d9 bd
       -0.3251606 -0.32288736 0.2689395 -0.106089406
000240 7b e1 9f 3e 24 69 07 3f 91 63 e2 be 7f 5f 8c 3d
       0.31226715 0.52894807 -0.44216588 0.06854152
000250 89 7b 18 be 18 2b 9f 3d dc fc e3 3c 2e ce b6 be
       -0.14890875 0.07771891 0.027830534 -0.35704178
000260 d0 d8 fc 3d a3 18 d5 be 65 a7 af be 70 71 15 bf
       0.12346041 -0.4162036 -0.343074 -0.58376217
000270 6f bc e4 be 3e a0 84 bd 16 7a bc ba bc 7d 9d bd
       -0.44675013 -0.06475876 -0.0014379646 -0.076899976
000280 7e e7 37 be 01 05 20 be d8 22 ed 3d e0 97 db 3e
       -0.17959401 -0.15626909 0.115789115 0.4288931
000290 5c ec 21 bd 32 96 16 3e 63 73 b0 3e 74 5e 96 bd
       -0.03953205 0.14705732 0.34463033 -0.07342234
0002a0 45 24 5b 3e 84 7e 21 bd 66 45 db bc 85 3f 1c 3c
       0.21400554 -0.039427295 -0.02676649 0.009536629
0002b0 83 89 3e 3c a9 d1 43 be 55 fc 09 3e a8 d8 2e 3e
       0.011629465 -0.19122948 0.13475163 0.17074835
0002c0 e0 fb d1 3e b9 3f be be 73 fb f2 be 55 59 64 3e
       0.41012478 -0.37157992 -0.47457466 0.22299702
0002d0 0c 2d 3b 3e 68 c4 bf bd 3e 7f 40 3e 8c 0a 13 be
       0.18278903 -0.093636334 0.18798539 -0.14359492
0002e0 22 56 2a be ac 02 94 be 21 23 ce 3e 7f b9 86 be
       -0.1663442 -0.28908288 0.40261176 -0.26313397
0002f0 00 bf 4c 3d 86 9a 60 be 2d b1 d2 3e 78 75 c4 3e
       0.04998684 -0.21933946 0.411508 0.38370872
000300 e2 86 40 3d 04 8f a4 be e3 38 c7 3d e6 a3 40 3e
       0.047003634 -0.32140362 0.09727647 0.18812522
000310 59 cc 53 bc 35 1e 21 3e e4 fc 4e 3e ea 29 86 3e
       -0.012927138 0.1573418 0.20213658 0.26203853
000320 4f a6 dc be 34 69 49 3e b4 73 1f 3f ea 0a c8 be
       -0.43095633 0.19669038 0.62285924 -0.39070827
000330 ee 52 29 be c2 7f 9d 3e 81 37 6a 3e cd 3c 63 bb
       -0.16535541 0.30761534 0.22872736 -0.0034673691
000340 4f 9c 72 be d5 77 65 3e 57 fd 7d 3d ea d5 95 3e
       -0.2369244 0.22408994 0.06200918 0.29264766
000350 38 1d 0b bf 88 8e 05 be 74 ea 75 be 37 03 49 3e
       -0.5434146 -0.13042653 -0.24015218 0.19630133
000360 a1 c3 24 bd 0d 32 ed be 36 1c 40 3e b8 1f 65 3e
       -0.04022563 -0.46327248 0.18760762 0.22375381
000370 b0 9f d4 3e 28 7a 46 be 65 5f 54 3e 84 57 8b 3e
       0.41528082 -0.19382536 0.20739515 0.27215207
000380 a0 2a 94 be 80 53 52 3d a1 48 06 3e cf d7 f3 bd
       -0.2893877 0.051349163 0.13113643 -0.119063966
000390 5b 2f 07 be 1d 7a 8e 3e 59 52 db be 30 33 39 3a
       -0.13201658 0.2782754 -0.42836264 0.00070648175
0003a0 1b a5 dd 3d 47 94 d9 3d e2 e0 e8 be 3e 96 9b 3e
       0.10822507 0.10623985 -0.45484072 0.30388063
0003b0 42 d5 31 3f 86 0b f9 be cf cb 16 bf de e2 b9 3c
       0.6946603 -0.48641604 -0.5890474 0.022691187
0003c0 e8 46 07 bf 0a 57 87 bc 89 c7 d9 3d 79 c9 84 be
       -0.5284257 -0.016520996 0.106337614 -0.2593496
0003d0 e1 e7 1a 3e 59 99 70 3e 99 95 03 be 45 63 c2 3d
       0.15127517 0.23495997 -0.12850036 0.094915904
0003e0 bb 62 2e be 19 29 c1 3c 3a b9 1f be 45 5b 1e bd
       -0.1702985 0.023579167 -0.15598002 -0.03866126
0003f0 7f 61 b9 bc 55 6a 77 3d 9a e0 e3 be a8 b0 05 be
       -0.022629498 0.06040414 -0.44507295 -0.1305567

encoder.0.bias f4 [16]
000000 17 4f ae 3e 11 13 cd 3e 63 9b e0 3e ae 17 94 be
       0.34044716 0.4005361 0.4386855 -0.28924316
000010 15 d1 26 3e cb d6 af 3e 54 d4 8d 3e 3e 7b 8f 3e
       0.16290696 0.34343562 0.27701056 0.28023714
000020 6e c8 01 3e d5 46 06 3f c7 d7 cf be c8 79 db 3e
       0.12674114 0.5245183 -0.40594313 0.4286635
000030 76 2b 47 3e f0 24 9a 3e 57 0c ad 3e 8c bc 3e be
       0.19450173 0.30106306 0.33798477 -0.18626612

encoder.2.weight f4 [16, 16]
000000 63 6b 85 3d f9 49 48 3e 10 a0 3c be 64 53 47 be
       0.06514623 0.19559468 -0.18420434 -0.19465405
000010 b3 a1 7d 3e 9f 09 e1 3e 9f ed 98 be 1d 7e c4 be
       0.24768715 0.43952653 -0.2986879 -0.38377467
000020 f8 8f 01 3f d3 96 2f bd c2 04 3b bf e9 34 22 be
       0.50610304 -0.042868447 -0.73054135 -0.15840496
000030 a5 4b bf 3e e2 39 b5 3e 4c 65 d7 3e c2 fd 12 bf
       0.373624 0.35395724 0.4206947 -0.57418454
000040 7c bc 8c 3e 5c f0 ba 3e 52 a8 59 be c5 33 66 3b
       0.27487552 0.36511505 -0.21255615 0.0035126072
000050 c7 11 8d 3c c2 1b 4d 3e 92 c0 40 be 77 6a b5 3e
       0.017220391 0.2003012 -0.1882346 0.3543279
000060 f3 77 36 3f f8 02 23 3f 1a e4 0d bf 84 7a bc be
       0.7127678 0.63676405 -0.5542618 -0.36812222
000070 6f 82 58 3c 15 15 03 3e 75 bd 28 3e 17 44 10 bf
       0.013214692 0.12801011 0.16478522 -0.56353897
000080 97 53 ae be 04 82 a6 3d 91 b9 13 3e ed b7 09 bf
       -0.3404815 0.08130267 0.14426257 -0.53796273
000090 6d 4e 25 3e 88 90 91 3e eb de f3 3d ab ab 5e 3e
       0.16143198 0.2843058 0.119077526 0.21745174
0000a0 9d 15 ed 3e 0f 77 f3 3e d8 c9 30 bd c6 49 04 be
       0.46305552 0.47551772 -0.043161243 -0.12918767
0000b0 e5 e5 55 3e b8 f3 74 3e e7 36 9c 3e 35 57 a6 be
       0.20888479 0.23921096 0.30510637 -0.3248841
0000c0 09 9d d0 3e fd 18 8f 3b bd 69 ab 3e 7b b6 60 be
       0.40744808 0.0043669925 0.3347911 -0.21944611
0000d0 c8 ea 68 be e6 31 d3 3e 8b 72 88 3e e9 9a 02 be
       -0.22745812 0.41249007 0.2664989 -0.12754406
0000e0 4a 01 8c 3d 9b 34 05 be 34 01 63 bd 5c 1f 20 3e
       0.06836183 -0.13008349 -0.05542107 0.15636963
0000f0 2d c3 0a bd 27 44 79 3d 59 e4 1e be 76 1c 67 be
       -0.03387754 0.06085601 -0.15516795 -0.2256945
000100 a1 ff 49 be 79 48 1e 3f 5b 7e f2 3e 3f 9a 5f be
       -0.19726421 0.61829334 0.47362027 -0.21836184
000110 7d 33 1e 3e 49 e0 1f 3e cc 99 6d be 84 61 49 be
       0.15449329 0.15612902 -0.232032 -0.19666106
000120 4d ef 85 bd 67 02 15 3f d1 4b d7 be b6 f7 a5 3e
       -0.065397836 0.5820679 -0.4205003 0.3241555
000130 be fb 25 3e 63 79 95 3e 45 4f ee 3e cd 23 07 bf
       0.16209313 0.29194173 0.46544853 -0.52789
000140 b3 6e 3d be 2f 1e 8d be 51 90 34 3e 30 8f aa be
       -0.1849926 -0.2756209 0.17633177 -0.33312368
000150 9a 70 bd be 6c 16 32 be 3d 64 f9 3d 1b dc 6d bd
       -0.3699997 -0.17391366 0.12177322 -0.058071237
000160 71 b7 23 3f 84 79 9b be a8 2f ed be 3a e6 e7 3e
       0.63951784 -0.30366147 -0.4632542 0.45292836
000170 99 1c 02 3f 8c fe 9c 3e 4a b2 a1 3e e5 21 39 b9
       0.50824887 0.30662954 0.31581336 -0.00017655602
000180 b0 70 6f bd bb b7 95 bd 98 63 8a 3e 4d 1e 27 3c
       -0.058457077 -0.073104344 0.2702911 0.010200095
000190 e6 35 ab 3e d0 9c a9 3e a6 13 5b be 60 f2 5b 3e
       0.3343956 0.3312745 -0.21394214 0.21479177
0001a0 fd 84 d6 3e 40 fc c1 3e e0 b9 d5 be 1d d0 21 3e
       0.41898337 0.37887764 -0.41743374 0.15802045
0001b0 4a 3e b5 be ba 6e 27 be df 7e 07 be c2 2b ba be
       -0.35399085 -0.16350833 -0.13231991 -0.3636151
0001c0 c7 3b 91 be 8d 9b 9d 3e 07 50 1b 3e 4d 8d b1 3d
       -0.2836592 0.30782738 0.15167247 0.08669529
0001d0 3f 90 bd be 8f 1f bf 3d b6 e2 f1 3e 0d 5c b5 3e
       -0.37024114 0.09332191 0.4724328 0.35421792
0001e0 78 a9 85 3e 99 e0 88 be 4d 2f 7b bd 8b 86 9a bd
       0.26105857 -0.26733854 -0.061324406 -0.07545193
0001f0 f3 3a 18 3f 5f f5 9e 3d ba 5b ed bd 31 71 87 3e
       0.5946495 0.077616446 -0.11589761 0.26453546
000200 a9 ba 0a be 1b db 08 3f de be 0c be 38 a8 32 3e
       -0.13547768 0.5345933 -0.13744685 0.17446983
000210 ac 38 c2 be db 7f ce 3e 8c 92 5b 3e 83 4c 85 3d
       -0.37933862 0.4033192 0.21442622 0.06508734
000220 33 7e 2d 3e 79 c0 e0 3e 8d 8d 20 bf 3a a9 e0 3e
       0.16942672 0.43896845 -0.6271599 0.4387911
000230 b4 aa cd bb 7e ff 29 3c 51 8d 04 3f 50 cc 0d be
       -0.006276453 0.0103758555 0.5177813 -0.1384747
000240 9e 4d c0 3e 08 5e 56 be c8 7c 6b 3e 80 1d 2d be
       0.37559217 -0.20934308 0.22996819 -0.16905785
000250 69 10 bd bd 62 ff a0 3e cd b5 de 3e 97 ae b2 be
       -0.092316456 0.31444842 0.43498078 -0.34898826
000260 5a 79 55 3d f6 e6 8c 3e 36 71 04 bf 2f e2 18 bd
       0.052117683 0.2751996 -0.51735246 -0.03732508
000270 d6 f1 16 3a 69 44 1f bd 04 65 9c 3e 3e 8c 81 bd
       0.0005758082 -0.0388836 0.3054582 -0.06325577
000280 1a 9e 3f 3e f4 b6 13 3e 84 44 fb 3e 9f f7 26 bf
       0.18712655 0.1442526 0.4907571 -0.6522159
000290 f3 4a fa 3d e4 c3 fe bd bf 6e dd 3e 63 d5 9e 3e
       0.12221327 -0.12439707 0.43248555 0.31022176
0002a0 d7 e2 e5 3e f5 49 cd 3e 73 8d e2 be 29 12 85 3c
       0.44899628 0.40095487 -0.44248542 0.016244011
0002b0 81 29 f9 3c a6 ad 4e 3d f9 91 8f bd 22 71 c9 be
       0.030415298 0.050458573 -0.07010264 -0.39344126
0002c0 22 27 04 be a9 bc a0 3e e7 1e 00 3f cf 8f b0 be
       -0.12905553 0.31393936 0.50047153 -0.34484717
0002d0 90 ba b4 3d 17 72 8e be 03 78 ca bc 25 8f ea bd
       0.088246465 -0.2782142 -0.02471543 -0.11453084
0002e0 28 2f 17 3e 63 9b d7 3e e6 4e 04 bd 34 90 c4 3e
       0.14764082 0.42110738 -0.032301806 0.38391268
0002f0 32 a9 73 3d 49 06 b1 be be b9 d3 bd 43 0a a7 be
       0.05948753 -0.34575108 -0.10338162 -0.32625017
000300 50 8d 52 be c2 fd ca 3d 5c ce cc 3e 4d 97 1c bf
       -0.20561719 0.09911682 0.4000119 -0.61168367
000310 08 b1 14 bd 02 b9 dc 3e 4d 43 54 be de ff d8 3d
       -0.036301643 0.431099 -0.20728798 0.10595678
000320 5f da eb 3c 60 6c c1 3b 65 a4 24 bf cf 81 c6 3e
       0.02879065 0.005902812 -0.64313346 0.3877091
000330 f1 72 ed bd 1a df 81 bd ff 78 d1 3e 40 89 9c be
       -0.11594189 -0.06341381 0.40912625 -0.30573463
000340 ae 7f 9b 3e 31 a2 05 3f 71 27 05 3f eb 2d 1a bf
       0.3037085 0.5220061 0.5201331 -0.60226315
000350 b0 0e e6 3e 8b 0d 86 bd 81 8c 8b be fa 1f 8c 3e
       0.4493308 -0.06545552 -0.27255633 0.27368146
000360 41 ce 83 bd 68 2a 6f 3e 61 91 80 be d9 53 fd 3e
       -0.06435824 0.2335602 -0.25110915 0.49478033
000370 50 d7 40 3e bb 45 00 be 34 8f af 3e ef 76 e6 be
       0.18832135 -0.125266 0.34288943 -0.45012614
000380 bc 55 cd 3e a5 cb 12 3f 4b 13 0c be 04 3d 16 3c
       0.40104473 0.57341987 -0.13679235 0.009169821
000390 15 67 70 be 1f 1e ab 3d b9 74 ba 3e 25 f7 9e be
       -0.23476823 0.083553545 0.36417177 -0.3104793
0003a0 12 75 da 3c 9c 2a a9 bd 1f 42 3a be a5 bd 95 3d
       0.026667152 -0.0826008 -0.18189286 0.073115624
0003b0 81 35 a3 3e 7a b0 b7 3e d0 1a 20 be 46 bf 4e be
       0.31876758 0.35876828 -0.15635228 -0.20190153
0003c0 3b e8 8b 3e 37 da 0a 3f 74 ea d6 3e 09 e8 13 be
       0.27325615 0.5423922 0.4197575 -0.14443983
0003d0 c3 c6 66 be ef df 52 3e 93 67 ae bc b8 04 a3 bc
       -0.22536759 0.20593236 -0.021289622 -0.019899711
0003e0 c7 98 aa bc 7b 2c 21 3f 2d 48 38 bf db 6f b9 3e
       -0.020824803 0.62958497 -0.7198513 0.3621815
0003f0 e2 81 d4 3e 21 cc 28 be 4f 7f d4 be b9 77 b3 be
       0.41505343 -0.16484119 -0.4150338 -0.3505228

encoder.2.bias f4 [16]
000000 c5 f6 a0 3e 2c 55 c4 3e 2f 61 d9 3e a1 c2 b2 3e
       0.3143827 0.3834623 0.42456958 0.34914115
000010 f9 31 e1 3e 50 30 95 3e 9a ab 40 3e 22 52 bf 3e
       0.4398344 0.29138422 0.18815461 0.3736735
000020 f2 5b c6 3e 1c c0 cb 3e 34 eb d0 3e 4c 91 f0 3e
       0.38742024 0.39795005 0.40804446 0.46985853
000030 f4 50 98 3e 51 15 d3 3e 62 03 bc 3e a4 ad ab 3e
       0.29749262 0.412272 0.3672133 0.33530915

encoder.4.weight f4 [32, 16]
000000 67 a1 87 3e a2 26 aa 3e 71 f7 cb 3e 51 e7 84 3e
       0.26490328 0.332326 0.3983722 0.2595773
000010 0e 1a fe bb 13 00 06 3f 39 d9 d0 bb 4d d9 1e 3e
       -0.007754571 0.52343863 -0.006373551 0.15512581
000020 de f4 b9 3d 87 ac da 3e 10 51 71 3e fe 68 02 3f
       0.09079908 0.42709753 0.23566079 0.50941455
000030 32 92 70 ba bb 5c 17 bd 8a 02 06 3e 01 02 82 3e
       -0.0009177058 -0.03695367 0.13086906 0.25392154
000040 2e 7d 8d bd 31 24 9a be 37 23 1d be 18 8e 86 be
       -0.06908642 -0.30105737 -0.15345465 -0.26280284
000050 71 de 77 be 76 e0 8a be 3b f9 6a 3e ab eb 1d 3d
       -0.24205948 -0.27124375 0.22946636 0.03855483
000060 a3 be af be 6a e9 09 be c0 df 05 3d b8 91 f7 be
       -0.34325132 -0.13467947 0.032684088 -0.48353362
000070 f0 0e 80 be 25 47 fb bd fe 24 ab be aa 22 69 3e
       -0.25011396 -0.12269429 -0.3342666 0.2276713
000080 43 25 09 bd 10 9f cf be 1d 6a 2f be 19 41 67 bd
       -0.0334828 -0.40551043 -0.17130323 -0.056458566
000090 45 1a 44 bd db 26 d8 bd 61 3b 93 3e 2a 83 81 3d
       -0.047876615 -0.10554286 0.2875624 0.06323846
0000a0 c7 48 86 3d a9 f1 8d be 4e 86 8e be 92 72 37 3c
       0.0655685 -0.27723435 -0.2783684 0.011196749
0000b0 f5 82 6d 3a 86 0b c2 be 50 2a e2 3d 5a 2d a0 ba
       0.00090603466 -0.37899417 0.11043227 -0.0012220547
0000c0 97 92 99 be 87 66 30 be ee 14 46 3e c6 b3 c6 be
       -0.29994652 -0.17226611 0.19343922 -0.3880903
0000d0 ac 18 03 bf ab 66 34 3d 9e 72 8f 3e 24 77 b8 be
       -0.5120952 0.044043224 0.28017133 -0.36028397
0000e0 7c 2d 87 be d2 36 88 3d 3d fb 87 be d7 cd 86 bd
       -0.2640189 0.06651081 -0.26558867 -0.065822296
0000f0 d2 e8 30 3e 88 55 18 be 18 b8 25 3d 2e d7 a5 3d
       0.17276314 -0.14876378 0.04045877 0.08097683
000100 30 bf b4 be 0a ec 92 3c b6 3f a3 3b 07 c4 54 3e
       -0.35302114 0.017934818 0.00498196 0.20777903
000110 fa 76 b1 3c 4e 0b c6 3d 59 b2 d3 bd 65 ee dd be
       0.021663178 0.09670125 -0.103367515 -0.43345943
000120 a1 39 92 be 7e 2f 22 be 42 21 6a 3e 92 d1 20 bf
       -0.28559592 -0.1583843 0.2286425 -0.6281978
000130 49 80 34 3e ef 50 58 3e 4f 1a 52 be 01 81 eb bc
       0.17627062 0.21124624 -0.20517848 -0.028748037
000140 e0 2c 0c 3f bd 71 21 3e 19 8d da 3c 7b a1 52 3e
       0.54755974 0.15766044 0.026678609 0.20569412
000150 4c b0 85 bd 27 12 1a be 42 55 a2 3e ff f3 1e 3e
       -0.065277666 -0.15045987 0.31705672 0.15522765
000160 d0 a0 a5 3e cd b8 cf 3e c5 d4 a4 3e ff 98 03 3f
       0.32349253 0.4057068 0.3219358 0.5140533
000170 39 0a b9 3d 73 87 4d 3d 2c 6b 62 3e ec 83 80 3e
       0.09035153 0.050178003 0.22111195 0.25100648
000180 65 95 4c be 3c d9 26 3e e1 e8 12 be 99 82 5b be
       -0.19978864 0.16293806 -0.14346649 -0.21436538
000190 4f 12 36 3c e1 bf bf be 5c f6 c0 bc 2d 76 72 be
       0.011112764 -0.3745108 -0.023554973 -0.23677893
0001a0 f9 77 90 be 20 4b cb be e9 4c 12 3e 25 90 d5 be
       -0.28216532 -0.39705753 0.14287151 -0.41711536
0001b0 4d c9 3d 3d 86 65 70 be 35 54 c1 3c 22 20 8c be
       0.046334554 -0.23476228 0.023599723 -0.27368265
0001c0 f8 da ac bd 87 a8 cd be 62 24 ba be b6 c8 dd bc
       -0.084402025 -0.4016764 -0.36355883 -0.027073245
0001d0 22 8f c2 be 91 7f 84 bd 18 b4 6a 3e 35 6f bc be
       -0.37999827 -0.06469644 0.22920263 -0.36803594
0001e0 4f 6a aa bd 2f 6f b9 3d a2 a2 78 be e0 de ae be
       -0.08321058 0.0905441 -0.2428079 -0.34154415
0001f0 bf a0 0c be c1 f2 e0 bd fc 5a bf be ef fb 8b be
       -0.13733195 -0.10983802 -0.37374103 -0.27340648
000200 c9 d9 e2 3d 8f 26 54 3e 1a 4d 9d 3e 98 18 16 3c
       0.110766955 0.20717834 0.30722886 0.009161137
000210 00 6a 95 bd 28 27 a1 3e aa 13 a8 3e c4 c6 9d 3e
       -0.072956085 0.31475186 0.32827502 0.3081571
000220 97 b5 9f 3e 38 3d 50 3e 0e a4 b6 bc 7e f7 19 3e
       0.3119323 0.20335853 -0.022295024 0.15035817
000230 8f b8 e4 bc f5 ff bc 3e 72 3b 3e 3e 19 1a 67 be
       -0.027920036 0.3691403 0.18577364 -0.22568549
000240 3c 91 d3 3d ef e1 00 be a3 02 8d bd 93 17 a2 3d
       0.10330436 -0.12586187 -0.068852685 0.07914653
000250 36 59 4e 3e 6c cc 22 be ca 99 91 3e c9 1c 50 3d
       0.20151219 -0.15898293 0.28437644 0.0508087
000260 59 a8 35 bd 7e 45 73 3e 37 9a 30 3e f5 2b fe be
       -0.044350002 0.23756978 0.17246328 -0.49642912
000270 a9 bd cd bc e9 02 2e be 45 99 7f be 8e 7c 0c bc
       -0.025114851 -0.16993298 -0.24960811 -0.008574618
000280 02 47 80 be d0 92 cd bd a1 ca 41 3e 19 ff a8 be
       -0.25054175 -0.10037768 0.18924953 -0.33007124
000290 f3 5d a3 be c7 1e 8d bd d6 c4 85 be 97 4f 18 bc
       -0.31907615 -0.06890636 -0.26126736 -0.009296319
0002a0 c6 cf 89 be 0e 25 ba 3c 09 48 2c be 12 c1 04 bf
       -0.2691633 0.022722747 -0.16824354 -0.518571
0002b0 78 c2 9c bd 75 4e 51 3e ad 00 75 be 37 ea ec be
       -0.076542795 0.20440085 -0.23926039 -0.46272442
0002c0 da ad 21 3f df fb 04 3e 21 f3 aa 3d 20 b6 d0 3e
       0.631559 0.12986706 0.083471544 0.4076395
0002d0 be 0e 07 3f 4f 63 f6 3e 09 53 1c bd 53 54 95 3e
       0.5275687 0.4812264 -0.038165126 0.29165897
0002e0 a5 5d af 3e f2 03 30 3e c3 b7 ac 3e a2 47 b3 3d
       0.34251133 0.17189005 0.3373395 0.08753897
0002f0 75 ef d4 3d df 8c 8a 3e 31 e7 10 3e 13 63 05 3e
       0.10397235 0.270606 0.14150693 0.13026075
000300 58 b4 d2 be 01 ea d2 be cf f9 a3 be bc 60 69 3e
       -0.41153216 -0.41194156 -0.32026526 0.22790807
000310 64 e6 27 3d 22 1b f8 be 89 93 02 be 42 4d 0f 3e
       0.040991202 -0.484582 -0.12751593 0.13994315
000320 fa 82 17 be 40 2b a6 be 75 74 74 bd 43 9a d4 be
       -0.14796057 -0.32454872 -0.059681375 -0.41523942
000330 1b 30 72 bd 9b bd a4 be 80 de b8 be c6 48 14 3c
       -0.05912791 -0.32175907 -0.36107254 0.009050554
000340 dc 59 0f 3f 84 70 3a 3e b7 1e 2b 3e 2c 16 84 3e
       0.5599649 0.18206984 0.16710936 0.25798166
000350 9f d0 1a be 65 e1 af bd 0e 65 ba bc d4 ec e3 3e
       -0.15118645 -0.085879125 -0.022753265 0.44516623
000360 8f db c8 3e b9 27 a3 3e 0e 4f bf 3e 32 9b ed 3e
       0.3923001 0.31866243 0.37365 0.46407467
000370 df 5e 23 bd ed 79 bb 3e 50 1c 51 bd be c0 50 3e
       -0.039885398 0.3661646 -0.05105239 0.20386025
000380 d2 58 8e 3e 84 cf 6e 3e 6a a2 a3 3e a6 5f b9 bd
       0.2780214 0.23321348 0.3195985 -0.090514466
000390 f7 d9 02 3f e1 a4 56 bd 67 e3 bd 3e f8 98 5b 3e
       0.5111384 -0.052403335 0.37087557 0.21445072
0003a0 b4 68 cd 3e a9 45 8d 3e bf 85 cc 3d e4 4f 84 3e
       0.40118945 0.2759221 0.099864475 0.25842202
0003b0 88 00 34 3e 51 ee a7 3e ca a5 4f be 29 94 83 3d
       0.17578328 0.32799008 -0.20278087 0.06424744
0003c0 63 3c e9 bc 43 6a 27 3d 14 94 f0 3d 4c 4c 51 bd
       -0.028471177 0.040872823 0.11746994 -0.051098153
0003d0 ff 2b eb bd e5 a3 7c be 5a 49 30 be 04 ff 49 be
       -0.11483001 -0.24671896 -0.17215481 -0.19726187
0003e0 07 c2 b3 be 63 de 21 be c3 16 86 be c5 68 65 be
       -0.3510897 -0.1580749 -0.2618924 -0.22403248
0003f0 7b 15 f2 bd ff 47 6e 3e 22 69 57 bd ec c4 d0 bd
       -0.11820503 0.23269652 -0.052590497 -0.1019381

encoder.4.bias f4 [32]
000000 b4 e2 c5 3e 29 be bc be ed f0 bc be ef b6 c0 be
       0.38649523 -0.3686383 -0.36902562 -0.37639567
000010 57 e6 d3 be 72 39 b8 3e 37 c7 ba be 6a c2 af be
       -0.41386673 0.35981327 -0.36480114 -0.34328014
000020 d2 2c af 3e e7 6d 9a be 60 ca c5 be ff a3 cb 3e
       0.34213883 -0.30161974 -0.38630962 0.39773557
000030 da d4 ce be 28 84 c8 3e 0b b9 d4 3e d5 eb ce be
       -0.40396768 0.39163327 0.41547427 -0.404143
000040 14 22 cb be 4d aa cb 3e 1c 95 0f 3e b4 f9 d2 be
       -0.39674437 0.39778367 0.14021724 -0.41206133
000050 1d 0b c8 3e 3f c6 ab be 8e ce c7 be 80 22 ca be
       0.3907098 -0.33549687 -0.39024776 -0.39479446
000060 c5 57 cd 3e 45 9d c9 be 93 ab 31 3d 8a 0f cf be
       0.40106025 -0.393778 0.043376517 -0.40441543
000070 c4 77 c6 be 15 55 4f be 06 8e c1 be cd 60 c8 be
       -0.3876325 -0.202473 -0.37803668 -0.39136353

residual.0.weight f4 [16, 32]
000000 2f b6 94 3e 99 47 e1 3d 96 19 88 bc 54 d5 19 3e
       0.29045245 0.10999984 -0.016613763 0.15022784
000010 78 be 89 bd b2 a1 36 be fa 93 07 be 99 5f 57 be
       -0.06725782 -0.1783512 -0.13240042 -0.21032561
000020 bc 69 08 3e f0 48 36 3e 82 07 f5 3d 14 e3 70 be
       0.13321584 0.17801261 0.119643226 -0.23524123
000030 89 51 42 3a 94 e2 80 3e 19 b5 76 3e 6b dc 82 3e
       0.00074126624 0.25172865 0.24092521 0.2555879
000040 12 8f 12 3e a9 a1 aa be 2c df 71 3e 62 47 91 3c
       0.1431239 -0.33326462 0.2362029 0.017734233
000050 49 7f ad 3e cb 84 8d 3e 17 3f 21 3d 49 eb ad be
       0.33886173 0.27640375 0.039366808 -0.3396857
000060 2e c9 85 3d 3a dd f7 3d 43 f0 28 bb 50 aa 57 3e
       0.065325126 0.121027425 -0.0025777973 0.21061063
000070 60 77 4a 3e a1 f2 90 3e 1d 59 22 3d 22 6b 93 be
       0.197721 0.2831011 0.039635766 -0.28792673
000080 06 ef c9 bd ce 81 80 bd 2b 4d 76 3e 23 33 a2 be
       -0.09860043 -0.06274758 0.24052875 -0.3167964
000090 51 f9 9a 3e 63 75 ab 3e 45 e9 40 be aa c4 ab be
       0.30268338 0.33487996 -0.18838985 -0.3354848
0000a0 8a 59 7e be db 9e 4f 3e cb bd 55 3e d1 62 98 be
       -0.24838844 0.20275442 0.20873182 -0.2976289
0000b0 a4 fb 8f 3e a9 ca db bc b8 59 04 3e 3b 3d 34 bd
       0.28121674 -0.026830034 0.1292485 -0.044003706
0000c0 61 ec 0d 3e e2 48 95 be 58 9b a9 3e e1 26 02 3e
       0.13859703 -0.29157168 0.3312633 0.12710144
0000d0 ed 0b 31 3e df f0 32 be 65 25 98 be 47 35 0b bd
       0.17289706 -0.17474698 -0.2971603 -0.033986356
0000e0 b4 e7 ab 3c 09 90 79 bd 79 11 1d be 55 f2 f4 bd
       0.020984508 -0.06092838 -0.15338697 -0.11960284
0000f0 4e 30 4d 3e 90 0e de 3c 7d e1 9d 3d df b9 88 be
       0.20037958 0.027106553 0.07709024 -0.26704308
000100 b4 28 45 be 20 2f 72 3e ef 8f a7 3e d7 61 39 be
       -0.19253808 0.2365079 0.32727 -0.18103729
000110 4a af 5b be bd e0 a5 bd b1 75 79 3d 38 c1 96 be
       -0.21453586 -0.08099506 0.060903255 -0.2944429
000120 97 10 b3 be 83 f8 ed bd 7b 37 6b be 1d ec 43 3e
       -0.34973595 -0.116196655 -0.22970383 0.19133039
000130 42 8a 65 be 22 3a 84 bd 28 47 96 be e8 71 40 be
       -0.22416022 -0.064564005 -0.29351163 -0.18793452
000140 de 76 51 3e 19 63 41 be 75 9c a2 ba b7 16 4b be
       0.204555 -0.18885459 -0.0012406247 -0.19832884
000150 20 a9 92 be 56 5d 86 3e 9b 49 f5 3d 48 dd 04 3e
       -0.28644657 0.26243085 0.1197693 0.12975037
000160 d2 cc 22 be d2 46 82 bd f5 80 b1 3e 3e e2 4c be
       -0.15898445 -0.06361164 0.346687 -0.2000818
000170 02 9c 29 be 98 0a ef bd 30 64 9c 3e e4 f2 92 3e
       -0.16563419 -0.116719425 0.30545187 0.28700936
000180 ee 2a 88 bc c8 76 3c be 59 be 80 3d 43 1b da 3c
       -0.016622033 -0.18404686 0.06286306 0.026624328
000190 0f 6e 27 be a4 d1 a3 be ab 85 15 be 57 70 7c 3e
       -0.16350578 -0.3199588 -0.14601772 0.24652229
0001a0 58 8d 08 3e 8f ad a1 3e e1 6f 4a 3e 33 cc f5 3d
       0.13335168 0.31577727 0.19769241 0.120018385
0001b0 40 8e 94 be ec 99 25 be fc 4f 85 bd 91 4c 23 3d
       -0.29014778 -0.16171998 -0.065093964 0.03986794
0001c0 f6 2f 79 be 3b 01 9c 3e 9a b0 ac 3e d8 32 a4 3c
       -0.24334702 0.3046969 0.33728486 0.020043775
0001d0 4b ab ff bc c5 a2 5e be 71 0b a6 bd 9d d4 79 be
       -0.031209609 -0.21741779 -0.08107651 -0.24397512
0001e0 43 6c 8d be af 12 4d be 1e 64 7b be 62 08 0e 3c
       -0.2762166 -0.20026658 -0.2454991 0.008668991
0001f0 22 c8 04 bd a8 fa 9a be 12 f7 61 bd 14 8e 2d be
       -0.032417424 -0.3026936 -0.055167265 -0.1694873
000200 a8 5a 29 3e ed 57 9e bd ce f1 ee bd e6 26 aa 3e
       0.16538489 -0.07731614 -0.11667214 0.33232802
000210 f3 36 b2 be 21 31 83 3b 6f ff bc 3d 10 e9 96 3e
       -0.34807548 0.0040036594 0.092284076 0.29474688
000220 0d ee 8d 3d 24 c7 0f 3e de 95 82 be d7 49 5a be
       0.0693017 0.1404081 -0.25504965 -0.2131723
000230 5f 6d 30 be a1 7d d3 35 ab 6e 3f 3d e1 9b 76 3d
       -0.17229222 1.5757288e-06 0.0467364 0.06020725
000240 13 ca 57 be bf 7a ff bd 76 16 3f be 12 b7 6a bd
       -0.21073179 -0.12474584 -0.18660912 -0.057303496
000250 42 3e 8a 3e 66 6e 30 bd de f9 52 be a9 ee a4 be
       0.27000624 -0.043074034 -0.2060313 -0.32213333
000260 2c a8 ab be 32 2c 3d 3e b3 6e f1 bd c7 b6 a0 3d
       -0.33526742 0.1847389 -0.11788692 0.07847362
000270 61 34 ed 3d 5f b8 32 bc 7b 76 92 be 2f 6a b2 3e
       0.11582256 -0.010908215 -0.28606018 0.34846637
000280 2e 1b b3 be 40 28 2d bd e6 6a 4c 3c 2c a1 2d ba
       -0.34981674 -0.042274714 0.012476658 -0.0006623443
000290 2a 2c 47 3e 5a df 51 3e 05 25 10 3e f4 50 0e be
       0.19450441 0.20495358 0.14076622 -0.13898069
0002a0 71 58 13 be 63 a8 2a be 4b 51 af be 82 5a 2f 3e
       -0.14389206 -0.16665797 -0.3424171 0.1712437
0002b0 83 9d a8 3e be 15 85 be f8 2b 83 3c 80 ae bd 3d
       0.32932672 -0.2599315 0.016012177 0.09261799
0002c0 73 52 44 bd 6b 08 a8 bd 8c c9 6f 3e 1c e1 2c 3e
       -0.047930192 -0.082047306 0.23416728 0.16882747
0002d0 97 4a b2 3e 09 8f 74 be 39 f2 65 3e 3e 12 6f bc
       0.34822533 -0.23882689 0.22455682 -0.014591752
0002e0 06 fc 81 3e c0 83 0c 3e d3 07 a1 be 68 72 8a 3e
       0.2538759 0.13722134 -0.31451282 0.2704041
0002f0 d1 94 10 3d 81 a8 29 be c1 24 31 3e 4f 88 46 3e
       0.035298172 -0.16568185 0.17299177 0.19387935
000300 7f 59 46 be 79 aa 20 3e a7 90 10 3e 7d 40 8e 3e
       -0.19370078 0.1569003 0.1411768 0.27783576
000310 8b 31 03 be 66 73 9a 3e 9b 95 80 3e 0b b2 87 be
       -0.12811868 0.30166167 0.2511414 -0.26503024
000320 cd f5 19 be d5 43 8f 3e 1d e1 67 3e 6a 93 54 3e
       -0.15035172 0.2798144 0.22644468 0.20759359
000330 c5 8a 46 be ca e6 26 3e b2 50 f4 3d 34 b0 c3 bd
       -0.19388874 0.16298977 0.11929454 -0.095550925
000340 fd c9 a5 be 80 5f 95 3e c4 a4 a3 ba 3e 1f 89 3d
       -0.32380667 0.29174423 -0.0012485017 0.06695412
000350 ec 65 25 3e a4 8c 99 be 6c b9 89 be b0 79 81 3e
       0.16152161 -0.29990113 -0.26899278 0.25288153
000360 65 d0 a8 be ec 8a b3 be b7 5a 50 be b9 ce f7 bd
       -0.32971492 -0.35066926 -0.20347105 -0.12099976
000370 7b 11 ee 3c 39 6a 84 3e 96 1f 38 3e d0 02 4d be
       0.02906107 0.2586229 0.17980799 -0.20020604
000380 36 0d 8b bd d2 0b 89 bd 97 5d 02 be 90 cd ad be
       -0.06789629 -0.06691708 -0.12731014 -0.33945894
000390 e6 ca a3 3e 55 34 38 bd 35 8c 57 be 21 b8 65 be
       0.31990737 -0.044971783 -0.21049578 -0.22433521
0003a0 20 0a 95 3d 03 8e 84 3d 72 04 79 be 09 f2 f3 bd
       0.07277322 0.06472399 -0.24318102 -0.11911399
0003b0 c5 b7 85 be a1 0b 7c bd 15 3b 98 3e b6 7c bb bd
       -0.26116768 -0.061534528 0.29732576 -0.09154646
0003c0 73 7d 09 bd 8c be cf bd 9a cc 04 3e 94 74 db bd
       -0.033566903 -0.10143766 0.12968674 -0.10715595
0003d0 2d 43 8d 3e 11 9a 05 3e 21 94 26 3e ad 4a ad 3e
       0.27590314 0.13047053 0.16267444 0.33846036
0003e0 19 b0 5c 3e 78 41 d4 bd 55 92 4c be f6 16 9d be
       0.21551551 -0.1036405 -0.19977696 -0.3068158
0003f0 fa 31 8b 3e 29 01 84 bd 4a 12 58 be 15 25 57 3e
       0.27186567 -0.06445534 -0.21100727 0.2101024

residual.0.bias f4 [16]
000000 73 31 00 bb 5a c5 43 bb fa b7 56 39 9e 12 5b bb
       -0.0019560724 -0.002987227 0.00020477167 -0.0033427845
000010 12 5e 42 3b b1 35 43 bb 18 95 32 3b a9 f2 34 bb
       0.002965812 -0.0029786641 0.0027249511 -0.0027610457
000020 dc 54 4c 3b bc 9a 36 3b 98 e2 bc 3a 3d 38 02 bb
       0.003117851 0.0027863225 0.0014410792 -0.0019869946
000030 e2 5a c3 3a 93 67 46 bb 73 0b 2b bb e7 7b e9 ba
       0.0014904405 -0.0030274137 -0.0026099354 -0.0017813415

residual.2.weight f4 [16, 16]
000000 81 39 8b 3e cf 82 00 bd 98 49 25 3e a1 83 83 be
       0.2719231 -0.03137475 0.16141355 -0.25686362
000010 b2 f1 ce bc bb 6c 5c be bd cc 92 be b2 c5 a1 3e
       -0.025261734 -0.21525852 -0.28671828 0.31596142
000020 d2 67 9e 3e 54 a3 de be 03 49 ed bb 8c 99 60 3e
       0.30938584 -0.43483984 -0.0072413697 0.21933573
000030 c1 b7 77 be 31 28 72 be b3 fd 83 3e a3 a2 92 be
       -0.2419119 -0.23648144 0.25779495 -0.28639707
000040 8c 44 f6 3c 30 e3 ee 3d 1f 32 7b be 92 c3 2e be
       0.030061983 0.11664426 -0.24530838 -0.17066792
000050 0f ce c0 3d da ea ba 3e 66 ec 48 be a7 5c 02 3d
       0.094143026 0.36507303 -0.19621429 0.03182664
000060 c1 7c be bd 87 c5 ce 3d 0b 3d 4b be 1c 29 09 be
       -0.09301139 0.10096269 -0.19847505 -0.13394588
000070 8c 92 5d 3e 80 c8 c8 3e e8 6c 59 3e 25 ce cc 3e
       0.21637934 0.3921547 0.2123295 0.40001026
000080 58 96 56 bd d0 13 d5 3e df 60 85 3e 1d 20 b4 3e
       -0.052389473 0.41616678 0.2605047 0.3518075
000090 03 6b 73 3e ab 8a ac 3e e1 c4 d9 be 72 3a 77 be
       0.2377129 0.33699545 -0.4253302 -0.24143389
0000a0 17 02 e1 3d f5 44 9f be f6 3a ab be ca 6d 5f be
       0.10986727 -0.31107298 -0.3344342 -0.21819225
0000b0 aa 70 14 3e c0 6d 50 3e 6c 61 e7 bd 91 73 88 be
       0.14496103 0.20354366 -0.112978786 -0.2665067
0000c0 73 7b 9e 3e 3b 57 b4 3e ad be 0c be 6f 0c 8f bd
       0.3095356 0.35222802 -0.13744612 -0.069847934
0000d0 05 36 70 be 50 17 00 3e 28 1b cd ba 0b d6 cd bd
       -0.23458107 0.12508893 -0.0015648352 -0.10050591
0000e0 dc 2c d5 3e 6a 3b 9b be aa 91 b5 bd 4b a2 3e 3e
       0.41635787 -0.30318767 -0.08865674 0.18616597
0000f0 16 0c 2d be 54 72 fe bc f1 ba 29 be c0 a3 d8 bd
       -0.16899142 -0.031060375 -0.16575219 -0.10578108
000100 f7 f7 79 3e 2c e3 c0 be 19 2c 82 3e 49 e7 a2 be
       0.24410997 -0.37673318 0.2542427 -0.31817082
000110 dd ee cb 3a 77 b1 ca 3d b1 d9 49 be 32 c3 46 3d
       0.0015558858 0.0989713 -0.19711949 0.048525997
000120 28 b6 26 be 62 5f 8a be 3c 1c c9 be cc a3 1e 3e
       -0.16280425 -0.27025896 -0.39279354 0.15492171
000130 3a 3e 94 be fa a6 a6 bd e7 ec 8b 3e 59 b6 8b be
       -0.28953725 -0.08137317 0.2732918 -0.27287558
000140 48 de 63 3d 8c 3f da 3d d6 02 e7 bd 5c 47 d6 be
       0.055631906 0.10656652 -0.11279838 -0.41851318
000150 d3 8f 21 3e f5 23 a5 be 2f aa ac 3e 1b 77 ac bc
       0.15777521 -0.32253996 0.3372359 -0.021052888
000160 98 76 d7 3e 36 63 83 be bb 8f bf be 4a 4f 74 be
       0.42082667 -0.2566163 -0.37414345 -0.23858371
000170 42 d4 4d 3e 94 e3 f3 3d 72 d1 ff 3d cc 18 ca be
       0.20100501 0.119086415 0.124911204 -0.39472044
000180 26 1a 01 3e 63 11 20 3e 5f 22 be 3e 9c 79 64 3d
       0.12607631 0.15631633 0.37135598 0.05578004
000190 af 01 57 be 50 62 8c 3e a9 f9 b4 bd 2f 8c 52 3b
       -0.20996736 0.27418756 -0.088366814 0.0032127013
0001a0 2c 77 42 be 0d 9a 85 be 12 bb 9e be 9e 49 cb bb
       -0.18990773 -0.26094094 -0.31002098 -0.006203844
0001b0 a2 af c7 be 25 4e 90 be a5 76 f1 3d 92 8a 6e 3e
       -0.39001185 -0.2818462 0.11790208 0.23295048
0001c0 ab e7 c1 be 21 bb dd 3e e1 be 28 3d 20 c8 b8 be
       -0.3787206 0.4330683 0.04119766 -0.36090183
0001d0 1c 5d a1 bd 4f 52 86 be 59 85 79 3e 25 6e 36 3e
       -0.07879087 -0.2623467 0.24367274 0.17815454
0001e0 d7 9c d6 3e bf 30 6f be cb 2c 75 3e e9 92 80 bd
       0.41916534 -0.23358439 0.23942868 -0.06278021
0001f0 a5 23 83 be c6 1c 9e be 73 55 12 be 45 b4 96 3d
       -0.25613132 -0.30881327 -0.14290409 0.073586024
000200 34 41 d5 be 75 98 10 be ee 35 a3 be 88 bd c2 bc
       -0.4165131 -0.14120658 -0.31877083 -0.023772016
000210 71 61 c9 be 26 a8 57 be ce df 5b be 6f cb ed 3d
       -0.39332154 -0.21060237 -0.21472093 0.116110675
000220 90 83 fd 3d cc 52 af 3e 5d 7a 36 be 66 40 86 3e
       0.12378609 0.34242857 -0.17820115 0.26221007
000230 75 9a 2a 3e a4 1e a9 3e 96 16 4e 3e a0 79 90 be
       0.16660483 0.3303119 0.20125803 -0.28217793
000240 91 20 73 bd 8f e2 1c 3e 8a 9e b9 bd 19 39 c0 3e
       -0.05935723 0.153208 -0.09063442 0.37543562
000250 30 4c bb 3d b6 cd 34 3d ab 18 da 3e fc 2b 38 be
       0.09145391 0.044141494 0.42596945 -0.17985529
000260 c7 8e d2 be 4b 98 58 bd 8e ed 9a be 36 b0 93 bd
       -0.41124555 -0.052879613 -0.30259365 -0.07211344
000270 d5 a0 07 3e 18 a3 83 be 7f b7 c0 bd 42 9e 44 3c
       0.13244946 -0.25710368 -0.09409999 0.012000622
000280 2e 44 d7 be ad 10 9b 3e f3 18 b9 be f8 50 db be
       -0.42044204 0.3028616 -0.36151847 -0.42835212
000290 36 ff 16 be eb 7b dc 3e 1b d8 c6 3e aa a0 a0 bc
       -0.14745793 0.43063292 0.3883675 -0.01960786
0002a0 b5 84 83 3e 18 69 85 bd 5f a0 65 bd 25 8a 7b 3e
       0.25687185 -0.06514186 -0.056061145 0.24564417
0002b0 5d 1d d7 3e 11 1d a3 be 3b 72 9f be f7 9f ad bd
       0.4201459 -0.31858113 -0.31141838 -0.084777765
0002c0 7f 9c 17 be 28 35 71 3e 76 03 22 3e 52 b2 3c 3e
       -0.14805792 0.23555434 0.15821633 0.18427399
0002d0 80 68 e9 bc b2 dd ac 3d c8 3f ff 3d 5e 4d 03 be
       -0.028492212 0.084407225 0.12463337 -0.12822482
0002e0 74 5d d4 bd f7 88 5d 3e 6a 40 d1 3e eb b6 9e be
       -0.10369387 0.21634279 0.40869457 -0.3099893
0002f0 b1 1d 51 be 55 2e 20 3e ef f0 a5 be 52 17 98 3e
       -0.20421483 0.15642674 -0.3241038 0.29705292
000300 66 8c 86 3e 88 ce 80 be 8a 8a a3 be f3 0d 8d bd
       0.2627899 -0.2515757 -0.31941634 -0.06887426
000310 e3 3e c2 be 5e b2 33 3e 6d bd 58 3d f9 90 a0 be
       -0.37938604 0.1754851 0.052915026 -0.31360605
000320 ac 6d 7c 3e 80 6e bf 3c cb 27 ef 3d 6e a1 c4 3e
       0.24651212 0.02336812 0.11677512 0.3840441
000330 24 9d ad bd de a2 02 3d d5 f6 d8 3e b5 4e d5 be
       -0.08477238 0.031893604 0.42375818 -0.4166161
000340 b9 3b 16 3e b6 b3 f5 3d bc 33 c7 bd 05 7e 9a 3e
       0.1467122 0.11997168 -0.097266644 0.3017427
000350 bc f1 37 be 2d 09 dd 3c a6 61 2e 3e 00 71 10 3e
       -0.17963308 0.026981914 0.17029437 0.14105606
000360 f5 84 28 3d 4e e5 bc 3e 2d 5e ba 3e 88 e9 a7 3e
       0.041142423 0.36893696 0.36399975 0.32795358
000370 43 27 8d bd 61 f7 5c be 22 0c b9 3e b2 a7 10 be
       -0.06892254 -0.21578743 0.3614207 -0.1412647
000380 ca 79 c5 be e4 56 cf be 32 f4 4a 3d dd 1f 13 3e
       -0.3856948 -0.4049598 0.04954929 0.14367624
000390 28 c8 d7 3e db 50 9d 3e d5 27 89 3e f9 a4 d4 bd
       0.42144895 0.3072575 0.26788202 -0.103830285
0003a0 a5 3e ac be 88 55 27 3e d2 f2 5a be 36 b2 b4 3e
       -0.33641544 0.16341221 -0.21381691 0.35292214
0003b0 ef 38 29 3e 6e 68 cb 3e 06 f1 40 be 8b 41 ce bc
       0.16525625 0.3972811 -0.18841943 -0.025177738
0003c0 d6 fb 70 3e 6b 5f c0 3e 53 03 27 be 18 ef 54 3e
       0.23533568 0.37572798 -0.16309862 0.20794332
0003d0 96 e9 a2 be b2 60 c2 3c 43 3e b2 be 52 40 d2 3e
       -0.31818837 0.023727749 -0.34813127 0.41064698
0003e0 84 3c de 3d 6f c9 c9 be 89 0f 8a 3e 44 91 94 ba
       0.10851386 -0.39411494 0.26964977 -0.0011334796
0003f0 bd 08 44 3e 78 63 d9 3e d6 53 b1 3e cd 0f 80 be
       0.19143958 0.424587 0.34634274 -0.25012055

residual.2.bias f4 [16]
000000 8f 0a 35 3b 44 94 1a bb 99 8d 4b bb 75 30 35 3b
       0.0027624702 -0.0023586908 -0.003105974 0.002764729
000010 0c e0 0d 3b d9 c9 3d 3b 88 a3 3a bb ec e1 50 3b
       0.0021648435 0.0028959422 -0.002847882 0.0031872941
000020 f0 13 22 bb ed b3 0c 3b 56 38 15 3b 6c a4 3c 3b
       -0.0024731122 0.0021469549 0.0022769175 0.0028784527
000030 bb 87 27 bb f1 2c 4c 3b 6d 71 25 bb 25 8a 4d bb
       -0.002556308 0.0031154717 -0.002524461 -0.0031362858

residual.4.weight f4 [8, 16]
000000 2e 9d 83 3e 6a db 80 3e 73 fa bf bd 89 c7 d4 3e
       0.25705856 0.251674 -0.09373941 0.41558483
000010 c8 18 4e 3e 9e 65 6b be da bb f7 3e d9 c2 c2 3e
       0.20126641 -0.22987983 0.48385507 0.38039282
000020 13 bf 63 3e 00 97 a4 be 41 01 94 3e 88 50 87 be
       0.22240858 -0.32146454 0.28907207 -0.26428628
000030 89 20 9b 3e c6 15 b1 bc 97 8d f5 be 06 2c 13 be
       0.3029826 -0.021616828 -0.47959587 -0.14372262
000040 6e 55 85 be ed 50 e3 3c 24 5c 1e be 36 6d 8f be
       -0.2604174 0.02774855 -0.15464836 -0.2801301
000050 8a 4b fd be 3e 67 2c be 41 29 e4 3c eb d9 3b bd
       -0.49471694 -0.16836259 0.027851703 -0.04586212
000060 af 7e 7b bb 69 89 af bd 97 4b 6a be 3b 91 f6 be
       -0.003837507 -0.08571131 -0.22880398 -0.48157677
000070 b4 c8 c7 3e cf 87 ef bd 27 11 2b 3e 05 e1 a7 3e
       0.39020312 -0.11695825 0.16705762 0.32788864
000080 42 07 87 be ee 97 2e 3e 3e 7d be 3e 09 b5 d9 3e
       -0.26372725 0.17050144 0.37204927 0.4252093
000090 19 c0 e4 3e ab f7 1a be ea be cc bd 6b e7 83 3e
       0.4467781 -0.1513354 -0.099973515 0.25762495
0000a0 08 1f f8 be de 09 87 3e fc 51 5c be e3 1f 65 be
       -0.48461175 0.26374716 -0.2151565 -0.22375445
0000b0 88 95 a6 be 94 f0 fa 3e 0d f2 c1 be fe 15 86 3d
       -0.32535958 0.49011672 -0.37879983 0.065471634
0000c0 5a a7 82 be ce a1 84 3d 41 c3 03 3d f1 a7 fc 3e
       -0.25518304 0.06476174 0.03216863 0.4934688
0000d0 bc ee ab 3c be ae aa 3d bb dc 21 be 4c 6b cb be
       0.02098786 0.08334111 -0.15806858 -0.397303
0000e0 f6 15 ff 3d e1 25 13 bd 80 e3 99 be 54 b3 8e be
       0.124553606 -0.035924796 -0.3005638 -0.27871192
0000f0 c2 38 0d be bd de 43 bd 97 4f 12 bd 3f 87 1a be
       -0.13791183 -0.04781984 -0.035720434 -0.15090655
000100 63 d7 e8 be 8b c0 f3 3e 61 36 61 3e b6 ce cd bd
       -0.45476827 0.47607836 0.219934 -0.100491926
000110 1e e6 88 be 13 67 7d be 03 f5 e1 be 4d 95 4e be
       -0.26738065 -0.24746351 -0.44132242 -0.20174141
000120 1f 71 a3 be d2 c0 f4 be 01 6d 60 3e 91 42 b6 3e
       -0.31922242 -0.4780336 0.21916582 0.3559766
000130 f2 bf 3e be 3c 74 74 be 29 08 b6 be a5 a6 e9 be
       -0.18627909 -0.23872465 -0.355531 -0.45634952
000140 b5 5b 65 3e 8d b8 60 be 05 7a ce 3e 44 d9 89 be
       0.22398265 -0.219454 0.4032747 -0.26923573
000150 3f 9c 95 3c 18 9a 91 bd 4c 15 c2 3e 6d dd d8 bd
       0.01826298 -0.07109469 0.37906873 -0.105891086
000160 9a f1 92 3e 35 12 3c be f1 33 9d 3e 52 22 24 3e
       0.28699952 -0.1836632 0.3070369 0.16028717
000170 8d ac 6c be 45 a8 4b bd eb 45 19 bd b9 41 71 3e
       -0.23112698 -0.04972102 -0.037420195 0.23560227
000180 93 2a 18 bd 58 c6 d1 3e 33 68 bd 3e 60 61 3a 3e
       -0.037149977 0.40971637 0.3699356 0.18201208
000190 1c 60 62 be 0f 6e ab bd ce 64 bc 3e 4a 01 ce be
       -0.22106975 -0.083706014 0.36795658 -0.40235358
0001a0 92 62 5f 3e c6 2b 1d 3e 4d 33 f8 bd 91 0c 5d 3e
       0.21814945 0.1534873 -0.1211916 0.21586825
0001b0 98 98 0e be 23 c1 55 bc 0d b5 e4 3e dc 88 36 3c
       -0.13925397 -0.013046536 0.4466938 0.011141028
0001c0 60 7c 54 3e cc 35 70 be 51 44 87 be a9 e9 a5 be
       0.2075057 -0.23458022 -0.2641931 -0.3240483
0001d0 03 12 dc be e1 3a fc 3e b6 05 68 bd 0a 3d bf be
       -0.42982492 0.4926367 -0.05664607 -0.37351257
0001e0 7a 3c fb bd ca 2e 11 be 88 55 df 3e 56 c7 68 be
       -0.12267394 -0.14178005 0.43619943 -0.2273229
0001f0 b3 e1 c4 be b1 4a d3 be f0 28 b5 be 59 0c 00 3e
       -0.38453445 -0.41267923 -0.35382795 0.1250471

residual.4.bias f4 [8]
000000 bd 89 e1 ba 6f de 4c bb 33 d0 48 bb 88 a1 4c 3b
       -0.0017207187 -0.003126051 -0.0030641675 0.003122421
000010 9f 8f 4c 3b 68 15 44 bb 0c ad 4c bb d4 32 4d bb
       0.0031213535 -0.0029919986 -0.0031231074 -0.0031310814

residual.6.weight f4 [1, 8]
000000 85 65 10 bf 0b de 00 bf 1c 7e 0f bd ca ba c8 3e
       -0.56404907 -0.5033881 -0.035032377 0.3920501
000010 6b 0c ad 3e 7d 97 af be 77 ad d9 be 59 d1 4b bf
       0.33798537 -0.34295264 -0.42515156 -0.79616314

nee_decoder.0.weight f4 [16, 32]
000000 f1 10 14 be 5e fd 36 3d 99 7f 9d be e1 10 a5 be
       -0.14459588 0.044675224 -0.30761412 -0.3223944
000010 2b fb a3 be 52 01 45 be cb ba 28 3e 2a 7e ba bd
       -0.32027563 -0.19238785 0.16477506 -0.09106095
000020 d1 62 0c 3e c5 ad 94 be 7b 5d 30 3e 3c 70 78 bd
       0.1370957 -0.29038826 0.1722316 -0.06065391
000030 ad fb 70 3e 7b f9 80 be ac 4d 41 3e e9 bb 8a 3e
       0.23533507 -0.25190338 0.18877286 0.2709649
000040 75 a8 29 be 5c 88 1c 3d 5c f0 5d 3e 9b 4b 71 be
       -0.16568168 0.03821598 0.21673721 -0.23563997
000050 f1 f9 2c 3e bf f5 79 3d 8d 2b 8d be 57 dd 84 be
       0.1689222 0.061025377 -0.2757229 -0.2595012
000060 64 a5 0b 3c 00 8b 7e be 30 89 57 be 3c 82 9f be
       0.008523319 -0.24857712 -0.21048427 -0.31154048
000070 ed 11 0d be 7d 05 87 be 15 b3 f7 3d 6d f3 16 3e
       -0.1377637 -0.26371375 0.12094704 0.14741297
000080 c0 61 14 be 8c 35 1d 3d de bc d4 3e e4 c3 72 3d
       -0.14490414 0.038381144 0.41550344 0.059268847
000090 98 96 03 3f 00 74 39 3e 0c 6e ae be 69 fe 35 bd
       0.5140166 0.18110657 -0.34068334 -0.044432078
0000a0 5b 38 0b be 44 da 69 3e bf d0 0f bd 8a a5 c2 3d
       -0.13595717 0.22837168 -0.035111185 0.0950423
0000b0 30 80 3d 3e b5 0f 44 be ed bb 20 3d 5d 2d 43 be
       0.18505931 -0.19146617 0.03924172 -0.19060273
0000c0 c5 fe b1 be 38 39 31 bb 39 53 87 be 9a 38 10 bc
       -0.34764686 -0.0027042162 -0.2643068 -0.008802557
0000d0 f2 c1 43 bc e6 fe a4 bd b7 f3 86 3e 04 0f 9c be
       -0.011948096 -0.080564305 0.26357815 -0.30480206
0000e0 1e 91 d0 bd 64 d0 a0 bc 54 6a 11 bf 75 1f ce bd
       -0.10183929 -0.019630618 -0.5680287 -0.10064594
0000f0 13 05 b9 3c 9b f1 fc 3d e4 c8 bd be d0 18 6c 3e
       0.022585427 0.1235077 -0.3706733 0.2305634
000100 1b cf 50 be ed 31 8d 3e 5e ba e5 be 75 9e 6c be
       -0.20391504 0.27577153 -0.4486875 -0.23107322
000110 b0 ea 65 3e f5 70 5a bd f5 7f b9 3e d9 3b 46 3e
       0.22452807 -0.05333038 0.36230436 0.19358768
000120 04 39 8a 3d 6f 50 8c 3e e6 e5 9a be dd 2f 5d 3d
       0.06749156 0.27405116 -0.30253524 0.054000724
000130 2d d6 d3 3d 27 bd 9c be 16 db 22 be 29 f6 a7 be
       0.10343585 -0.30613062 -0.15903887 -0.32804993
000140 eb 2f e9 3d 3e bb 86 3e 3d 8c 4c bd 0d cf c2 3e
       0.11386093 0.2631473 -0.04993843 0.38048592
000150 19 bf fa 3c 58 ab 85 be 2b 46 85 3e 80 be 97 bb
       0.0306087 -0.26107287 0.26030096 -0.0046308637
000160 d3 21 a8 bd 20 06 31 be 28 b8 d0 3e 26 0e f4 3e
       -0.082095765 -0.17287493 0.407655 0.47667044
000170 94 76 3d be 0a fa 96 be 31 12 48 be b0 af 20 3e
       -0.18502265 -0.2948764 -0.1953819 0.1569202
000180 38 50 c4 bd 40 09 25 be 9e 65 04 3e fb c1 91 3e
       -0.09585613 -0.1611681 0.12929389 0.28468308
000190 72 54 e9 3e a1 e9 aa bd 23 c3 bd be 8a f0 14 3d
       0.4557224 -0.083453424 -0.3706294 0.03636221
0001a0 ec 80 b4 bd 7a 26 80 3e 35 96 58 bd b0 28 44 3d
       -0.088136524 0.25029355 -0.052877624 0.047890365
0001b0 1a 99 0c be 99 0c a7 3d 6b e0 73 bb 82 f9 03 3e
       -0.13730279 0.081567 -0.003721262 0.12888148
0001c0 2c a7 3c be 0a cd 4e bd 22 2a c4 3e a4 9a de 39
       -0.18423146 -0.05048851 0.38313395 0.00042458356
0001d0 2f 7f 1d be a4 5e 09 be 4e 7a bb be 1f d7 59 3e
       -0.15380548 -0.13415009 -0.3661675 0.21273468
0001e0 c6 89 64 3d b4 1f 76 bc 36 77 e5 be bd 9e ff bd
       0.055795453 -0.015022207 -0.44817513 -0.12481449
0001f0 3c ff 4c be 8f cd 37 3d 19 6c 8d be 5c 7a 82 bd
       -0.20019239 0.04487377 -0.27621534 -0.063709944
000200 61 45 06 3e 44 2b 52 3e f6 cb 45 3c af 1b 3e be
       0.13112403 0.20524317 0.012072554 -0.18565248
000210 92 eb 6d 3e e7 15 84 3e 21 11 62 3d 16 80 11 3e
       0.23234394 0.2579796 0.055192117 0.14209017
000220 1a 22 cb 3e dd c3 2c be f2 0a da 3d 15 ab 74 be
       0.39674455 -0.16871591 0.10646619 -0.23893388
000230 d2 f7 00 3e 22 99 72 3e a3 13 87 be 98 d2 a1 3e
       0.12594536 0.23691228 -0.2638217 0.31605983
000240 c6 8e a9 be bc ae 6a 3e 8f 73 e5 bc b1 39 89 be
       -0.3311674 0.22918218 -0.028009204 -0.26801828
000250 8b f5 62 be 6f f4 5d 3e 1b 65 04 bd f5 36 fd 3d
       -0.2216398 0.21675275 -0.032322984 0.12363998
000260 73 05 ef 3d 04 db 95 3e 7b bf 54 3e b7 a5 83 3e
       0.11670961 0.29268658 0.20776169 0.25712368
000270 24 d5 2f be a3 37 67 3e 37 24 be be 9d ce cd bb
       -0.1717115 0.22579817 -0.37137005 -0.0062807337
000280 1b ca 7d 3d a4 a1 a2 bd a4 3a 10 3e c0 20 91 3e
       0.06196032 -0.07940987 0.1408487 0.283453
000290 7f 36 3b 3e 72 c0 7f 3e 4e 6c 55 bd 24 1d 7b 3e
       0.18282507 0.24975756 -0.05210524 0.24522835
0002a0 42 22 9e be cc 4c 65 be 5a 33 c2 be 70 bc 67 3e
       -0.30885512 -0.22392577 -0.37929803 0.22630477
0002b0 13 8f 59 be 57 6e 88 be dc eb 8e be 0a dd 8b be
       -0.21245985 -0.26646683 -0.2791432 -0.27317077
0002c0 79 41 b3 be 2c 3b be be 9d d7 3a be ca cb a8 3d
       -0.3501089 -0.3715452 -0.18246312 0.08241995
0002d0 0f cb 4c be 94 b3 54 3c 02 70 b5 3e 95 ef 6d bd
       -0.19999336 0.012982268 0.35437018 -0.05808981
0002e0 ba 07 a6 3e 08 d2 99 bc e3 4d 4b 3e 63 fd 91 be
       0.3242777 -0.018776909 0.1985393 -0.2851363
0002f0 3b a2 ff 3d 99 c9 72 be b2 ac 29 3e 28 8f 5c 3e
       0.12482115 -0.23709716 0.16569784 0.21538985
000300 8a 08 46 be 79 e4 c4 bd fe aa a0 3e b1 01 19 be
       -0.19339195 -0.0961389 0.31380457 -0.14942051
000310 8b 7d a3 be 54 c8 38 be 26 75 4c be 23 a5 8d be
       -0.3193172 -0.18045169 -0.19966564 -0.27665052
000320 bf 44 67 be 2d fd 9c 3e 09 97 79 be cb 2b 8b 3e
       -0.22584818 0.30661908 -0.24374022 0.2718185
000330 ee 99 00 be a4 20 8c bd c4 4c 6c 3e cb ec 6e 3e
       -0.1255872 -0.06842163 0.23076159 0.23332517
000340 fc c3 a7 bd 3a 1a 4f 3e 42 c0 bf 3e 6f d6 91 3e
       -0.08191678 0.20224848 0.3745137 0.28483912
000350 08 c9 9e 3e 62 f6 06 bd 2c 9a de 3d 22 a9 0f be
       0.3101275 -0.032949813 0.1086925 -0.14029363
000360 ad b5 a8 be d5 a5 77 3e 43 e0 8a be 9b 8a b8 bb
       -0.32951108 0.24184354 -0.27124223 -0.0056317574
000370 65 14 8d 3e 0d f5 90 3e ed 14 80 be 5c 17 7b 3d
       0.27554622 0.2831196 -0.25015965 0.061301574
000380 88 77 a8 be 44 b4 5d be ba 99 ae be 33 97 5e 3e
       -0.32903695 -0.21650797 -0.3410166 0.21737365
000390 e2 f8 14 ba 42 d8 a1 3e c1 aa 12 3e 1b 4b c9 3e
       -0.00056828384 0.31610304 0.1432295 0.39315113
0003a0 9a a5 b4 be d2 b2 0f 3e d8 cf 2f 3d b8 2d 1e 3e
       -0.35282594 0.14033058 0.042922825 0.15447128
0003b0 4a 1c d6 3d ec c7 96 3d 2a a8 b6 3e c9 34 b8 3e
       0.104546145 0.07362351 0.35675174 0.35977772
0003c0 09 fe 09 be fb 76 57 3e b9 05 45 be 99 06 bd bd
       -0.13475813 0.21041481 -0.19240464 -0.09229774
0003d0 9d 71 a7 3e 72 de dd 3d 8a f7 79 3d 8f 71 56 be
       0.32703868 0.10833444 0.061027087 -0.20941757
0003e0 51 ca 23 3e 37 7a 21 bd 40 07 d4 3e 46 d3 d6 3e
       0.15995146 -0.039423194 0.4141178 0.41958064
0003f0 25 20 f7 3d 17 63 55 3e 87 2c 5c be 9d 1f 89 3e
       0.12066678 0.20838581 -0.21501361 0.26781932

nee_decoder.0.bias f4 [16]
000000 24 82 6f 3d 1d 81 5a be 7e c2 bc 3c 60 4a 14 be
       0.05847372 -0.21338315 0.02304196 -0.14481497
000010 8c 40 17 bd 43 95 da 3c a0 59 91 3c d7 f3 68 3d
       -0.03692679 0.026682502 0.017742932 0.05687317
000020 94 7f 83 be 7b ac 24 3d e2 d1 d7 3c be 39 b4 be
       -0.25683272 0.040203553 0.026345197 -0.35200304
000030 d8 da d5 3c a4 30 f2 3d e3 fc e1 3c 24 39 34 be
       0.02610533 0.11825684 0.027586406 -0.17599922
