climate/Final Experiments/PERNN_res255/best_model.pth (torch, 62626 bytes, 83 tensors)

encoder.0.fc.weight f4 [16, 16]
000000 fb df 84 3e e3 bc bf 3e 26 cd ec 3e 3a 53 8d be
       0.25952134 0.37448797 0.46250266 -0.2760256
000010 71 47 43 3e 90 2f 99 bd a5 e2 c3 bd e5 a5 fa bd
       0.19070221 -0.07479775 -0.095647134 -0.12238673
000020 54 08 62 be fb 50 64 3e fe 9e f4 be 5c 6f e1 3e
       -0.2207349 0.22296517 -0.4777755 0.44030273
000030 32 82 0c be 47 95 f6 bd 4f c8 34 3e 66 7a 6f 3e
       -0.1372154 -0.12040191 0.17654537 0.23386535
000040 4d 14 d3 be c7 ea 31 3d 10 22 cd be 05 66 a6 bc
       -0.41226426 0.04343679 -0.4006505 -0.020312319
000050 85 96 a8 be c8 1d 94 3e 84 23 e0 bd 97 54 8a bd
       -0.32927337 0.2892897 -0.10944274 -0.067544155
000060 22 27 02 3d 67 88 14 3e e8 cc 10 3f ad 38 1e be
       0.0317756 0.14505158 0.5656266 -0.15451308
000070 05 84 06 3f 41 e9 43 be 1d a3 c1 3e 11 fa a9 bc
       0.52545196 -0.19131948 0.37819758 -0.020749124
000080 f6 3e e7 be a8 0a a6 be b4 69 c9 bd e2 01 50 be
       -0.45165223 -0.32430005 -0.098346144 -0.20313218
000090 83 47 f4 3d ab fe e7 be e0 72 70 be 9b d0 d5 3d
       0.11927702 -0.45311484 -0.23481321 0.10440179
0000a0 0b e2 b6 be 1c 2e 0f bf 57 11 80 bd 12 0c 02 be
       -0.35719332 -0.5592973 -0.06253307 -0.12699917
0000b0 ca 41 66 3c 6a 4a e1 3e a4 55 15 be 91 6c bc be
       0.014053771 0.44002086 -0.1458345 -0.3680158
0000c0 be 4d 91 be a7 56 12 bd 87 2c 0e 3e 9e 23 c9 be
       -0.28379625 -0.03572717 0.13884173 -0.39284986
0000d0 ee a0 03 3f f8 33 14 be 1f 93 fe 3c b8 09 8f be
       0.51417434 -0.1447295 0.031076012 -0.27937102
0000e0 ab 4a 93 be b5 01 f1 be 05 b5 c1 be ce fe 95 be
       -0.28767905 -0.47071615 -0.3783342 -0.29295963
0000f0 73 d5 6d be aa df d7 3e 64 b7 81 3e a5 44 3a 3d
       -0.23225956 0.4216283 0.25335228 0.04547562
000100 b2 21 20 be ba ea 88 bd e6 22 91 be 66 81 b2 3d
       -0.15637854 -0.066853955 -0.28346938 0.08716087
000110 f2 5a 72 be 6d 5d 93 3e c2 23 7b bc c9 4e 90 3e
       -0.23667505 0.28782216 -0.01532835 0.28185108
000120 c7 4b 35 3d 5a 2e 53 bd a3 8d 04 be 8f 81 ee be
       0.04426172 -0.051557876 -0.12944655 -0.4658322
000130 74 44 71 be a9 d2 a5 bd 6e 9f 0c 3f 1a d3 34 be
       -0.23561269 -0.08096821 0.5493077 -0.17658654
000140 83 9a c2 3e 60 d4 70 3e 02 26 82 be 83 45 0c bc
       0.38008508 0.23518515 -0.25419623 -0.008561495
000150 de 7c 77 be 61 d9 72 be 01 81 85 be ad 6c 83 3e
       -0.24168727 -0.23715736 -0.26074985 0.2566885
000160 d1 38 c5 be 8c bf fd bc 3a 26 87 be d4 e6 8c 3e
       -0.3851991 -0.030975126 -0.26396352 0.27519858
000170 85 34 71 be c8 a1 60 be 32 22 b5 be cd 56 60 bd
       -0.23555191 -0.21936715 -0.3537765 -0.05477028
000180 9e 4e e8 be 8b 28 f4 3e 37 72 ea be ab b7 86 bd
       -0.4537248 0.47687182 -0.45790264 -0.06578001
000190 44 2d 5b 3d 19 70 8c 3d 8d 55 c2 3c d5 e2 57 be
       0.053509966 0.068573184 0.023722434 -0.21082623
0001a0 aa 89 0b 3e c7 a1 5a be 86 45 38 3e f7 ca 32 bf
       0.13626733 -0.21350776 0.17995271 -0.6984095
0001b0 91 af e1 bb a7 f6 98 bd ba 47 89 3e 37 d0 43 be
       -0.006887384 -0.0746892 0.26812536 -0.19122396
0001c0 71 7d ab 3e 7a 7a 91 be 09 ec a2 be 00 4a b6 bd
       0.33494142 -0.28413755 -0.31820706 -0.08900833
0001d0 26 17 e0 3e ed ee aa bc a5 3a 8c be c8 0b 91 3d
       0.4376766 -0.020865882 -0.27388492 0.07082325
0001e0 92 8e b8 3e c1 5f d0 be b2 9e ef 3e 31 1c 11 bf
       0.36046273 -0.40698054 0.46800762 -0.5668364
0001f0 22 3d 8c 3e b4 50 bd 3e 0e 95 bc 3e f7 51 42 bc
       0.2739039 0.36975634 0.3683247 -0.011860362
000200 c9 31 0e be f4 8b ae be 18 6e a7 be 80 68 2e 3d
       -0.13886179 -0.3409115 -0.32701182 0.042580128
000210 f1 41 a6 3d 33 49 62 be 81 14 3c be ec 99 36 be
       0.08118046 -0.22098236 -0.18367197 -0.17832154
000220 bb e4 9d 3b 1e b7 4a be 06 b0 42 be 85 7e ce be
       0.0048185266 -0.19796416 -0.1901246 -0.40330902
000230 be d1 ac be 71 7a 89 be 81 ab c6 bd 40 0a df bd
       -0.3375377 -0.26851228 -0.097006805 -0.10890627
000240 a6 bf 99 be 85 07 8c bd b8 fa a0 be bb 23 08 bb
       -0.3002903 -0.06837372 -0.31441283 -0.002077325
000250 35 bf 8e be 54 b6 7b bd e4 37 b8 be 17 a2 a1 be
       -0.27880254 -0.06145318 -0.3598014 -0.31568977
000260 4c a1 f5 3e 2c 8d 01 bc 29 00 18 be b2 3c 38 be
       0.47974622 -0.007907193 -0.14843811 -0.17991903
000270 ee d1 1e 3f e5 a9 e2 3e 72 39 82 3e f8 ac da 3d
       0.6203908 0.44270244 0.25434452 0.106775224
000280 38 b2 a8 3e b2 3d 79 3b ae 0a ba be d2 c3 dd 3b
       0.3294847 0.0038031158 -0.36336273 0.0067677284
000290 f9 cf 2d 3e f0 04 43 3e 68 32 f9 be ba 25 2b be
       0.16973867 0.19044852 -0.4867127 -0.1671361
0002a0 4e 95 f3 3e 89 47 66 3e 10 3f fd 3d 38 9f 1b 3f
       0.47574848 0.22488226 0.12365544 0.60789824
0002b0 b0 a7 1d 3e 2e 4f 9d bd c3 bd 09 3f 2d 2a e3 bd
       0.15395999 -0.07681118 0.5380518 -0.11092029
0002c0 f8 e6 5d be 45 2f f2 3d e1 a8 1b be 7c 8a c4 bd
       -0.21670139 0.11825422 -0.15201141 -0.09596726
0002d0 d6 55 00 be 69 06 b5 be 97 06 4a 3d 78 5e 72 3e
       -0.12532744 -0.35356453 0.04932269 0.2366885
0002e0 1d c6 bd 3e 80 c6 2f bd da 3d d7 bd 15 02 3a bd
       0.3706521 -0.042913914 -0.10509844 -0.04541214
0002f0 51 d6 36 bf 7a 84 2c be 17 3c b0 be 2a 49 42 be
       -0.7142077 -0.16847411 -0.34420845 -0.18973222
000300 d9 a7 ed 3d ce 45 20 3e 21 05 26 3d 8e 87 d3 bc
       0.1160428 0.15651628 0.040532235 -0.025821473
000310 56 e4 93 3e 15 15 38 3e 7f 8a 45 3d 00 5a ca be
       0.28885144 0.17976792 0.048227783 -0.3952179
000320 54 e1 90 bd ac d3 22 bf 9d 57 06 be 7e 96 3f bf
       -0.07074228 -0.63604236 -0.1311936 -0.7483901
000330 a7 e1 15 be 86 75 ac 3c cc 28 ec be 10 4d 9f be
       -0.14636861 0.021052133 -0.46124876 -0.31113482
000340 65 d3 50 be 52 14 84 be 14 7a 07 be b8 2f 1e 3e
       -0.2039314 -0.25796753 -0.13230163 0.15447891
000350 1b 5f 06 3f d7 2f 48 3e e0 0f 15 3e bb 93 85 be
       0.5248887 0.195495 0.14556837 -0.26089272
000360 43 ed 52 3d 5d 20 40 be 82 02 f2 3d af 94 72 be
       0.0514958 -0.18762346 0.118168846 -0.23689531
000370 15 9c e6 be e8 27 c3 3e 8f 31 bb 3e 5f 33 6b be
       -0.45040956 0.38116384 0.36561248 -0.22968815
000380 b5 cd a4 be ba 94 eb 3e a1 16 ab 3d be 6b 19 3d
       -0.32188192 0.46011907 0.083539255 0.037456267
000390 cd 7c 11 3f 8e ee 63 3e 35 22 38 3d bf 7c 4f be
       0.56831056 0.2225897 0.044954497 -0.2026243
0003a0 1e 6d d7 be b3 eb 29 be bc 6c 5a bd e8 d2 37 3e
       -0.42075437 -0.16593818 -0.053326353 0.17951548
0003b0 de a8 8e 3e f7 b0 8a 3e f5 f5 9a 3e 95 7f b5 be
       0.2786321 0.27088138 0.30265775 -0.354489
0003c0 25 1d 99 bc b9 f8 8c be 8d 67 eb be 89 e9 45 3a
       -0.018690655 -0.2753351 -0.4597744 0.0007549753
0003d0 46 c8 60 3e 6e 4f e7 3d 0e 37 be bd c8 41 82 3d
       0.21951398 0.11294447 -0.092878446 0.06360203
0003e0 ac 95 71 3d 4c 9d 8e 3c fe c9 0b 3c 82 d8 01 bf
       0.05898063 0.01740899 0.008532045 -0.5072099
0003f0 8e c3 65 ba fe 93 8d 3e 45 c8 16 3c c5 c6 da bd
       -0.00087647967 0.27651972 0.009203021 -0.106824435

encoder.0.fc.bias f4 [16]
000000 cc ab a8 3b 75 e1 fc 3d b8 61 4a bd 7a df 00 3c
       0.005147433 0.1234769 -0.049409598 0.007865781
000010 13 ef bd bc 49 c9 d7 3d 98 0d 28 3e 2b 06 73 3d
       -0.023185289 0.10536439 0.16411436 0.059332054
000020 9e 5c b8 3d 8a f4 e7 bc ba 48 20 ba 99 64 88 3d
       0.0900204 -0.028314847 -0.0006114353 0.066598125
000030 ed b6 d4 3d d7 f0 a9 3c 1e 6f 1b bc 85 cf 81 3c
       0.10386453 0.020744724 -0.009486942 0.015846023

encoder.0.norm.weight f4 [16]
000000 2e 8a 81 3f 74 a1 9a 3f 1e 7f 9d 3f 9e e1 88 3f
       1.0120294 1.2080522 1.2304418 1.0693853
000010 99 63 93 3f 37 12 92 3f a7 a8 98 3f da 76 98 3f
       1.151477 1.1411809 1.1926469 1.1911271
000020 a7 98 88 3f cd b5 97 3f c8 52 9e 3f bf fd a5 3f
       1.0671586 1.1852356 1.2369013 1.2968062
000030 75 e5 a0 3f 90 54 93 3f c6 ab a2 3f df 7b a6 3f
       1.2570025 1.1510181 1.2708671 1.3006552

encoder.0.norm.bias f4 [16]
000000 51 97 62 bc af 81 94 3e d9 7a 93 3e 74 a1 17 3e
       -0.013830022 0.2900519 0.28804663 0.14807683
000010 69 f9 f9 3d 44 b5 63 3e 0d c0 0c 3e fa 88 95 3e
       0.12205774 0.22237116 0.13745137 0.29206067
000020 c4 e2 c4 3d 95 60 81 3e 70 40 95 3e 22 e2 96 3e
       0.096135646 0.25269 0.29150724 0.294694
000030 21 78 8c 3e 38 55 59 3e 7a ca 9e 3e af 56 87 3e
       0.274354 0.21223915 0.31013852 0.26433322

encoder.0.norm.running_mean f4 [16]
000000 ce fe 7a 3f e9 e4 3f 3e 51 ad d2 bf 4c d4 a5 3e
       0.9804505 0.18739666 -1.6459142 0.32388532
000010 03 72 08 bf b3 ce bf be 71 25 0a bf b8 f2 5f 3e
       -0.5329897 -0.37462386 -0.5396338 0.21869934
000020 2b 60 05 bf 01 e6 35 3f 21 9e 3e be 5f f1 6c bf
       -0.52099866 0.71054083 -0.18615009 -0.92555803
000030 c2 8e ae bf 63 43 29 bf c5 a4 a5 bf 7a f5 94 be
       -1.3637316 -0.6611845 -1.2940909 -0.29093534

encoder.0.norm.running_var f4 [16]
000000 1c d4 35 3f 0e 25 1e 3f 1e 26 00 40 5b b2 ab 3f
       0.7102678 0.6177529 2.0023265 1.3413805
000010 c2 07 04 3f 21 5c 90 3e 02 13 0d 40 32 c7 36 3f
       0.5157434 0.2819529 2.2042851 0.713977
000020 73 f8 57 3f 14 78 58 3f 1b b8 93 3f a4 ca 62 3f
       0.8436348 0.84558225 1.154056 0.88590455
000030 0d 1c e9 3f 55 db 88 3f ef bd d8 3f 1d 0f dc 3e
       1.8211685 1.0691935 1.6932963 0.4298028

encoder.1.fc.weight f4 [16, 16]
000000 14 67 a1 3e e5 2f 04 bd b3 04 eb 3d b6 5a 7f 3e
       0.31523955 -0.03227224 0.11475506 0.24936947
000010 ed 46 1b bd ca b3 7f be 17 94 d5 3e 68 ad b6 3e
       -0.037909437 -0.24970928 0.41714546 0.35679173
000020 89 04 ee bd 24 e9 b5 bc f8 20 96 3e 32 68 87 be
       -0.11621959 -0.022205897 0.29322028 -0.26446682
000030 89 a5 3f 3e 3d 03 0e 3c a3 85 13 3e 9b 45 81 3e
       0.1871549 0.008667764 0.14406447 0.25248417
000040 40 b6 19 be d3 54 0d bf 73 01 c2 be 5e 6f 24 bc
       -0.15010929 -0.55207556 -0.3789173 -0.010036318
000050 f8 29 ab be 84 4a 9d 3c 2b 1e 70 be 8e 5b aa 3d
       -0.33430457 0.01920057 -0.23449008 0.08318244
000060 2e 71 82 3e 29 e0 00 bf 42 14 0d bf 9d 3f cd 3d
       0.25476974 -0.5034204 -0.55109036 0.10021899
000070 dc c7 7a be 36 df 03 3d a1 30 ef be 28 79 36 bd
       -0.24490303 0.032195292 -0.46716788 -0.044549137
000080 f8 70 55 bd ea 2e b4 bc f2 9b f2 bc 3e 23 52 be
       -0.05210969 -0.021995027 -0.029615376 -0.20521256
000090 fc 2f f2 3e 13 b4 e2 be c4 fa b2 be a9 f8 cf be
       0.47302234 -0.4427801 -0.34956944 -0.406194
0000a0 7b 10 56 3e 48 9c ab be 33 42 cd 3d 29 a2 ed 3d
       0.20904724 -0.3351767 0.10022392 0.11603195
0000b0 f6 1f 6e be cf 30 d3 3e 1e 1b a4 3d 5a 4b 72 bc
       -0.2325438 0.41248176 0.08012985 -0.014788473
0000c0 c7 29 65 be 1d 94 f6 3c 82 f1 b7 be 46 f7 fc bd
       -0.22379218 0.030099923 -0.35926443 -0.12351851
0000d0 a2 b4 b0 be d2 51 d9 be ab 18 34 be bc 3a 11 3e
       -0.34512812 -0.42445236 -0.17587535 0.14182562
0000e0 53 64 b3 be 37 af e0 bb 59 e1 b5 3e e5 ed bd be
       -0.3503748 -0.0068568247 0.3552349 -0.37095562
0000f0 63 bf 72 3c 3d d2 68 be 8a 70 3e 3e e5 30 9a be
       0.014816138 -0.2273645 0.18597618 -0.3011543
000100 5c 1e 11 be 7b d2 bd be c6 e4 94 bd a4 26 89 bd
       -0.14171737 -0.37074646 -0.072701976 -0.06696823
000110 ba 3a 20 3e d3 eb de 3d db 4c cf be d3 c3 b6 3d
       0.15647402 0.10884824 -0.40488324 0.08924069
000120 6d 8f 84 be 31 06 22 be e7 09 49 3e 0a c0 9c 3e
       -0.25890675 -0.15822674 0.19632684 0.30615264
000130 6d d5 2a bf 2b df 6d bd aa c4 50 3e 9a f6 c0 3c
       -0.6673191 -0.058074158 0.20387521 0.023555089
000140 ab 3e a7 3e 5f 17 07 bf 5d 1e 0a 3e 6d 10 b2 3d
       0.32665 -0.52770036 0.13488145 0.08694539
000150 26 98 f5 be 3e bd 97 be 33 d2 8f be c3 c9 cb be
       -0.47967643 -0.29636568 -0.28090057 -0.3980237
000160 a1 95 c2 be 20 41 81 3e c9 38 2c 3e 3e f0 1c 3e
       -0.38004783 0.25245 0.16818537 0.1532602
000170 b6 a7 3b bd 5c 43 40 be b3 bd 7e 3e 07 65 a1 be
       -0.04581424 -0.18775696 0.24877052 -0.3152239
000180 36 6c 9d bc 31 d2 e3 be 9d 4b a9 be 3d 27 6c bb
       -0.019216638 -0.444963 -0.330655 -0.003603413
000190 80 fb 08 bd 78 7e 98 be 86 48 f3 bd 86 8b a1 3d
       -0.033442974 -0.29783988 -0.11879067 0.0788794
0001a0 1d ae 2f 3e e8 b3 37 be 85 33 8b bd 41 88 c1 bc
       0.17156263 -0.17939723 -0.06796936 -0.023624541
0001b0 6e 02 40 be ee 48 3d be 7f c9 8e 3e b4 40 ab bd
       -0.18750927 -0.18484852 0.27888104 -0.083619505
0001c0 68 0c be be 2c a3 be be b9 ee ad be 75 08 f5 3c
       -0.3711884 -0.37233865 -0.33971193 0.02991126
0001d0 16 56 d3 3a a3 5b 16 3e 66 84 93 be f8 dd 9d be
       0.0016123678 0.14683394 -0.2881195 -0.3083341
0001e0 af 2c 95 be 15 2e d5 be 34 de ab be f0 cc 6a be
       -0.29135653 -0.4163672 -0.33567965 -0.2292974
0001f0 51 a1 de 3e 3e d2 dc bd 7b e6 6a bd cb 22 a0 bd
       0.4348245 -0.10782288 -0.05734871 -0.07819136
000200 fd d5 b1 be ba 34 99 3b 7c af df be 71 3d ab bd
       -0.34733573 0.004675475 -0.4368857 -0.083613284
000210 51 da 18 3e 46 36 1b 3d 5a de fd 3d cf d5 ad 3e
       0.14927031 0.037893556 0.12395926 0.33952186
000220 63 93 06 be f0 29 09 be 6d b3 2f be 0b 6e a9 be
       -0.13142161 -0.13394904 -0.17158289 -0.3309177
000230 7a e3 b0 be d0 c8 28 3e 16 4b 9d 3d 76 22 cc bd
       -0.3454855 0.16482854 0.07680337 -0.099675104
000240 97 a9 66 3e eb fc b0 3d e0 e2 7e be 5d d0 a1 3d
       0.22525631 0.0864199 -0.24891233 0.0790107
000250 9a 53 8b be dc 5f 1e 3e 72 6a ce bd 34 85 96 3e
       -0.2721222 0.15466255 -0.100788966 0.293985
000260 21 57 37 be ea 37 aa bc e8 7b da bd c0 ea f6 be
       -0.17904331 -0.020778615 -0.106681645 -0.48225975
000270 5c 28 c3 bd 94 1a a7 bd d6 24 45 be f1 cb de be
       -0.09529182 -0.08159366 -0.19252333 -0.4351497
000280 88 c9 b3 3e 41 15 c5 3d 1f b4 2c 3e 87 05 9d bd
       0.35114694 0.096231945 0.16865586 -0.0766707
000290 2c ac c7 be 93 c7 8a 3e 2a c2 21 bf 96 86 92 3e
       -0.38998544 0.27105388 -0.63186896 0.28618306
0002a0 b3 73 82 be 52 81 3b 3d e4 3f a6 bd e5 1c a8 3e
       -0.25478896 0.045777626 -0.08117655 0.32834545
0002b0 c8 eb 57 be 24 51 aa be 2d 9d c8 be 21 96 d5 bd
       -0.21086037 -0.3326503 -0.39182416 -0.104290254
0002c0 23 cb ab be 29 c0 79 bb 7a 6f fe be 5d e4 e8 bd
       -0.3355342 -0.003810892 -0.49694425 -0.11371682
0002d0 f2 bb 89 be 66 30 b6 be 07 a7 c4 bd eb a5 08 be
       -0.26901203 -0.355838 -0.096021704 -0.13344543
0002e0 1d 41 ae 3e da a9 dd 3c 0a 8a 81 3e a5 a8 9d be
       0.34034052 0.02705853 0.25300628 -0.30792728
0002f0 7a 0e f3 be d3 6f 0b 3e d9 36 49 be 1a 83 ee bc
       -0.47471982 0.13616876 -0.19649829 -0.029115248
000300 26 c6 82 be d5 08 7e 39 95 01 86 3c 03 d0 06 be
       -0.255418 0.00024226618 0.016358176 -0.13165288
000310 12 aa b8 3e b4 85 88 be 19 bd b5 3a 16 d1 76 3e
       0.36067253 -0.26664507 0.001386556 0.24103197
000320 63 27 27 3e 8b 08 9e be 38 aa 87 3d 63 84 2c bf
       0.16323619 -0.30865893 0.066242635 -0.67389506
000330 87 b9 aa be d0 54 2e bd 86 9c 94 be 37 29 2c bd
       -0.3334467 -0.042561352 -0.29025668 -0.042031493
000340 20 97 d0 bd ec 2b 57 bd 87 3f 74 3e c6 97 f2 bd
       -0.10185075 -0.05253212 0.23852359 -0.11845355
000350 fe e7 5a 3e 4d cc 43 be ac fe c7 be 23 3a 89 be
       0.2137756 -0.19120903 -0.39061487 -0.26802167
000360 84 1d b1 3e fd eb ca bd 81 c7 cd 3e e9 89 66 3e
       0.3459283 -0.099082924 0.40191272 0.22513546
000370 a3 90 a7 be df a9 37 bd 49 47 89 3c 5f 60 b8 bc
       -0.32727537 -0.044839736 0.016757624 -0.02250689
000380 78 5e 0c bd b7 31 f4 be d2 fd 41 be 5c 78 e6 bd
       -0.03426978 -0.4769418 -0.18944481 -0.112534255
000390 81 af c7 3e d5 52 50 3e b3 b2 a8 be 0f 9b 0c be
       0.39001086 0.20344098 -0.32948837 -0.13731025
0003a0 1a fe 31 3e 90 b5 b0 be 54 e4 04 bf b4 76 3b 3e
       0.17382088 -0.3451352 -0.519109 0.18307
0003b0 42 0f 13 3e 01 1f ef be 65 3c 97 bd cb a0 a2 3c
       0.14361289 -0.46703342 -0.07384566 0.019852063
0003c0 bc 74 7e 3e c5 b6 4d be 1e 0f 0b bd 10 f0 63 bd
       0.24849218 -0.20089252 -0.033949964 -0.055648863
0003d0 55 a0 1a 3e 09 d6 e3 be a0 b5 38 be d4 a3 a1 be
       0.15100224 -0.44499233 -0.18038034 -0.31570303
0003e0 9b 18 3f be 0e d0 14 be af 6f cd 3e 01 04 80 3e
       -0.1866173 -0.14532492 0.4012427 0.25003055
0003f0 e1 ff 9d be 46 7b 8d 3d c0 8d e0 be 11 62 af be
       -0.30859283 0.06908278 -0.43858147 -0.34254506

encoder.1.fc.bias f4 [16]
000000 e8 70 2d 3c aa aa 60 3e 78 ac 8f 3d 8e 47 b5 3d
       0.010586001 0.21940103 0.07015318 0.088515386
000010 35 f4 e5 3c 0a c2 22 3e 37 85 a6 3d 03 f7 32 3b
       0.028070549 0.15894333 0.081308775 0.0027307875
000020 30 ae 8d 3d 25 2c 98 bc 51 69 9e 3d f0 66 be 3d
       0.06917989 -0.018575737 0.07734931 0.092969775
000030 6d 46 1a 3e 89 e5 f5 3d a3 5a 19 3e 68 77 99 3d
       0.15065928 0.12006671 0.14975981 0.07493478

encoder.1.norm.weight f4 [16]
000000 66 af 62 3f b0 6c a0 3f d2 3b a5 3f c4 39 98 3f
       0.88548887 1.2533169 1.2908881 1.1892629
000010 c0 20 80 3f db 06 9c 3f 11 53 95 3f 39 4b ab 3f
       1.0009995 1.2189592 1.1665975 1.3382331
000020 a0 e8 90 3f aa e0 a1 3f 17 78 90 3f be 75 a8 3f
       1.1320992 1.2646687 1.1286649 1.3160932
000030 54 e7 a2 3f 9d 49 93 3f ef a7 9f 3f ed 19 a6 3f
       1.2726846 1.150684 1.2473124 1.2976662

encoder.1.norm.bias f4 [16]
000000 69 d7 0b be 39 71 9d 3e cf 40 94 3e 6d ea 5a 3e
       -0.13656391 0.30750445 0.28955695 0.21378489
000010 53 dc d3 3d 1a c5 57 3e e8 6b 5a 3e 4c ae 9c 3e
       0.10344758 0.21071282 0.21330225 0.30601728
000020 31 10 08 3e e3 ba 86 3e 80 a5 81 3e 6d ca a2 3e
       0.13287427 0.26314458 0.2532158 0.31795064
000030 0e 3a 8d 3e 57 f1 33 3e f1 84 93 3e 05 9f 99 3e
       0.27583355 0.17572533 0.28812364 0.30004135

encoder.1.norm.running_mean f4 [16]
000000 fb f6 f9 3f a8 f8 fa bf 24 4a bf be 64 f4 1d c0
       1.9528497 -1.9607134 -0.37361252 -2.4680414
000010 88 3c e4 be dc 4c 06 c0 4a 4f 97 bf e8 21 f0 bf
       -0.44577432 -2.0984411 -1.1821072 -1.8760347
000020 cb 8c 7a bf 40 a0 35 c0 9b 52 8b bf 25 51 a8 bf
       -0.97871083 -2.837906 -1.0884584 -1.3149763
000030 7e 74 98 bf af ab ce bd 48 34 67 bf 3a ba 25 c0
       -1.191055 -0.1009134 -0.9031415 -2.5894914

encoder.1.norm.running_var f4 [16]
000000 1b 66 dc 3f b4 00 27 40 ec 77 a9 3f c0 29 ac 3f
       1.721866 2.609418 1.3239722 1.3450241
000010 86 8c 20 40 65 64 e1 3f ec da c6 3e a4 e4 30 3f
       2.5085769 1.7608763 0.388389 0.6909888
000020 8e c2 07 3f d6 93 77 3f e1 45 84 40 c4 ca 32 3f
       0.5303124 0.96709955 4.13353 0.69840646
000030 d6 a5 b2 3f dd 22 81 3f 41 46 9f 3f dd e4 d9 3f
       1.3956859 1.0088764 1.2443315 1.7022969

encoder.2.weight f4 [32, 16]
000000 56 77 34 3e 2a 46 a3 bd ef aa a7 be 4b 46 ae be
       0.17623648 -0.07972367 -0.327476 -0.34038004
000010 91 22 9b be 2f fb 84 3d 3f 1f b2 be c2 d0 d7 be
       -0.3029981 0.06493222 -0.34789464 -0.42151457
000020 44 bb 5f be 65 d7 a9 be f3 1d be be d7 69 90 be
       -0.2184878 -0.33172145 -0.37132224 -0.2820575
000030 57 96 ac be 1b 02 1e 3d 33 e1 10 bd 69 8c 90 3e
       -0.3370845 0.038576227 -0.035371017 0.28232124
000040 08 91 62 bd 68 4a c1 be d9 3f 16 3e e0 9b 48 3d
       -0.055314094 -0.3775208 0.14672793 0.04897678
000050 ec 83 38 3e 85 3f 0a 3d ee 5a 15 be 09 75 09 be
       0.18019074 0.033751983 -0.14585468 -0.13423552
000060 18 14 10 be 4a 4b 77 be 85 ec 90 3d 33 bb 26 be
       -0.14070165 -0.24149814 0.070763625 -0.16282348
000070 a4 1f 6b be 62 b8 2a bd 5b a8 da be a1 43 85 be
       -0.22961289 -0.041679747 -0.4270657 -0.2602816
000080 49 fd cd 3e 26 1b 0e 3f 4a 26 8c bd 6b 61 ac 3e
       0.40232304 0.55510175 -0.068432406 0.33668074
000090 03 3c a5 3e ba 7e a6 3e 36 90 f5 3e 13 b3 21 bd
       0.32272348 0.3251856 0.47961587 -0.03947742
0000a0 49 de 3a 3d 9a 96 80 bd 91 36 c7 3e 2e a4 e9 3e
       0.045622144 -0.06278725 0.38908818 0.45633072
0000b0 9e 8c 1b 3f 2f 08 76 be 81 a3 bf 3d 60 ae a8 be
       0.6076144 -0.2402656 0.09357358 -0.32945538
0000c0 59 0b d1 bd 5c ea c7 be 96 c6 a7 be 33 d1 bd be
       -0.102072425 -0.3904599 -0.32768697 -0.3707367
0000d0 a2 32 d5 bd 0b ab 37 3e a7 1c 57 be 77 87 fc be
       -0.10410048 0.17936341 -0.21007024 -0.493221
0000e0 7e a3 9a be cc 65 1e 3c 15 24 3e 3d d8 96 95 3c
       -0.3020286 0.009667825 0.04642113 0.018260404
0000f0 8c bb bc be 0a ad fd bd 53 69 2b 3e 07 23 50 be
       -0.36861837 -0.1238652 0.16739397 -0.20325862
000100 b3 0c 5e 3e 71 e4 c9 3e f4 60 74 3e 97 da 63 be
       0.21684532 0.394321 0.2386511 -0.22251354
000110 e2 fb 0a 3e d2 9a 14 be 1a 96 51 be 8e b5 c7 bc
       0.13572648 -0.14512184 -0.20467415 -0.024378564
000120 85 26 5a bd 64 78 14 be 82 24 0e be f1 de 81 3e
       -0.05325939 -0.1449905 -0.13881114 0.25365403
000130 33 20 8e 3e 22 b9 82 be 53 ec c2 3d 95 29 d6 bd
       0.2775894 -0.2553187 0.095177315 -0.1045715
000140 f3 84 2d bd 5a b0 de be d3 c0 38 be e8 d0 49 bc
       -0.04236312 -0.4349392 -0.18042307 -0.012317874
000150 17 c0 28 3e 94 bc 6f be 94 b1 a5 bb 14 fa f0 be
       0.16479526 -0.2341178 -0.0050565694 -0.47065794
000160 2c 3d d5 be 0b 42 cf be 52 f7 c2 bd 32 19 ba be
       -0.41648233 -0.40480074 -0.09519829 -0.36347347
000170 0b 40 b9 bd 20 d7 99 3d 85 02 c7 3d 42 33 5d be
       -0.09045418 0.07511735 0.097172774 -0.21601585
000180 ee a8 7b 3d 1b 6d f1 3e 4f de 00 3e e7 81 6e 3e
       0.0614404 0.47153553 0.12584804 0.23291741
000190 c4 ea ed bc 82 4c 3e be 96 73 f6 3e 37 f2 f3 3d
       -0.029042609 -0.18583873 0.4813506 0.11911433
0001a0 3b 60 0a 3e ec 6b 84 3e 26 58 a6 3e 28 3b 66 3e
       0.13513272 0.25863588 0.32489127 0.22483504
0001b0 9c 3d 1d 3d 07 5d 66 3e 63 2e 9f 3e e7 a2 10 3d
       0.038388833 0.22496425 0.31090078 0.035311606
0001c0 69 9f b0 bd cc 9f 04 bf ad 16 4b be 5a cb 0b be
       -0.08624155 -0.5180633 -0.19832869 -0.13651791
0001d0 28 0b b9 3d 55 4e 9c 3d 31 1c cd 3d 5c a0 0b be
       0.09035331 0.07632128 0.10015143 -0.13635391
0001e0 1e e6 d4 bd 97 52 94 be 0f 36 f2 bc 16 50 83 be
       -0.10395454 -0.2896926 -0.029566793 -0.25647038
0001f0 63 49 ef be 05 52 07 3e 07 9d 21 3d 75 9e b5 bd
       -0.46735677 0.13214882 0.039456394 -0.08868114
000200 94 07 4d 39 36 05 02 be d4 7f 34 3e ec f9 cc be
       0.00019553147 -0.126973 0.17626888 -0.40034425
000210 a8 b9 98 3d 45 ac 37 3d 6b 9f f0 3d ce 97 5b b9
       0.07457286 0.044842023 0.117491566 -0.00020942019
000220 f1 e8 31 3e 3f 00 a3 3c 78 dc 96 be b4 6a e0 be
       0.17374016 0.019897578 -0.2946508 -0.43831408
000230 49 30 11 3b c9 6b bb bd bf 9c 54 be 08 ae a4 be
       0.0022154024 -0.09151418 -0.20762919 -0.32164025
000240 76 b6 92 3e d9 a4 b8 3d b6 3b 67 3e 82 24 9e 3e
       0.28654832 0.09015817 0.22581372 0.30887228
000250 3e eb 33 3d d4 7a 9b 3e 92 2f 12 3e ba 6c 83 3e
       0.043925516 0.30367148 0.14275959 0.2566889
000260 16 0c 6c be 95 2c df bd e0 4b 54 3e 7c de 38 bc
       -0.23051485 -0.10897175 0.20732069 -0.011283513
000270 e4 2d a3 3e bc ca 26 be 4a 15 f3 3c 27 b1 ba bd
       0.3187095 -0.16288275 0.029673237 -0.091158204
000280 cf 46 a5 be fc 31 80 be 87 26 a2 be 65 d9 82 bd
       -0.32280585 -0.25038135 -0.3167002 -0.06389121
000290 50 68 c0 be 68 e3 1d be 91 8e 5f be c6 21 ca bd
       -0.37579584 -0.1541878 -0.21831729 -0.09869723
0002a0 53 db 20 3e 3c 46 d6 be b0 f3 c0 be d3 ba 1a bf
       0.15708666 -0.4185046 -0.3768592 -0.6044132
0002b0 61 04 6d be 60 09 19 bc c8 bd 54 be 19 99 25 be
       -0.23146202 -0.009340614 -0.20775521 -0.16171683
0002c0 96 01 0c be 35 ad 76 bd b2 7f 13 3e 93 aa d3 3c
       -0.1367248 -0.060223777 0.1440418 0.025838172
0002d0 d6 78 d0 bd 74 6e eb 3d b7 54 3a 3e 2c 7b cf 3e
       -0.101792976 0.11495677 0.18196379 0.4052366
0002e0 43 2d 82 be 7b 97 41 3b 4f 39 a7 3e b1 05 0e 3e
       -0.25425157 0.0029539752 0.3266091 0.13869359
0002f0 4c 7d e0 3e 2b 1b c7 3e 41 d1 af 3e 84 b4 8a 3e
       0.43845594 0.38887915 0.34339336 0.27090847
000300 2a 51 01 3d ed a1 a9 3d ad 1f 11 3e 93 b8 2c bc
       0.031571545 0.08282838 0.1417224 -0.010542053
000310 34 81 ec 3b 72 41 ba 3d 57 e0 63 3e eb 81 8f 3d
       0.0072175507 0.09094514 0.22253548 0.07007202
000320 a5 48 20 be ff a9 9e 3d 17 9a db 3d 0c 7d 8e 3e
       -0.15652712 0.07747268 0.1072275 0.27829778
000330 33 a1 6d 3e bc 57 90 bd 1e c6 15 be 72 bc 73 3e
       0.23206024 -0.07047984 -0.14626357 0.23802355
000340 dc 3a 2c be f8 f8 1d 3e 09 ec be 3e 2f 77 5c 3e
       -0.16819328 0.15427005 0.37289456 0.2152984
000350 90 61 82 be 77 86 7d 3e d9 2b 7b 3e a9 46 e4 3e
       -0.2546506 0.24758326 0.24528445 0.4458516
000360 b3 b2 a7 3e 75 da 90 bc b1 a5 0f 3f e4 e2 1b 3f
       0.32753524 -0.017682293 0.561122 0.6089308
000370 bb c9 1c 3f 5a ad a4 3e fa 11 d0 3e c5 a6 9f 3e
       0.61245316 0.32163507 0.40638715 0.31181923
000380 a9 1d 28 be 25 63 63 3e d0 79 d6 3e 7a f9 63 bb
       -0.16417564 0.2220579 0.4188981 -0.003478615
000390 93 91 4a 3e 14 16 d9 3e 58 fd a0 3e 41 71 66 3e
       0.19782095 0.42399657 0.31443286 0.2250414
0003a0 ec 95 b7 3e c9 19 dc 3e d8 4a 84 3e 15 2b 96 3d
       0.3585657 0.42988423 0.2583835 0.07332436
0003b0 78 e1 bf 3e bf 80 b4 bc de 1b de 3d 97 98 1e 3d
       0.37476707 -0.022034047 0.10845159 0.03871974
0003c0 a1 d8 08 bd 4d e8 d3 3e e5 e1 0f 3e 0c bc 14 be
       -0.03340972 0.4138817 0.14051016 -0.14524859
0003d0 4e f5 35 3e d0 16 96 3e e5 89 28 3e e4 1f 91 bd
       0.17769358 0.2931428 0.16458853 -0.07086161
0003e0 c3 c3 37 be f5 b3 17 3e 06 22 03 3e 6b b5 82 3e
       -0.17945771 0.14814742 0.12805948 0.25529036
0003f0 ca 25 15 3f 02 8b 82 be 12 fb 4e 3e 33 ef 6d bd
       0.58260787 -0.2549668 0.20212963 -0.058089446

encoder.2.bias f4 [32]
000000 c7 8c 80 be 63 33 84 be b5 04 8a 3e af 35 7f be
       -0.25107405 -0.25820455 0.26956716 -0.24922822
000010 24 62 9a 3d e6 f9 7c be e7 2f 93 3e 45 49 73 be
       0.0753825 -0.24704704 0.28747484 -0.23758419
000020 73 83 86 be a8 c5 7a 3e 59 e5 75 be c4 33 80 3e
       -0.26272163 0.24489462 -0.2401327 0.25039494
000030 4d 62 05 3e 22 4e 81 3e 22 0f 8f 3e 87 b6 81 3e
       0.1302578 0.25254923 0.27941233 0.2533457
000040 66 3e 81 3e 05 54 87 3e f0 00 22 3e 02 b6 81 bc
       0.2524292 0.2643129 0.1582067 -0.015833858
000050 4d 0c 5c 3e 0f 31 87 3e fe c4 71 be 0a 57 83 3e
       0.21489067 0.26404616 -0.23610303 0.25652343
000060 e2 f6 84 be 90 af 72 3e 2a ef 7f be f8 e1 fb bd
       -0.25969607 0.23699784 -0.24993578 -0.122989595
000070 74 ad 77 be 10 dd 8f 3e 0d f9 80 3e 88 47 7c be
       -0.24187261 0.28098345 0.2519001 -0.24636662

residual.0.fc.weight f4 [16, 32]
000000 a8 ea 87 be 14 e1 84 3d de 80 12 3d ae e3 82 bc
       -0.26546216 0.06488243 0.03576743 -0.015977707
000010 3d 7b a6 bd d3 d3 9b be 99 30 83 bd 46 76 0d bd
       -0.081289746 -0.30435047 -0.06405754 -0.034536622
000020 29 55 8b 3e 86 ff b6 3e 86 32 c5 bd 55 87 f2 3d
       0.2721341 0.35741824 -0.09628777 0.11842219
000030 7e 2e 8e 3c 68 f6 e2 3d 8b f1 bc 3e 7b e8 9e be
       0.017356154 0.110821545 0.36903033 -0.31036744
000040 be 55 83 be 7f 2d a0 be 04 fd 84 be e4 90 8c 3e
       -0.25651354 -0.3128471 -0.25974286 0.27454293
000050 8d 67 a2 bd 81 3e a4 be 37 af 7d be 44 03 94 3c
       -0.07929907 -0.32078937 -0.2477387 0.018067963
000060 70 e7 58 3e 04 4e 39 be a3 c1 65 bd a2 2d 98 3d
       0.21182036 -0.18096167 -0.05609287 0.07430579
000070 2a 88 19 3e 88 17 1e 3e 6f ca 22 be d8 c6 a8 be
       0.14993349 0.15438664 -0.15897535 -0.32964206
000080 e5 14 58 3d e4 50 67 be 8d d6 b8 bc 43 b7 c1 bd
       0.0527543 -0.22589451 -0.022563243 -0.094587825
000090 0d 21 97 3e 5f 7d 84 3e c4 5e 83 3e f6 58 a2 3e
       0.29517403 0.258769 0.25658238 0.31708497
0000a0 10 49 34 3e 74 97 1c 3d f6 f8 b5 be 8b f6 a5 be
       0.17605996 0.038230374 -0.35541505 -0.3241466
0000b0 d6 9e d0 3b dd 93 5e be bd 04 9f be e8 a6 0e be
       0.006366591 -0.21736093 -0.31058303 -0.13930857
0000c0 86 d5 16 be 23 18 97 bd e7 3f 2f 3e d6 fd 9c 3e
       -0.1472989 -0.073776506 0.1711422 0.3066241
0000d0 86 88 12 3e 8c 09 50 be a9 6a 2d be 2a 0a 4a be
       0.14309892 -0.20316142 -0.16935219 -0.1973044
0000e0 40 9e 60 be 46 21 b3 bd 53 c5 35 be 60 a0 01 be
       -0.21935368 -0.08746581 -0.17751054 -0.12658834
0000f0 47 f7 e0 3d da 77 97 3c fb 2b 9a 3e dd f7 b3 3e
       0.109846644 0.018489767 0.3011168 0.35150042
000100 40 31 59 bd 02 69 5b 3d ff 72 c0 be 5b 89 2f be
       -0.053025484 0.05356694 -0.37587735 -0.1714224
000110 63 58 48 3e 9d 0d a4 bd f4 44 1a 3e c9 c6 ab 3d
       0.19564967 -0.08010409 0.15065366 0.08387525
000120 e4 7b a8 be 24 1a 85 3e a9 43 5a 3e 73 e9 0a 3e
       -0.3290702 0.25996506 0.21314873 0.13565616
000130 be 94 90 be b6 fc af bb ac 2e 13 be 7c 66 06 be
       -0.2823848 -0.0053707017 -0.14373273 -0.13125032
000140 12 6f b1 bd 72 9d 01 3d d2 9a f6 bd 87 ad a7 bd
       -0.08663763 0.031644292 -0.120412484 -0.081873946
000150 c3 ed b0 be 62 44 86 be 30 8a e5 3d 46 4e 83 3e
       -0.34556398 -0.26224047 0.11207998 0.25645655
000160 b4 de 7d be bd 0b a8 3e bf 04 a1 be de b8 83 3e
       -0.24791986 0.32821456 -0.31448933 0.2572698
000170 64 95 9d 3e de c2 29 3e 19 d3 8f 3e e1 31 7d 3e
       0.30778039 0.16578242 0.28090742 0.24726059
000180 bf 8a 6a 3e 59 e8 78 3e a2 24 76 3e c6 46 c0 3e
       0.2290449 0.24307384 0.24037412 0.37553996
000190 73 3a 11 3e 33 61 42 bd cf 4e 87 be 82 db 1a 3d
       0.14182453 -0.047455978 -0.26427314 0.037806995
0001a0 eb 17 91 3e 77 04 4a 3a c8 3c 09 be 75 d6 94 3e
       0.2833856 0.0007706354 -0.13402092 0.29069868
0001b0 ff 56 3c be 88 4a 03 3e 1e f0 c0 3d 71 83 b0 3a
       -0.18392561 0.128214 0.09420799 0.0013466907
0001c0 08 fe 88 bd 86 0e 09 3e 17 91 5b 3d 77 52 6b 3e
       -0.066890776 0.13384447 0.053605165 0.22980677
0001d0 2f 70 49 bd d2 7e 68 be ab d3 25 be d0 7c 02 be
       -0.049179252 -0.22704628 -0.16194026 -0.12742925
0001e0 7c 11 81 3e 5d b8 8e be 4b 38 3a be 07 5b 29 3e
       0.25208652 -0.27875033 -0.18185537 0.1653863
0001f0 96 88 99 be 58 41 0e 3e 28 e9 42 3d 0d 09 64 3e
       -0.2998702 0.13892114 0.047585636 0.22269078
000200 d7 e6 c1 bd fd 32 9a be 65 d8 e8 bd 8d 66 3c bd
       -0.09467857 -0.30117026 -0.11369399 -0.045996238
000210 f8 c5 0d be d0 ae 8d be b3 d3 81 3e 72 ba 1b bd
       -0.1384505 -0.27672434 0.25356826 -0.038019605
000220 f1 96 8f 3e d2 b5 18 3e 45 50 8f be 95 31 09 3e
       0.28044847 0.14913109 -0.27990928 0.1339782
000230 e8 b5 91 be 22 47 48 be 17 71 9c 3e e1 9d 8c bd
       -0.28459096 -0.19558385 0.3055503 -0.068660505
000240 bc 8d 77 3e 5f 06 4c 3e f2 23 a8 3d b7 72 aa bd
       0.24175161 0.19924305 0.08209981 -0.08322661
000250 dd b9 54 3d 3e 17 38 3e bb 53 a5 be 44 8b 67 be
       0.051935066 0.17977616 -0.32290444 -0.2261172
000260 28 64 09 3e 59 a5 3a 3e 74 c4 ca be 36 07 d3 3d
       0.13417113 0.18227138 -0.39603007 0.1030411
000270 22 f3 d6 3d 26 78 60 3e 81 48 50 bc bf 71 61 be
       0.10495593 0.21920833 -0.012712599 -0.22016047
000280 86 41 bb be 4e e9 1f 3e 7b f0 d7 3d b6 a5 0d be
       -0.36573428 0.15616342 0.10543915 -0.13832745
000290 7e fa 70 be 33 9a 46 3d b3 6f a8 be 5e 2c 28 bc
       -0.23533055 0.0484869 -0.3289772 -0.010264484
0002a0 77 f3 91 be 9b 37 aa be b0 45 53 be 3f e1 0f 3e
       -0.2850606 -0.3324555 -0.20632052 0.14050768
0002b0 d5 eb 16 bd 52 78 e2 bd 1b b3 48 be 81 27 e8 3d
       -0.036846 -0.110581055 -0.19599573 0.1133566
0002c0 d3 b6 44 3c fc 5e e0 3c b1 49 8d 3e de 08 63 be
       0.012006479 0.027389042 0.27595285 -0.22171351
0002d0 4a 32 61 be b2 87 f9 bd 54 fa 43 3d 9f 29 a2 bd
       -0.2199184 -0.12184085 0.047846153 -0.07918095
0002e0 90 a2 a4 be d7 7d 1b be 49 34 31 3c c0 34 cf bd
       -0.32155275 -0.15184723 0.010815688 -0.10117483
0002f0 31 66 84 3e 62 3e 56 be 66 ac 1a 3d a1 b7 fa bd
       0.25859216 -0.20922235 0.03776207 -0.12242056
000300 c8 0e 9c 3e dd 63 c2 3d 60 45 3b 3e 7e dd 93 3d
       0.30480027 0.09491704 0.18288183 0.07219981
000310 39 3f 61 be 79 a7 9d be 97 17 96 bd 24 21 9c 3e
       -0.21996774 -0.30791834 -0.07328718 0.30494034
000320 94 3e b5 bd 39 66 4d 3e 92 a1 85 be de 5b c0 3e
       -0.088498265 0.20058526 -0.2609983 0.3757009
000330 68 c2 b2 3c c8 c4 1b be c6 1e f0 bd 26 57 8b 3e
       0.021821216 -0.15211785 -0.117246196 0.27214926
000340 cd 62 5a 3e ef 95 3e be 85 1a b6 3e ed 8c a2 3e
       0.21326752 -0.18611883 0.35567108 0.31748143
000350 8f 08 96 3e 4a 8e 6f 3e 82 10 ba bb 70 f2 8a 3e
       0.29303405 0.23394123 -0.0056782374 0.2713809
000360 47 cc 75 3e 2a 1e 67 3e 39 5e f9 bd 77 1f 3d 3e
       0.24003707 0.225701 -0.12176175 0.18469034
000370 f3 e7 81 be ae 42 81 be 48 82 49 be 08 fd 9c bd
       -0.25372276 -0.25246185 -0.19678605 -0.076654494
000380 74 98 ed bd 97 e5 07 3e a6 7f 9a be 79 45 34 3e
       -0.11601344 0.13271175 -0.30175513 0.17604627
000390 41 ce 5e be 11 e2 6c be 16 7c 5b bd a9 a2 04 3e
       -0.21758367 -0.23133112 -0.053585134 0.12952675
0003a0 87 d7 65 3d b3 5e 52 be 7e da 09 be 51 ab 38 be
       0.056113746 -0.20543937 -0.13462254 -0.18034102
0003b0 a2 91 50 bd d7 dd 3d 3e 05 06 89 be bc e4 98 be
       -0.050920136 0.18541656 -0.26762405 -0.2986201
0003c0 3a ec 4a 3c e4 8f b1 3e 60 af 0b 3e 4d cb a2 3d
       0.012385422 0.34680092 0.13641119 0.07948933
0003d0 f5 68 69 be 2f 02 af 3e 6c 09 ce 3d 86 37 82 bc
       -0.22793944 0.34181353 0.10060391 -0.015895616
0003e0 7b 26 14 be 1f e5 a6 bd a8 90 09 be ee 4d e1 bd
       -0.14467804 -0.0814917 -0.13434088 -0.11001192
0003f0 9a 8a cb bc 9c 8a 03 3e 11 09 52 3e 76 8b 49 3e
       -0.024846364 0.12845844 0.20511271 0.19682106

residual.0.fc.bias f4 [16]
000000 36 7d 48 b9 f7 6e d6 ba ba 75 49 bc fa c3 9f 37
       -0.00019120131 -0.0016359974 -0.012296135 1.9045536e-05
000010 12 11 23 bc a1 7a 33 bc 04 3a e7 3b 01 cc 00 3c
       -0.0099528 -0.01095453 0.0070564765 0.007861138
000020 af 15 40 bb 2c 07 fd 3a 45 42 40 bb 75 b3 30 3a
       -0.00293098 0.0019304506 -0.0029336375 0.00067406084
000030 9c 9e 11 bc 2f c0 33 bc 31 5b c8 bb 4d 1c 55 bc
       -0.008887913 -0.010971113 -0.0061143865 -0.013007236

residual.0.norm.weight f4 [16]
000000 c5 8d 78 3f 4f cd 78 3f 92 cb 81 3f 17 e0 7a 3f
       0.97091323 0.97188276 1.014025 0.97998184
000010 86 be 73 3f 2e 42 81 3f 53 fc 80 3f 9d fd 83 3f
       0.9521259 1.0098321 1.0077003 1.0311772
000020 5a 7d 84 3f 2a 9d 80 3f 0a 24 79 3f 90 38 80 3f
       1.0350754 1.0047963 0.97320616 1.0017262
000030 3b a5 74 3f 10 97 87 3f a3 45 7d 3f e5 99 7a 3f
       0.9556462 1.0592976 0.9893438 0.97891074

residual.0.norm.bias f4 [16]
000000 a2 44 0f bb 80 31 5b bc 6c 73 99 3b 2f 2d 94 ba
       -0.0021860977 -0.013378501 0.004682949 -0.001130497
000010 7a 4b 47 bc 00 53 ad 3a e8 d0 f5 3b 8e 2c be 3c
       -0.012163991 0.0013223588 0.00750171 0.023214605
000020 8b 54 dd 3c ca 86 8c 3c d6 76 7e bc 21 62 6e bc
       0.027017852 0.017154116 -0.015531262 -0.014549763
000030 d5 82 64 bd 2b 0d 00 3d 33 57 0f bb a1 4d 56 3b
       -0.055788834 0.031262558 -0.0021872043 0.003270008

residual.0.norm.running_mean f4 [16]
000000 69 c3 bd be 30 12 7c c0 43 3a cf 3f 1c c6 39 c0
       -0.3706315 -3.93861 1.6189655 -2.9027166
000010 48 0e 30 41 3f 1a f0 be a3 fe 65 40 66 1f 07 40
       11.003487 -0.46895024 3.5936668 2.1112914
000020 c1 5f d5 c0 fe 62 39 c0 80 e7 4a c0 59 df f0 bf
       -6.6679387 -2.896667 -3.1703796 -1.881816
000030 b8 89 3e 40 49 3f 13 c0 4f 66 d3 3e 36 cb 91 40
       2.9771557 -2.3007376 0.41288993 4.556056

residual.0.norm.running_var f4 [16]
000000 f1 4e b2 3f ba 04 07 40 cf 6a dc 3e db 72 33 40
       1.3930341 2.1096635 0.43050238 2.8038852
000010 22 3b ca 3f cb c6 1e 3e 77 e9 ef 3f 43 0c 1e 3f
       1.5799296 0.15505521 1.8743123 0.6173746
000020 48 d9 ef 3f f7 ef 11 3f 8f 7a 65 3f 08 af 08 40
       1.8738184 0.5700678 0.89640135 2.135683
000030 77 17 5b 3f 4c 5a 74 3f 3b c7 e7 3f 04 a4 69 3f
       0.8558268 0.9545028 1.8107675 0.91265893

residual.0.projection.weight f4 [16, 32]
000000 ff c1 a3 be 74 d5 b2 be ae 49 34 3e b2 52 a5 be
       -0.31983945 -0.34928477 0.17606232 -0.32289654
000010 94 fa 58 3e d9 a3 3e 3e d0 c8 e9 3d a0 0d ce bd
       0.21189338 0.1861719 0.11415255 -0.100611925
000020 84 ea 1b bd da 31 92 3e 6f f3 4e be 4a 99 93 bc
       -0.03806545 0.2855366 -0.2021005 -0.01801743
000030 f7 a3 3e be 95 36 07 be 2a a8 cb 3c 1a 8b d3 3d
       -0.18617235 -0.13204415 0.02486046 0.10329266
000040 16 f3 1e 3d 08 2b f6 bd b0 65 8e 3e 9b ae 8e 3d
       0.038806044 -0.12019926 0.27811956 0.06966897
000050 4a 6b 8a 3e 0d aa 97 3e ed 11 7f bd 98 4a 87 be
       0.2703498 0.29621926 -0.062272955 -0.26424098
000060 a3 3a 59 be fe d3 a5 bb d6 42 55 3e ec 9a 8d bc
       -0.21213774 -0.005060672 0.20826277 -0.017285787
000070 36 d3 92 3e 63 b9 89 be a4 57 2e 3e 60 b9 85 bc
       0.28676766 -0.2689925 0.1702562 -0.016323745
000080 cf 38 91 be ae 7e 90 be 4c de 9d 3e a6 18 75 be
       -0.28363654 -0.2822165 0.30833662 -0.23935184
000090 73 68 43 3e b6 20 51 3e 92 0f df bc ee d4 19 3e
       0.19082813 0.20422634 -0.027229104 0.15022632
0000a0 29 d9 8c 3e 4b ce 7f 3e f1 57 63 be 36 c3 88 be
       0.2750943 0.24981038 -0.22201516 -0.26711434
0000b0 c3 67 f0 3d 44 cb a0 3b 72 2b 96 be ac 5a 2e 3e
       0.11738541 0.0049070437 -0.2933002 0.17026776
0000c0 f5 d3 a9 be 22 ef 6d 3e 4d eb 8a bd 1b 8c 91 3c
       -0.33169523 0.23235753 -0.06783161 0.017767003
0000d0 74 de 29 be 30 83 00 bd 0e c6 7e bd e6 bb 20 be
       -0.16588765 -0.03137511 -0.0622006 -0.15696678
0000e0 91 72 54 3e d1 da 2e 3e 1d 95 86 3e fd 3c 7d 3e
       0.20746829 0.1707566 0.2628564 0.24730296
0000f0 8a d9 4d be 38 a7 1f be 7e 4f 2e bd 12 b1 f9 3c
       -0.20102516 -0.15591133 -0.04255628 0.030479942
000100 75 82 2e be 7d 2c 12 be bd 89 ad be 5b a8 4d 3e
       -0.17041953 -0.14274783 -0.33894148 0.20083754
000110 47 75 3e 3d 28 ff 21 be 50 b3 4d bb df 96 8a bd
       0.046498563 -0.1581999 -0.0031387396 -0.067670576
000120 8f 89 41 be e3 57 07 3e b7 b1 4f be be 49 6a 3d
       -0.1890013 0.1321712 -0.20282637 0.057199232
000130 6b c5 43 be 9b ef 5c bd 9e 32 9d 3e 2a a3 56 be
       -0.19118278 -0.053939443 0.3070268 -0.2096068
000140 3e b1 20 bc 07 c4 b3 be 5e bb b6 be ca 90 da 3d
       -0.009807883 -0.35110494 -0.35689825 0.106721476
000150 93 47 1c be b7 04 86 3e 67 ff 35 be 07 27 a4 3e
       -0.15261678 0.26175472 -0.1777321 0.32061026
000160 c0 25 4c 3e ff 49 86 be 3a de 28 be 48 83 28 3c
       0.19936275 -0.2622833 -0.16491023 0.010285206
000170 0e 42 83 bd b9 30 37 3e 5f 91 9e 3e bd c1 8d 3d
       -0.06409083 0.1788968 0.30970284 0.06921718
000180 93 07 7a 3e 30 0a 3a be d6 ec b4 3d d2 6e 3d 3d
       0.24416952 -0.18167949 0.08834235 0.046248265
000190 a3 15 82 3e 7b 03 c1 bd b8 b1 b1 3e 2e 44 9e 3d
       0.25407133 -0.09424492 0.347059 0.07727848
0001a0 fe 88 80 3e d7 ff 26 3e 97 39 91 3e 02 27 57 be
       0.25104517 0.16308533 0.2836425 -0.21010974
0001b0 25 c0 2c 3c 68 e3 26 bc f9 f3 7d be 2e 17 94 3e
       0.010543858 -0.010186054 -0.248001 0.28923935
0001c0 2e 8f a2 bb 01 5d 87 bc 3f 08 c8 3d 35 e3 29 be
       -0.004960916 -0.01652384 0.09767198 -0.16590579
0001d0 4a 0a 8a be ce 57 fd bd 09 47 55 bd d7 a7 46 be
       -0.26960975 -0.12370263 -0.052069698 -0.19399963
0001e0 04 bc 31 3e 84 b7 96 3e f7 72 a0 3e 6c 1d 55 be
       0.17356879 0.29436886 0.3133771 -0.20812005
0001f0 a3 0c 58 bd ab 18 fc 3d b1 1e 14 be a1 b7 aa bb
       -0.052746426 0.123093925 -0.14464833 -0.0052098786
000200 3e bd 30 3e 6f 87 fb bc f7 80 62 3e 52 1a af be
       0.1725969 -0.030704228 0.22119509 -0.34199768
000210 2a 28 33 3d b7 2c 8c 3c e8 37 14 be e2 b6 ae 3e
       0.043739475 0.017111165 -0.14474452 0.34123904
000220 a2 d3 49 be 59 02 1c 3e 4f bb 0d be ee 1c 94 bd
       -0.19709638 0.1523527 -0.13840984 -0.072320804
000230 ab f3 99 3d 61 48 5f bc f2 bb 4f bd db 19 4c bd
       0.07517179 -0.013628096 -0.050716348 -0.049829345
000240 3c 4a 81 3e fb cc 4c 3e b5 5a 00 be 6d 98 bc 3e
       0.2525195 0.20000069 -0.12534602 0.36835042
000250 4a 3f 83 bc 7c b4 9e bd a5 25 5b be c1 57 a3 bc
       -0.01602139 -0.077492684 -0.21401079 -0.019939305
000260 57 17 b9 3d 7e d6 45 3e c5 33 33 bd 01 64 bb bd
       0.09037655 0.19320104 -0.043750543 -0.091499336
000270 15 2d 90 3e a4 1b 5e be d8 90 7a 3e 48 dc 7a be
       0.28159395 -0.21690232 0.24469316 -0.24498093
000280 61 c8 b4 bc c7 a3 30 3d c5 dc 64 be db c5 bb 3d
       -0.022068204 0.04312494 -0.22349842 0.09168597
000290 47 e9 de 3d f8 79 8f bd 2b 4d ac be 29 10 6a be
       0.10884338 -0.070056856 -0.33652624 -0.22857727
0002a0 4c e6 20 bd 48 d4 02 be 1e 18 55 be cd 49 95 3e
       -0.03928213 -0.12776291 -0.20809981 0.29157868
0002b0 88 72 84 bd 93 ae 4c 3e dd e2 aa 3e 7b 17 11 be
       -0.064671576 0.1998847 0.33376208 -0.14169113
0002c0 49 a1 46 be aa 78 32 bd 1f 92 75 be 1d 5d a1 bd
       -0.19397463 -0.043572105 -0.23981522 -0.07879088
0002d0 8c 65 af bd 5a 23 25 be 97 7a a0 3e 08 24 41 3e
       -0.085642904 -0.16126767 0.3134353 0.18861401
0002e0 79 56 a8 be 85 dc 09 3e 78 9d 7b bc ed a6 69 be
       -0.32878473 0.13463028 -0.015357368 -0.22817583
0002f0 75 0c 8f 3e 49 39 55 be 1f 5e 7d 3d 8b b4 07 3e
       0.2793919 -0.20822634 0.06185734 0.13252465
000300 dc 0c bf bd 3e cc 66 3e 3d d2 79 be 83 97 01 3e
       -0.093286246 0.2253885 -0.24396606 0.12655453
000310 36 87 18 be e6 10 9b 3e 88 b3 6e bd 8a 71 b1 be
       -0.14895329 0.3028633 -0.058276683 -0.34656936
000320 f9 7d 6a be 5d 33 ff 3d fc 45 81 3d 9b 23 ec 3d
       -0.22899617 0.12460969 0.063121766 0.11530229
000330 3f a5 67 3e 8b 27 a0 be 5c 31 aa 3d 75 11 95 be
       0.2262163 -0.3128017 0.08310196 -0.2911488
000340 bc bc 8a bc f6 00 57 3e 0b 92 7f be 2d 51 93 3d
       -0.016935699 0.2099646 -0.24958055 0.071932174
000350 af f3 9e 3d a1 f1 e9 ba db f1 89 3c d6 a6 1d 3e
       0.07761323 -0.00178485 0.016838958 0.15395674
000360 35 89 73 be bf 93 90 3e 3a 5e 99 bd 82 19 8e bd
       -0.23782809 0.2823772 -0.074886754 -0.06938459
000370 9c ed 98 3e 0a c2 27 be 2b c3 6a 3e e2 c0 06 3b
       0.29868782 -0.16382614 0.22926013 0.0020561744
000380 81 a9 62 3e fa f8 fe 3d 61 34 aa bd c5 5d 43 bd
       0.22134973 0.12449832 -0.08310772 -0.047696847
000390 22 7d 25 be 21 33 65 be 66 3e 86 3a 2c aa 8e be
       -0.16161016 -0.22382785 0.0010241985 -0.27864206
0003a0 c0 e5 92 bd 6e c3 83 be c5 87 2d 3c 9d 21 2a be
       -0.071727276 -0.2573504 0.010591452 -0.16614385
0003b0 36 2e 8b be f1 97 8f 3e 8f 0d 95 be ee 41 7c 3e
       -0.27183694 0.2804561 -0.29111907 0.24634525
0003c0 3a 9a 8e be bd a7 6b 3d 3e ab 95 3e d0 a2 74 be
       -0.2785204 0.057533015 0.2923221 -0.23890233
0003d0 96 6c 8a 3e 42 95 aa 3e ab 7e f0 3d 3f a8 a4 3e
       0.2703597 0.33317 0.1174291 0.32159612
0003e0 42 f1 a7 3e 19 0a 9b be 81 9e 75 be a9 37 73 3d
       0.32801253 -0.3028114 -0.23986246 0.059379254
0003f0 b6 64 82 be 32 8a ac 3d da 60 58 3e d9 f5 49 3e
       -0.2546746 0.08424796 0.21130696 0.1972269

residual.0.projection.bias f4 [16]
000000 91 01 d6 bb e7 a0 e8 bb 1c 49 03 3c 01 23 07 bc
       -0.0065309484 -0.007099259 0.008013036 -0.008248092
000010 c8 bb 0a bc a3 4e fb 3b 4d cd 09 bc ac 93 ec 3b
       -0.008467622 0.0076692863 -0.008410764 0.0072197523
000020 8d 6b 1e 3c 0a aa 15 3c ec e3 08 bc 4d 7a bf 3c
       0.009669197 0.009134779 -0.008355122 0.023373747
000030 a4 fe cf bc 6e a6 1b 3c 08 3d 17 bc 87 b9 08 3c
       -0.025389977 0.009500129 -0.00923086 0.008345014

residual.1.fc.weight f4 [16, 16]
000000 e9 e7 7d be a2 03 8e bd ec 06 3a 3e 48 05 86 be
       -0.24795498 -0.06934287 0.18166703 -0.26175904
000010 d1 54 57 be 27 1d 83 3d 1b cd a3 be 43 8e 87 3e
       -0.21028449 0.06402045 -0.3199242 0.26475725
000020 d6 01 9d bd 30 9b ae be 0b 2e a9 be b3 f3 9a bd
       -0.07666366 -0.34102774 -0.3304294 -0.07566013
000030 3d bc a5 be a7 77 ca 3e 5a 79 41 be e2 ee b9 be
       -0.32370177 0.39544412 -0.18893948 -0.36315066
000040 56 60 21 be 98 ba 43 3e f2 de bc bd ac 65 8c bd
       -0.15759405 0.19114149 -0.09222211 -0.0685533
000050 f5 f6 9b be a6 66 38 be d1 4d 91 3e b3 d8 66 3e
       -0.3046185 -0.18007907 0.28379682 0.22543602
000060 70 f2 0d 3e 23 ed c5 be cc 27 3e be 35 ec 79 3d
       0.13862014 -0.38657483 -0.18569869 0.06101628
000070 df c7 86 be da 36 01 be 59 04 0d bd 0a 35 ba be
       -0.26324365 -0.1261858 -0.034427974 -0.3636859
000080 cc ac a2 3e fa 2a 1d be 8d f9 8e bc 12 79 b6 be
       0.3177246 -0.15348426 -0.01745298 -0.35639244
000090 cc a5 c7 3e 34 40 82 be ea d2 57 3e ff 03 03 3e
       0.3899368 -0.25439608 0.21076551 0.12794493
0000a0 09 ad cb bd 8c 5c 37 3e 0e 1a a0 3e 2a 2d d2 3e
       -0.09945113 0.17906398 0.31269878 0.41050082
0000b0 3f 4c 9c bd 27 29 c0 3e aa 96 8b bd 89 d5 9f 3d
       -0.0763173 0.37531397 -0.06815846 0.078044005
0000c0 fa 60 3a be 74 57 c8 3e 78 b1 80 3e c1 f9 c9 be
       -0.18201056 0.3912922 0.25135398 -0.3944836
0000d0 fe 5b bc bd cb 43 45 3e 60 a6 ba be bb ca a1 3e
       -0.091972336 0.19264142 -0.3645506 0.31599984
0000e0 f8 56 b6 bc 5e e6 a5 be 7a fc 7e 3e 16 d2 a8 3e
       -0.022258267 -0.3240232 0.24901 0.32972783
0000f0 df e7 43 bd e7 99 d4 be 57 89 ae 3e a6 f2 a0 be
       -0.04782855 -0.41523668 0.34089157 -0.31435126
000100 2e 3e 74 bd f9 a4 cd 3e 1b 9e e8 be a2 87 92 3e
       -0.05962961 0.40164927 -0.45433125 0.28619105
000110 33 fe f0 bd 8f 45 3e be 9f 0a 0a 3e cb 76 83 be
       -0.11767235 -0.18581222 0.13480614 -0.2567657
000120 b9 56 ec 3e ce c3 b3 bd aa 5d 75 3d d5 86 31 be
       0.46159914 -0.08777581 0.059903778 -0.1733659
000130 ab 42 77 3e 75 37 5b 3e 8b 13 60 be 35 e0 ab 3d
       0.24146526 0.21407874 -0.21882455 0.083923735
000140 9e 74 95 be 3e a1 40 3e 3a ff 02 3e 34 b0 1c be
       -0.29190534 0.18811509 0.12792674 -0.15301591
000150 35 fa da be 4e 1e 19 ba c5 28 62 be d0 ec ed 3d
       -0.42769018 -0.00058410026 -0.22085865 0.11617434
000160 00 03 bc be 21 ab ac be 7e 31 62 3e fd e8 a7 be
       -0.3672104 -0.3372431 0.22089192 -0.32794943
000170 d7 c3 df 3e 79 ab ea bd 06 e5 ad be ed df 64 be
       0.437041 -0.11458487 -0.33963794 -0.22351046
000180 72 42 8c 3e 52 90 2a 3e fd 45 8c 3e 3d 88 41 3e
       0.27394444 0.16656616 0.27397147 0.18899627
000190 35 16 cd bd 01 cb 39 3e 6f 0e d4 bd 32 30 d8 3d
       -0.10014001 0.18143846 -0.103543155 0.105560675
0001a0 0b 3b 8a bd 89 08 78 3e b3 ef 6b 3e 11 6c d4 bc
       -0.06749543 0.24222006 0.23040657 -0.025930436
0001b0 e0 bb 2b 3e de dc f2 be ab 45 17 3e 02 e1 63 be
       0.16770887 -0.47434133 0.1477267 -0.22253802
0001c0 d9 c8 73 3e dc 72 d7 be 64 5f 9f 3e b3 34 8e be
       0.23807086 -0.42079818 0.31127465 -0.2777458
0001d0 b7 9e 0d 3e e8 84 b9 3e 17 f4 12 bd 1a df 0a 3d
       0.13830076 0.36234212 -0.035877313 0.033904172
0001e0 2a b3 a3 be 1a e5 d3 be 12 1f 57 3e 89 06 b4 3e
       -0.3197263 -0.41385728 0.21007946 0.35161236
0001f0 d5 6a c4 be bb 43 d0 bc cf c0 e3 bd 4e 6a 31 3e
       -0.38362756 -0.025422921 -0.1112076 0.17325708
000200 7a 8c 9f 3d d6 0b 7d 3e 59 c4 8a 3e 52 ef f1 bd
       0.07790466 0.24711546 0.27102926 -0.11813225
000210 66 9c c4 3e 92 f5 d1 be 14 fd 56 3e 87 a0 a8 3e
       0.38400573 -0.41007668 0.20994979 0.32934973
000220 7b af 6b be 8d 23 7e 3e 67 57 ab 3e 60 ab ae be
       -0.23016159 0.24818249 0.3346512 -0.34115124
000230 f0 8d 68 bc 7e 65 a0 be 0d 63 e9 3e e0 b3 2f be
       -0.014193997 -0.31327432 0.45583382 -0.1715846
000240 a8 36 8e be e7 12 e6 3c 9a 73 de 3d 90 ef b1 3e
       -0.27776074 0.028085185 0.10861893 0.34753084
000250 59 9f 91 bd 4e a6 ac 3e a8 29 32 be 9b d0 f5 3d
       -0.07110471 0.3372063 -0.17398703 0.12002679
000260 ce 2a 6e be 32 91 08 3e 07 a5 7e be 85 5b dc 3e
       -0.23258516 0.13336638 -0.2486764 0.43038574
000270 8e 2d e3 3e 4f 5d fd 3e 1f 39 8d be 59 4f ad b9
       0.44370693 0.4948525 -0.27582642 -0.0003305625
000280 91 05 5d 3e 43 c9 82 be 50 ff 6e be 3c 94 65 bb
       0.21584155 -0.25544176 -0.23339581 -0.0035030982
000290 4c 44 1d be d2 31 91 3e 56 8b ae be 49 78 34 3e
       -0.15358084 0.28358322 -0.3409068 0.1762401
0002a0 4c 76 4d be 93 be 1a be 68 b8 98 3e 36 c5 17 be
       -0.20064658 -0.15111761 0.2982819 -0.14821324
0002b0 54 a8 3c 3e 49 2b 9f 3b 7d b9 8c 3e b7 1a a3 3d
       0.18423587 0.004857455 0.27485266 0.0796408
0002c0 8c 70 58 3e 7a 4c c3 3e df 4e b8 3c fa d4 5c bd
       0.21136683 0.38144284 0.022498546 -0.053914048
0002d0 e6 41 4a 3e a6 2a 8a 3e 75 ad 5a 3e fc 9d 3b 3d
       0.19751701 0.26985663 0.21355231 0.045804963
0002e0 7d f6 cb be 81 71 9c 3e 5e e1 1d bc 8d 6d a3 3e
       -0.39836493 0.30555347 -0.009636251 0.31919518
0002f0 09 3a 5e 3c 9a a3 bd be b4 bd 6e 3e a9 c5 71 3e
       0.013563641 -0.3703888 0.23314553 0.23610558
000300 37 ee 2d 3d 68 4c 9f 3d dc 33 87 bd 27 ae 95 bd
       0.042463508 0.07778245 -0.06601688 -0.073086075
000310 ca 56 1a 3d 5e 32 1f be 6c 2d 76 be c6 45 9a 3e
       0.037680425 -0.15546557 -0.24040765 0.30131358
000320 b1 16 82 bd 7b 4f c7 bc 9f 26 07 be 1b 37 c9 bd
       -0.06351984 -0.024329891 -0.13198327 -0.09824964
000330 17 a7 a9 be 3f 26 a5 bd 98 b1 9e be b5 b7 70 3e
       -0.33135292 -0.080639355 -0.30994868 0.23507579
000340 e5 09 bf bc cd 58 fa bd 2b ca d2 be a4 db 9f be
       -0.023320148 -0.12223969 -0.41169867 -0.3122226
000350 43 40 e7 3e 9b d5 3b be 6f 23 82 3e 29 15 35 bd
       0.45166215 -0.18343203 0.2541766 -0.044209633
000360 2c 3d bf 3e c9 f2 89 3e 60 ff 1e be 12 5d 86 3e
       0.37351358 0.26943043 -0.15527105 0.26242882
000370 ee cb 5c be 6a af 9a be 43 48 0a 3e da 3a 31 3e
       -0.21562168 -0.30211955 0.13504128 0.17307606
000380 12 be a3 3d ee 39 5d 3e 3f 9d 86 bd d7 c9 2e be
       0.079952374 0.2160413 -0.06572961 -0.17069183
000390 f0 e4 e6 be 82 12 87 be 44 46 6a be 63 b0 8a 3e
       -0.4509654 -0.26381308 -0.22878367 0.27087697
0003a0 6a fa cf bd ae 02 a0 3e 6d 7e 9a be 1f a2 e9 be
       -0.101551846 0.31252044 -0.3017458 -0.456315
0003b0 63 35 ac 3e db 9e df be bc 8e 75 3e 57 62 96 be
       0.3363448 -0.43675885 0.2398023 -0.29371902
0003c0 0b a9 63 3e 22 95 d7 3d 32 3b a0 3e 53 8c b7 3e
       0.22232454 0.10526492 0.31295162 0.35849246
0003d0 84 39 0c be 1e de ef 3d 1a 8a d2 3d de b0 ac 3e
       -0.13693815 0.11712287 0.10280247 0.3372869
0003e0 b5 b0 9e bc 9e 18 e3 3e d0 2c 30 3e c8 8a ba bd
       -0.01937137 0.4435472 0.17204595 -0.09108502
0003f0 7b ae cd bc e1 b5 9e be 31 2c bf 3e 56 11 bb 3d
       -0.025107613 -0.30998138 0.37338403 0.09134166

residual.1.fc.bias f4 [16]
000000 9b 35 1a 3b 53 7e 03 bb d1 ad 1a 3a fd d4 ac 3b
       0.0023530487 -0.0020064309 0.00059005345 0.0052744136
000010 51 f2 78 3a a0 21 5f bc 6e 09 58 ba 9e f0 b4 ba
       0.0009496557 -0.013618857 -0.0008241151 -0.001380462
000020 1e ff b6 3b f6 5a d0 bb 7a 7b 52 3c 6e 21 60 3a
       0.0055846116 -0.0063584996 0.012846822 0.0008549903
000030 b6 02 7e 3c 5a 4f 72 3b 63 57 2f bc cd 4f 6a 3b
       0.015503576 0.0036973567 -0.010701987 0.0035753131
