climate/PERNN_best_2/best_model.pth (torch, 62626 bytes, 83 tensors)

encoder.0.fc.weight f4 [16, 16]
0.049960695 -0.21637738 -0.01928491 0.013934683 0.25022185 -0.5145475 -0.1983017 -0.29256615
0.33935997 -0.083667584 -0.19356188 -0.65462047 0.028082743 -0.6449475 -0.56469905 -0.09994808
-0.42239207 -0.311785 -0.46494657 -0.007465618 -0.012793593 -0.072073266 -0.14840531 -0.013503489
0.42759475 0.040364534 -0.10821017 -0.60324544 0.09813456 -0.29842985 -0.11179462 -0.04656457
-0.2505915 -0.09754369 0.32497546 0.04708258 -0.22470279 -0.060696695 0.023199202 -0.326332
0.16859555 0.10018983 0.12683062 0.16285866 0.23793529 -0.38878718 -0.5509947 -0.07486756
0.3079948 -0.12288512 0.55470127 -0.0059159296 -0.22838365 0.62795097 -0.13939133 0.35707477
-0.17733847 0.39651158 -0.34732702 0.6575025 0.45533258 -0.44560075 -0.37147942 0.19751793
-0.05424128 -0.051819216 0.36967075 -0.47568047 -0.23634642 -0.5187402 -0.112445794 0.12360902
-0.054810572 0.08608821 -0.1789177 -0.09567233 0.2889968 -0.288355 0.075592116 -0.006824337
-0.07817723 0.022048853 -0.26921636 0.07480541 0.18809845 -0.18382266 0.17606999 0.09034619
-0.571487 -0.3406479 -0.60404104 0.6420285 -0.00036509565 0.16850875 -0.052188825 -0.2440905
-0.20028827 -0.06801501 -0.013715719 -0.17439939 0.09282047 -0.010066843 -0.088110864 -0.18552072
0.13829422 -0.33657688 -0.71076477 -0.5792369 0.32401773 0.58852035 0.21579206 0.048321713
0.17853026 -0.58143693 -0.54590285 -0.06621194 0.5277974 -0.3246876 -0.11250231 0.18234168
0.1545242 0.2797695 -0.20814669 -0.3506436 -0.15812235 0.31099153 0.18542312 0.043548673
-0.4977656 -0.005464381 -0.43814716 -0.15481453 -0.1446607 -0.09064835 0.15267129 0.19364692
-0.7812118 -0.70104873 -0.22774097 -0.25731337 0.14255829 0.43523395 0.22238967 -0.28455314
-0.35424247 -0.06347099 -0.17003205 -0.08768795 -0.19137333 -0.23937212 -0.087964736 -0.6471133
0.0323186 0.03748098 -0.5201381 -0.06530666 -0.70049095 -0.04077076 -0.3712692 0.08249259
-0.3361582 -0.13367917 -0.17091899 -0.032264672 -0.07220722 -0.3170452 -0.16039132 0.32827646
-0.11750654 0.2832535 0.03632607 0.1697726 -0.6673015 0.16281934 0.16331933 0.0942897
-0.20793135 0.007742944 -0.3888577 -0.010111427 0.06501845 -0.26275244 -0.18000099 0.040001206
0.2887122 -0.22734165 -0.27396062 -0.79162335 0.033361003 0.44468114 -0.31720325 0.05659771
0.6681358 0.09323104 0.14985308 -0.044026468 -0.14430067 -0.21960442 -0.0608822 0.1627676
-0.45693886 -0.0923743 0.17985633 0.4425271 -0.10769235 0.48710936 0.45029318 0.056922127
-0.370902 -0.024032459 -0.04768555 -0.027474081 0.04601278 -0.31290644 0.18928966 -0.3910731
0.22467142 0.018757695 -0.59512836 -0.4850856 0.25004297 -0.25338832 -0.86460966 -0.18313685
-0.016358005 -0.20115784 -0.08063396 0.28480887 0.4651954 -0.052307613 0.16298296 -0.010992699
0.5249407 0.016399 -0.11282536 -0.47284293 0.23631905 -0.5794071 -0.14769433 0.19031543
0.13411863 -0.1967391 -0.64750546 -0.22321944 -0.37996632 -0.38460568 -0.44875836 0.15578556
-0.16837676 -0.25677088 -0.053129107 0.08216223 0.013793309 -0.18089873 0.009441957 -0.031755608
00000000: 96a3 4c3d 0892 5dbe 63fb 9dbc 4c4e 643c
00000010: 141d 803e 63b9 03bf 9a0f 4bbe 3bcb 95be
00000020: 97c0 ad3e e959 abbd 1635 46be 3595 27bf
00000030: c80d e63c 481b 25bf 1e90 10bf 94b1 ccbd
00000040: c643 d8be 49a2 9fbe 7a0d eebe 25a2 f4bb
00000050: 389c 51bc 269b 93bd 90f7 17be bd3d 5dbc
00000060: b3ed da3e 4855 253d 4b9d ddbd 4b6e 1abf
00000070: c6fa c83d cccb 98be 94f4 e4bd 7eba 3ebd
00000080: 874d 80be fcc4 c7bd 2f63 a63e aad9 403d
00000090: 7d18 66be 199d 78bd 410c be3c fd14 a7be
000000a0: 50a4 2c3e 5330 cd3d e3df 013e 6cc4 263e
000000b0: 4fa5 733e 1d0f c7be fd0d 0dbf 2a54 99bd
000000c0: 7fb1 9d3e 32ab fbbd e700 0e3f 6ada c1bb
000000d0: 67dd 69be 65c1 203f 9abc 0ebe 81d2 b63e
000000e0: 3798 35be 9103 cb3e d9d4 b1be 1552 283f
000000f0: 5a21 e93e c825 e4be 8d32 bebe 2442 4a3e
00000100: 1b2c 5ebd 6340 54bd 7c45 bd3e 648c f3be
00000110: cc04 72be 28cc 04bf fb49 e6bd ba26 fd3d
00000120: 0d81 60bd 044f b03d 3436 37be dbef c3bd
00000130: 63f7 933e 44a3 93be 0ad0 9a3d b09e dfbb
00000140: 621b a0bd cc9f b43c bad6 89be 9433 993d
00000150: e19c 403e 023c 3cbe b14b 343e 6c07 b93d
00000160: f94c 12bf 6769 aebe 6fa2 1abf fb5b 243f
00000170: 4f6a bfb9 8f8d 2c3e f3c3 55bd dcf2 79be
00000180: 5e18 4dbe 744b 8bbd e5b7 60bc c195 32be
00000190: a918 be3d 66ef 24bc 7873 b4bd 25f9 3dbe
000001a0: 009d 0d3e ce53 acbe aef4 35bf df48 14bf
000001b0: a7e5 a53e 45a9 163f 98f8 5c3e fdec 453d
000001c0: a3d0 363e 0dd9 14bf 4ac0 0bbf 209a 87bd
000001d0: bb1d 073f 743d a6be 9c67 e6bd c7b7 3a3e
000001e0: 983b 1e3e f33d 8f3e 6824 55be 8f87 b3be
000001f0: d3ea 21be 483a 9f3e 8fdf 3d3e 1860 323d
00000200: 22db febe 8d0e b3bb d354 e0be b387 1ebe
00000210: ef21 14be d8a5 b9bd dd55 1c3e 614b 463e
00000220: 7ffd 47bf ee77 33bf ee34 69be 94be 83be
00000230: cdfa 113e fcd6 de3e 1eba 633e f3b0 91be
00000240: 455f b5be 14fd 81bd e21c 2ebe bd95 b3bd
00000250: 5ff7 43be f71d 75be db26 b4bd 38a9 25bf
00000260: 8260 043d a885 193d c527 05bf 80bf 85bd
00000270: 6053 33bf 3eff 26bd ff16 bebe e0f1 a83d
00000280: ed1c acbe 31e3 08be 6305 2fbe f627 04bd
00000290: 61e1 93bd c053 a2be 9f3d 24be da13 a83e
000002a0: 45a7 f0bd 9a06 913e a5ca 143d ded8 2d3e
000002b0: 45d4 2abf 1dba 263e 2f3d 273e f51a c13d
000002c0: f5eb 54be 86b8 fd3b 5b18 c7be 66aa 25bc
000002d0: 6528 853d 7d87 86be 2e52 38be 4ed8 233d
000002e0: 16d2 933e 40cc 68be 9144 8cbe d4a7 4abf
000002f0: 8ca5 083d 3fad e33e 7768 a2be 00d3 673d
00000300: f30a 2b3f eaef be3d 1673 193e 1955 34bd
00000310: 8ec3 13be fbdf 60be 9d5f 79bd 8dac 263e
00000320: e4f3 e9be bd2e bdbd 422c 383e e992 e23e
00000330: cf8d dcbd 6666 f93e d48c e63e 2d27 693d
00000340: dee6 bdbe b8df c4bc ec51 43bd 5311 e1bc
00000350: e677 3c3d 4635 a0be 26d5 413e bc3a c8be
00000360: 4410 663e bda9 993c 555a 18bf 245d f8be
00000370: a205 803e 1dbc 81be 0f57 5dbf 3a88 3bbe
00000380: 3901 86bc 52fc 4dbe 6b23 a5bd 78d2 913e
00000390: 172e ee3e 8240 56bd 01e5 263e b91a 34bc
000003a0: 8462 063f 3257 863c fb10 e7bd 7818 f2be
000003b0: 9ffd 713e 0654 14bf 2f3d 17be 0ce2 423e
000003c0: 6556 093e fa75 49be ebc2 25bf a393 64be
000003d0: f28a c2be 09eb c4be a8c3 e5be 4086 1f3e
000003e0: f56a 2cbe 7977 83be e89d 59bd ac44 a83d
000003f0: 55fd 613c 843d 39be 70b2 1a3c 2b12 02bd

encoder.0.fc.bias f4 [16]
0.35706472 0.15939009 0.08842725 0.076328404 -0.011301712 -0.019947808 -0.033531576 -0.21288982
0.38369074 -0.08399883 0.11042482 -0.048821628 0.11830735 0.09885789 0.07555972 0.098231934
00000000: 30d1 b63e 2837 233e 5919 b53d 1152 9c3d
00000010: d12a 39bc 9669 a3bc 6858 09bd caff 59be
00000020: 1d73 c43e 9407 acbd 6826 e23d 30f9 47bd
00000030: 204b f23d 0176 ca3d 0ebf 9a3d d32d c93d

encoder.0.norm.weight f4 [16]
1.2890964 1.3887 1.0347177 1.1700355 1.1444145 0.6907845 1.1094066 1.1858722
1.2097832 1.2892691 1.2052966 1.2417225 1.3688455 1.3344136 1.1534759 1.0813464
00000000: 1c01 a53f ecc0 b13f a171 843f b9c3 953f
00000010: 2d7c 923f 41d7 303f 0901 8e3f a9ca 973f
00000020: 2dda 9a3f c506 a53f 2947 9a3f c3f0 9e3f
00000030: 5436 af3f 11ce aa3f 19a5 933f 8f69 8a3f

encoder.0.norm.bias f4 [16]
0.3001287 0.23412517 -0.03503475 0.19661513 0.058800504 -0.22733603 0.10549266 0.2235409
0.23481089 0.0643332 0.22883596 0.22884144 0.23104915 -0.07374913 0.0049334066 0.16237056
00000000: 78aa 993e 82be 6f3e 9980 0fbd 7a55 493e
00000010: ccd8 703d c7ca 68be 890c d83d e8e7 643e
00000020: 4472 703e 20c1 833d f953 6a3e 6955 6a3e
00000030: 2698 6c3e c909 97bd 6aa8 a13b 7844 263e

encoder.0.norm.running_mean f4 [16]
-0.5294161 -0.115284316 -0.5218376 0.7581658 -0.21801238 -1.0815836 0.43402258 0.120195955
-0.70846206 0.13313179 0.5698048 0.1998458 0.5528374 -1.0378122 0.6517645 -0.16921084
00000000: d087 07bf 2f1a ecbd 2697 05bf 2717 423f
00000010: a33e 5fbe 5571 8abf 3538 de3e 4c29 f63d
00000020: c55d 35bf b353 083e bade 113f 61a4 4c3e
00000030: c086 0d3f 08d7 84bf 0ada 263f 9b45 2dbe

encoder.0.norm.running_var f4 [16]
1.2679697 0.5928636 0.2748676 4.166253 0.5402471 1.121469 0.73532534 0.6767407
1.9407012 1.3052403 0.64673334 1.1199099 0.47872126 1.3418282 0.8145145 0.421346
00000000: d54c a23f e9c5 173f 72bb 8c3e f251 8540
00000010: a24d 0a3f 4c8c 8f3f 483e 3c3f e13e 2d3f
00000020: e668 f83f 1d12 a73f 5190 253f 3559 8f3f
00000030: f41a f53e 07c1 ab3f 0684 503f aaba d73e

encoder.1.fc.weight f4 [16, 16]
-0.40257832 -0.33468843 0.06986685 -0.03591559 0.043323956 -0.5170868 -0.08571609 -0.037094433
0.65978366 -0.36664677 -0.22521728 0.2969671 -0.10525936 -0.30060965 -0.20441648 0.13615932
-0.16910148 -0.3920958 -0.28103724 -0.18015441 -0.046813447 -0.14094952 0.044908676 -0.16170968
-0.059611395 0.43264502 -0.14887978 0.24426244 -0.0917741 -1.0177848 0.20629208 0.011370567
-0.46511525 0.02916352 -0.8001368 -0.1192254 0.20947477 0.13733466 0.45566648 0.20011881
0.41305608 -0.023842761 -0.10233335 -0.29635116 -0.28551576 -0.042204577 -0.2974443 -0.2185724
-0.8276333 0.31707478 0.26072866 0.053002335 0.027278347 0.34627274 -0.3340519 -0.104138546
0.40196046 -0.38392177 -0.11854979 0.23514792 -0.017000584 0.056267843 -0.39903975 -0.019792248
0.36662513 -0.27111736 -0.51348776 -0.11635957 -0.051292066 -0.22736144 0.08033003 0.10988405
-0.29720196 -0.14753644 -0.20702963 0.033580758 0.15510535 0.11972941 -0.43376473 -0.30048162
0.3434615 -0.20404766 0.28369004 -0.34118608 0.57536966 -0.23747954 -0.34136823 -0.11857524
0.38128167 0.021301508 -0.16370022 0.20808463 -0.15915889 0.04701465 0.021082945 0.19768824
-0.26711202 -0.18608083 -0.08912035 -0.20318566 -0.5825117 0.2320921 0.22728063 -0.21362908
-0.40013325 -0.07132282 -0.79611653 -0.37610605 0.015837137 0.08372537 0.32549703 9.813921e-05
-0.130434 -0.037567865 -0.13766006 0.03398285 0.1003512 0.14443171 -0.22497812 -0.0015845225
-0.30929804 -0.073431596 0.058357973 -0.7583647 -0.026010856 0.55906296 -0.1417679 0.07716022
-0.19953339 -0.4565042 -0.082899645 -0.05178011 -0.13163605 -0.047814645 -0.12871338 -0.36179268
-0.103659466 0.27753073 -0.11999232 -0.18734331 -0.094408326 -0.32980278 0.26901436 -0.31969315
-0.36543038 0.28313962 0.44814774 -0.0697553 -0.30551586 -0.14202693 -0.22325157 0.17160976
-0.305356 -0.2554408 -0.14873825 -0.5700717 -0.57469773 0.41072318 0.08225273 0.13404998
-0.6509361 -0.041271888 -0.37149286 -0.15007725 0.13470665 -0.4142152 0.1512524 -0.13147323
-0.5208774 -0.22808082 -0.26255673 -0.30751964 -0.21550968 0.032983035 0.3319047 -0.15809582
-0.22333476 -0.39670473 -0.4131331 -0.09050378 -0.14480461 0.06027392 -0.12742986 -0.09830801
-0.21260463 0.36605757 0.022165043 -0.0023740614 0.112093545 -0.44801128 0.45972466 -0.2787816
-0.2528163 0.309554 -0.20398974 -0.18027021 0.5246088 -0.1274832 0.028169839 0.11726078
-0.06941457 0.049216054 -0.6528983 -0.75919384 -0.1923159 -0.1362151 -0.54682946 0.30349672
-0.39438808 0.023943622 -0.062458552 -0.064539686 -0.24208437 -0.23631842 -0.23944426 0.078150906
-0.37003782 -0.23381186 -0.2352695 -0.5653051 -0.2210742 0.41993138 0.23811263 0.056765173
0.4845025 -0.23652591 0.13962732 -0.5206283 -0.14512882 -0.14704281 -0.023476157 -0.34308043
0.049174044 0.4254672 -0.35755765 0.395254 0.4191853 0.23954996 0.26624745 -0.06230877
-0.17822638 0.15797742 0.09649693 -0.4588864 0.18003468 0.5579071 -0.026929313 -0.06507782
0.3292105 -0.5395184 -0.28340575 -0.42572 -0.11637238 -0.30134836 -0.484388 0.031096715
00000000: bf1e cebe 485c abbe 5a16 8f3d 3a1c 13bd
00000010: 7674 313d cd5f 04bf eb8b afbd 55f0 17bd
00000020: 95e7 283f 20b9 bbbe 5c9f 66be 120c 983e
00000030: 3892 d7bd 82e9 99be 8e52 51be 596d 0b3e
00000040: f028 2dbe c8c0 c8be 1de4 8fbe 667a 38be
00000050: 75bf 3fbd 1255 10be 29f2 373d 3997 25be
00000060: 142b 74bd a683 dd3e f173 18be ef1f 7a3e
00000070: 0ff4 bbbd c646 82bf 3b3e 533e 9d4b 3a3c
00000080: 9623 eebe 56e8 ee3c c4d5 4cbf 722c f4bd
00000090: 8e80 563e 75a1 0c3e 1e4d e93e f2eb 4c3e
000000a0: 167c d33e e551 c3bc 2694 d1bd 57bb 97be
000000b0: 1f2f 92be b5de 2cbd 9f4a 98be 71d1 5fbe
000000c0: c7df 53bf a057 a23e 3a7e 853e fa18 593d
000000d0: d776 df3c a94a b13e da08 abbe 9746 d5bd
000000e0: c3cd cd3e 6591 c4be 3bca f2bd 9eca 703e
000000f0: cf44 8bbc 1c79 663d f04e ccbe 5a23 a2bc
00000100: 4ab6 bb3e e5cf 8abe ef73 03bf ed4d eebd
00000110: a117 52bd 70d1 68be 1284 a43d e40a e13d
00000120: db2a 98be cb13 17be 93ff 53be fa8b 093d
00000130: f0d3 1e3e b134 f53d 6916 debe bad8 99be
00000140: 30da af3e dff1 50be d23f 913e f1af aebe
00000150: 6d4b 133f d62d 73be d1c7 aebe 93d7 f2bd
00000160: 5a37 c33e 8080 ae3c 08a1 27be 2314 553e
00000170: 8cfa 22be 6f92 403d 24b6 ac3c c96e 4a3e
00000180: e8c2 88be f98b 3ebe bb84 b6bd e70f 50be
00000190: 7d1f 15bf 8da9 6d3e 41bc 683e 95c1 5abe
000001a0: 44de ccbe b311 92bd 4bce 4bbf f990 c0be
000001b0: e2bc 813c 3578 ab3d 8ca7 a63e 16d0 cd38
000001c0: 7e90 05be c3e0 19bd c2f6 0cbe 9a31 0b3d
000001d0: ee84 cd3d e8e5 133e aa60 66be c1af cfba
000001e0: 505c 9ebe 4e63 96bd c508 6f3d 3024 42bf
000001f0: b814 d5bc c01e 0f3f 9b2b 11be 2d06 9e3d
00000200: 7b52 4cbe ebba e9be 4ac7 a9bd 6117 54bd
00000210: 9acb 06be 4ad9 43bd 71cd 03be e43c b9be
00000220: 6a4b d4bd 8218 8e3e 89be f5bd edd6 3fbe
00000230: 2759 c1bd e9db a8be 40bc 893e d2ae a3be
00000240: b119 bbbe adf7 903e 9f73 e53e dedb 8ebd
00000250: 936c 9cbe 826f 11be 0f9c 64be 78ba 2f3e
00000260: 9f57 9cbe 23c9 82be d74e 18be 38f0 11bf
00000270: 641f 13bf 4f4a d23e 1f74 a83d 6644 093e
00000280: c0a3 26bf b60c 29bd 5034 bebe daad 19be
00000290: 8af0 093e 0414 d4be e9e1 1a3e eba0 06be
000002a0: 3958 05bf 058e 69be d66d 86be 3773 9dbe
000002b0: 92ae 5cbe 3819 073d 6aef a93e dfe3 21be
000002c0: deb1 64be e21c cbbe 2f86 d3be 0c5a b9bd
000002d0: a947 14be c9e1 763d f97c 02be b655 c9bd
000002e0: 07b5 59be e66b bb3e 7793 b53c 2496 1bbb
000002f0: 4d91 e53d bc61 e5be 0861 eb3e 76bc 8ebe
00000300: 2371 81be dd7d 9e3e b0e2 50be c198 38be
00000310: c34c 063f f58a 02be 6fc4 e63c 6b26 f03d
00000320: 3a29 8ebd c696 493d 5824 27bf 875a 42bf
00000330: 76ee 44be f97b 0bbe 04fd 0bbf ec63 9b3e
00000340: 3ced c9be 6a25 c43c 8ad4 7fbd 622d 84bd
00000350: f7e4 77be 75fd 71be e030 75be 950d a03d
00000360: 9975 bdbe 606c 6fbe 7dea 70be d6b7 10bf
00000370: 4661 62be 3f01 d73e ccd3 733e 9982 683d
00000380: b610 f83e d933 72be 77fa 0e3e e547 05bf
00000390: a69c 14be 6492 16be 1251 c0bc 3da8 afbe
000003a0: b96a 493d d6d6 d93e cc11 b7be bb5e ca3e
000003b0: 759f d63e 964c 753e 9651 883e 7b37 7fbd
000003c0: fa80 36be d5c4 213e 2fa0 c53d 29f3 eabe
000003d0: 035b 383e 00d3 0e3f dd9a dcbc 8547 85bd
000003e0: 478e a83e e11d 0abf 8f1a 91be f9f7 d9be
000003f0: a454 eebd 554a 9abe b401 f8be 8abe fe3c

encoder.1.fc.bias f4 [16]
0.32242647 0.11503152 0.15392171 0.17823432 -0.007230478 0.04765755 0.11698325 -0.071485735
0.24599668 0.18425971 0.12136219 0.31063786 -0.05862374 0.11900905 -0.07522513 0.26458362
00000000: 1515 a53e a595 eb3d a79d 1d3e 0f83 363e
00000010: a5ed ecbb 9034 433d ea94 ef3d 1d67 92bd
00000020: 8ee6 7b3e 94ae 3c3e bd8c f83d ed0b 9f3e
00000030: 721f 70bd 04bb f33d a20f 9abd 8177 873e

encoder.1.norm.weight f4 [16]
1.3504809 1.3727685 0.92764765 1.1766579 1.08107 0.7476973 1.1703526 1.4736507
1.0065585 1.2656277 1.2664628 1.2723386 1.3483282 1.1738757 1.0992761 1.163738
00000000: 8fdc ac3f e1b6 af3f 517a 6d3f ba9c 963f
00000010: 8060 8a3f 1769 3f3f 1dce 953f 96a0 bc3f
00000020: e9d6 803f 1700 a23f 741b a23f fedb a23f
00000030: 0596 ac3f 8f41 963f 14b5 8c3f 5ef5 943f

encoder.1.norm.bias f4 [16]
0.27303112 0.2949961 -0.027252203 0.24288048 -0.08546373 -0.3208289 0.09136533 0.37288344
0.08300193 0.18679492 0.24599928 0.20594348 0.24018662 0.1541162 -0.02513436 0.065881535
00000000: bcca 8b3e bb09 973e 0340 dfbc a9b5 783e
00000010: 9c07 afbd b043 a4be bf1d bb3d 94ea be3e
00000020: eafc a93d 2b47 3f3e 3ce7 7b3e d9e2 523e
00000030: 7bf3 753e a3d0 1d3e 93e6 cdbc e6ec 863d

encoder.1.norm.running_mean f4 [16]
-0.0040116655 -1.0026709 -1.4769872 -0.39820418 -2.1141589 1.137989 -1.2239822 -0.2900445
-2.3126543 -0.16874956 -2.1423695 -1.5967396 -0.13246877 -0.7467698 0.30923033 -0.88717276
00000000: 4a74 83bb 8557 80bf eb0d bdbf 6be1 cbbe
00000010: 614e 07c0 a0a9 913f 73ab 9cbf b680 94be
00000020: 8702 14c0 afcc 2cbe 951c 09c0 f761 ccbf
00000030: e5a5 07be 4e2c 3fbf 7053 9e3e c11d 63bf

encoder.1.norm.running_var f4 [16]
0.6153661 1.0522492 2.4221387 1.3901428 0.77155745 0.8903594 1.2746483 0.1057856
0.829196 0.6073797 1.2071491 0.66769314 1.3311375 0.2549393 0.77205133 0.81322104
00000000: a288 1d3f 1ab0 863f 5204 1b40 33f0 b13f
00000010: ca84 453f 98ee 633f ad27 a33f 1fa6 d83d
00000020: 3046 543f 3c7d 1b3f dd83 9a3f f0ed 2a3f
00000030: b762 aa3f 6787 823e 28a5 453f 412f 503f

encoder.2.weight f4 [32, 16]
-0.7009401 -0.14853056 0.039233875 -0.047463145 0.29599735 0.0041276007 -0.15509073 -0.3147851
0.006735168 -0.12767771 -0.46434072 -0.25422925 -0.59132755 0.23328137 -0.04378845 0.5832021
0.14797018 0.21615945 -0.17963605 0.39245415 0.0793998 -0.25457832 0.026147202 0.24401756
0.16955408 0.2253242 0.38443488 0.24307834 0.2409099 0.05574923 0.22103028 0.0594437
-0.11934724 -0.36148566 0.31882226 -0.2101179 0.0036032016 -0.05204512 -0.32221922 -0.1833951
-0.2594204 0.026586978 -0.19083095 -0.36193776 -0.25501737 -0.34039438 -0.33190054 0.21422634
-0.39252284 -0.079509504 0.042816993 0.28105283 -0.070658326 0.13868551 -0.35228956 0.14868121
0.19523823 0.116517626 -0.25394616 -0.38316086 0.004822418 -0.19955166 -0.029504923 -0.19906436
0.48741153 0.603244 0.31754416 0.43265852 -0.08809134 0.019186758 0.501963 0.29321393
0.030448804 0.09563743 0.55331886 0.13595606 0.47930142 -0.043097943 0.024517294 -0.21040444
0.16929805 -0.119583555 0.25409758 -0.20260894 0.2863917 0.2795635 -0.21388727 0.053907868
0.123140015 -0.14073749 -0.09183602 -0.17579444 -0.23409314 0.049711183 0.05132034 -0.10631684
0.1025951 0.4931795 0.29211614 0.2890033 0.14373828 -0.079133295 0.04855648 0.28460225
-0.14947404 0.1564748 0.2887311 0.52394056 0.58297247 0.25709876 -0.35310608 0.05222406
-0.7413883 -0.3666049 -0.19946519 -0.13939978 -1.1692325e-05 -0.14091381 0.056161307 -0.16286078
0.25481078 -0.21116842 -0.24856247 -0.47331697 -0.41324443 0.10645395 0.026873656 -0.15414207
-0.21450625 0.21661083 0.24611747 0.09375897 -0.10773694 0.030815678 0.21964298 -0.2119306
-0.524939 -0.30549374 0.015633069 0.14314705 -0.17388295 0.18147758 -0.44098234 0.19648662
0.6472441 0.34312102 -0.2042359 -0.21041156 -0.30703735 0.13784608 0.121136084 0.18937206
-0.025380492 -0.22587714 0.3952771 -0.0897923 0.17021926 -0.0649665 -0.111504555 -0.22701916
-0.665443 0.102898605 0.16473217 -0.24272598 0.34542495 -0.08019082 0.05847826 -0.22367805
-0.299606 0.2850711 -0.50143814 -0.17289081 -0.56347704 -0.06294952 0.2117069 -0.15191875
0.4222554 0.6031734 0.244819 0.32750803 -0.48598686 0.007919637 -0.23893249 0.4425697
0.22236152 0.12363835 0.15890217 0.08307568 0.30589926 -0.0017738052 -0.2227004 -0.4232232
0.65086335 0.04832772 -0.27332157 0.203826 0.07666881 0.29416165 -0.19157939 0.327107
-0.014705902 -0.19687146 0.30686122 -0.011292927 0.07251243 0.20149332 0.20021223 -0.41571987
-0.67938304 -0.5569559 -0.14860202 -0.061609518 0.36417052 0.2224162 -0.49210656 0.06590313
0.16345893 -0.15939392 -0.28671804 -0.24637307 -0.24349646 0.0032448068 -0.1403015 0.20661455
-0.08802531 -0.37887758 0.36815527 0.02090034 -0.21010987 -0.2282991 -0.29558873 -0.461829
-0.07572731 -0.16535215 -0.21331608 -0.47112802 -0.26125243 -0.2896575 -0.11903603 0.16400486
-0.4508793 0.06593802 -0.07290038 0.20907108 0.44264156 -0.0045749936 -0.40589243 0.04836085
0.3485108 -0.27171054 -0.27535507 -0.5452202 -0.13306795 -0.2505045 0.29076993 0.06712917
00000000: cf70 33bf 6518 18be b3b3 203d b768 42bd
00000010: f78c 973e d340 873b 1bd0 1ebe 832b a1be
00000020: afb2 dc3b f2bd 02be 11be edbe 562a 82be
00000030: 3e61 17bf 50e1 6e3e 855b 33bd bc4c 153f
00000040: 7f85 173e e758 5d3e 83f2 37be c0ef c83e
00000050: 5d9c a23d 1758 82be a832 d63c bddf 793e
00000060: 969f 2d3e 63bb 663e a6d4 c43e 87e9 783e
00000070: 16b1 763e 4e59 643d c355 623e 3d7b 733d
00000080: 536c f4bd a614 b9be ac3c a33e 2629 57be
00000090: b123 6c3b 442d 55bd ebf9 a4be edcb 3bbe
000000a0: c0d2 84be efcc d93c 3069 43be e84f b9be
000000b0: a391 82be 2c48 aebe deee a9be 265e 5b3e
000000c0: c1f8 c8be e1d5 a2bd df60 2f3d 28e6 8f3e
000000d0: 50b5 90bd 9303 0e3e 4c5f b4be e33f 183e
000000e0: 88ec 473e cba0 ee3d 3b05 82be a92d c4be
000000f0: 6005 9e3b 4557 4cbe 4fb4 f1bc 87d7 4bbe
00000100: 018e f93e 336e 1a3f 2695 a23e 6b85 dd3e
00000110: 3c69 b4bd 8c2d 9d3c a680 003f 2320 963e
00000120: c56f f93c 8fdd c33d 4ea6 0d3f 1138 0b3e
00000130: ff66 f53e 7887 30bd 7ed8 c83c 4374 57be
00000140: 785c 2d3e 39e8 f4bd 1419 823e b878 4fbe
00000150: efa1 923e f222 8f3e 4405 5bbe 7fce 5c3d
00000160: d530 fc3d 7d1d 10be 8614 bcbd 7503 34be
00000170: 1db6 6fbe f49d 4b3d 4735 523d a5bc d9bd
00000180: 611d d23d 0682 fc3e 3f90 953e 3ef8 933e
00000190: 2130 133e a310 a2bd 29e3 463d 63b7 913e
000001a0: b90f 19be ee3a 203e 90d4 933e f820 063f
000001b0: af3d 153f 73a2 833e 52ca b4be e5e8 553d
000001c0: a0cb 3dbf a3b3 bbbe 9a40 4cbe d1be 0ebe
000001d0: 272a 44b7 b64b 10be 6609 663d fac4 26be
000001e0: 8f76 823e 893c 58be 2987 7ebe 9a56 f2be
000001f0: c694 d3be 8704 da3d 2426 dc3c 6bd7 1dbe
00000200: 87a7 5bbe 3bcf 5d3e 3806 7c3e b404 c03d
00000210: 2fa5 dcbd 2971 fc3c 17ea 603e 5604 59be
00000220: 6762 06bf ad69 9cbe ec10 803c 2495 123e
00000230: 5f0e 32be 42d5 393e 70c8 e1be ca33 493e
00000240: cab1 253f 8fad af3e 3723 51be 2176 57be
00000250: 0034 9dbe 8627 0d3e 3216 f83d c0ea 413e
00000260: c0ea cfbc 564c 67be c361 ca3e 06e5 b7bd
00000270: f54d 2e3e 280d 85bd 805c e4bd b677 68be
00000280: 795a 2abf 81bc d23d 8daf 283e 298d 78be
00000290: 8adb b03e 163b a4bd e686 6f3d dc0b 65be
000002a0: f565 99be d7f4 913e 405e 00bf 4a0a 31be
000002b0: 0840 10bf aeeb 80bd b2c9 583e 9790 1bbe
000002c0: dc31 d83e 9269 1a3f d5b1 7a3e 22af a73e
000002d0: 45d3 f8be 5dc1 013c b8aa 74be 7f98 e23e
000002e0: bdb2 633e 1a36 fd3d 40b7 223e 9523 aa3d
000002f0: d49e 9c3e 077f e8ba 930b 64be b6b0 d8be
00000300: fb9e 263f 4af3 453d cef0 8bbe c3b7 503e
00000310: 8904 9d3d 5b9c 963e 632d 44be 927a a73e
00000320: 06f1 70bc ac98 49be ea1c 9d3e f805 39bc
00000330: 6681 943d 4454 4e3e 6f04 4d3e 3cd9 d4be
00000340: 0cec 2dbf a994 0ebf 212b 18be 435a 7cbd
00000350: 8f74 ba3e 13c1 633e 64f5 fbbe 38f8 863d
00000360: c761 273e 2938 23be b5cc 92be 3949 7cbe
00000370: 2357 79be d3a6 543b 32ab 0fbe c492 533e
00000380: 9d46 b4bd 3efc c1be d97e bc3e 3137 ab3c
00000390: 0b27 57be 3dc7 69be 6857 97be da74 ecbe
000003a0: eb16 9bbd 1352 29be 886f 5abe b137 f1be
000003b0: e1c2 85be fd4d 94be 29c9 f3bd e4f0 273e
000003c0: a7d9 e6be 830a 873d cb4c 95bd bb16 563e
000003d0: eaa1 e23e d4e9 95bb 22d1 cfbe 0716 463d
000003e0: 0270 b23e a51d 8bbe 57fb 8cbe 8d93 0bbf
000003f0: f742 08be 2042 80be ccdf 943e 057b 893d

encoder.2.bias f4 [32]
-0.16692212 0.16948608 -0.23512968 -0.20019622 0.2778841 -0.05826392 0.23551716 -0.23068607
-0.13214974 0.019576013 -0.23486415 0.24520975 0.18533802 -0.23859191 -0.263797 -0.23771107
-0.22469404 0.21910499 0.22832672 -0.22808905 0.25453708 0.250626 -0.2490328 -0.0910765
-0.22077832 0.21092358 0.24797188 -0.20384432 -0.18366514 0.2228077 0.22645125 0.2346587
00000000: a2ed 2abe c28d 2d3e d6c5 70be 3d00 4dbe
00000010: d346 8e3e 26a6 6ebd 692b 713e f838 6cbe
00000020: 4352 07be e05d a03c 3a80 70be 4418 7b3e
00000030: 40c9 3d3e 7051 74be 6610 87be 886a 73be
00000040: 3216 66be 0f5d 603e 7bce 693e 2d90 69be
00000050: af52 823e 0d52 803e 7402 7fbe 5186 babd
00000060: b613 62be 5afc 573e 57ec 7d3e 91bc 50be
00000070: b712 3cbe b427 643e d6e2 673e 5f4a 703e

residual.0.fc.weight f4 [16, 32]
0.1577938 -0.28053105 0.007547707 -0.027602592 0.28954038 0.048956323 0.28331554 0.008388149
0.1941751 0.29550055 -0.29693958 0.18937062 0.25482583 -0.008630761 -0.3034751 -0.3235839
0.17750284 -0.076464325 -0.30925712 -0.104520775 -0.22013523 0.09427951 0.16238318 -0.31314188
-0.067614585 -0.029247321 0.20484251 -0.19362749 0.07331959 0.15957281 0.0508333 0.27859965
0.333564 -0.1436305 -0.2129111 -0.20674226 -0.11837992 0.37058645 0.18957527 0.27887896
-0.29980472 0.092864685 -0.088270694 0.28813332 0.3806036 0.12043862 0.2844635 -0.028615594
0.2651117 -0.15634385 0.15457937 0.03952301 -0.097513355 -0.15741421 -0.009134187 0.253094
-0.19564624 -0.2466122 0.28599048 -0.16607077 -0.26389152 -0.009695985 -0.29198772 0.047395613
0.12938738 -0.10523531 -0.22720636 0.09147799 0.40604058 0.18835352 0.36014256 -0.0771691
-0.068126135 -0.27460155 0.2654603 0.10361461 0.092432305 -0.004143903 0.23897143 -0.20452157
-0.1395099 -0.15635942 -0.2005011 -0.016116029 -0.15328111 0.006054772 0.020356176 0.14565963
-0.18791719 -0.042039406 -0.16032602 -0.06831115 0.25914878 -0.320985 0.22549208 -0.2458029
0.25212073 0.34863433 0.3419224 0.26149625 -0.25138 -0.04787269 -0.12567012 0.02549576
0.115218714 -0.19280769 0.067517415 0.17236339 0.21183823 0.062366918 -0.2116054 0.32585883
-0.15119143 0.18285123 -0.2516058 -0.013151171 0.14892122 -0.09320486 0.22634181 0.2453458
-0.08826938 0.28442934 -0.16318673 -0.22218987 0.20876443 0.26325515 -0.064594306 -0.12761045
0.25578186 0.2551727 -0.1668681 -0.12142696 0.083925895 0.2683086 -0.036617123 0.1298003
-0.30531338 -0.10014522 0.058905326 0.10304366 -0.21386974 0.2969048 -0.16040002 0.25631517
-0.07230079 -0.16020992 0.19364934 -0.031595733 0.07159324 0.19414365 0.35237843 0.0013985247
-0.2390574 0.23845132 0.23586318 0.26546043 0.123627394 -0.07318395 -0.39253095 0.027272925
0.06261026 -0.24810661 -0.21908273 -0.15006804 0.09023499 -0.33663872 0.016724136 0.22181784
-0.18756624 -0.1666277 0.029097356 -0.2305805 0.2152492 0.13818981 -0.1688921 0.15383865
-0.0786005 -0.0018448284 0.09113744 -0.109083466 0.30123103 -0.11773657 0.10286607 0.21351935
-0.17443474 0.26580894 0.28864044 -0.05050046 -0.020740477 -0.12641945 0.3724286 -0.14936188
0.21015865 0.22312689 -0.013480623 -0.08865669 0.36987388 -0.20106702 -0.14245947 -0.2607804
0.24598612 0.32299745 0.19250312 -0.22423336 -0.021655228 -0.15573582 0.14072089 0.16508262
-0.39860502 0.35548314 -0.16248082 0.23476103 0.2697118 -0.09617177 -0.38461462 -0.1961629
-0.09402963 0.31922162 -0.2828261 -0.070909075 -0.38142443 0.16271847 -0.05750836 -0.049736574
-0.25500095 -0.11797529 -0.28457633 -0.43681425 -0.31505263 -0.37104994 0.045471426 0.1593492
0.06657377 0.24401277 -0.16795105 0.060441308 -0.1976779 0.08166487 0.099084154 0.11416623
0.17577341 0.07008699 0.18664391 -0.13606784 0.053713277 0.35579002 0.26114854 0.22585186
0.13112614 0.31671956 0.22756483 0.106054634 0.29899916 0.34715813 0.18318877 0.151958
00000000: b394 213e c4a1 8fbe c152 f73b d51e e2bc
00000010: a33e 943e 6d86 483d bc0e 913e 726e 093c
00000020: d6d5 463e d94b 973e 7708 98be 5fea 413e
00000030: 8878 823e 0968 0dbc 1761 9bbe caac a5be
00000040: 4ec3 353e 5499 9cbd f356 9ebe fd0e d6bd
00000050: 216b 61be 9e15 c13d c747 263e 2254 a0be
00000060: 8479 8abd 1498 efbc 3cc2 513e 4946 46be
00000070: 9528 963d 0e67 233e 9436 503d 9da4 8e3e
00000080: e7c8 aa3e e013 13be 5e05 5abe 3eb4 53be
00000090: 2c71 f2bd 82bd bd3e 0520 423e 39c9 8e3e
000000a0: 0180 99be d72f be3d 44c7 b4bd 3686 933e
000000b0: 7ade c23e 86a8 f63d 33a5 913e 406b eabc
000000c0: b9bc 873e 9a18 20be 0e4a 1e3e e1e2 213d
000000d0: 15b5 c7bd 3131 21be 8fa7 15bc 8995 813e
000000e0: 7d57 48be e987 7cbe 586d 923e 750e 2abe
000000f0: ca1c 87be e9db 1ebc 6a7f 95be e721 423d
00000100: 207e 043e 9c85 d7bd c9a8 68be d058 bb3d
00000110: 8de4 cf3e bfdf 403e 9b64 b83e d50a 9ebd
00000120: b785 8bbd 9398 8cbe 6aea 873e e633 d43d
00000130: 264d bd3d 94c9 87bb edb4 743e 1a6e 51be
00000140: afdb 0ebe af1c 20be 2950 4dbe c305 84bc
00000150: b9f5 1cbe 1c67 c63b ffc1 a63c cc27 153e
00000160: 5d6d 40be 8331 2cbd 812c 24be b7e6 8bbd
00000170: 26af 843e 2558 a4be 65e7 663e c1b3 7bbe
00000180: f815 813e 3380 b23e 7410 af3e d6e2 853e
00000190: e1b4 80be 2716 44bd abaf 00be 7cdc d03c
000001a0: caf7 eb3d 616f 45be 9246 8a3d 0780 303e
000001b0: 1fec 583e 7474 7f3d 16af 58be f8d6 a63e
000001c0: edd1 1abe 5a3d 3b3e 7ad2 80be 0278 57bc
000001d0: ce7e 183e 31e2 bebd 26c6 673e ee3b 7b3e
000001e0: 94c6 b4bd b9a0 913e 6c1a 27be be85 63be
000001f0: 58c6 553e 61c9 863e 054a 84bd 50ac 02be
00000200: d7f5 823e ffa5 823e 79df 2abe b3ae f8bd
00000210: 57e1 ab3d bf5f 893e d6fb 15bd 5fea 043e
00000220: 0952 9cbe f018 cdbd b646 713d 8e08 d33d
00000230: ab00 5bbe e803 983e e73f 24be be3b 833e
00000240: 7012 94bd 120e 24be 034c 463e 876a 01bd
00000250: 7a9f 923d 98cd 463e f26a b43e b44e b73a
00000260: 77cb 74be 952c 743e 1e86 713e 6eea 873e
00000270: 5c30 fd3d 77e1 95bd d1f9 c8be 786b df3c
00000280: cf39 803d a90f 7ebe 3957 60be 70ab 19be
00000290: 1fcd b83d e95b acbe 0e01 893c 3724 633e
000002a0: 5d11 40be 74a0 2abe 945d ee3c 4b1d 6cbe
000002b0: 496a 5c3e a181 0d3e 0df2 2cbe e187 1d3e
000002c0: 4df9 a0bd 2bce f1ba 44a6 ba3d 2767 dfbd
000002d0: f43a 9a3e df1f f1bd 72ab d23d d1a4 5a3e
000002e0: 059f 32be 1c18 883e aec8 933e 92d9 4ebd
000002f0: efe7 a9bc 1a74 01be f6ae be3e 52f2 18be
00000300: d433 573e 607b 643e d5dd 5cbc a491 b5bd
00000310: 1c60 bd3e 83e4 4dbe e5e0 11be 0285 85be
00000320: c9e3 7b3e ec5f a53e 8a1f 453e 6e9d 65be
00000330: 4e66 b1bc 3679 1fbe 2319 103e 6b0b 293e
00000340: f515 ccbe e301 b63e 5f61 26be 3265 703e
00000350: aa17 8a3e b4f5 c4bd 35ec c4be edde 48be
00000360: 9b92 c0bd 0471 a33e 95ce 90be c738 91bd
00000370: 104a c3be ac9f 263e e38d 6bbd 94b8 4bbd
00000380: 7c8f 82be 079d f1bd fdb3 91be 1ea6 dfbe
00000390: 944e a1be 42fa bdbe 3f40 3a3d 702c 233e
000003a0: d457 883d 7cde 793e 5cfb 2bbe 4e91 773d
000003b0: 136c 4abe e93f a73d a2ec ca3d fccf e93d
000003c0: f2fd 333e c589 8f3d 951f 3f3e 5e55 0bbe
000003d0: 7402 5c3d 1c2a b63e 43b5 853e b645 673e
000003e0: ee45 063e 1129 a23e c106 693e 2c33 d93d
000003f0: 6b16 993e b6be b13e d695 3b3e e19a 1b3e

residual.0.fc.bias f4 [16]
0.03791025 -0.029345475 -0.049429536 0.031771034 0.022287402 -0.04557269 -0.009095947 0.007028105
0.02395035 6.776948e-05 -0.047960304 0.009089131 -0.016625358 -0.009408157 -0.013172328 0.032444723
00000000: c747 1b3d ec65 f0bc a076 4abd 5822 023d
00000010: 1294 b63c 6eaa 3abd 2b07 15bc 054c e63b
00000020: 8633 c43c 761f 8e38 0672 44bd 94ea 143c
00000030: e731 88bc ac24 1abc bfd0 57bc c2e4 043d

residual.0.norm.weight f4 [16]
0.9733751 1.1079211 0.88781434 0.90065575 1.0081112 0.93350446 1.0991317 0.9827647
0.95268404 1.0411525 0.9051296 0.97911644 0.98844445 0.97856253 1.0491515 0.92588395
00000000: 1c2f 793f 5cd0 8d3f cd47 633f 6091 663f
00000010: ca09 813f 26fa 6e3f 59b0 8c3f 7896 7b3f
00000020: 1ae3 733f 7c44 853f 93b6 673f 60a7 7a3f
00000030: b20a 7d3f 1383 7a3f 994a 863f bb06 6d3f

residual.0.norm.bias f4 [16]
-0.019732805 0.035102505 -0.013174111 -0.036612127 -0.008489336 -0.062586166 0.0843624 -0.07065021
-0.0116781 0.026182441 0.0064526987 -0.020451197 -0.11289138 -0.100382924 0.0062951287 -0.041928396
00000000: b1a6 a1bc a5c7 0f3d 3ad8 57bc 99f6 15bd
00000010: db16 0bbc 2d2d 80bd 32c6 ac3d 0fb1 90bd
00000020: 8055 3fbc 8f7c d63c 2971 d33b 4589 a7bc
00000030: 9933 e7bd 9095 cdbd 5e47 ce3b 1cbd 2bbd

residual.0.norm.running_mean f4 [16]
3.5354662 -3.160981 0.8964679 -0.22540373 -0.06554536 2.93331 6.9676976 2.2265563
-1.4670095 0.9278779 2.6163712 -0.9006714 -1.5763248 -2.4237576 2.714397 -1.5725802
00000000: 1445 6240 834d 4ac0 ec7e 653f 3cd0 66be
00000010: a53c 86bd 5abb 3b40 61f7 de40 e67f 0e40
00000020: f8c6 bbbf 6889 6d3f a072 2740 6792 66bf
00000030: 03c5 c9bf d81e 1bc0 aeb8 2d40 4f4a c9bf

residual.0.norm.running_var f4 [16]
0.7544996 1.7556558 0.823722 1.4100848 1.8135899 0.46414074 5.307966 0.88163024
1.0718982 1.7446077 0.6265884 1.0022223 0.55297655 2.2510478 1.668307 1.3826479
00000000: e326 413f 54b9 e03f 72df 523f a97d b43f
00000010: b723 e83f dba3 ed3e dcda a940 85b2 613f
00000020: f633 893f 4e4f df3f 1968 203f d248 803f
00000030: df8f 0d3f 2b11 1040 158b d53f 9bfa b03f

residual.0.projection.weight f4 [16, 32]
-0.30065355 -0.18425845 -0.17527358 0.254443 0.092141464 -0.33779168 0.34629408 0.32958716
-0.34581202 -0.15280622 -0.10348324 -0.09222665 -0.28557268 -0.36924073 -0.2642388 0.023333048
0.23902564 0.031978242 0.21154727 -0.05331567 0.27939424 -0.21350962 -0.23482573 0.11170695
0.17947303 -0.32856837 0.14679039 0.30809325 0.24645914 0.32745773 -0.03862205 -0.022155793
-0.25569686 0.3116017 0.16867763 -0.053776596 0.031331316 0.061941255 -0.26828322 0.15286963
0.0006054995 0.23172553 -0.05535042 0.035266746 0.24701138 0.109522626 -0.29805845 0.02036979
0.16709924 0.19666986 0.014317283 -0.091228604 0.08317879 0.2889612 0.23497327 -0.23167565
0.14827916 0.083820045 -0.31552243 0.11617611 -0.030645464 -0.34920168 0.23232467 0.25932625
-0.3393219 -0.12658177 0.0057972833 -0.15232797 -0.14498003 0.2959445 -0.15540735 0.16716504
0.050637554 0.033684593 -0.298373 0.14633858 0.10982878 0.3095024 0.13149728 -0.23003635
-0.3176734 -0.08595037 0.01157523 -0.23953038 -0.249077 0.049976323 -0.2696342 0.26049396
0.076291986 -0.20435487 -0.11587383 0.07307966 0.0689274 -0.09595716 0.058953647 -0.2964723
-0.056335066 0.10627526 0.09272252 -0.24737042 0.2854024 0.0025726166 -0.03311074 0.097461626
-0.1709605 0.10861953 0.2620253 -0.28505567 0.1428379 0.02707373 -0.19194172 -0.34327
-0.3349924 -0.10977254 -0.021844335 0.20001124 0.2508727 -0.12578923 0.12645887 -0.19860338
0.11674391 -0.08996362 0.26580498 0.25752047 0.09020908 0.29115027 -0.17367777 0.0066270465
0.03046282 -0.1247457 0.16954423 0.22518666 -0.29628956 -0.29782966 0.3097396 -0.23554288
-0.2378381 0.040052507 0.06667326 0.15909837 -0.32154003 -0.078071296 0.16233519 -0.23911561
-0.32334328 -0.27566388 0.31350106 0.10262398 -0.13396953 -0.113788374 0.121725924 0.27950138
-0.19157954 -0.006101609 0.06893015 -0.21176575 0.077864476 -0.34682095 -0.23126245 0.109388724
-0.09763312 -0.21725559 -0.044984587 0.06741641 0.25933763 -0.28682345 -0.160692 0.10475357
0.29793397 0.32322073 0.06717675 -0.20379555 0.13702367 0.3103876 0.15305007 -0.10197607
-0.21369329 0.2954243 0.1643331 -0.27465832 0.22410151 -0.14328903 0.28949183 -0.020550033
0.25254175 0.17962681 0.26627326 -0.07667642 0.12988417 -0.14508885 0.15582728 -0.20184174
-0.17177776 -0.37669602 -0.29934415 -0.3149059 0.21987486 0.38450658 -0.07074827 0.037429746
-0.18655956 -0.23558152 0.0074046175 0.022720886 -0.023600511 -0.08172264 0.30287647 -0.32871053
-0.17276135 -0.25558493 -0.44647366 -0.08943191 -0.33819264 0.1207142 0.048642952 0.32810107
0.0010798636 0.049254786 0.17044288 -0.17970252 -0.1978658 -0.100436114 -0.0540066 0.34674495
0.2892843 0.28096026 0.08963929 -0.38172296 0.10909941 0.24171756 0.16252492 -0.33452982
-0.0927653 0.17914246 0.22153392 -0.27240488 -0.065239556 0.18283343 0.10924728 -0.20187335
0.15938409 -0.2463724 0.07085727 -0.02904924 0.218076 0.22696003 -0.33267498 0.18109077
0.25148314 -0.24674875 -0.29323688 0.19448647 0.11859851 -0.1802815 0.029409101 0.2984559
00000000: 43ef 99be 3fae 3cbe eb7a 33be 5a46 823e
00000010: aab4 bc3d 08f3 acbe 754d b13e a6bf a83e
00000020: 460e b1be 3c79 1cbe 05ef d3bd 53e1 bcbd
00000030: 9536 92be 1f0d bdbe 4f4a 87be f324 bf3c
00000040: 23c3 743e 9efb 023d d99f 583e 8861 5abd
00000050: c30c 8f3e 44a2 5abe 2876 70be 9dc6 e43d
00000060: c7c7 373e 1d3a a8be 3850 163e 66be 9d3e
00000070: c95f 7c3e 8aa8 a73e 2832 1ebd 1180 b5bc
00000080: b3ea 82be 428a 9f3e d4b9 2c3e d944 5cbd
00000090: 4455 003d 1db6 7d3d 6b5c 89be db89 1c3e
000000a0: 62ba 1e3a 7549 6d3e 1fb7 62bd dd73 103d
000000b0: 8df0 7c3e 664d e03d 1e9b 98be 8cde a63c
000000c0: 101c 2b3e d363 493e 0a93 6a3c 10d6 babd
000000d0: a459 aa3d b9f2 933e d59c 703e 623c 6dbe
000000e0: 7ed6 173e d8a9 ab3d 288c a1be beed ed3d
000000f0: 320c fbbc 90ca b2be 85e6 6d3e 69c6 843e
00000100: 9abb adbe a79e 01be 23f7 bd3b ddfb 1bbe
00000110: a575 14be 0a86 973e 1b23 1fbe 502d 2b3e
00000120: 5369 4f3d dbf8 093d 59c4 98be c8d9 153e
00000130: e9ed e03d 1977 9e3e 39a7 063e a68e 6bbe
00000140: 16a6 a2be bf06 b0bd 09a6 3d3c 7447 75be
00000150: 0b0e 7fbe f9b3 4c3d 7e0d 8abe 775f 853e
00000160: f93e 9c3d 6742 51be 424f edbd caaa 953d
00000170: cf29 8d3d 3085 c4bd 6179 713d 38cb 97be
00000180: 99bf 66bd d8a6 d93d 4ee5 bd3d ac4e 7dbe
00000190: 4320 923e 5899 283b 219f 07bd f699 c73d
000001a0: 4510 2fbe eb73 de3d 2e28 863e d1f2 91be
000001b0: 1944 123e bac9 dd3c 5f8c 44be 16c1 afbe
000001c0: 2084 abbe 6dd0 e0bd e4f2 b2bc bfcf 4c3e
000001d0: 6372 803e e4ce 00be 6f7e 013e af5e 4bbe
000001e0: 6e17 ef3d d93e b8bd 9717 883e b9d9 833e
000001f0: 8abf b83d a611 953e 96d8 31be b227 d93b
00000200: 2a8d f93c ac7a ffbd 019d 2d3e 5597 663e
00000210: 44b3 97be 217d 98be 3096 9e3e 2732 71be
00000220: d58b 73be 190e 243d fd8b 883d afea 223e
00000230: e5a0 a4be d8e3 9fbd 323b 263e b9da 74be
00000240: 408d a5be d123 8dbe 3683 a03e 852c d23d
00000250: 4f2f 09be e109 e9bd 714b f93d ce1a 8f3e
00000260: 6d2d 44be 02f0 c7bb 402b 8d3d 1fd9 58be
00000270: 6977 9f3d 8492 b1be 10d0 6cbe 3207 e03d
00000280: e0f3 c7bd 4078 5ebe c241 38bd 9d11 8a3d
00000290: e7c7 843e 86da 92be 728c 24be 0a89 d63d
000002a0: cd8a 983e 307d a53e f793 893d c8af 50be
000002b0: ef4f 0c3e 20eb 9e3e 28b9 1c3e d4d8 d0bd
000002c0: 6ad2 5abe db41 973e f046 283e 04a0 8cbe
000002d0: de7a 653e 5cba 12be 4638 943e 8b58 a8bc
000002e0: 274d 813e 17f0 373e f854 883e 8708 9dbd
000002f0: 5b00 053e 2c92 14be 3091 1f3e 9aaf 4ebe
00000300: 82e6 2fbe 4dde c0be a343 99be 593b a1be
00000310: e026 613e 0cde c43e 78e4 90bd ef4f 193d
00000320: 7809 3fbe 483c 71be 6fa2 f23b 2721 ba3c
00000330: dc55 c1bc 335e a7bd a012 9b3e bf4c a8be
00000340: 5ae8 30be 07dc 82be 3298 e4be 1428 b7bd
00000350: 9627 adbe 0239 f73d d53d 473d ddfc a73e
00000360: 368a 8d3a 63bf 493d 9488 2e3e f003 38be
00000370: 559d 4abe 73b1 cdbd 0636 5dbd 8e88 b13e
00000380: 121d 943e 06da 8f3e ce94 b73d 3171 c3be
00000390: 836f df3d cf84 773e ef6c 263e 7e47 abbe
000003a0: bcfb bdbd 1f71 373e cad9 623e a778 8bbe
000003b0: 519c 85bd b038 3b3e 0abd df3d e3b7 4ebe
000003c0: 9535 233e 0c49 7cbe 9e1d 913d acf8 edbc
000003d0: 514f 5f3e 3668 683e 6054 aabe dc6f 393e
000003e0: 66c2 803e b4ab 7cbe 2523 96be 7627 473e
000003f0: c7e3 f23d b79b 38be 5beb f03c 36cf 983e

residual.0.projection.bias f4 [16]
-0.0063285735 0.005530804 0.016089167 -0.024451274 0.0033714774 -0.023438554 -0.09690983 0.055531442
0.016616117 0.025731096 0.025004767 0.0041505676 -0.047307104 -0.037628636 0.009969895 -0.016484672
00000000: ec5f cfbb bf3b b53b 6ecd 833c 0a4e c8bc
00000010: 01f4 5c3b 3602 c0bc a978 c6bd f074 633d
00000020: 861e 883c 05ca d23c ccd6 cc3c 7c01 883b
00000030: 18c5 41bd 7c20 1abd c558 233c dd0a 87bc

residual.1.fc.weight f4 [16, 16]
-0.39528632 0.08407614 -0.4755658 0.29406708 0.023346722 0.3646244 -0.10508825 -0.22082165
-0.0149973305 0.22238237 -0.2770136 -0.07114723 0.34404847 0.2841756 0.1641776 -0.35725757
-0.24973112 0.3594488 0.36753473 0.29416767 0.3252163 -0.29109788 -0.22106004 -0.24027126
0.01116811 0.26280245 0.2782732 -0.14939867 0.07008053 0.07589844 -0.04491585 -0.10232808
0.1251179 0.21414927 0.3475705 -0.2086766 0.026226707 -0.19454052 -0.18290477 -0.3525228
0.09901644 -0.17342117 -0.38709834 0.09125056 -0.15774567 0.4641916 -0.046504784 -0.018697962
-0.04500919 -0.47097927 0.0221337 0.35688633 0.32984835 0.22025721 -0.024576671 0.1898102
0.33542317 -0.022583494 0.13432565 0.31618166 -0.09968104 -0.329314 0.2049247 0.1404757
0.44667864 -0.1670697 0.31163886 0.0981041 -0.34322327 0.1954566 0.33664775 0.10533704
-0.30485627 -0.3421769 0.2741878 -0.29977652 -0.21943305 0.16813554 -0.30368602 -0.25485358
-0.29513383 -0.12632138 -0.076189436 -0.08071813 -0.1305528 0.065261856 0.22754462 0.24243695
0.10778417 -0.493919 -0.11670056 -0.1674656 -0.19962059 -0.25353846 -0.44937035 -0.20403317
0.07222247 -0.18473798 0.22350703 -0.21451521 0.2866917 0.123804934 0.40998957 0.053492565
-0.104836024 0.26744354 -0.13052365 -0.46386 -0.4409261 0.016793313 0.03236332 -0.24348037
0.33768022 -0.2143423 0.07660888 0.016411254 -0.31301633 -0.14954358 -0.22133347 0.12431743
-0.13332969 0.1796064 -0.26478884 -0.32479647 0.26840693 0.32741138 0.29567334 0.31681278
-0.1877121 -0.3778112 -0.13319756 0.41545746 -0.019381702 -0.16145779 -0.004481117 0.17043854
0.12416815 -0.01407548 0.09032487 -0.24215932 -0.1322795 -0.14404356 0.39417577 -0.13812977
-0.16524503 0.09518871 -0.21632428 -0.22102252 0.26702568 -0.13405286 -0.4904687 0.16509132
0.110321365 -0.2843312 -0.32665005 0.2322036 0.044502877 -0.25750482 -0.022313423 -0.3518949
0.06593315 -0.11972586 0.24175128 0.12496548 -0.28650954 0.15916017 0.08756075 -0.4141045
-0.2560777 -0.5194737 0.0961587 -0.30833822 -0.02450974 -0.112895936 0.1395082 0.22914983
0.19830929 0.38741735 0.09808029 -0.06813784 -0.19601355 0.17847282 -0.3798911 -0.13404801
0.21177183 -0.2573679 -0.24779002 -0.41791505 -0.1463337 0.42926696 0.023550209 0.037210193
0.5564435 0.05843678 -0.063830696 0.246773 0.2745254 -0.40328535 0.2867605 0.08412279
-0.06865394 -0.07867343 0.4302444 -0.18641819 -0.18799832 -0.06844641 -0.009535864 0.025417196
-0.044001512 -0.015054256 0.4281994 0.19174805 -0.008859179 -0.107020214 -0.32306436 0.22151591
0.2088861 0.42274714 0.34832448 0.31047982 -0.2810192 0.18551345 0.16235317 0.3461705
-0.37025598 -0.4445626 -0.122180864 0.13688348 0.08986904 -0.27785826 0.015692944 0.061479453
0.096974805 0.23117216 0.46486005 -0.17052256 -0.35806254 0.10456917 -0.31571656 0.033746246
0.02793547 0.35698697 0.039631624 -0.30201498 0.32909152 -0.012871186 -0.056843076 0.057123248
0.24661544 0.057775024 0.18414985 -0.3566744 -0.110861406 0.4161893 -0.2616143 0.2698463
00000000: f862 cabe 1c30 ac3d 5c7d f3be f68f 963e
00000010: a041 bf3c 0db0 ba3e 8238 d7bd 121f 62be
00000020: 5db7 75bc 34b8 633e bad4 8dbe a4b5 91bd
00000030: 1f27 b03e 777f 913e 2c1e 283e 77ea b6be
00000040: 84b9 7fbe ac09 b83e 832d bc3e 259d 963e
00000050: c082 a63e c80a 95be 905d 62be ab09 76be
00000060: 73fa 363c 0b8e 863e d379 8e3e f7fb 18be
00000070: 6286 8f3d a470 9b3d aff9 37bd 6291 d1bd
00000080: e81e 003e f249 5b3e c3f4 b13e 52af 55be
00000090: 64d9 d63c a135 47be 634b 3bbe de7d b4be
000000a0: 22c9 ca3d 5295 31be c131 c6be 93e1 ba3d
000000b0: 1588 21be 85aa ed3e cd7b 3ebd 782c 99bc
000000c0: 8e5b 38bd 3224 f1be bc51 b53c ceb9 b63e
000000d0: e2e1 a83e 1b8b 613e 0455 c9bc 9b5d 423e
000000e0: 96bc ab3e 0501 b9bc aa8c 093e 90e2 a13e
000000f0: 9325 ccbd d89b a8be c8d7 513e ddd8 0f3e
00000100: 10b3 e43e 5214 2bbe 218f 9f3e cdea c83d
00000110: f6ba afbe c625 483e 185d ac3e f2ba d73d
00000120: 1f16 9cbe d031 afbe 5862 8c3e 4f7c 99be
00000130: 0fb3 60be b92b 2c3e bc7c 9bbe 2b7c 82be
00000140: c81b 97be 645a 01be 3509 9cbd 8c4f a5bd
00000150: a2af 05be 02a8 853d 7501 693e 6441 783e
00000160: f2bd dc3d f3e2 fcbe b400 efbd 1a7c 2bbe
00000170: 5769 4cbe cbcf 81be df13 e6be 12ee 50be
00000180: 60e9 933d f42b 3dbe 07df 643e e0a9 5bbe
00000190: 41c9 923e 718d fd3d 27ea d13e 051b 5b3d
000001a0: 45b4 d6bd 5cee 883e fea7 05be 0f7f edbe
000001b0: 11c1 e1be 2192 893c 678f 043d eb52 79be
000001c0: 6ce4 ac3e 8c7c 5bbe 1ee5 9c3d e570 863c
000001d0: ad43 a0be f421 19be 3ea5 62be 239a fe3d
000001e0: 9487 08be bdea 373e 6792 87be b94b a6be
000001f0: a26c 893e 77a2 a73e 7f62 973e 4935 a23e
00000200: 9a37 40be 7870 c1be f164 08be d7b6 d43e
00000210: 60c6 9ebc 3155 25be 55d6 92bb 7187 2e3e
00000220: df4b fe3d d89c 66bc 3ffc b83d 9df8 77be
00000230: 4774 07be 2880 13be 68d1 c93e e471 0dbe
00000240: fe35 29be 4cf2 c23d 1d84 5dbe ba53 62be
00000250: 97b7 883e 2745 09be b71e fbbe b30d 293e
00000260: 2bf0 e13d dc93 91be ad3e a7be c8c6 6d3e
00000270: a648 363d acd7 83be a4ca b6bc 912b b4be
00000280: f607 873d d532 f5bd a68d 773e e7ed ff3d
00000290: 61b1 92be e2fa 223e 0d53 b33d 8105 d4be
000002a0: 9e1c 83be 3afc 04bf daee c43d 82de 9dbe
000002b0: a6c8 c8bc fc35 e7bd 3ddb 0e3e 41a6 6a3e
000002c0: 9711 4b3e 915b c63e 52de c83d da8b 8bbd
000002d0: c7b7 48be 94c1 363e 1681 c2be e243 09be
000002e0: b7da 583e bac5 83be abbc 7dbe f6f8 d5be
000002f0: 80d8 15be e1c8 db3e 5eec c03c b769 183d
00000300: 1573 0e3f 685b 6f3d abb9 82bd 10b2 7c3e
00000310: 988e 8c3e 6b7b cebe 46d2 923e 9248 ac3d
00000320: 709a 8cbd 891f a1bd fe48 dc3e 69e4 3ebe
00000330: a282 40be a22d 8cbd 503c 1cbc b937 d03c
00000340: ee3a 34bd 20a6 76bc f43c db3e 9a59 443e
00000350: 1726 11bc 6a2d dbbd b168 a5be 11d5 623e
00000360: 3de6 553e 5072 d83e 9657 b23e 36f7 9e3e
00000370: c0e1 8fbe 3df7 3d3e e93f 263e 433d b13e
00000380: 3192 bdbe b69d e3be f639 fabd 2f2b 0c3e
00000390: 420d b83d 7043 8ebe 7d8e 803c e1d1 7b3d
000003a0: ba9a c63d 65b8 6c3e 2302 ee3e 779d 2ebe
000003b0: f953 b7be 5c28 d63d 9aa5 a1be 8139 0a3d
000003c0: edd8 e43c ffc6 b63e c554 223d b5a1 9abe
000003d0: af7e a83e abe1 52bc 49d4 68bd 11fa 693d
000003e0: c288 7c3e 81a5 6c3d c791 3c3e 079e b6be
000003f0: 4e0b e3bd c416 d53e 4ff2 85be 4b29 8a3e

residual.1.fc.bias f4 [16]
-0.029394217 -0.016282424 -0.019207314 0.062267493 -0.0258334 0.009540717 0.02470004 -0.007040328
0.008076224 -0.016985726 0.051471125 -0.005476964 0.017406039 0.021231586 0.02531908 -0.031494524
00000000: 24cc f0bc b862 85bc a858 9dbc 330c 7f3d
00000010: 91a0 d3bc ab50 1c3c bd57 ca3c 8db2 e6bb
00000020: 2352 043c a625 8bbc 63d3 523d 1b78 b3bb
00000030: 1c97 8e3c dded ad3c f669 cf3c 6700 01bd

residual.1.norm.weight f4 [16]
0.97753334 1.0683299 1.0274019 0.9589164 0.9689744 1.0061303 0.8555835 1.2320255
0.9242768 0.9651923 1.0063982 1.0044256 0.9723004 0.9521233 1.0589122 0.9614583
00000000: a03f 7a3f 09bf 883f e881 833f 8c7b 753f
00000010: b50e 783f e1c8 803f 8507 5b3f 03b3 9d3f
00000020: 689d 6c3f d816 773f a8d1 803f 0591 803f
00000030: aee8 783f 5abe 733f 6f8a 873f 2222 763f

residual.1.norm.bias f4 [16]
-0.026391465 0.018954534 0.024981473 -0.029611425 -0.0039627263 -0.010776811 -0.17188863 0.14392224
-0.08768312 0.0152961025 0.0036340684 0.06249081 -0.119495995 -0.03742623 0.06009509 -0.04496047
00000000: ea32 d8bc 8a46 9b3c f2a5 cc3c a993 f2bc
00000010: c2d9 81bb 3991 30bc 9303 30be 5a60 133e
00000020: 3593 b3bd 819c 7a3c 8d29 6e3b 5df6 7f3d
00000030: 51ba f4bd 3f4c 19bd 4526 763d 7828 38bd

residual.1.norm.running_mean f4 [16]
1.1226166 -1.2277298 2.0042424 -0.95316935 1.2340351 1.9469991 -0.16935527 -0.43816411
-2.1735237 0.2965732 -1.6371183 1.4294881 -1.235129 -0.96992344 -0.35723537 0.9448482
00000000: e7b1 8f3f 4026 9dbf 8245 0040 e802 74bf
00000010: ddf4 9d3f 4437 f93f 786b 2dbe 0c57 e0be
00000020: 031b 0bc0 71d8 973e 188d d1bf 77f9 b63f
00000030: b518 9ebf e74c 78bf 8ee7 b6be 92e1 713f

residual.1.norm.running_var f4 [16]
1.590325 1.6103832 1.3567163 0.48241007 2.5693357 1.2373497 1.2880889 0.64624184
2.0229156 1.0833689 1.5381848 1.0113482 3.8569803 1.2138659 0.38219225 1.6409777
00000000: c58f cb3f 0921 ce3f e1a8 ad3f 74fe f63e
00000010: ff6f 2440 7a61 9e3f 19e0 a43f 1b70 253f
00000020: 7377 0140 d5ab 8a3f 3de3 c43f dc73 813f
00000030: c4d8 7640 f55f 9b3f b4ae c33e 8f0b d23f

residual.2.fc.weight f4 [8, 16]
0.18847837 -0.43001372 0.28963453 0.17462742 0.114844725 0.4916102 -0.085738674 0.14245358
-0.11882117 0.037915245 -0.14874312 0.39508903 0.50037885 0.0033868623 0.12625371 -0.06221182
-0.03849149 0.37811494 0.2798022 -0.25579128 -0.301678 -0.2629627 -0.05248876 -0.4739778
-0.2750885 -0.2953091 -0.38854823 -0.3509744 -0.20575623 -0.02605208 0.09723689 0.21065646
-0.13309547 -0.6262205 0.33798108 0.032817308 0.16324502 -0.42021954 0.37886795 0.22782983
0.01856114 -0.1744749 -0.34178957 -0.30012396 0.33400828 -0.15924452 -0.205028 0.16668677
0.6460798 0.49100783 -0.17876753 -0.3461597 0.014449908 -0.030686833 0.33027056 -0.034131974
0.19852564 -0.18549085 0.07498015 0.36110172 0.20777811 0.16443013 -0.36814842 0.04157095
0.17772545 -0.47047198 -0.34335178 0.38693967 -0.118792616 -0.21515338 -0.35026553 -0.050594453
0.25858986 0.21331882 0.36008692 -0.0039177937 0.033816397 0.121138565 0.101991124 0.2920189
0.015037952 0.22485206 0.24839307 -0.45636758 0.16818728 0.03169165 -0.30701065 -0.2543909
0.2277183 -0.048644442 0.013883207 0.3563472 0.111238025 0.26650047 0.096530996 0.2663937
0.044355404 0.0015569497 0.32631594 -0.55821174 -0.013288032 -0.2561089 -0.310346 -0.53873783
-0.4905636 0.026692932 -0.3984246 0.38898742 0.014970238 0.2996336 -0.055961967 0.42136353
0.11430634 0.25449413 0.07129491 0.37314314 0.37230086 0.24831216 0.14395618 -0.22980097
0.40134984 0.13962701 0.25829077 0.027769215 -0.39860216 0.58154744 -0.027336454 0.41498804
00000000: 7900 413e c22a dcbe fa4a 943e 88d1 323e
00000010: b633 eb3d 55b4 fb3e c297 afbd 5adf 113e
00000020: 8358 f3bd 044d 1b3d 1e50 18be 1c49 ca3e
00000030: d418 003f 1ff6 5d3b a748 013e d2d1 7ebd
00000040: 41a9 1dbd 4898 c13e 3c42 8f3e 13f7 82be
00000050: 8a75 9abe 0ca3 86be 74fe 56bd 38ad f2be
00000060: 66d8 8cbe c132 97be cbef c6be ebb2 b3be
00000070: c3b1 52be 2c6b d5bc 2224 c73d 54b6 573e
00000080: 2e4a 08be fd4f 20bf db0b ad3e 716b 063d
00000090: b429 273e 0427 d7be fbfa c13e 394c 693e
000000a0: 880d 983c 8ca9 32be 0bff aebe d9a9 99be
000000b0: 2203 ab3e ff10 23be dcf2 51be f0af 2a3e
000000c0: 7c65 253f 6165 fb3e d60e 37be d83b b1be
000000d0: 4fbf 6c3c f462 fbbc 3919 a93e f8cd 0bbd
000000e0: 4e4a 4b3e 50f1 3dbe 318f 993d 53e2 b83e
000000f0: c9c3 543e 5f60 283e f37d bcbe 4d46 2a3d
00000100: a9fd 353e b4e1 f0be cecb afbe f51c c63e
00000110: 8b49 f3bd 2b51 5cbe 0156 b3be 213c 4fbd
00000120: e465 843e 4070 5a3e 505d b83e d660 80bb
00000130: 1083 0a3d 7f17 f83d b9e0 d03d 8083 953e
00000140: be61 763c 9e3f 663e c15a 7e3e 03a9 e9be
00000150: 4939 2c3e 1bcf 013d 8030 9dbe 863f 82be
00000160: fc2e 693e 653f 47bd 6476 633c 2473 b63e
00000170: c3d0 e33d c072 883e 0bb2 c53d c164 883e
00000180: 03ae 353d 9012 cc3a e212 a73e f7e6 0ebf
00000190: 0cb6 59bc b520 83be ace5 9ebe b9ea 09bf
000001a0: 272b fbbe 23ab da3c 4ffe cbbe 5c29 c73e
000001b0: bb45 753c 9369 993e 6038 65bd f6bc d73e
000001c0: 7119 ea3d 0e4d 823e 1103 923d 9e0c bf3e
000001d0: 389e be3e 8b45 7e3e 4069 133e f250 6bbe
000001e0: ba7d cd3e 62fa 0e3e b03e 843e 447c e33c
000001f0: 9515 ccbe 4be0 143f b3f0 dfbc 5079 d43e

residual.2.fc.bias f4 [8]
0.0075254743 -0.0014796024 -0.009498565 -0.0059988503 -0.09509515 -0.017658224 -0.018071104 0.02052053
00000000: 4198 f63b 38ef c1ba df9f 1bbc 0192 c4bb
00000010: 3fc1 c2bd fba7 90bc da09 94bc ac1a a83c

residual.2.norm.weight f4 [8]
1.0055134 1.002826 0.91541463 0.9891201 0.9615768 0.9833771 0.9434685 0.97829574
00000000: aab4 803f 9a5c 803f 9d58 6a3f fa36 7d3f
00000010: e629 763f 9abe 7b3f 2787 713f 9771 7a3f

residual.2.norm.bias f4 [8]
-0.04777873 -0.010621602 0.009084421 0.025609188 -0.006011104 0.016131038 -0.046317074 -0.018614115
00000000: a1b3 43bd 3a06 2ebc d3d6 143c 5cca d13c
00000010: ccf8 c4bb 3d25 843c f9b6 3dbd a17c 98bc

residual.2.norm.running_mean f4 [8]
1.3590586 -1.4987786 0.28866953 3.2092412 -1.2420324 0.17404534 0.08332596 2.7013707
00000000: a2f5 ad3f fad7 bfbf 7ecc 933e 3564 4d40
00000010: ebfa 9ebf f138 323e cda6 aa3d 42e3 2c40

residual.2.norm.running_var f4 [8]
2.9239151 2.3997014 5.8277135 2.432964 1.656019 5.161336 12.253109 3.9892938
00000000: 6d21 3b40 b594 1940 a17c ba40 afb5 1b40
00000010: 6ef8 d33f aa29 a540 bc0c 4441 9750 7f40
