climate/FCNN/best_model.pth (torch, 46754 bytes, 60 tensors)

encoder.0.fc.weight f4 [16, 16]
0	0xbe6dbb4e	-0.23215982
1	0x3e7fc6c9	0.24978174
2	0xbf151a2b	-0.58243054
3	0xbd5bc98f	-0.053659018
4	0xbd4df120	-0.050278783
5	0x3c464864	0.01210222
6	0xbe07312f	-0.13202356
7	0xbecb5442	-0.3971272
8	0x3e288351	0.16456343
9	0xbe1d941c	-0.1538853
10	0xbe58c8b1	-0.21170308
11	0x3f2f226b	0.6841189
12	0x3f02dffa	0.5112301
13	0xbea9dbdd	-0.33175555
14	0x3b85b4c7	0.004080388
15	0x3e48120d	0.19538136
16	0xbd5fac8c	-0.054607913
17	0xbe5ff26b	-0.21869819
18	0xbec940c4	-0.39307225
19	0xbd386a1b	-0.045023065
20	0xbce1ea53	-0.027577555
21	0x3e84135f	0.2579603
22	0xbe589e65	-0.21154173
23	0x3e703b7c	0.23460191
24	0x3e2b68d2	0.16739205
25	0x3eaee8ec	0.3416208
26	0x3f0bd992	0.5462886
27	0x3e699d0b	0.22813813
28	0xbe9f67d1	-0.31133893
29	0x3dceb28a	0.100926474
30	0x3e8bc5d3	0.27299365
31	0xbdb589bf	-0.088641636
32	0x3ea4b8e0	0.32172298
33	0x3b8832f2	0.004156464
34	0x3e94860e	0.29008526
35	0xbc13fcbc	-0.009032425
36	0x3e32b0db	0.17450278
37	0xbe35c54e	-0.17751047
38	0xbde713f9	-0.11283106
39	0x3e0ee675	0.139551
40	0xbf19fea1	-0.6015416
41	0xbeb62f46	-0.35582942
42	0xbe66edea	-0.22551695
43	0xbd87fa4f	-0.066395395
44	0xbf1a6192	-0.6030513
45	0xbf268bdb	-0.6505715
46	0xbde39342	-0.111120716
47	0xbc99830b	-0.018739244
48	0xbcd9367a	-0.026515234
49	0x3e1c1730	0.1524322
50	0xbec67f3d	-0.3876895
51	0xbd0aeaf2	-0.033915468
52	0xbdd4c705	-0.103895225
53	0xbe742fa4	-0.23846298
54	0xbeaa75fd	-0.33293143
55	0x3db01b50	0.085989594
56	0x3f102642	0.56308377
57	0xbe2d3703	-0.16915517
58	0x3d94250c	0.07233629
59	0x3eacb748	0.33733582
60	0x3e03f7ca	0.12887493
61	0x3eaeefef	0.3416743
62	0x3f058ce0	0.52168083
63	0x3db55cce	0.08855592
64	0x3e4bbf42	0.19897178
65	0x3d19b515	0.03752621
66	0x3e4f6be7	0.20256005
67	0xbef29920	-0.4738245
68	0xbe2c191f	-0.16806458
69	0xbe1a3429	-0.1505896
70	0xbcdfd323	-0.027322358
71	0xbd84ccf5	-0.06484405
72	0x3eea529f	0.4576616
73	0x3ea75ed9	0.3268955
74	0xbea55b2d	-0.32296124
75	0xbe329865	-0.17440946
76	0x3eddb974	0.43305552
77	0x3e291baa	0.16514459
78	0x3e0aeaf5	0.13566191
79	0xbcb8314a	-0.02248444
80	0xbe697bb8	-0.22801101
81	0xbf0f5c6b	-0.56000394
82	0xbede642d	-0.43435803
83	0x3b751384	0.0037395665
84	0xbe5ccfc5	-0.21563633
85	0xbef34dc8	-0.4752028
86	0xbe952cc3	-0.29135713
87	0xbc9ab5ec	-0.018885575
88	0x3ed5a49d	0.41727152
89	0xbde8c8ad	-0.11366401
90	0x3dff2b92	0.12459482
91	0x3efc4907	0.49274465
92	0x3dc48da0	0.09597325
93	0xbf77c12c	-0.9677913
94	0xbf70e6e4	-0.9410231
95	0x3ced4733	0.028964614
96	0xbf1361cf	-0.5757112
97	0xbe675b86	-0.22593507
98	0x3b228e5d	0.0024804093
99	0xbba0413f	-0.0048905904
100	0x3c88990c	0.016674541
101	0xbd28536b	-0.04109518
102	0xbcf4a468	-0.029863551
103	0xbde93777	-0.11387532
104	0x3ee21332	0.4415527
105	0x3eec2b73	0.461269
106	0x3db6a693	0.0891849
107	0x3ea1ebaa	0.3162511
108	0x3cb62709	0.02223541
109	0x3bc8da68	0.0061295517
110	0x3e3770f8	0.17914188
111	0xbbdbcc26	-0.006707686
112	0x3f057347	0.52129024
113	0xbe896a27	-0.268388
114	0x3ac6c12a	0.0015163769
115	0xbd74194a	-0.05959443
116	0xba2bda1d	-0.0006555634
117	0xbefac47a	-0.48978025
118	0xbea6a5a8	-0.3254826
119	0x3e8de2b5	0.27712026
120	0x3d837270	0.064183116
121	0x3e3e052f	0.18556665
122	0x3d2357e6	0.03987875
123	0x3e8d930c	0.2765125
124	0xbec111e5	-0.37708965
125	0x3e63ef71	0.22259308
126	0x3ca22220	0.019791663
127	0x3c96b8f8	0.018398747
128	0xbf11f9f7	-0.5702204
129	0xbdb46853	-0.08808961
130	0xbe4797ad	-0.19491453
131	0xbd26ad52	-0.040692635
132	0xbda143c0	-0.078742504
133	0xbed8f1e6	-0.42372054
134	0x3e18116f	0.148504
135	0x3de18df6	0.11013405
136	0x3f023cb9	0.50873905
137	0x3e803e9d	0.2504777
138	0x3d8318b6	0.064011976
139	0xbf20c53a	-0.62800944
140	0x3e126d43	0.14299493
141	0xbde1baad	-0.11021934
142	0xbe3f0029	-0.18652405
143	0xbd3c0427	-0.045902397
144	0x3e062d87	0.13103305
145	0x3eb1b508	0.34708428
146	0x3f1540a5	0.58301765
147	0x3d82dbac	0.06389555
148	0x3e05d51b	0.13069575
149	0xbe63b85c	-0.22238296
150	0x3bf7e619	0.0075652716
151	0xbe4e7d6f	-0.20165037
152	0xbd936f7e	-0.07199
153	0x3eb0237d	0.34402075
154	0xbeea05bb	-0.45707497
155	0x3e6bfee1	0.23046447
156	0xbd82e591	-0.063914426
157	0xbe5c1a21	-0.21494342
158	0xbf6b57cf	-0.9193086
159	0xbe7090f1	-0.23492791
160	0xbf2ab284	-0.66678643
161	0xbd5057ce	-0.050864987
162	0x3e15b5a3	0.1462007
163	0xbd0e9805	-0.034812946
164	0xbdddebdf	-0.108360045
165	0xbde2641f	-0.11054253
166	0xbd49d61a	-0.04927645
167	0xbe4002ee	-0.18751118
168	0x3ea886af	0.32915255
169	0x3e91d4d8	0.284827
170	0x3cebdc53	0.028791582
171	0xbdb6e0a8	-0.089295685
172	0xbeec87c0	-0.4619732
173	0xbee568b3	-0.44806442
174	0xbdc3443e	-0.095345005
175	0x3d4e3f66	0.05035343
176	0xbe83326c	-0.25624406
177	0xbd8d6729	-0.06904442
178	0xbe00cc39	-0.12577905
179	0x3da1d4ce	0.079019174
180	0x3ea836b1	0.32854226
181	0xbe32f4fe	-0.1747627
182	0xbe7350e5	-0.23761328
183	0xbf0fe188	-0.5620351
184	0xbe903850	-0.28167963
185	0xbe4db3da	-0.20088139
186	0xbe7cea45	-0.24698742
187	0xbf960f1c	-1.1723361
188	0x3e225b28	0.15855086
189	0x3dfac615	0.122448124
190	0x3ee41f43	0.445551
191	0x3d02a49e	0.031895272
192	0xbf0174ed	-0.5056904
193	0xbdf168ac	-0.11787543
194	0x3d18fec1	0.037352327
195	0xbc32401f	-0.0108795455
196	0x3d748a64	0.059702292
197	0x3cea2ac7	0.028584851
198	0xbd63668c	-0.05551772
199	0xbe055440	-0.1302042
200	0x3eae4f04	0.3404466
201	0x3e2998bf	0.16562174
202	0xbd8eb1e1	-0.069675215
203	0xbebe8a25	-0.3721477
204	0x3d7ef4a6	0.062245034
205	0xbe378313	-0.17921095
206	0xbec8e28d	-0.39235345
207	0xbd08c36e	-0.0333895
208	0x3d1b6217	0.037935343
209	0xbedf52a7	-0.43617746
210	0x3ea6c548	0.3257239
211	0x3d2ce327	0.042208817
212	0x3ea6c209	0.32569912
213	0xbf58893d	-0.8458441
214	0x3ead9baf	0.3390784
215	0x3e07ff88	0.13281071
216	0xbdf7d1e8	-0.12100583
217	0xbe146fd5	-0.14495786
218	0x3e43b753	0.19112901
219	0xbdb843fe	-0.089973435
220	0xbdbd0f2a	-0.09231408
221	0x3f08d871	0.53455263
222	0xbcfa4b54	-0.030553497
223	0xbe02c5d2	-0.12770775
224	0x3dd9bb28	0.106314
225	0x3ec61783	0.38689813
226	0xbec7c8c2	-0.39020354
227	0x3e072ff5	0.13201888
228	0x3eb014c5	0.34390846
229	0xbe82c0dd	-0.25537768
230	0xbda1171e	-0.078657374
231	0xbed3982a	-0.4132703
232	0xbe9b8711	-0.30376485
233	0xbd7b59a3	-0.06136478
234	0x3d9a07ee	0.07521044
235	0xbe9703f6	-0.2949521
236	0x3d9c63a0	0.076361895
237	0xbf20cb27	-0.62809986
238	0xbf082857	-0.53186554
239	0xbf180e81	-0.5939713
240	0x3bd912ae	0.0066245412
241	0xbe75b7bc	-0.2399587
242	0x3de25c66	0.1105278
243	0xbece838d	-0.4033474
244	0xbde2f973	-0.11082735
245	0xbd56e226	-0.052461766
246	0x3ddf3e4b	0.10900553
247	0xbe98ebee	-0.298675
248	0x3eb61dbe	0.35569566
249	0xbe030e3b	-0.12798397
250	0x3ef60920	0.48053837
251	0xbe8eb208	-0.27870202
252	0x3dfef770	0.12449539
253	0x3ed5026d	0.41603413
254	0x3f0fb793	0.5613949
255	0xbe35c544	-0.17751032

encoder.0.fc.bias f4 [16]
0	0x3d52b11f	0.051438447
1	0x3d88c0c0	0.06677389
2	0x3e116c45	0.14201458
3	0x3e53039e	0.20606849
4	0x3d4343b6	0.047671996
5	0x3ea4a5e2	0.3215781
6	0xbdfe1c67	-0.12407761
7	0xbda04a5e	-0.078266844
8	0x3e801e05	0.25022903
9	0x3e996bef	0.2996516
10	0x3eb1c0ce	0.3471741
11	0xbcdb303c	-0.026756398
12	0x3d01e695	0.03171404
13	0xbdfb7771	-0.12278641
14	0x3dc8b403	0.097999595
15	0xbda1097a	-0.07863136

encoder.0.norm.weight f4 [16]
0	0x3f8bd243	1.0923542
1	0x3f882ad1	1.0638067
2	0x3f9a2ec8	1.2045527
3	0x3fa43072	1.2827284
4	0x3f8f862a	1.1212819
5	0x3f9534cc	1.1656737
6	0x3fb590e8	1.4184847
7	0x3f9ef091	1.2417165
8	0x3fae3d8f	1.3612536
9	0x3f773241	0.96561056
10	0x3fa92e85	1.3217322
11	0x3fb04601	1.3771363
12	0x3f9b34de	1.2125509
13	0x3f89f97c	1.0779262
14	0x3f6d51fa	0.9270321
15	0x3f9dbce1	1.2323266

encoder.0.norm.bias f4 [16]
0	0x3e368971	0.17825867
1	0x3dec89fb	0.11549755
2	0x3e4b6606	0.19863138
3	0x3e81defd	0.2536544
4	0x3d61bf46	0.055114053
5	0x3e25ff9a	0.16210786
6	0x3e562842	0.20913795
7	0x3e7f0c1a	0.2490696
8	0x3e894ab1	0.26814798
9	0xbdc14cbd	-0.09438465
10	0x3e0697a1	0.1314378
11	0x3ea3e53d	0.32010832
12	0x3d3e11db	0.046403747
13	0x3e428f82	0.19000056
14	0x3ddcfe66	0.1079071
15	0x3df6c4ab	0.1204923

encoder.0.norm.running_mean f4 [16]
0	0x3f4e5783	0.8060228
1	0xbd9d8ee6	-0.07693271
2	0xbea734a0	-0.32657337
3	0x3f5c0769	0.85948807
4	0x3dcbd3ec	0.0995253
5	0xbe705add	-0.23472162
6	0xbb8c303d	-0.0042782114
7	0xbb96e5da	-0.004605037
8	0xbd43ad41	-0.04777265
9	0xbf8868d4	-1.0656991
10	0x3ed6da26	0.4196331
11	0x3e72990d	0.23691197
12	0xbe6ffd91	-0.23436572
13	0xbf379c67	-0.71723026
14	0xc03364f7	-2.8030374
15	0xbeff11b3	-0.4981819

encoder.0.norm.running_var f4 [16]
0	0x3fdf8da5	1.7465101
1	0x3f006852	0.5015918
2	0x3f44a55c	0.7681482
3	0x3efc296c	0.49250352
4	0x3f1b4a22	0.6065999
5	0x3f5b556e	0.8567723
6	0x3e395798	0.1809982
7	0x3f1550cd	0.5832642
8	0x3f476813	0.7789318
9	0x3f0153a2	0.5051824
10	0x3ec12a74	0.37727702
11	0x403c0f0f	2.938419
12	0x3e7718a4	0.24130493
13	0x3fad0bab	1.3519186
14	0x408714e1	4.2212987
15	0x3ef56590	0.4792905

encoder.1.fc.weight f4 [16, 16]
0	0xbdc115af	-0.09427964
1	0xbe939b21	-0.2882929
2	0x3dd83a49	0.10557992
3	0xbc55e191	-0.0130542675
4	0x3ed98d2a	0.42490512
5	0xbe0d8793	-0.13821249
6	0xbe335a9d	-0.17515035
7	0xbede3e3e	-0.43406862
8	0xbdda830d	-0.10669527
9	0xbe9321e2	-0.28736788
10	0xbe50709b	-0.20355456
11	0xbf0aa975	-0.5416482
12	0xbe84066d	-0.25786152
13	0xbe0adc0a	-0.135605
14	0x3e8898cc	0.26679075
15	0x3dcbbfaa	0.099486664
16	0x3cb5483c	0.02212917
17	0x3d6b0c6f	0.057384904
18	0xbeafecf9	-0.34360483
19	0x3d0ade23	0.033903252
20	0x3d83e4be	0.064401135
21	0xbe8f2a7b	-0.27962098
22	0xbe513da2	-0.20433667
23	0x3dee1ef7	0.11627
24	0xbe7ca17d	-0.24670978
25	0xbed772fd	-0.42079917
26	0x3c3c51a3	0.011494073
27	0xbf1e5743	-0.618519
28	0xbc1d574c	-0.009603333
29	0x3eb1ec99	0.34750822
30	0xbbf097bb	-0.0073423064
31	0x3c05e4f4	0.008172262
32	0xbe2311ea	-0.15924802
33	0xbf12a51d	-0.5728319
34	0xbe6b7273	-0.22992878
35	0x3d3aa897	0.045570936
36	0xbce105ee	-0.027468648
37	0xbecbdc35	-0.39816442
38	0xbe94520a	-0.2896884
39	0xbe4c873f	-0.19973467
40	0x3ef594b7	0.47965023
41	0xbe75661e	-0.23964736
42	0x3e52a1ff	0.20569609
43	0xbca0d2c2	-0.019631747
44	0x3d182e0c	0.03715329
45	0xbe73ddbb	-0.23815052
46	0xbeb2d699	-0.3492935
47	0xbe19ea90	-0.15030885
48	0xbeb85c08	-0.36007714
49	0xbe0fbf28	-0.14037764
50	0xbf1a7ae1	-0.6034375
51	0xbd092004	-0.033477798
52	0x3ee87b65	0.45406643
53	0xbde65bfa	-0.11248012
54	0xbe81433c	-0.25246608
55	0xbba9b93d	-0.005179553
56	0xbea9c959	-0.3316143
57	0xbeb5a4bf	-0.35477254
58	0x3e3b976f	0.18319486
59	0xbf0816ed	-0.5315998
60	0xbe4f6ae2	-0.20255616
61	0x3dbf8a45	0.09352545
62	0x3ecc7b0a	0.3993762
63	0x3e0f18ad	0.13974257
64	0x3c5dabd5	0.0135297375
65	0xbee5fff4	-0.4492184
66	0xbef82514	-0.48465788
67	0xbdea77cc	-0.11448631
68	0x3e72facf	0.23728488
69	0xbead2d06	-0.33823413
70	0xbd99a348	-0.075018466
71	0x3e91721c	0.2840737
72	0xbe7e8ba3	-0.24857955
73	0xbf13bb46	-0.5770763
74	0x3cee8a37	0.02911864
75	0xbf115bed	-0.5678089
76	0xbe267f78	-0.16259563
77	0xbde32705	-0.11091427
78	0x3d008164	0.031373397
79	0xbd8bf8ee	-0.06834589
80	0xbe8d0a5a	-0.2754696
81	0xbe8fc0aa	-0.2807668
82	0xbd873655	-0.0660216
83	0xbd8a20f5	-0.06744567
84	0x3d740bcf	0.059581574
85	0xbe3e8084	-0.18603712
86	0x3c0da378	0.008644931
87	0x3e9a8d5a	0.30185968
88	0xbe8b321e	-0.27186674
89	0xbd008e1b	-0.031385522
90	0xbeb6f03c	-0.3573016
91	0x3f393936	0.7235292
92	0xbe6a2dce	-0.22869036
93	0xbe561933	-0.2090805
94	0x3de70d72	0.11281861
95	0x3d4666fa	0.04843805
96	0xbed4471d	-0.41460505
97	0xbf0035b6	-0.50081956
98	0x3c92cbd6	0.017919462
99	0xbc80571f	-0.015666543
100	0x3cb4765e	0.022029098
101	0xbeb3f9c5	-0.35151497
102	0xbe15238e	-0.14564344
103	0xbdc06b2e	-0.09395443
104	0xbed78960	-0.42096996
105	0x3e8b02d3	0.27150592
106	0xbe5f6eb8	-0.2181958
107	0xbf3d84b5	-0.7403062
108	0xbed99461	-0.42496017
109	0xbe8753fd	-0.26431265
110	0xbde08b3d	-0.109640576
111	0xbd1747f5	-0.036933858
112	0x3e4eee1a	0.20208016
113	0xbf2750ef	-0.6535787
114	0xbe8e31d4	-0.2777239
115	0xbdb0d68b	-0.08634671
116	0x3cc23eb4	0.02371154
117	0x3c802e55	0.015647093
118	0xbdf1440d	-0.11780558
119	0xbbba7693	-0.0056904047
120	0xbd0cc0b2	-0.034363456
121	0x3e894ed4	0.26817954
122	0x3e0e4c5c	0.13896316
123	0xbddcd314	-0.107824475
124	0xbef08115	-0.46973482
125	0xbecc877a	-0.3994711
126	0xbeaad48e	-0.3336529
127	0xbd3d23f3	-0.046176862
128	0x3deb82ac	0.11499533
129	0xbe0ef4a7	-0.13960515
130	0xbe4260a9	-0.18982185
131	0xbd4b452a	-0.049626507
132	0xbe2c6922	-0.1683698
133	0xbc0402c0	-0.008057296
134	0xbd19a550	-0.03751117
135	0x3d987441	0.07444049
136	0xbf2939c9	-0.661038
137	0x3e20f20b	0.15717332
138	0xbf00e216	-0.5034498
139	0x3e50718c	0.20355815
140	0xbea35971	-0.31904176
141	0x3d17a495	0.037022192
142	0xbf0361a6	-0.51320875
143	0x3d564a77	0.05231711
144	0x3d2a870a	0.04163269
145	0xbded6e4c	-0.11593303
146	0x3eb0574e	0.34441608
147	0x3d17a225	0.037019867
148	0x3ea5cbfd	0.32382193
149	0x3ed5d770	0.41765928
150	0xbf20ad25	-0.627642
151	0xbea1877f	-0.31548688
152	0xbeb70e5b	-0.3575314
153	0xbed58383	-0.41701898
154	0xbebcebde	-0.36898702
155	0xbe7c2d30	-0.24626613
156	0xbe1c38bf	-0.15256022
157	0xbe2d2d0e	-0.16911718
158	0xbda5cc58	-0.08095616
159	0xbe28041e	-0.1640782
160	0xbeae3581	-0.34025195
161	0xbefa3274	-0.48866618
162	0xbf0e07d9	-0.55480725
163	0x3b0d280e	0.0021538767
164	0xbdad8396	-0.08472364
165	0xbe58a119	-0.21155204
166	0xbedd9d4d	-0.43284073
167	0xbc83b278	-0.016076311
168	0x3edffa36	0.43745583
169	0xbed8acbd	-0.4231929
170	0x3e7f83b1	0.2495258
171	0x3e074a8f	0.13212036
172	0x3d87bc9a	0.0662777
173	0xbe05f197	-0.1308044
174	0xbdf9d851	-0.12199462
175	0xbdc6a899	-0.09700126
176	0xbd99aebd	-0.07504032
177	0xbe9504a3	-0.291051
178	0xbddaa7ea	-0.10676558
179	0xbd8a8cce	-0.067651376
180	0x3f122353	0.5708515
181	0x3d92eb7e	0.07173823
182	0x3d4c5552	0.049886055
183	0x3eba7f48	0.36425233
184	0xbe5a2d42	-0.21306327
185	0x3c7ac9e4	0.015306924
186	0x3ec2b1d2	0.3802629
187	0x3d7bb338	0.061450213
188	0xbeb4dae3	-0.35323247
189	0x3f019603	0.50619525
190	0x3e4f6305	0.20252617
191	0xbe7dedac	-0.24797696
192	0xbf2cf446	-0.6756023
193	0xbd94c7f3	-0.072647
194	0xbf231a46	-0.63711965
195	0xbd1aa8ed	-0.037758756
196	0x3e0c30e9	0.13690533
197	0x3df52ff1	0.11972035
198	0x3d447436	0.04796239
199	0x3e92ec33	0.2869583
200	0xbf02aa4c	-0.510411
201	0xbc0dbcfb	-0.0086510135
202	0xbef86447	-0.48514006
203	0x3dcf3bfa	0.101188615
204	0xbdc87ee9	-0.09789831
205	0xbe47716f	-0.19476865
206	0xbe478603	-0.19484715
207	0x3c2f784e	0.010709835
208	0xbe91da9f	-0.28487107
209	0xbcb00a8a	-0.0214894
210	0xbf10cdd0	-0.56564045
211	0xbe877b78	-0.26461387
212	0x3e7dd7cd	0.24789353
213	0xbe16b4f0	-0.1471746
214	0xbdca6092	-0.098817006
215	0x3e8121de	0.2522115
216	0xbdce6960	-0.100786924
217	0xbe093eb7	-0.1340283
218	0xbed5964c	-0.4171623
219	0xbe5e71a3	-0.21723036
220	0xbee1d930	-0.44111013
221	0x3e525959	0.20541896
222	0xbe519ae3	-0.20469241
223	0x3d31d27b	0.04341362
224	0xbea57d3c	-0.3232211
225	0xbe912f4d	-0.283564
226	0xbe9cc471	-0.30618623
227	0x3cc0a633	0.02351675
228	0xbe1b8acb	-0.15189664
229	0xbe06321b	-0.13105051
230	0xbed16708	-0.4089892
231	0x3da250cb	0.07925566
232	0x3d0eb727	0.034842636
233	0xbee54fe1	-0.44787505
234	0xbeafd2fa	-0.3434065
235	0x3e1d5783	0.15365414
236	0xbee3a5ae	-0.4446234
237	0x3e107562	0.14107278
238	0xbd470212	-0.04858596
239	0x3e0c6ce0	0.13713408
240	0xbdc26837	-0.09492534
241	0x3e119f61	0.14220954
242	0xbea7171e	-0.32634825
243	0xbd688757	-0.056769695
244	0x3efa96ef	0.48943278
245	0x3c708a72	0.014681445
246	0xbe8f2483	-0.27957544
247	0xbdb21895	-0.08696095
248	0xbeb54aed	-0.35408726
249	0xbe9118a2	-0.28339106
250	0x3e4b219b	0.19837038
251	0x3eaa3b7c	0.33248508
252	0xbe247d0f	-0.16063331
253	0xbe0ba2f6	-0.13636383
254	0x3e86f3b6	0.26357812
255	0x3c71fb2a	0.014769355

encoder.1.fc.bias f4 [16]
0	0x3e9a2653	0.30107364
1	0x3e62abc2	0.22135833
2	0x3e8261ad	0.25465146
3	0x3e92fbdf	0.28707787
4	0xbcac312e	-0.021019544
5	0x3eb8a866	0.36065978
6	0x3e6c9c12	0.23106411
7	0x3e5b242d	0.21400519
8	0x3ef78c98	0.48349452
9	0x3eaa8ef2	0.33312184
10	0x3ebea4fa	0.37235242
11	0x3e4cab18	0.19987142
12	0x3f1bff10	0.6093607
13	0x3dff5d40	0.12468958
14	0x3dfc3e69	0.12316591
15	0x3c8655c6	0.016398322

encoder.1.norm.weight f4 [16]
0	0x3fa422fe	1.2823179
1	0x3fa2d255	1.2720438
2	0x3fa42f30	1.28269
3	0x3fb79f86	1.4345558
4	0x3f8b609e	1.088886
5	0x3faa9d82	1.3329318
6	0x3faf1f70	1.3681469
7	0x3fb06516	1.3780849
8	0x3fa2bf94	1.2714715
9	0x3f9c656e	1.2218454
10	0x3fa0eedd	1.2572895
11	0x3fa65f5a	1.2997849
12	0x3fa20bb7	1.2659825
13	0x3f99f876	1.2028949
14	0x3fa14d7c	1.2601771
15	0x3f8d2c17	1.102908

encoder.1.norm.bias f4 [16]
0	0x3e4da8d8	0.2008394
1	0x3dde9e7e	0.10870074
2	0x3e636403	0.2220612
3	0x3e845123	0.25843152
4	0xbca18fa3	-0.019721812
5	0x3e4891af	0.19586824
6	0x3eb75eeb	0.35814604
7	0x3e68d0d2	0.22735909
8	0x3e116f29	0.1420256
9	0x3decff02	0.115720764
10	0x3e747251	0.23871733
11	0x3eaaa7e3	0.33331212
12	0x3d56ceda	0.052443363
13	0x3dcfa200	0.10138321
14	0x3dd7806a	0.1052254
15	0x3e2593c2	0.16169646

encoder.1.norm.running_mean f4 [16]
0	0xbef4e8bb	-0.4783381
1	0xbf33583c	-0.7005651
2	0xbfca21df	-1.5791587
3	0xbe515524	-0.20442635
4	0xbffaf4e7	-1.9605988
5	0x3e47e6bd	0.19521613
6	0xc0116537	-2.2718027
7	0xbf9f86a6	-1.2462966
8	0xbf1e7f1d	-0.6191271
9	0xbfca65f8	-1.5812368
10	0xbf85b710	-1.0446491
11	0xbe4704cb	-0.19435422
12	0xbf3daaf6	-0.7408899
13	0xbf816182	-1.0107882
14	0xbf01f31c	-0.5076158
15	0xbe3d5855	-0.18490727

encoder.1.norm.running_var f4 [16]
0	0x3f4c96a8	0.79917383
1	0x3ee74903	0.4517289
2	0x3fc0df2e	1.5068109
3	0x3f87c1ec	1.0606055
4	0x3f1a0678	0.6016612
5	0x3efb0e42	0.49034315
6	0x3f6a6340	0.91557693
7	0x3f0dca1d	0.55386525
8	0x3f9de7dc	1.2336383
9	0x3f8b37da	1.087642
10	0x3fe2bd7f	1.771408
11	0x3fab0d68	1.3363466
12	0x3f228273	0.634803
13	0x3eeec31d	0.46633235
14	0x3f22a432	0.6353179
15	0x3f7085c5	0.93954116

encoder.2.weight f4 [32, 16]
0	0xbe89fdac	-0.2695135
1	0xbe6115db	-0.21980993
2	0xbea94575	-0.33060804
3	0xbe99520c	-0.2994541
4	0x3e57ce45	0.2107478
5	0x3e0d457a	0.13796034
6	0xbb38187c	-0.0028090766
7	0xbecf3592	-0.40470558
8	0xbe3457ac	-0.17611569
9	0xbeb00101	-0.34375766
10	0xbf29f94d	-0.6639603
11	0xbe3e4c38	-0.18583763
12	0xbf0b5228	-0.54422235
13	0xbd3e2428	-0.0464212
14	0xbe2166a6	-0.15761814
15	0x3e5ee6b2	0.21767691
16	0xbf4eef46	-0.8083385
17	0xbe09d6d4	-0.13460857
18	0x3e183640	0.14864445
19	0xbddf7e71	-0.10912789
20	0xbc5710ef	-0.013126596
21	0xbe723b53	-0.23655443
22	0xbe900b24	-0.281335
23	0xbe2fff46	-0.17187223
24	0x3e610a37	0.21976553
25	0x3e1637b2	0.14669684
26	0xbf0e59bf	-0.5560569
27	0xbdc7c025	-0.097534455
28	0xbf1727be	-0.59045017
29	0x3db4b02b	0.08822664
30	0x3e2e52aa	0.17023721
31	0x3eb31495	0.3497664
32	0x3e041769	0.12899555
33	0xbde44363	-0.111456655
34	0xbe9401cc	-0.2890762
35	0xbc96aa09	-0.018391626
36	0x3e8daf85	0.27672973
37	0x3e970f3e	0.29503816
38	0xbe5036c2	-0.20333388
39	0xbc6488dc	-0.013948645
40	0x3eb1e731	0.34746698
41	0x3e38549e	0.18001029
42	0x3d0352d2	0.032061405
43	0x3e427942	0.18991569
44	0x3d14d9ac	0.0363404
45	0xbd7aa05c	-0.061188087
46	0xbed1688a	-0.4090007
47	0xbdf86206	-0.121280715
48	0xbe13c66a	-0.14431158
49	0xbebd9694	-0.37028944
50	0xbdf44e68	-0.11929017
51	0xbe748198	-0.23877561
52	0x3d27e6a7	0.04099145
53	0x3db934f5	0.09043304
54	0xbe911ae4	-0.28340828
55	0xbe90b1a6	-0.28260535
56	0xbe81df81	-0.25365832
57	0x3dfd877c	0.12379357
58	0xbe005541	-0.12532522
59	0xbf07afef	-0.5300283
60	0x3ae47cf8	0.0017432263
61	0x3e928d67	0.28623506
62	0x3e2a721e	0.16645095
63	0x3ee1391a	0.43988878
64	0xbf3237f0	-0.69616604
65	0xbeec8686	-0.46196383
66	0x3de8a00f	0.11358654
67	0x3b011e45	0.001970188
68	0x3e1f639a	0.15565339
69	0xba58c180	-0.000826858
70	0xbedb52a0	-0.42836475
71	0xbe9474b9	-0.28995302
72	0xbeb7375e	-0.3578443
73	0xbe738dbb	-0.23784535
74	0xbea9ae53	-0.3314081
75	0xbef30eb1	-0.47472146
76	0xbe7a1a78	-0.2442416
77	0x3e8f3c11	0.27975515
78	0xbc5a8bb5	-0.013338973
79	0x3e396009	0.18103041
80	0x3f077c70	0.5292425
81	0x3e8f1603	0.2794648
82	0xbe2df7cc	-0.16989058
83	0x3eb215c8	0.34782243
84	0x3d2eecef	0.042706426
85	0x3e457d8c	0.19286174
86	0x3eb862d0	0.36012888
87	0x3e9e148b	0.30875048
88	0x3e8b3937	0.2719209
89	0xbe0f31d0	-0.13983846
90	0x3e0d5f0c	0.13805789
91	0x3f0723b7	0.5278887
92	0x3eb17fb5	0.34667745
93	0xbeb4f3dc	-0.353423
94	0xbea5c821	-0.3237925
95	0xbe446fdb	-0.19183294
96	0x3e39cf9b	0.18145601
97	0xbd067105	-0.032822628
98	0xbead12f3	-0.3380352
99	0xbe5c4cab	-0.21513622
100	0x3e4eb8f9	0.20187749
101	0x3dae93e0	0.08524299
102	0x3e852246	0.2600271
103	0x3e5170d4	0.20453197
104	0x3e79e2f1	0.24402978
105	0x3d66fa4f	0.056391057
106	0x3f124d12	0.5714885
107	0x3cb6b850	0.022304684
108	0x3e9a8626	0.30180472
109	0xbdda0407	-0.106452994
110	0xbe95c813	-0.29254207
111	0x3cde8c01	0.027166368
112	0x3d6e6674	0.058203176
113	0x3e7b2740	0.24526691
114	0xbe06d75e	-0.13168094
115	0x3eff649e	0.49881452
116	0xbe3bd2b2	-0.18342093
117	0x3e5f652e	0.2181594
118	0x3ed2b5fc	0.41154468
119	0x3e994a1d	0.29939356
120	0x3ec1abe0	0.37826443
121	0x3c5aa8d8	0.01334592
122	0x3d8e9cbd	0.06963489
123	0x3e898efb	0.26866898
124	0xba791339	-0.00095014606
125	0xbd839403	-0.06424715
126	0x3ea15824	0.31512558
127	0x3d6e1ad5	0.058131058
128	0xbe677a5c	-0.2260527
129	0xbe9037f8	-0.281677
130	0x3d0cb2ec	0.03435032
131	0xbe344860	-0.17605734
132	0x3ea66ff8	0.325073
133	0x3e604241	0.21900274
134	0xbe9d496f	-0.30720088
135	0xbeac1706	-0.33611315
136	0xbe6b6633	-0.22988205
137	0x3e479baa	0.19492975
138	0xbe305d89	-0.17223181
139	0xbeeaecf6	-0.45883912
140	0xbe808cf6	-0.25107545
141	0xbdeaa421	-0.11457086
142	0xbe328289	-0.17432608
143	0x3dc2c076	0.09509365
144	0x3deb7486	0.114968345
145	0x3e7d9a0a	0.24765792
146	0x3dbaaeaf	0.091153495
147	0x3e2f1aad	0.1710002
148	0xbec26312	-0.3796621
149	0x3dde0a85	0.1084185
150	0x3ddaa4bf	0.10675954
151	0x3ea49eb9	0.32152346
152	0xbebdac8d	-0.37045708
153	0xbeacfb53	-0.33785495
154	0x3f1fed85	0.624718
155	0x3f058aca	0.521649
156	0x3e9ca4f0	0.30594587
157	0x3e5f0ed7	0.21783005
158	0x3ea47a10	0.32124376
159	0xbcd4dac5	-0.025983224
160	0x3e0fee20	0.14055681
161	0x3e7a20ba	0.24426547
162	0xbe9f3305	-0.31093612
163	0xbe04ce8c	-0.12969416
164	0xbe90b5c9	-0.2826369
165	0xbe701f3a	-0.23449412
166	0x3e925025	0.2857677
167	0x3ed5ee59	0.41783407
168	0x3c4c72d8	0.012478553
169	0x3e3fe933	0.18741302
170	0xbc7ca5fd	-0.015420434
171	0x3e9de1ee	0.30836433
172	0x3edb9ff9	0.42895487
173	0xbd895cad	-0.067071296
174	0xbea89638	-0.32927108
175	0xbdf00478	-0.11719602
176	0x3e5eacac	0.21745557
177	0x3dc33187	0.09530931
178	0x3e1fdf61	0.15612556
179	0x3e97ff0e	0.2968678
180	0xbe06d904	-0.13168722
181	0x3ea9ae33	0.33140716
182	0x3f1267e2	0.5718976
183	0xbc588d4f	-0.013217284
184	0xbe73dfc7	-0.23815833
185	0xbdecc566	-0.11561088
186	0x3e25ebab	0.16203181
187	0x3de8bfa1	0.11364675
188	0x3eb80934	0.3594452
189	0x3e44cc9d	0.19218679
190	0x3eb782cc	0.35841978
191	0xbbd47a94	-0.006484339
192	0xbf341b5d	-0.70354253
193	0xbf001a74	-0.50040364
194	0x3e567127	0.20941602
195	0xbc190e41	-0.009341777
196	0x3d89feb5	0.06738035
197	0x3e4d35b5	0.20040019
198	0xbd5956c4	-0.05306126
199	0xbd6d5326	-0.057940625
200	0xbe8d7a04	-0.27632153
201	0x3e5311ac	0.2061221
202	0xbef26d42	-0.47348982
203	0xbea8e636	-0.32988137
204	0xbee3ae1c	-0.44468772
205	0xbe0b7d53	-0.13622026
206	0xbd4dc02d	-0.0502321
207	0x3dc65be4	0.096854955
208	0x3f1c40b5	0.61036235
209	0x3e8a169f	0.26970384
210	0x3e85fdda	0.26170236
211	0xbddef317	-0.108862095
212	0xbe92126f	-0.2852969
213	0x3dc252ab	0.09488424
214	0x3ea8b148	0.32947755
215	0x3e895feb	0.26830992
216	0x3d262412	0.040561743
217	0x3b1f5d7d	0.0024317198
218	0x3e820ad7	0.25398895
219	0x3f056b8f	0.52117246
220	0x3e7e77de	0.24850413
221	0x3e8d6b2c	0.27620828
222	0x3e712c73	0.23552112
223	0x3e1303ab	0.14356868
224	0x3eb50a6d	0.35359517
225	0x3e19025e	0.1494231
226	0x3e2a1c7a	0.16612425
227	0x3b9b1f63	0.004733966
228	0xbe9038aa	-0.2816823
229	0xbd3ad6f0	-0.045615137
230	0x3e192b3e	0.14957902
231	0x3d860216	0.065433666
232	0x3e2e80a1	0.17041256
233	0xbd0ce431	-0.034397308
234	0x3f0ea318	0.5571761
235	0x3d9f73bd	0.07785747
236	0x3ebf706d	0.37390462
237	0x3d07cba9	0.03315321
238	0x3e850890	0.25983095
239	0x3e4d5546	0.2005206
240	0xbf4a943c	-0.7913244
241	0xbe99db03	-0.30049905
242	0xbe1bba59	-0.15207805
243	0xbef28d61	-0.4737349
244	0xbe9a0cbe	-0.30087847
245	0x3d7edc0e	0.06222158
246	0xbe25c304	-0.16187674
247	0xbecba015	-0.3977057
248	0x3e20aa11	0.15689875
249	0x3ce337db	0.027736595
250	0xbf0b107e	-0.5432204
251	0x3b5c35b0	0.0033601336
252	0xbee04ecb	-0.43810114
253	0xbda75836	-0.08171122
254	0xbde78490	-0.11304581
255	0x3dfdf9c7	0.12401157

encoder.2.bias f4 [32]
0	0xbea6e1e4	-0.32594216
1	0xbea41076	-0.3204381
2	0xbcbe77b3	-0.023250436
3	0xbe887c71	-0.2665744
4	0xbe9b639e	-0.3034944
5	0x3ea361cc	0.3191055
6	0x3e283b62	0.16428903
7	0x3e92efeb	0.28698668
8	0xbea61d95	-0.32444444
9	0x3e7f3a3e	0.24924561
10	0x3e75a210	0.23987603
11	0x3e963cb1	0.2934318
12	0xbe6b92c6	-0.23005208
13	0x3e96c827	0.2944958
14	0x3e8fa927	0.2805874
15	0xbeab239d	-0.33425608
16	0xbe4dbdd9	-0.20091952
17	0xbe85ee9e	-0.26158613
18	0xbe855783	-0.2604333
19	0xbe8c9764	-0.27459252
20	0x3dedc715	0.116102375
21	0x3e355bf3	0.17710857
22	0x3dc03066	0.09384231
23	0x3e98cc31	0.29843286
24	0xbe9f046a	-0.31058055
25	0x3e392850	0.18081784
26	0x3e7778ed	0.24167223
27	0xbe9c7067	-0.30554506
28	0x3e07a7d7	0.1324762
29	0xbeaeda98	-0.3415115
30	0x3e8af0b6	0.27136773
31	0xbe7158e5	-0.23569067

nee_decoder.0.fc.weight f4 [16, 32]
0	0xbd81859d	-0.06324313
1	0x3e814a23	0.25251874
2	0x3ea34862	0.3189116
3	0xbe8dd41d	-0.27700892
4	0xbd901c90	-0.07036698
5	0x3db4cd8a	0.08828266
6	0xbc967a2f	-0.018368809
7	0x3d6ffcb1	0.058590595
8	0xbd8cd283	-0.068760894
9	0xbdfb5d4d	-0.12273655
10	0xbda32f53	-0.07968011
11	0x3d0d89fc	0.03455542
12	0xbd911e58	-0.07085866
13	0xbc5a6602	-0.013329985
14	0xbe7c9c91	-0.246691
15	0x3e85c5e3	0.26127538
16	0xbe07e434	-0.13270646
17	0xbe82abf6	-0.2552182
18	0xbe79b1d7	-0.24384247
19	0x3e5086e2	0.20363954
20	0xbebe400e	-0.37158245
21	0x3e9428f5	0.28937498
22	0x3e9829e8	0.29719472
23	0x3d8ab919	0.06773586
24	0xbe86e3d1	-0.26345685
25	0x3baeae90	0.005330868
26	0x3ed6761c	0.41886985
27	0xbe770e69	-0.24126591
28	0xbe394c85	-0.18095596
29	0xbe926b3f	-0.28597447
30	0xbe36d9e0	-0.1785655
31	0xbe09aca5	-0.13444765
32	0x3eab0f38	0.33410048
33	0x3e216e9c	0.1576485
34	0xbe9d87d7	-0.307677
35	0x3e89eb48	0.26937318
36	0x3d077b78	0.033076733
37	0x3e34aa14	0.17643005
38	0x3e619fe7	0.22033654
39	0xbe0b2e81	-0.13591959
40	0x3e1ec322	0.15504125
41	0x3edcf6bd	0.43156996
42	0xbe7a78d2	-0.24460152
43	0xbe824cee	-0.25449318
44	0x3e1c0351	0.1523564
45	0xbdbf09cd	-0.09328041
46	0x3d42a2cc	0.047518536
47	0xbe272591	-0.16322924
48	0xbe8aea3a	-0.27131826
49	0x3e5a5212	0.2132037
50	0x3d68e4d5	0.056858856
51	0x3e142eb7	0.14470945
52	0x3af97724	0.0019032699
53	0xbce5a559	-0.028032945
54	0x3eaaa09d	0.33325663
55	0xbea503b1	-0.3222938
56	0x3eb7d3fa	0.35903913
57	0x3d591db2	0.053006835
58	0x3e7bd695	0.24593575
59	0x3e7d87be	0.24758813
60	0x3e9fa20c	0.3117832
61	0x3dbe631e	0.09296249
62	0x3dbff40c	0.0937272
63	0xbe355546	-0.1770831
64	0xbaad8c3b	-0.0013240644
65	0xbe5b6805	-0.21426399
66	0x3d8dc72b	0.06922754
67	0x3e03912b	0.12848346
68	0xbe17d65a	-0.14827862
69	0x3d5f6942	0.05454374
70	0x3cdec0e5	0.027191589
71	0x3c662df4	0.014049042
72	0x3d1d488f	0.038399275
73	0xbeba9985	-0.3644525
74	0x3d87ca23	0.066303514
75	0x3e9756ba	0.29558355
76	0x3eea11a7	0.45716593
77	0x3eb0972a	0.3449033
78	0x3e481e4f	0.19542812
79	0x3eeee14c	0.46656263
80	0x3db8c74d	0.090223886
81	0xbeb9b143	-0.36268052
82	0x3e4555b6	0.19270977
83	0x3e5e1df7	0.21691118
84	0x3e75e1a6	0.2401186
85	0x3e592de9	0.2120892
86	0x3c9155a2	0.017741028
87	0x3dc0054a	0.09376009
88	0xbe8ceb0f	-0.27523085
89	0x3e1e0560	0.15431738
90	0xbe63b766	-0.2223793
91	0xbe8fcd5f	-0.28086373
92	0x3ea9d202	0.33168036
93	0x3d8fe080	0.07025242
94	0x3ed8289c	0.42218482
95	0x3e2d1b3b	0.16904919
96	0x3e7c108c	0.24615687
97	0x3b38f9df	0.0028225107
98	0x3e8797e3	0.26483068
99	0x3e42bb1b	0.19016688
100	0xbcc893aa	-0.024484474
101	0xbdd592a0	-0.10428357
102	0xbe822e99	-0.25426176
103	0xbd03e399	-0.032199476
104	0x3debc427	0.115120225
105	0x3ebb31a8	0.36561322
106	0x3e651860	0.2237258
107	0xbe3674ac	-0.17817944
108	0x3e10c6d3	0.14138345
109	0xbe31b262	-0.17353204
110	0xbe99a8df	-0.3001165
111	0xbe6472b4	-0.22309381
112	0x3d6f2021	0.05838025
113	0x3dc28715	0.09498421
114	0xbd3c0104	-0.045899406
115	0x3ea5fecc	0.32420957
116	0x3f167abb	0.5878102
117	0x3c1e1b61	0.009650082
118	0xbe9b722d	-0.30360547
119	0x3d5411e0	0.05177486
120	0x3e19c5af	0.15016817
121	0x3e44cca3	0.19218688
122	0xbdca0051	-0.098633416
123	0xbe94e019	-0.29077223
124	0x3e0bebe9	0.13664211
125	0x3db012cd	0.08597336
126	0x3c2ee500	0.010674715
127	0x3cbb6362	0.022874538
128	0x3e1b1911	0.15146281
129	0x3e1e9e08	0.15489972
130	0xbe5e69eb	-0.21720092
131	0x3d3c0ae0	0.04590881
132	0x3da8cc86	0.08242135
133	0x3dc2a845	0.09504751
134	0xbd391907	-0.045189884
135	0xbe1ec3bb	-0.15504353
136	0x3e7b6267	0.24549256
137	0x3df6a1aa	0.12042554
138	0x3ec0df20	0.3767023
139	0xbe89a3a4	-0.2688266
140	0x3d193eb7	0.037413325
141	0x3ea1dcbc	0.3161372
142	0x3eb705e4	0.35746682
143	0xbe56b409	-0.20967115
144	0x3dcff8de	0.101548895
145	0x3e3ba28e	0.18323728
146	0x3ee436bc	0.4457301
147	0xbda480c4	-0.080323726
148	0xbda7db63	-0.081961416
149	0x3e643c8b	0.2228872
150	0x3e60df59	0.219602
151	0xbd87cae6	-0.06630497
152	0x3e0e1586	0.13875398
153	0xbe8e70a8	-0.27820325
154	0x3edde903	0.43341836
155	0x3e2efaec	0.17087907
156	0x3d90bf99	0.07067794
157	0xbe4edb71	-0.20200898
158	0x3e64ac29	0.22331299
159	0x3d8cb112	0.06869711
160	0x3e0198fb	0.12656014
161	0xbde7aec4	-0.11312631
162	0x3c848761	0.016177835
163	0x3e9c0ef5	0.3048016
164	0xbe5f198d	-0.2178709
165	0x3c34d9b6	0.011038234
166	0x3d851f05	0.06500057
167	0xbd8957f3	-0.06706228
168	0xbeca2761	-0.3948317
169	0x3d223ad2	0.039606877
170	0xbeaa1829	-0.33221558
171	0xbe17a059	-0.14807262
172	0xbf377ecf	-0.7167787
173	0xbe2cfa6c	-0.16892403
174	0x3e1af773	0.15133457
175	0xbea3d5e9	-0.31999138
176	0xbf0e0414	-0.5547497
177	0x3e5d8a4a	0.21634784
178	0xbecd0c8c	-0.40048635
179	0x3e8db220	0.2767496
180	0xbd47963d	-0.048727263
181	0xbdcd7ceb	-0.10033592
182	0xbe484efa	-0.19561377
183	0xbe5405a9	-0.20705284
184	0x3ead760a	0.3387912
185	0xbde734b5	-0.1128935
186	0x3de27f1f	0.11059403
187	0xbc74e3cc	-0.014946889
188	0x3d4494e6	0.047993563
189	0x3c53a6cd	0.012918186
190	0xbe19145f	-0.14949177
191	0x3da409d1	0.08009685
192	0x3e766cd4	0.24064952
193	0xbe09a5cd	-0.13442154
194	0xbeb0b8ad	-0.34515896
195	0x3e003f44	0.12524134
196	0xbe2c6cff	-0.16838454
197	0x3cfcf6f2	0.030879471
198	0x3dcd2486	0.10016732
199	0x3d8560f8	0.06512636
200	0xbd13426f	-0.035952028
201	0xbed04dea	-0.40684444
202	0xbe556c28	-0.2084204
203	0xbe8206b4	-0.2539574
204	0xbeb1f896	-0.3475997
205	0xbce07cb9	-0.027403222
206	0x3d61ef2b	0.05515973
207	0xbd6e96e1	-0.058249358
208	0xbe164e1b	-0.14678232
209	0xbe2feb40	-0.17179585
210	0x3eb75780	0.35808945
211	0xbe9dd12b	-0.30823645
212	0x3e5d5615	0.21614869
213	0x3e23f98b	0.16013162
214	0x3e69c532	0.2282913
215	0x3da7a864	0.08186415
216	0xbe419079	-0.18902768
217	0xbde8abad	-0.113608696
218	0x3d3a4d95	0.045484144
219	0xbe24f8a0	-0.16110468
220	0x3eb45997	0.35224602
221	0x3e1a436e	0.15064785
222	0x3d83ef8e	0.06442176
223	0x3d5bc59d	0.053655256
224	0x3dbfb255	0.09360186
225	0xbb98800d	-0.0046539367
226	0x3c50dac2	0.012747468
227	0xbe6f8c68	-0.23393404
228	0xbeafde82	-0.34349447
229	0xbded7f58	-0.115965545
230	0xbdc4fe69	-0.096188374
231	0xbe0171ad	-0.1264102
232	0xbe9a5a36	-0.3014695
233	0xbec747d4	-0.38921988
234	0xbe0eab5f	-0.1393256
235	0xbda2331f	-0.07919907
236	0x3e395035	0.18097003
237	0xbe88271b	-0.26592335
238	0x3ec22ad8	0.37923312
239	0xbe8a276b	-0.269832
240	0x3dd9e402	0.10639192
241	0x3ec570bb	0.3856257
242	0xbe0080dd	-0.12549157
243	0x3bcb19e0	0.006198153
244	0x3db7362e	0.08945881
245	0xbe4001d6	-0.187507
246	0x3e0167dd	0.12637277
247	0xbe4fff59	-0.20312251
248	0xbcb721a9	-0.022354918
249	0xbe3043c9	-0.17213358
250	0xbdaf9490	-0.08573258
251	0xbdc1ea23	-0.09468486
252	0x3e70d2dc	0.23517936
253	0x3e59c499	0.21266402
254	0xbe0f1176	-0.13971505
255	0xbe4d5cab	-0.20054881

nee_decoder.0.fc.bias f4 [16]
0	0x3dcab4eb	0.098977886
1	0x3e519a8f	0.20469116
2	0xbe0fe457	-0.14051948
3	0xbd60f927	-0.05492511
4	0x3e4f5af4	0.2024954
5	0x3e5d26e5	0.21596868
6	0x3e20ac10	0.15690637
7	0xbd804217	-0.06262606
8	0xbd0681d8	-0.032838672
9	0xbde4c0fd	-0.11169622
10	0xbe657374	-0.22407323
11	0xbd443ee8	-0.047911555
12	0x3d9c2ec9	0.07626111
13	0xbd882dff	-0.06649398
14	0x3f0c7eb9	0.54880863
15	0x3d0b01fb	0.033937436

nee_decoder.0.norm.weight f4 [16]
0	0x3f926789	1.1437846
1	0x3f5765d3	0.84139746
2	0x3f88a9ff	1.0676879
3	0x3fa2e25d	1.272533
4	0x3f83354f	1.0250643
5	0x3fa9b508	1.3258371
6	0x3f9c8422	1.2227824
7	0x3fa02892	1.2512381
8	0x3f8c4a26	1.0960128
9	0x3f8d442c	1.103643
10	0x3f9d7518	1.2301359
11	0x3f83abce	1.0286806
12	0x3faa5ad2	1.3308966
13	0x3fa1a363	1.2627987
14	0x3f8aeb0b	1.085298
15	0x3f937380	1.1519623

nee_decoder.0.norm.bias f4 [16]
0	0xbdac3efa	-0.08410449
1	0x3e545956	0.20737204
2	0xbe03d5b4	-0.1287449
3	0x3e8eedb5	0.2791573
4	0xbdabfc74	-0.08397761
5	0x3d8a9e7f	0.06768512
6	0xbe06519a	-0.13117066
7	0x3e88f835	0.26751867
8	0xbdb3debe	-0.08782719
9	0x3e0d73de	0.13813731
10	0x3e6cfaab	0.23142497
11	0x3c97da67	0.01853676
12	0xbcf85bcc	-0.03031721
13	0xbd072823	-0.03299726
14	0xbde68963	-0.11256673
15	0x3dcc6848	0.099808276

nee_decoder.0.norm.running_mean f4 [16]
0	0x404abfd2	3.1679578
1	0xc02d6dbe	-2.7098231
2	0x40015ec5	2.0214093
3	0xc07dbadf	-3.9645307
4	0x40418cd1	3.0242198
5	0x4024603f	2.5683744
6	0x4030d1f7	2.7628152
7	0xc0004222	-2.0040364
8	0xc0448ea8	-3.071207
9	0xbfe100ad	-1.7578331
10	0x4068e580	3.6390076
11	0xbf9902f1	-1.1954023
12	0x3d8643a3	0.065558694
13	0x404a7d8a	3.1639123
14	0x40057cf6	2.085752
15	0x3f52b4a8	0.8230691

nee_decoder.0.norm.running_var f4 [16]
0	0x3fc546ca	1.5412228
1	0x3f9b7aac	1.2146811
2	0x401deaf5	2.4674656
3	0x3ef31f18	0.4748466
4	0x400b7136	2.1787848
5	0x4039b955	2.9019368
6	0x400744e8	2.1135807
7	0x3e6248cf	0.22098087
8	0x3fa13ab0	1.2596035
9	0x3fee7c82	1.8631747
10	0x3f50f073	0.81616896
11	0x3f9201a1	1.1406747
12	0x3f3aceae	0.7297162
13	0x402278a7	2.538614
14	0x3f385f21	0.72020155
15	0x3f9ed75b	1.2409471

nee_decoder.0.projection.weight f4 [16, 32]
0	0x3e5f9e90	0.2183783
1	0x3ec9e05b	0.39428982
2	0xbe88bb90	-0.267056
3	0xbdf14a0d	-0.11781702
4	0x3cf19fcc	0.029495142
5	0x3e8befd7	0.2733142
6	0x3df37757	0.11887997
7	0xbdf1f994	-0.118151814
8	0xbe14eafc	-0.14542764
9	0x3e932934	0.28742373
10	0xbe27379e	-0.1632981
11	0xbe560144	-0.2089892
12	0xbe942719	-0.2893608
13	0x3ea50e9f	0.32237718
14	0xbe97fa21	-0.2968302
15	0x3d8b22d5	0.06793753
16	0x3e173166	0.14764938
17	0x3bb93a61	0.0056527113
18	0x3ea5e99e	0.32404798
19	0x3dab6d0c	0.083704084
20	0xbec68dd3	-0.38780078
21	0x3e2b9a5b	0.167581
22	0x3eaaa437	0.3332841
23	0x3c1d7929	0.009611406
24	0x3e59469b	0.2121834
25	0xbe0dad4e	-0.13835642
26	0xbe25487e	-0.16140935
27	0x3e27d40a	0.1638948
28	0x3e8154be	0.25259966
29	0x3ea59aa8	0.32344556
30	0x3e1de4c1	0.15419294
31	0x3eba9336	0.36440438
32	0x3ed0b11c	0.40760124
33	0xbe821f25	-0.25414386
34	0xbe5fb2c8	-0.21845543
35	0xbe87bc19	-0.26510695
36	0xbda2f763	-0.079573415
37	0x3e8a5056	0.27014416
38	0xbb29c6c7	-0.0025905834
39	0x3e8a9ecf	0.27074286
40	0x3e1a4b12	0.150677
41	0xbea5fd72	-0.32419926
42	0x3d570800	0.052497864
43	0x3e6fb568	0.23409045
44	0x3e622d85	0.22087677
45	0x3c9618d7	0.018322391
46	0x3e44f088	0.1923238
47	0x3e3df08d	0.18548794
48	0x3e855c50	0.2604699
49	0xbcbf3c09	-0.023344057
50	0x3dab422f	0.08362233
51	0x3e486f80	0.19573784
52	0x3e48cc08	0.19609082
53	0xbe94bfb6	-0.29052514
54	0x3e7cdcf3	0.2469366
55	0xbe76486b	-0.24051063
56	0xbdc1198a	-0.09428699
57	0xbd87b9f8	-0.066272676
58	0xbe3994f8	-0.18123233
59	0xbe7d2aa7	-0.24723302
60	0xbe34138b	-0.1758558
61	0x3df12248	0.11774117
62	0x3cccd936	0.025005918
63	0xbea9cbc9	-0.33163288
64	0xbdc6bb61	-0.097037084
65	0x3e2e03d7	0.16993652
66	0x3de0815d	0.10962174
67	0x3d888d6b	0.06667598
68	0x3e9a9334	0.30190432
69	0x3e92d923	0.28681287
70	0xbd883a31	-0.06651724
71	0xbe176109	-0.1478311
72	0xbe5ca7dd	-0.2154841
73	0xbe8cb802	-0.27484137
74	0xbd9380a0	-0.07202268
75	0x3e3e698a	0.18594947
76	0x3e3d6d99	0.1849884
77	0x3e0005a6	0.12502155
78	0x3eae8e7a	0.34093076
79	0x3ea65fe0	0.32495022
80	0xbe1b5fae	-0.15173218
81	0x3e7c8824	0.24661309
82	0xbe20a73a	-0.15688792
83	0xbe9837c1	-0.29730037
84	0x3e16e60e	0.14736196
85	0xbe88801b	-0.26660237
86	0x3d3600ac	0.044434234
87	0xbdf3fd9a	-0.11913605
88	0xbe9e76e9	-0.30950096
89	0x3e3b82f9	0.18311681
90	0xbe3760d7	-0.17908035
91	0xbdd063f2	-0.10175313
92	0xbc5e1d12	-0.013556736
93	0xbd9ed5cc	-0.07755622
94	0x3eba5698	0.3639419
95	0xbe312e23	-0.17302756
96	0x3e3d5f0d	0.1849329
97	0xbe557466	-0.20845184
98	0xbe9eabc6	-0.30990428
99	0xbcda5aab	-0.026654562
100	0x3ea55c43	0.32296953
101	0xbba51b7d	-0.0050386772
102	0xbdb3deb4	-0.087827116
103	0xbcb72160	-0.022354782
104	0xbdb364b3	-0.08759441
105	0xbd91700c	-0.07101449
106	0xbe53daf4	-0.20688993
107	0xbe9cf215	-0.30653444
108	0xbd6bd0de	-0.05757224
109	0xbddb58ff	-0.10710334
110	0x3e4426c0	0.19155407
111	0xbe8a048d	-0.26956597
112	0x3c8b077f	0.016971348
113	0xbe5dc656	-0.2165769
114	0xbe6400d5	-0.22265942
115	0xbea75b32	-0.32686764
116	0xbe2f8ff1	-0.17144753
117	0xbd61ce5d	-0.055128444
118	0xbe0c8990	-0.13724351
119	0x3e402b65	0.18766554
120	0x3dea161f	0.114300005
121	0x3df40e69	0.11916811
122	0x3e9c834c	0.30568922
123	0x3e38c985	0.18045624
124	0x3e7bb4bd	0.24580665
125	0x3e22a9f0	0.15885139
126	0x3e89e72c	0.26934183
127	0xbe91bbab	-0.28463492
128	0x3d8e039c	0.06934282
129	0xbe16858d	-0.14699383
130	0xbd7c9e83	-0.061674606
131	0xbdd6b473	-0.10483637
132	0xbdcd6b53	-0.10030236
133	0x3dc9926b	0.0984238
134	0xbd50085d	-0.050789226
135	0xbeb98b0d	-0.362389
136	0xbe9bacc3	-0.30405244
137	0xbe755fce	-0.23962328
138	0x3db5fbcb	0.08885916
139	0xbe79476f	-0.24343656
140	0x3e902db0	0.28159857
141	0x3c538af6	0.012911549
142	0xbe70c0ae	-0.23511001
143	0xbdf18e34	-0.11794701
144	0x3e9ecd3e	0.31015962
145	0x3e12ae89	0.14324392
146	0xbdae0baa	-0.084983185
147	0xbdbc777d	-0.09202478
148	0x3de158cf	0.11003267
149	0x3dacf3cf	0.0844494
150	0xbdd22012	-0.10260023
151	0x3e30d5ea	0.17269102
152	0x3e3f0d4c	0.18657416
153	0x3e19e16e	0.15027401
154	0xbe45e13c	-0.19324201
155	0xbe3c8c0b	-0.18412797
156	0xbe50ed28	-0.20402968
157	0xbeb282d1	-0.3486543
158	0xbe8ee1dd	-0.27906695
159	0x3e503123	0.20331244
160	0xbd6b9cd9	-0.05752263
161	0xbe9e0358	-0.30861926
162	0xbdb4da57	-0.088307075
163	0x3de4dd05	0.11174969
164	0x3dcbb70b	0.09947022
165	0x3e878a2f	0.26472613
166	0x3d0aac8e	0.033855967
167	0xbd30365e	-0.0430206
168	0x3e3c081a	0.18362466
169	0x3e55da31	0.20884015
170	0x3e8da6ab	0.2766622
171	0xbe250047	-0.16113387
172	0x3e5290b0	0.20563006
173	0x3e45c9d5	0.19315274
174	0xbe47bdea	-0.1950604
175	0x3bb9c5a2	0.0056693116
176	0xbe95077a	-0.29107267
177	0x3d320107	0.04345801
178	0xbdbb2104	-0.091371566
179	0x3e802830	0.2503066
180	0x3db0e562	0.08637501
181	0xbe678628	-0.2260977
182	0x3c954c6f	0.018224923
183	0xbe2bf419	-0.16792335
184	0xbd830436	-0.063972875
185	0xbe70657c	-0.23476213
186	0xbe134e16	-0.14385256
187	0x3e645241	0.22297002
188	0xbdf6f032	-0.12057532
189	0x3d75609c	0.059906587
190	0x3ccb3a0d	0.024807954
191	0xbe436cf3	-0.1908453
192	0xbe082ab5	-0.13297541
193	0x3da332bc	0.07968661
194	0xbe914347	-0.2837164
195	0xbe377a9d	-0.17917867
196	0xbe8a6e7b	-0.27037415
197	0xbd274bda	-0.040843822
198	0x3e30b5ed	0.17256899
199	0xbe175faf	-0.14782594
200	0xbe46b7ff	-0.19406126
201	0x3dc7c82b	0.09754976
202	0xbea3c7e1	-0.31988433
203	0xbe4445da	-0.19167271
204	0x3ea2fe10	0.3183446
205	0xbd4c0d50	-0.049817383
206	0x3dfe7005	0.1242371
207	0x3d577482	0.052601345
208	0xbea08f00	-0.313591
209	0x3ebe6bf4	0.37191737
210	0xbe6b2f24	-0.22967201
211	0x3d3d134b	0.046160977
212	0x3c502dbb	0.0127062155
213	0xbeace2d5	-0.3376681
214	0x3e1006f7	0.14065157
215	0x3db87fbd	0.09008739
216	0xbe2ecfac	-0.17071408
217	0xbea3782a	-0.31927615
218	0xbe8cb569	-0.27482155
219	0x3e23ee8e	0.1600897
220	0xbeae5466	-0.34048766
221	0x3d6e9a7b	0.058252793
222	0xbdec3f88	-0.11535555
223	0xbe9165cd	-0.2839798
224	0x3e2d4d4e	0.1692402
225	0x3e313430	0.17305064
226	0xbbfed8f3	-0.007777327
227	0xbd849194	-0.06473079
228	0xbe7f080b	-0.24905412
229	0xbe5fac7a	-0.21843138
230	0xbeaf6c44	-0.34262288
231	0xbe592a4c	-0.21207541
232	0x3e3e5eb7	0.18590818
233	0x3e9524f2	0.2912975
234	0x3e5b7225	0.21430261
235	0xbe94619d	-0.28980723
236	0xbea25fbf	-0.31713673
237	0xbe85cc77	-0.26132557
238	0x3e80e5b0	0.25175238
239	0x3c5099a0	0.01273194
240	0xbeaad434	-0.33365023
241	0x3e5be429	0.21473755
242	0x3e02e62e	0.12783119
243	0x3e4a0128	0.19727004
244	0xbe797d4e	-0.24364206
245	0xbe333830	-0.17501903
246	0x3dad6ad9	0.08467645
247	0xbd903a9f	-0.07042431
248	0x3cde111d	0.02710777
249	0xbe81545f	-0.25259683
250	0x3e8d6147	0.2761328
251	0x3e69e1aa	0.2283999
252	0xbe3714dd	-0.17879052
253	0x3cf46f6e	0.02983829
254	0x3e94ce04	0.29063427
255	0xbe3be28e	-0.18348143

nee_decoder.0.projection.bias f4 [16]
0	0xbcc6e159	-0.024277376
1	0xbcb46baa	-0.022023994
2	0xbcdd09cc	-0.02698221
3	0x3c981da1	0.018568816
4	0x3cdab28c	0.026696466
5	0x3d03d513	0.032185625
6	0x3cf30b18	0.029668376
7	0x3cc7808e	0.024353292
8	0xbcd00757	-0.025394125
9	0x3cb18a6e	0.021672454
10	0xbd1d24c3	-0.038365137
11	0xbcce6766	-0.025195789
12	0x3cbcff7c	0.023071043
13	0x3cd8ef63	0.026481336
14	0x3cd45afc	0.025922291
15	0xbcacd486	-0.021097433

nee_decoder.1.fc.weight f4 [16, 16]
0	0xbde00136	-0.10937731
1	0x3ddd1fa4	0.107970506
2	0x3c8dc007	0.01730348
3	0x3f039e6b	0.514136
4	0x3e19d9f0	0.15024543
5	0xbe6e1f17	-0.23254047
6	0xbeff694b	-0.4988502
7	0x3d419357	0.047259655
8	0x3e16a77a	0.14712325
9	0xbe7b21f9	-0.24524678
10	0xbe0891a9	-0.13336815
11	0xbdc4b02b	-0.09603914
12	0xbde00076	-0.10937588
13	0xbef6c8b7	-0.48200008
14	0x3e71fef9	0.2363242
15	0xbe0bbbe8	-0.136459
16	0x3e080fb5	0.13287242
17	0x3e3f2289	0.18665518
18	0x3eb7d7f8	0.3590696
19	0x3ee1b3df	0.44082543
20	0xbe0117c9	-0.1260673
21	0x3eb71522	0.3575831
22	0x3e946cc7	0.2898924
23	0x3e445e5c	0.1917662
24	0xbf0051be	-0.5012473
25	0x3c39d8fe	0.011343239
26	0x3efcf24a	0.49403602
27	0x3ec447f0	0.38336134
28	0xbf0f922c	-0.56082416
29	0xbec7b765	-0.39007106
30	0xbe476eb5	-0.19475825
31	0xbec90cc7	-0.3926756
32	0x3e59d3a1	0.21272136
33	0xbea25687	-0.3170664
34	0xbe3ac585	-0.1823941
35	0x3e953738	0.2914369
36	0xbde609f3	-0.112323664
37	0xbe64b83e	-0.22335908
38	0xbe9efb6a	-0.3105119
39	0xbe947d21	-0.29001716
40	0xbe91d6dd	-0.2848424
41	0xbec73b4e	-0.38912433
42	0xbe6bb4c8	-0.23018181
43	0x3ddb5cdb	0.1071107
44	0xbe0c7bc5	-0.1371909
45	0xbeae7bfa	-0.34078962
46	0xbe056a18	-0.13028753
47	0x3ed95c10	0.4245305
48	0x3e9ae9ae	0.30256408
49	0xbf022ef8	-0.5085292
50	0x3e9171e5	0.28407207
51	0xbd9373b6	-0.071998045
52	0x3ea112cb	0.3145965
53	0x3da37826	0.07981901
54	0x3e7f155d	0.24910493
55	0xbe8d24f3	-0.27567253
56	0x3e2b8b88	0.16752446
57	0x3ebb894e	0.36628193
58	0x3e95513b	0.29163536
59	0x395728d7	0.00020519212
60	0xbeadf311	-0.33974507
61	0xbeb7c019	-0.35888746
62	0x3e172684	0.14760786
63	0xbe538ff5	-0.20660384
64	0x3d0f40e8	0.03497401
65	0x3dca2558	0.09870404
66	0x3e98478b	0.29742083
67	0x3eb4c32d	0.35305157
68	0x3bb81b30	0.0056184754
69	0x3cd5bb2c	0.026090227
70	0x3ef19777	0.4718587
71	0x3cb57ffc	0.022155754
72	0x3ec8e586	0.39237612
73	0xbd85500c	-0.06509408
74	0x3e0b45d6	0.13600859
75	0xbdcb04a7	-0.09912997
76	0xbe0df0d1	-0.13861395
77	0xbdd48e65	-0.10378722
78	0x3e60a366	0.21937332
79	0xbdea4024	-0.11438015
80	0xbdc381fd	-0.09546278
81	0xbe70cc85	-0.23515518
82	0xbe996a7b	-0.2996405
83	0x3d1ff08c	0.039047763
84	0xbeb242c6	-0.3481657
85	0x3e05f3d6	0.13081297
86	0x3e032548	0.1280719
87	0xbf01f72c	-0.5076778
88	0x3cf050d4	0.029335417
89	0xbc854204	-0.01626683
90	0x3d00a232	0.03140468
91	0x3d062442	0.032749422
92	0xbe02b61a	-0.12764779
93	0xbf0d16e6	-0.55113065
94	0xbb62a6c9	-0.0034584275
95	0xbd8811dc	-0.066440314
96	0xbe273add	-0.16331048
97	0x3ebc478f	0.36773345
98	0xbe67f77c	-0.22653002
99	0x3d8fad1a	0.070154384
100	0x3d324489	0.04352239
101	0xbe8af03d	-0.27136412
102	0xbd61ba4d	-0.05510931
103	0xbeae75de	-0.340743
104	0x3eb9d034	0.3629166
105	0x3ed6562b	0.41862616
106	0x3d14d127	0.036332276
107	0xbe595e7f	-0.21227454
108	0xbf084a1b	-0.53238076
109	0xbe22c469	-0.15895237
110	0x3edd9ec7	0.432852
111	0xbece5278	-0.40297294
112	0xbdbb239b	-0.091376506
113	0x3d739d38	0.059476107
114	0xbe8d0c10	-0.27548265
115	0x3bc93fc9	0.006141637
116	0xbdd0c7a6	-0.1019433
117	0x3e1c2b19	0.15250815
118	0x3e1ba6fb	0.15200417
119	0x3e12bd21	0.1432996
120	0xbd10010e	-0.035157256
121	0x3d714008	0.058898956
122	0xbf035ade	-0.5131053
123	0x3f4597ea	0.7718493
124	0xbdd8bc5f	-0.10582804
125	0x3e82fc28	0.25583005
126	0x3c48400f	0.012222304
127	0xbe859d04	-0.26096356
128	0x3cd2d248	0.025735036
129	0xbe1bc027	-0.15210019
130	0xbec7e477	-0.39041492
131	0x3e39d408	0.1814729
132	0x3d3e268d	0.046423484
133	0x3eaade36	0.33372658
134	0x3ed5dbd8	0.4176929
135	0xbe4f1e6d	-0.2022645
136	0x3dba5316	0.09097879
137	0x3ea83432	0.32852322
138	0xbde0ed0d	-0.10982714
139	0xbe20ee92	-0.15716007
140	0x3d10137c	0.03517483
141	0x3e91f6eb	0.28508696
142	0x3e86e48b	0.2634624
143	0xbe2138df	-0.15744351
144	0x3eb0dc13	0.34542903
145	0x3da854d5	0.082193054
146	0xbe5dd118	-0.21661794
147	0xbe2ec8a8	-0.17068732
148	0xbf02acec	-0.5104511
149	0xbd19376e	-0.037406377
150	0xbd2a6925	-0.04160418
151	0xbf0209d2	-0.50796235
152	0x3eb837f9	0.35980204
153	0x3d697917	0.057000246
154	0xbe87bf35	-0.26513067
155	0xbe3fab17	-0.1871761
156	0x3d3d045c	0.046146736
157	0x3e6c176a	0.23055807
158	0xbc937b4c	-0.018003128
159	0x3e947d28	0.29001737
160	0xbdaae291	-0.08343995
161	0xbce7ba30	-0.028287023
162	0xbe99db82	-0.30050284
163	0x3ebe27fe	0.37139887
164	0x3ead28b2	0.3382011
165	0x3f0cbf6f	0.54979604
166	0x3e0ea54c	0.13930243
167	0xbe09e929	-0.1346785
168	0x3da83dd5	0.082149185
169	0x3ee5b55a	0.44864923
170	0xbce631c9	-0.028099911
171	0xbe039570	-0.12849975
172	0x3e0f4bae	0.13993713
173	0x3e5f3e86	0.21801195
174	0x3e4a92cf	0.19782566
175	0xbe2ef5ab	-0.17085902
176	0xbe9c58df	-0.30536553
177	0x3e7287c7	0.23684607
178	0xbe894d3a	-0.26816732
179	0xbd019b41	-0.031642202
180	0xbe8901e3	-0.26759252
181	0xbca5da17	-0.020245595
182	0xbef43484	-0.47696316
183	0x3ea953a7	0.33071634
184	0x3e2cba11	0.16867854
185	0xbe0383a9	-0.12843193
186	0xbead28c7	-0.33820173
187	0x3e343a71	0.17600419
188	0x3cd7ceb1	0.026343675
189	0x3e64f572	0.22359255
190	0x3ecec36c	0.4038347
191	0x3e9c1582	0.3048516
192	0x3e30a91e	0.17252013
193	0xbef3a096	-0.47583455
194	0x3c01552c	0.007893842
195	0x3e8ff548	0.28116822
196	0x3d84354c	0.06455478
197	0xbd4cc9ca	-0.04999713
198	0xbc77b700	-0.015119314
199	0x3e33fdd6	0.175773
200	0x3e63d3e1	0.22248794
201	0xbe96c4e5	-0.29447094
202	0x3eb7d655	0.3590571
203	0x3df8565b	0.12125846
204	0xbe8a5fb7	-0.2702615
205	0xbf098dfb	-0.5373227
206	0xbed8a5e7	-0.42314073
207	0xbd9348e1	-0.07191635
208	0xbd0d7317	-0.034533586
209	0xbeb6a2de	-0.35671133
210	0xbd76e813	-0.060279917
211	0xbd839768	-0.06425363
212	0xbd1d3581	-0.038381103
213	0x3d8510ec	0.06497368
214	0x3ef68c5a	0.48153955
215	0xbdaeb449	-0.085304804
216	0x3cd520fe	0.026016708
217	0xbe426329	-0.18983139
218	0x3ddad199	0.10684509
219	0x3ee3d885	0.4450113
220	0x3ec57d40	0.3857212
221	0xbd1d28a0	-0.03836882
222	0xbf2af23e	-0.6677588
223	0xbe623a78	-0.22092617
224	0xbdfab0e0	-0.122407675
225	0x3de152a7	0.11002093
226	0x3db3832a	0.08765252
227	0x3e624573	0.22096805
228	0xbc190fdf	-0.009342163
229	0x3ef55dfb	0.47923264
230	0xbe621ba3	-0.22080855
231	0x3ed5144c	0.41617048
232	0x3e7fbca9	0.24974312
233	0xbeb8eb1c	-0.36116874
234	0xbe4e755e	-0.2016196
235	0x3dfc2dd5	0.12313429
236	0x3d5d61a4	0.054048195
237	0x3e3c0360	0.18360662
238	0x3d8cc54a	0.068735674
239	0xbe3a9259	-0.1821989
240	0xbdff31d9	-0.124606796
241	0x3d3dd273	0.04634328
242	0x3e150656	0.14553198
243	0xbca9a261	-0.020707311
244	0x3efabef0	0.489738
245	0xbebb3eb2	-0.3657127
246	0x3e441146	0.19147214
247	0x3edeba26	0.43501395
248	0xbe7a9a3d	-0.244729
249	0xbe870cd6	-0.2637698
250	0x3ea73834	0.32660067
251	0xbd738cbb	-0.059460383
252	0x3de9c221	0.1141398
253	0xbd5fcc84	-0.0546384
254	0x3e86666d	0.2625002
255	0x3e8605bb	0.26176247

nee_decoder.1.fc.bias f4 [16]
0	0x3c8d38ff	0.017239092
1	0xbe87fc68	-0.26559758
2	0x3eb00d73	0.3438526
3	0x3eae2437	0.34012005
4	0x3e760d77	0.24028574
5	0xbda46185	-0.08026413
6	0x3cde8bad	0.027166212
7	0xbc5e87b6	-0.013582161
8	0xbce72db2	-0.028220031
9	0x3db2b8dc	0.087266654
10	0xbe1a6596	-0.15077814
11	0xbe745356	-0.23859915
12	0x3e3e538c	0.18586558
13	0x3c81d112	0.015846763
14	0x3cb0312a	0.021507818
15	0xbe0dfd82	-0.13866237

nee_decoder.1.norm.weight f4 [16]
0	0x3f988e09	1.1918346
1	0x3f714269	0.9424196
2	0x3f95e7fe	1.1711423
3	0x3f5061e0	0.81399345
4	0x3f80fca3	1.0077099
5	0x3fa1e0ed	1.2646767
6	0x3f7e588d	0.9935387
7	0x3f88b193	1.0679191
8	0x3fd79e46	1.6845176
9	0x3f64b901	0.89344794
10	0x3ff5dac1	1.9207383
11	0x3f72fd21	0.94917494
12	0x3f99d5e3	1.2018398
13	0x3f8fd462	1.1236689
14	0x3f6d0584	0.9258654
15	0x3fba0a7f	1.4534453

nee_decoder.1.norm.bias f4 [16]
0	0xbe223285	-0.15839584
1	0xbcbaaba3	-0.02278692
2	0xbe23be18	-0.15990484
3	0x3dd2336e	0.10263716
4	0x3ded84c2	0.11597587
5	0x3e4a1045	0.19732769
6	0x3bbbfd75	0.0057370015
7	0x3d0a7fa5	0.033813138
8	0x3e94c3af	0.29055545
9	0x3d3ac8de	0.045601718
10	0x3d8a5c08	0.06755835
11	0x3b3373fb	0.0027382362
12	0xbd07a004	-0.033111587
13	0xbd98e9be	-0.07466458
14	0xbdc6a179	-0.09698767
15	0x3a4c30d4	0.00077892584

nee_decoder.1.norm.running_mean f4 [16]
0	0x3f9d7157	1.2300214
1	0x405b2501	3.4241335
2	0x3fb14ac5	1.3850943
3	0x3f964737	1.1740483
4	0x3f87b539	1.060218
5	0x3fc3f1af	1.5308131
6	0xbe0fa219	-0.14026679
7	0xbe20b380	-0.15693474
8	0xc0238ca0	-2.555458
9	0xbf822446	-1.016732
10	0xc025a3cb	-2.5881221
11	0xbf1c8a11	-0.6114817
12	0x4010cd73	2.2625396
13	0x3fa68365	1.3008848
14	0xbf278822	-0.654421
15	0xbf694a20	-0.9112873

nee_decoder.1.norm.running_var f4 [16]
0	0x402a53e9	2.6613715
1	0x4039a838	2.9008923
2	0x402ae7ba	2.6703935
3	0x3fd6797b	1.6755823
4	0x3fb63cbe	1.4237287
5	0x3f76a170	0.96340084
6	0x4080d14c	4.025549
7	0x40855f4b	4.1678824
8	0x3f5ac135	0.8545106
9	0x3f7c51b8	0.9856219
10	0x3f8b355d	1.087566
11	0x3f09b272	0.5378791
12	0x3fa05b78	1.2527914
13	0x4081711c	4.0450573
14	0x3f8e71dc	1.1128497
15	0x3f143ffd	0.5791014

nee_decoder.2.weight f4 [1, 16]
0	0x3e83e45c	0.25760162
1	0x3e883c41	0.2660847
2	0x3f0ba030	0.545413
3	0xbe8e82c6	-0.27834147
4	0xbf0baf3b	-0.54564255
5	0xbe97b5d7	-0.2963092
6	0xbeaf44b4	-0.34232104
7	0xbdfe65a1	-0.12421728
8	0x3df10a22	0.11769511
9	0xbeb315ed	-0.34977666
10	0x3e59d399	0.21272124
11	0x3e9b58da	0.30341226
12	0xbea23aa9	-0.3168538
13	0xbe478722	-0.19485143
14	0xbf0d5fba	-0.5522419
15	0x3e7f4e0b	0.24932115
