climate/Final Experiments/PERNN0/best_model.pth (torch, 29282 bytes, 29 tensors)

encoder.0.weight f4 [16, 16]
0	0x3de361ca	0.11102636
1	0x3ea179ac	0.3153814
2	0x3d73c613	0.05951507
3	0x3e465dc1	0.19371702
4	0xbe9b6ddd	-0.30357257
5	0x3eb4c489	0.35306194
6	0xbc5b1720	-0.013372213
7	0x3e7abca2	0.2448602
8	0x3e101c89	0.14073385
9	0x3ea072f1	0.31337693
10	0x3f0fe130	0.56202984
11	0x3e2d94b3	0.16951256
12	0xbee2ae7b	-0.44273743
13	0x3ecabf34	0.39599
14	0xbd96a4c3	-0.073556446
15	0xbe3b2172	-0.18274477
16	0x3ee40da4	0.44541657
17	0x3eee73b7	0.46572658
18	0xbdab5897	-0.083665065
19	0xbe45b781	-0.19308282
20	0xbe2e9dd5	-0.17052396
21	0x3ed5c45b	0.4175137
22	0x3e81da3f	0.2536182
23	0x3e714ee0	0.23565245
24	0x3ec40d68	0.38291478
25	0xbe03e86a	-0.12881628
26	0x3dea1ada	0.11430903
27	0xbe9e5541	-0.3092442
28	0x3e85b5cf	0.2611527
29	0xbefc39d2	-0.49262863
30	0xbef83d69	-0.48484352
31	0xbe36c54e	-0.17848703
32	0x3ecbc6b5	0.3980004
33	0x3dd458cc	0.10368499
34	0xbdb6eda3	-0.08932044
35	0x3d1f7455	0.038929302
36	0xbd3d2518	-0.046177953
37	0xbe297d5e	-0.1655173
38	0xbf21d827	-0.6322045
39	0xbd1cd7a8	-0.038291603
40	0xbe86bb7b	-0.2631491
41	0x3c31f415	0.010861416
42	0x3f02b4a1	0.5105687
43	0xbf02dc57	-0.5111746
44	0x3e897d39	0.2685335
45	0xbea8182c	-0.32830942
46	0xbe25dbeb	-0.16197173
47	0x3bad6dff	0.0052926536
48	0xbd6bf00c	-0.057601973
49	0x3ea1ebc2	0.3162518
50	0x3d9abb7b	0.0755529
51	0xbe3e6496	-0.18593058
52	0xbdd56f02	-0.10421564
53	0x3ab00d5a	0.0013431713
54	0xbe515c62	-0.20445397
55	0xbe99df60	-0.30053234
56	0xbe994d58	-0.2994182
57	0xbe0ff3d0	-0.14057851
58	0xbec59edc	-0.38597763
59	0xbe6b6266	-0.22986755
60	0x3e6993a9	0.22810234
61	0x3e017580	0.12642479
62	0xbed5a627	-0.41728327
63	0xbeebcb1c	-0.46053398
64	0xbda9c623	-0.08289745
65	0x3e1496d9	0.14510669
66	0x3d2e94ff	0.042622562
67	0xbdba6dbb	-0.09102961
68	0xbe9f456f	-0.3110766
69	0xbe677e29	-0.2260672
70	0xbe7682e3	-0.24073367
71	0x3e999d3e	0.3000278
72	0xbe772c44	-0.2413798
73	0x3e7146b8	0.23562133
74	0x3e173ccb	0.14769284
75	0xbde13bcf	-0.10997736
76	0xbee0ee18	-0.4393165
77	0x3ed265cc	0.4109329
78	0xbd9a0bc1	-0.07521773
79	0x3e70fc82	0.23533824
80	0xbdee8a45	-0.116474666
81	0xbee1c09c	-0.44092262
82	0xbec021b1	-0.37525705
83	0xbdbe44b7	-0.0929045
84	0x3d862d70	0.06551635
85	0xbdeda921	-0.116045244
86	0x3e96d8da	0.2946232
87	0xbe9cc916	-0.30622166
88	0x3e1f0a49	0.15531267
89	0x3e9e98f5	0.30976072
90	0x3dcab398	0.09897536
91	0xbf480aae	-0.78141296
92	0xbde34d7f	-0.110987656
93	0x3ddea7d0	0.108718514
94	0x3e5f059e	0.21779487
95	0xbdb9705a	-0.090546325
96	0xbd36e448	-0.0446513
97	0xbe96c372	-0.29445988
98	0xbea45e96	-0.32103413
99	0x3e115296	0.1419166
100	0xbe56dcbb	-0.2098264
101	0xbe8a69ff	-0.27033994
102	0xbe29c6e6	-0.1657978
103	0x3f08b4b2	0.5340072
104	0x3e9e798d	0.3095211
105	0xbec5224b	-0.38502726
106	0x3efac8be	0.4898128
107	0x3f17a76c	0.5923984
108	0x3f3f0c36	0.7462801
109	0x3dd00d71	0.10158814
110	0x3edc17fd	0.42987052
111	0x3d9caa71	0.076496966
112	0xbdf23a86	-0.11827569
113	0xbcd30006	-0.025756847
114	0xbc784897	-0.0151540255
115	0xbf0547f0	-0.5206289
116	0xbe2dd11c	-0.169743
117	0x3f2227cf	0.63341993
118	0x3e75b57c	0.23995012
119	0x3e5b43c1	0.21412565
120	0x3e9a95a9	0.30192307
121	0x3dcbbd35	0.09948198
122	0x3e3e5d35	0.18590243
123	0xbe7df76a	-0.24801412
124	0x3d86f447	0.06589561
125	0xbe9b40aa	-0.30322772
126	0x3d47d515	0.048787195
127	0xbe2ed8e2	-0.17074922
128	0x3e43cdad	0.19121428
129	0x3e945f7c	0.289791
130	0x3e8c6561	0.27421096
131	0x3e9ab3bb	0.30215248
132	0x3dbd8b51	0.09255088
133	0xbe19e947	-0.15030394
134	0xbe2da914	-0.1695903
135	0x3dff828f	0.12476074
136	0x3e3bb391	0.18330218
137	0xbdf6d162	-0.12051655
138	0xbe17ad59	-0.1481222
139	0x3e3f6fe5	0.18695028
140	0x3d223a00	0.039606094
141	0x3e6c7a6a	0.23093572
142	0xbcd9a6da	-0.026568819
143	0xbd93ea87	-0.07222467
144	0xbc81196a	-0.015759189
145	0x3bba4e25	0.005685585
146	0xbec2eeb2	-0.38072735
147	0x3e37452f	0.17897485
148	0x3ebcac96	0.36850423
149	0x3e1a6b0f	0.15079902
150	0xbd8a7077	-0.06759732
151	0xbe3809a6	-0.1797243
152	0xbec269d4	-0.37971365
153	0xbb781008	-0.0037851352
154	0xbebc45b1	-0.3677192
155	0xbf31d836	-0.69470537
156	0xbeec1d1f	-0.46115968
157	0xbe4862dd	-0.19568963
158	0xbc539e44	-0.012916151
159	0xbdc21f30	-0.09478605
160	0x3ec74dd1	0.38926557
161	0xbee3b4e8	-0.44473958
162	0xbe94da84	-0.29072964
163	0xbdc67b38	-0.09691471
164	0x3d3ee36f	0.046603616
165	0x3dc8232a	0.09772332
166	0xbec99255	-0.39369455
167	0x3dffd123	0.124910615
168	0xbdeffe42	-0.11718418
169	0xbe348c7a	-0.17631713
170	0x3d243af7	0.040095296
171	0x3e50c3ff	0.20387267
172	0xbee9f877	-0.45697376
173	0xbe99e003	-0.3005372
174	0x3eb7de2c	0.3591169
175	0x3e13f059	0.14447154
176	0xbc6ed785	-0.014577751
177	0x3da2e198	0.07953185
178	0x3e99b15d	0.3001813
179	0x3e1ba7d9	0.15200748
180	0xbe0dd485	-0.13850601
181	0xbdf8696d	-0.12129483
182	0xbea7172f	-0.32634875
183	0xbe8b447c	-0.27200687
184	0xbde25d59	-0.11052961
185	0xbd58df7c	-0.052947506
186	0x3e8e4679	0.2778814
187	0x3d9bb08d	0.07602034
188	0x3d5ad145	0.05342223
189	0xbc7aece0	-0.015315264
190	0x3e73a3ad	0.23792906
191	0xbe26b4d3	-0.16279916
192	0x3de869c8	0.11348301
193	0xbdfb47f2	-0.12269582
194	0xbebcf3dc	-0.369048
195	0xbe077efe	-0.13232037
196	0xbf018f39	-0.50609165
197	0xbe7433cc	-0.23847884
198	0xbf070af7	-0.52751106
199	0x3ec5db49	0.38643864
200	0xbec64214	-0.3872229
201	0x3edd4be0	0.4322195
202	0x3e8cf45f	0.2753019
203	0x3dd174df	0.102273695
204	0x3f012e01	0.5046082
205	0xbd1a7c2f	-0.037716087
206	0xbe96691c	-0.29377067
207	0xbdf9a7b5	-0.12190191
208	0x3e6a2bd9	0.22868289
209	0xbed47739	-0.4149721
210	0xbce1bfd2	-0.027557287
211	0x3da69c1c	0.08135244
212	0xbe903829	-0.28167847
213	0x3b5e19c5	0.0033889872
214	0xbeafe8cf	-0.34357306
215	0xbe7b504b	-0.24542348
216	0x3ea78c0c	0.32724035
217	0xbe998507	-0.29984304
218	0x3c3f3cd0	0.011672214
219	0x3e33b747	0.17550384
220	0xbdada437	-0.08478587
221	0x3e43136b	0.19050376
222	0xbebc1c1e	-0.36740202
223	0x3ec08e41	0.3760853
224	0x3ed6f5b3	0.4198433
225	0x3ac2db1e	0.0014866327
226	0xbf08e56f	-0.5347509
227	0x3c977d71	0.018492432
228	0x3e42d5b3	0.19026832
229	0xbd571d4a	-0.052518167
230	0xbe7d75cd	-0.24751969
231	0xbef4af3d	-0.47789946
232	0xbea5b081	-0.32361224
233	0x3da2e7c3	0.07954361
234	0x3f07ea25	0.5309165
235	0x3ea940b6	0.33057183
236	0x3dee772a	0.116438225
237	0xbe366d26	-0.17815074
238	0xbe00b7ac	-0.12570065
239	0xbd2c5c78	-0.042080373
240	0xbd35b92d	-0.04436605
241	0x3e750b23	0.2393003
242	0x3dae9979	0.08525366
243	0xbdbd34de	-0.09238599
244	0xbd5e3971	-0.054254
245	0xbdaa4d30	-0.083155036
246	0xbf05fc34	-0.52337956
247	0xbdedd1ec	-0.11612305
248	0xbcb03027	-0.021507336
249	0xbddb4484	-0.10706428
250	0x3db179e2	0.086658254
251	0x3f5cdedc	0.86277556
252	0xbe555a26	-0.2083517
253	0xbdbaa71d	-0.091139056
254	0xbc863f6f	-0.01638767
255	0xbd4a6e83	-0.0494218

encoder.0.bias f4 [16]
0	0x3e9ef955	0.310496
1	0x3eb1cd79	0.34727076
2	0x3ea38838	0.31939864
3	0xbdf7e993	-0.121050976
4	0x3e99b59b	0.30021366
5	0x3eb541b2	0.35401684
6	0x3e97d65d	0.29655734
7	0xbe7ed5b2	-0.24886206
8	0xbe4dd58c	-0.20100993
9	0x3e782f62	0.24236825
10	0x3e987ba8	0.29781842
11	0xbda8acef	-0.082361095
12	0x3e7cc6c0	0.24685192
13	0x3e2b67b8	0.16738784
14	0x3ebddd26	0.37082785
15	0x3e903cdc	0.28171432

encoder.2.weight f4 [16, 16]
0	0x3e962fd5	0.29333368
1	0x3ef42a3a	0.47688466
2	0x3df296cc	0.118451685
3	0xbd341d41	-0.04397321
4	0x3eb9e304	0.36306012
5	0x3ef2e115	0.4743735
6	0xbe65248e	-0.22377226
7	0xbe9c9774	-0.305843
8	0xbea92045	-0.33032432
9	0x3e95575e	0.29168218
10	0x3ecbc624	0.39799607
11	0xbe431977	-0.19052683
12	0x3eb2e904	0.34943402
13	0x3dde86c7	0.108655505
14	0xbe39fae6	-0.18162116
15	0x3e7a95a0	0.2447114
16	0x3e7e56dd	0.24837823
17	0x3dbaec9a	0.091271594
18	0x3e3f9d04	0.1871224
19	0x3c67b22d	0.0141416015
20	0x3e984a83	0.29744348
21	0x3efa18ca	0.48847038
22	0x3e0c8788	0.13723576
23	0x3d627d25	0.05529513
24	0xbd0c0e5d	-0.034193385
25	0x3e8d82c8	0.2763884
26	0xbe0d81a2	-0.13818982
27	0xbed8c7f9	-0.42340067
28	0x3ed3e80c	0.41387975
29	0x3e0e73b4	0.13911325
30	0x3e88cf30	0.26720572
31	0x3e7dfff1	0.24804665
32	0x3e0fb202	0.14032748
33	0x3dcbfe15	0.09960572
34	0x3d083e54	0.033262566
35	0xbdea34d1	-0.11435855
36	0xbe4f7c41	-0.20262243
37	0xbf07c7da	-0.53039324
38	0xbd4cbcb7	-0.04998466
39	0xbe9b5fa9	-0.3034642
40	0x3e6dd992	0.23227528
41	0x3ec2e228	0.3806317
42	0xbe408171	-0.18799378
43	0x3f030601	0.51181036
44	0x3c1e7d97	0.009673498
45	0x3e918f9e	0.28429884
46	0xbe878635	-0.2646958
47	0xbe0fbbcb	-0.14036481
48	0xbe024cf3	-0.12724666
49	0x3da07271	0.07834328
50	0xbe016c46	-0.1263896
51	0x3eb05523	0.34439954
52	0xbe926d68	-0.28599095
53	0xbe361c3e	-0.17784211
54	0xbdc6412a	-0.09680398
55	0x3ebcb1fc	0.3685454
56	0xbe2f0aec	-0.1709401
57	0x3edc3356	0.43007916
58	0x3e6d78bc	0.23190588
59	0xbd84ea19	-0.06489963
60	0x3ed3b01e	0.41345304
61	0x3e322cb0	0.1739986
62	0xbd41d9c8	-0.047326833
63	0x3d01d7c5	0.031699914
64	0x3ef640cd	0.48096314
65	0x3ea54368	0.3227799
66	0xbd62c41a	-0.0553628
67	0xbe62818c	-0.2211973
68	0x3e7ae73f	0.24502276
69	0x3eacdefc	0.33763874
70	0x3e0648f9	0.13113774
71	0xbefc5364	-0.49282372
72	0xbe68d4b6	-0.22737393
73	0xbd76bc67	-0.06023827
74	0x3e5b9390	0.2144301
75	0xbdd12cf1	-0.1021365
76	0xbde07a52	-0.10960831
77	0xbde5f21a	-0.11227818
78	0x3f1b7f80	0.60741425
79	0xbe942c40	-0.2894001
80	0xbe1933cd	-0.14961167
81	0x3ec704ec	0.38870943
82	0x3f1a889a	0.6036469
83	0xbefb385c	-0.49066436
84	0xbeb28759	-0.34868887
85	0xbb2a49b5	-0.0025983874
86	0x3f0e4209	0.5556951
87	0xbed53c41	-0.41647533
88	0x3e3ddcd6	0.18541273
89	0x3ec3dd1c	0.3825463
90	0xbd4d590d	-0.050133754
91	0xbe49b504	-0.19697958
92	0xbd78afe8	-0.060714632
93	0x3d63df9b	0.05563317
94	0x3f189fb3	0.5961868
95	0x3e844cb6	0.25839776
96	0x3eb83493	0.3597761
97	0x3d54cf96	0.051955782
98	0x3dedaa25	0.11604718
99	0xbe264f4d	-0.16241188
100	0x3e9cf75d	0.30657473
101	0x3d8bd2a5	0.06827287
102	0xbe881e43	-0.26585588
103	0xbebdff55	-0.37108865
104	0x3e860d1a	0.2618187
105	0x3ee3b249	0.44471958
106	0x3d1c2a0a	0.03812603
107	0xbf082cec	-0.53193545
108	0xbddd3275	-0.108006395
109	0xbe86875d	-0.2627515
110	0x3eabf0b3	0.33582076
111	0x3eca8f26	0.3956234
112	0x3e4d8e64	0.20073849
113	0x3e6da9de	0.2320933
114	0x3ee25b38	0.4421022
115	0x3e52094f	0.20511363
116	0x3e87da3a	0.2653368
117	0x3eb7f5cb	0.35929713
118	0x3e5fa233	0.21839218
119	0x3de93d17	0.11388605
120	0xbdfdb95f	-0.12388872
121	0xbe78953e	-0.24275681
122	0x3e356765	0.17715223
123	0x3dc128e3	0.09431627
124	0xbe076d98	-0.132254
125	0xbea117c0	-0.31463432
126	0xbe2e631c	-0.17029995
127	0x3ed263e6	0.4109184
128	0x3eb2a33b	0.3489016
129	0xbe1ea7b2	-0.15493658
130	0x3e5c872f	0.21535943
131	0xbe30e958	-0.17276514
132	0x3ec5741d	0.3856515
133	0xbe91a8f4	-0.28449214
134	0xbe6c82dd	-0.23096795
135	0xbf007986	-0.5018543
136	0x3eaa2a75	0.33235517
137	0xbe3617b0	-0.17782474
138	0x3ea159a2	0.31513697
139	0x3de70deb	0.112819515
140	0x3cd4eba4	0.025991268
141	0xbdfd8c54	-0.12380281
142	0xbb1b3f68	-0.0023688916
143	0x3e8acd24	0.27109635
144	0xbe689fb5	-0.22717173
145	0x3d4325a9	0.047643337
146	0xbded5d60	-0.115900755
147	0xbe8c3e83	-0.27391443
148	0xbe8be385	-0.2732202
149	0xbed04bf9	-0.40682963
150	0x3e0ebce3	0.13939242
151	0x3d9ca460	0.076485395
152	0xbdccf590	-0.10007775
153	0xbe90396e	-0.28168815
154	0xbef4eb95	-0.47835985
155	0xbdc1880f	-0.09449779
156	0xbf0de463	-0.55426615
157	0xbed813a5	-0.42202488
158	0xbf15d845	-0.58533126
159	0xbeb24766	-0.34820098
160	0xbeb6302a	-0.3558362
161	0x3e66d524	0.22542244
162	0x3ea83215	0.3285071
163	0x3d311aab	0.043238323
164	0xbeb3a3c3	-0.35085878
165	0x3ea9ac1d	0.33139125
166	0x3e795c9e	0.24351737
167	0x3e4f185d	0.20224138
168	0xbd1e0bdd	-0.038585532
169	0x3e2dfa81	0.16990091
170	0xbea9c7d6	-0.33160275
171	0x3c4cdbe2	0.012503596
172	0x3f0d5154	0.5520222
173	0x3e5e1dab	0.21691005
174	0xbe88884d	-0.2666649
175	0xbde05b0d	-0.109548666
176	0xbc33facd	-0.010985089
177	0x3e97189f	0.29510972
178	0xbcadc66e	-0.021212783
179	0xbd836ed7	-0.064176254
180	0xbe10df85	-0.14147766
181	0x3d09cb88	0.03364137
182	0x3d8dd814	0.06925979
183	0xbefb4486	-0.49075717
184	0xbe4c865d	-0.1997313
185	0x3ebcb40a	0.3685611
186	0x3ed46b4b	0.41488108
187	0xbd76362d	-0.06011026
188	0x3f0a6298	0.5405669
189	0x3eacc737	0.3374574
190	0xbded89f9	-0.11598582
191	0xbdf7e6a4	-0.12104538
192	0xbf094d04	-0.5363314
193	0x3e85b293	0.26112804
194	0x3be8f521	0.0071093
195	0x3da71dfb	0.08160015
196	0x3d62d1e2	0.05537594
197	0xbf0e7fef	-0.5566396
198	0xbea8d379	-0.3297384
199	0xbe7d0640	-0.24709415
200	0xbe9afda1	-0.30271628
201	0x3efa62cf	0.4890351
202	0xbe84bde0	-0.25926113
203	0xbe2c346d	-0.16816874
204	0x3e48f163	0.19623332
205	0xbea657fa	-0.32488996
206	0xbe777366	-0.24165115
207	0x3ecc723f	0.39930913
208	0xbd37b69a	-0.044851877
209	0xbd7182f9	-0.058962796
210	0x3c02e138	0.007988267
211	0x3e115a7e	0.14194676
212	0x3d077f0d	0.03308015
213	0x3e53bd66	0.20677719
214	0xbe06c096	-0.13159403
215	0x3ec802ad	0.3906454
216	0xbf11247b	-0.5669629
217	0x3e82beb6	0.25536126
218	0xbd91fce5	-0.07128314
219	0x3c444456	0.011979183
220	0x3ef93102	0.48670202
221	0xbed3b23d	-0.41346923
222	0x3e0d0a05	0.13773353
223	0x3ece1357	0.4024913
224	0x3eaa9b25	0.3332149
225	0xbeccfbec	-0.4003595
226	0xbd1a5ffd	-0.037689198
227	0x3ed484b4	0.41507494
228	0xbee7c7da	-0.45269662
229	0xbe84131f	-0.25795838
230	0xbedc6f7a	-0.430538
231	0x3d7d4fb5	0.061843593
232	0xbf080dc4	-0.53146005
233	0x3e621cbf	0.22081278
234	0xbdf0ffbd	-0.11767528
235	0x3e9d595c	0.30732238
236	0xbe2ee198	-0.17078245
237	0xbd6d57dd	-0.05794512
238	0xbe6746e8	-0.22585642
239	0xbeaedf5a	-0.3415478
240	0xbe917ca5	-0.2841541
241	0x3ce4740f	0.027887372
242	0xbea3d22f	-0.31996295
243	0x3f05038a	0.51958525
244	0xbea8fddd	-0.33006182
245	0xbefe49c2	-0.49665648
246	0xbe0e8949	-0.13919558
247	0xbe38e49c	-0.18055958
248	0xbe63e7ed	-0.22256441
249	0xbdc83c8c	-0.097771734
250	0xbef602e9	-0.48049095
251	0xbda505a2	-0.08057715
252	0x3ed89186	0.42298526
253	0x3d2847c9	0.041084085
254	0x3e800cb3	0.2500969
255	0xbd2b7b90	-0.041865885

encoder.2.bias f4 [16]
0	0x3ea96031	0.330812
1	0x3e9e7840	0.30951118
2	0xbe223365	-0.15839918
3	0x3e8abbc7	0.27096388
4	0x3eada31e	0.3391351
5	0x3ec57cd9	0.38571814
6	0x3eb9787c	0.36224735
7	0x3eb3819d	0.35059825
8	0x3ea2a8b5	0.31769338
9	0xbea4a793	-0.321591
10	0x3eb5abfd	0.3548278
11	0x3e9a005e	0.30078405
12	0xbdd4744f	-0.103737466
13	0xbd1adf15	-0.037810404
14	0xbe9c81d9	-0.30567816
15	0xbe2bf669	-0.16793217

encoder.4.weight f4 [32, 16]
0	0xbd85f4e2	-0.06540848
1	0x3ec58c84	0.38583767
2	0xbecabe76	-0.39598435
3	0xbe979c06	-0.29611224
4	0x3e3f2dd4	0.18669826
5	0x3ebc7afc	0.3681258
6	0xbd92d727	-0.07169943
7	0x3e82bd08	0.25534844
8	0xbd65f6d0	-0.056143582
9	0xbdfed577	-0.12443059
10	0x3dd23c84	0.10265449
11	0xbbed379e	-0.007239296
12	0xbee2d477	-0.44302723
13	0xbd947b4f	-0.07250082
14	0xbe365764	-0.17806774
15	0x3e5ee9fa	0.21768942
16	0x3dca1b10	0.09868443
17	0xbe6b6ca9	-0.2299067
18	0xbeeb0dfa	-0.459091
19	0xbe136dae	-0.14397308
20	0x3e7d34ac	0.24727124
21	0xbdb81571	-0.089884646
22	0xbd9b9c0d	-0.07598124
23	0x3e343e2d	0.17601843
24	0xbe47e560	-0.19521093
25	0xbe5cabec	-0.21549958
26	0x3ed85a08	0.42256188
27	0xbe0cd816	-0.13754305
28	0xbe6a135f	-0.22858952
29	0x3e4399b7	0.19101606
30	0x3d515680	0.051107883
31	0x3e4c3aea	0.19944349
32	0xbec53292	-0.38515145
33	0x3d93fc7b	0.07225891
34	0x3e116b23	0.14201026
35	0xbe8f3c25	-0.27975574
36	0xbe87d98f	-0.26533172
37	0xbf096186	-0.53664434
38	0x3ddf5340	0.109045506
39	0xbe4c3307	-0.1994134
40	0xbed8caee	-0.42342323
41	0x3ec70b96	0.38876027
42	0x3d47db89	0.04879335
43	0x3d844928	0.06459266
44	0x3ef3b0f6	0.47595948
45	0x3ee52469	0.4475434
46	0x3ed2c7c6	0.4116804
47	0x3ec3dbd6	0.3825366
48	0x3e818a87	0.25301
49	0x3de3da11	0.11125577
50	0xbe846b6e	-0.25863212
51	0xbb0c4529	-0.0021403527
52	0xbe00f200	-0.12592316
53	0x3eb40d1c	0.35166252
54	0x3dbb7417	0.09153002
55	0x3dfa0be1	0.12209297
56	0xbe83b42e	-0.25723404
57	0xbdff6d00	-0.12471962
58	0x3edc5bfb	0.43038926
59	0x3c611a94	0.013739247
60	0xbd2b9960	-0.041894317
61	0xbeec31d4	-0.46131766
62	0xbe41abdc	-0.18913215
63	0xbcf1d212	-0.029519115
64	0x3c6a646c	0.014306169
65	0x3ea04393	0.31301555
66	0xbea42928	-0.3206265
67	0x3ea5ed33	0.3240753
68	0x3d0ef8de	0.034905307
69	0x3ea7d0f7	0.32776615
70	0xbe0237d4	-0.12716609
71	0x3e35723e	0.17719361
72	0xbe910c5c	-0.28329742
73	0xbebe6926	-0.37189597
74	0xbd4feec0	-0.0507648
75	0x3e23311f	0.15936707
76	0xbe0d5d31	-0.13805081
77	0xbe0bfbf9	-0.13670339
78	0xbdf239a8	-0.11827403
79	0x3e6ef961	0.23337318
80	0x3ed58dd8	0.4170978
81	0x3e831665	0.25603023
82	0x3dac035f	0.083990805
83	0x3d0d25e5	0.034459967
84	0xbcb39a4a	-0.021924157
85	0x3e862f10	0.2620778
86	0x3eb880d9	0.36035803
87	0x3d9017bc	0.07035777
88	0xbe4cacfc	-0.19987863
89	0x3ceea4f9	0.0291314
90	0x3dba95eb	0.09110626
91	0xbdb7e878	-0.08979887
92	0x3dbfcacb	0.093648516
93	0xbe0f0c9d	-0.13969655
94	0xbe87a062	-0.2648955
95	0xbe87f168	-0.26551366
96	0x3e8caee6	0.27477187
97	0x3e4481a8	0.19190085
98	0xbf05513c	-0.5207708
99	0xbd2b3f9e	-0.041808717
100	0xbcf1f568	-0.029535964
101	0x3e4aa76e	0.19790432
102	0xbe98b2c1	-0.29823878
103	0xbb8493dc	-0.0040459465
104	0x3d9b49e2	0.075824514
105	0x3e6af2f6	0.22944245
106	0x3dc2eaae	0.09517418
107	0xbe6000d4	-0.21875316
108	0xbf050c1e	-0.51971614
109	0x3cf0201f	0.029312192
110	0x3eb2c15a	0.3491314
111	0xbe35218f	-0.17688583
112	0xbe812474	-0.25223124
113	0x3e4d6cc1	0.20061018
114	0xbeec07ba	-0.46099645
115	0xbe337233	-0.17524032
116	0x3e4e9062	0.20172265
117	0x3e100454	0.14064151
118	0x3de6dbdb	0.11272403
119	0x3ee3029f	0.44337937
120	0x3be51719	0.006991279
121	0x3e0ca159	0.13733424
122	0x3d8121c8	0.063052714
123	0x3ead4082	0.33838278
124	0xbcfbf11e	-0.030754622
125	0x3e3a9423	0.18220572
126	0x3d670fa0	0.056411386
127	0xbe77f2ac	-0.24213666
128	0x3d50cfde	0.050979488
129	0x3e68cdf1	0.2273481
130	0xbe12bbc1	-0.14329435
131	0x3da81ac0	0.08208227
132	0xbe9fa30c	-0.31179082
133	0x3e5a7958	0.21335351
134	0xbea68d1f	-0.32529542
135	0x3e86d650	0.26335382
136	0x3d492ea7	0.049116757
137	0x3de1add5	0.11019484
138	0xbe5c8a79	-0.21537198
139	0x3e6a3cba	0.22874728
140	0x3e023235	0.12714465
141	0x3e5d3032	0.21600416
142	0x3e5031e7	0.20331536
143	0x3dd3e912	0.10347189
144	0xbdf0fdbf	-0.11767148
145	0xbe4899ea	-0.19589964
146	0x3ec5853c	0.38578212
147	0x3defce07	0.117092185
148	0xbdafe8c6	-0.0858932
149	0xbda734e9	-0.08164389
150	0x3cfc00a9	0.030762034
151	0xbedcfe6d	-0.4316286
152	0xbeb1acb0	-0.34702063
153	0xbd7063a6	-0.058688782
154	0x3dd29763	0.10282781
155	0x3e0e499a	0.13895264
156	0xbe2d4d33	-0.1692398
157	0x3d878248	0.06616646
158	0x3cad2547	0.02113594
159	0x3e60e3d5	0.21961911
160	0x3eb06f34	0.3445984
161	0x3db7f614	0.089824826
162	0xbef25aa5	-0.4733478
163	0x3d884f71	0.06655777
164	0xbd25f3f5	-0.04051586
165	0xbd77e923	-0.06052507
166	0x3ea1fee3	0.31639776
167	0x3d8878b4	0.06663647
168	0x3e6af74f	0.22945903
169	0x3e577902	0.21042255
170	0x3e3c0b73	0.18363743
171	0x3e860b8b	0.26180682
172	0xbea14d2f	-0.315042
173	0x3d6c447f	0.05768251
174	0xbd4d1f21	-0.050078515
175	0x3def53f8	0.11685938
176	0x3e89baeb	0.2690042
177	0xbebc0a52	-0.36726624
178	0x3f092ee8	0.535872
179	0x3e62d4d8	0.22151506
180	0xbecbd629	-0.3981183
181	0xbdb71959	-0.089403816
182	0xbed7dee3	-0.42162237
183	0xbc7ef4bf	-0.015561282
184	0xbcad6cf1	-0.021170111
185	0xbe82dbfe	-0.25558466
186	0xbd2c7811	-0.04210669
187	0xbe31e918	-0.17374074
188	0x3f0216db	0.50816125
189	0x3efe306f	0.49646327
190	0x3e557c9b	0.20848314
191	0x3ec25829	0.37957886
192	0x3e483707	0.19552241
193	0x3eddddb0	0.43333197
194	0xbe6ab62b	-0.22921054
195	0x3e02ef81	0.12786676
196	0x3d560777	0.052253213
197	0x3e3daace	0.18522188
198	0x3d03d5f6	0.03218647
199	0xbc3f55e1	-0.01167819
200	0x3e8d922f	0.27650592
201	0x3d929a43	0.07158329
202	0x3caae7bb	0.02086245
203	0xbe724f64	-0.23663098
204	0x3cc97959	0.024593996
205	0xbef58b57	-0.4795787
206	0xbdbfd60c	-0.09366998
207	0xbec41b71	-0.38302186
208	0x3e9d1e66	0.30687255
209	0x3e8dd5e1	0.2770224
210	0x3d5893f1	0.052875463
211	0xbebdc8b0	-0.37067175
212	0xbe7f956f	-0.24959348
213	0xbc9d4bbe	-0.019201156
214	0xbea46c98	-0.321141
215	0xbe2421f6	-0.1602858
216	0xbd9da952	-0.07698311
217	0x3d35642b	0.04428498
218	0xbea872ea	-0.32900172
219	0x3e26b2df	0.16279171
220	0xbdd11c29	-0.10210449
221	0x3d3cd6fb	0.04610346
222	0x3e951de2	0.2912436
223	0xbe029071	-0.12750413
224	0x3e51faaf	0.20505784
225	0x3db3152f	0.08744275
226	0x3daa23ed	0.083076335
227	0x3d8e1a9b	0.06938668
228	0xbeb1f4ee	-0.3475718
229	0xbe2a80b2	-0.16650656
230	0xbd0e1f26	-0.034697674
231	0x3e37f751	0.17965437
232	0xbe8a1322	-0.26967722
233	0xbdfb31a0	-0.122653246
234	0xbeaebc47	-0.3412802
235	0xbed55247	-0.41664335
236	0x3e541c0e	0.20713827
237	0xbe22151f	-0.1582837
238	0xbc8e01e4	-0.017334886
239	0xbd5d5a3a	-0.054041125
240	0xbd4af067	-0.04954567
241	0x3bd83571	0.0065981676
242	0xbd77e0c1	-0.060517076
243	0xbe23779f	-0.159636
244	0xbe149ef9	-0.14513768
245	0xbec2fc92	-0.3808332
246	0xbd7c46e7	-0.061591055
247	0x3a4ee53a	0.0007892434
248	0xbea73dc1	-0.32664302
249	0x3eb87b2e	0.3603148
250	0x3d9d553a	0.07682271
251	0xbe3c27ba	-0.1837453
252	0x3e3d107e	0.18463323
253	0x3e39b970	0.18137145
254	0x3cd51699	0.026011752
255	0xbe0534da	-0.13008443

encoder.4.bias f4 [32]
0	0x3eafd4a5	0.34341922
1	0x3e76e0f8	0.24109256
2	0xbeabf745	-0.3358709
3	0x3e959215	0.29213014
4	0x3ead3e88	0.3383677
5	0x3eb24f9b	0.3482636
6	0x3e3e6008	0.1859132
7	0x3eadf7be	0.33978075
8	0x3dff2b29	0.12459404
9	0xbe901c18	-0.28146434
10	0x3e913603	0.2836152
11	0xbea73607	-0.32658407
12	0x3ea9542e	0.33072037
13	0xbe8d2283	-0.27565393
14	0xbea56f4e	-0.3231148
15	0xbea3d199	-0.31995848
16	0x3ea3df5a	0.3200634
17	0x3eadd09c	0.3394822
18	0x3ea7026d	0.32619038
19	0x3eaa6a57	0.33284256
20	0xbeae78e2	-0.340766
21	0xbea7e42f	-0.32791278
22	0x3e8fc217	0.28077766
23	0x3eb21e91	0.34788945
24	0xbea4725a	-0.32118493
25	0xbeac153a	-0.33609945
26	0x3ea6d326	0.32582968
27	0xbea3c508	-0.3198626
28	0xbeaa64f9	-0.3328016
29	0xbeabf13e	-0.3358249
30	0xbea2d469	-0.3180268
31	0xbea1fbea	-0.31637508

residual.0.weight f4 [16, 32]
0	0x3e083cbb	0.13304417
1	0x3e531056	0.206117
2	0xbe91528c	-0.2838329
3	0xbdb1edcd	-0.08687935
4	0x3da688c0	0.08131552
5	0xbe9156ee	-0.28386635
6	0x3e35fb22	0.17771581
7	0xbeacf5b4	-0.33781207
8	0x3e61793f	0.22018908
9	0x3dec60bf	0.1154189
10	0xbdce9467	-0.10086899
11	0x3debd888	0.115159094
12	0x3e991607	0.29899618
13	0x3e856b49	0.26058415
14	0x3e5c0c34	0.2148903
15	0xbe5249a5	-0.20535906
16	0x3dcf2544	0.1011453
17	0x3e879add	0.2648534
18	0x3d7d86ba	0.061896063
19	0x3e6f3b5d	0.23362489
20	0xbe600b66	-0.21879348
21	0x3e7eea15	0.24893983
22	0xbc475829	-0.012167015
23	0xbea2a556	-0.31766766
24	0xbdbac4d2	-0.09119572
25	0x3ea03725	0.31292072
26	0xbdfde40a	-0.123970106
27	0xbd78f234	-0.060777858
28	0xbe105e79	-0.14098538
29	0xbe445551	-0.1917317
30	0x3d7caeca	0.06169013
31	0x3e5c17d5	0.21493466
32	0x3d2d5e2a	0.04232613
33	0xbcafbe80	-0.021453142
34	0x3ca33455	0.019922415
35	0xbe8776c0	-0.26457787
36	0xbe3e347c	-0.18574709
37	0x3c958ed3	0.01825658
38	0xbe9074db	-0.28214154
39	0x3e33e1b3	0.17566566
40	0x3d5eddaa	0.054410614
41	0x3b50052a	0.003174136
42	0xbcb56572	-0.0221431
43	0x3e98a1e4	0.29811013
44	0x3ea57af4	0.32320368
45	0x3e302d74	0.17204839
46	0x3e33455e	0.1750693
47	0xbe301b5c	-0.17197937
48	0x3e148aa1	0.14506008
49	0xbe744c33	-0.23857193
50	0x3e1d02e0	0.15333128
51	0xbe80439e	-0.25051588
52	0xbb242801	-0.0025048258
53	0x3e82ea81	0.25569537
54	0x3e70f319	0.23530234
55	0x3ea0587f	0.31317517
56	0x3df5e9ea	0.12007506
57	0x3e0bfed2	0.13671425
58	0x3dc355be	0.095378384
59	0x3e83e48b	0.25760302
60	0x3e3d701a	0.18499795
61	0x3dd46d19	0.10372371
62	0xbdfdb650	-0.12388289
63	0xbe2fc83c	-0.17166227
64	0xbdb416ec	-0.087934345
65	0x3e2c68d9	0.16836871
66	0xbe4486b2	-0.19192007
67	0x3dc4b1c6	0.0960422
68	0x3e9e17f2	0.30877644
69	0x3e98fc5b	0.29880032
70	0xbe8582b7	-0.2607629
71	0x3dcd407b	0.10022064
72	0x3e6c2a8a	0.23063102
73	0xbea424e2	-0.3205939
74	0x3e66d264	0.22541195
75	0xbe611103	-0.21979146
76	0xbe832a06	-0.25618
77	0xbe18d6f6	-0.14925751
78	0xbe079f1b	-0.13244288
79	0xbe151ca3	-0.14561705
80	0x3dcf5dd7	0.101253204
81	0x3e0bad7b	0.13640396
82	0x3e0c2817	0.13687168
83	0x3e7968f5	0.24356444
84	0xbe647a8b	-0.22312371
85	0xbeab98e1	-0.33515075
86	0xbe917e47	-0.28416654
87	0xbe479099	-0.19488753
88	0xbe250d80	-0.16118431
89	0x3e1fa23b	0.1558923
90	0xbe834aa0	-0.25642872
91	0xbe840e92	-0.25792366
92	0x3e426e43	0.18987374
93	0xbe65be5e	-0.224359
94	0x3d88e21c	0.06683752
95	0xbe89bd6e	-0.26902336
96	0x3e09a626	0.13442287
97	0x3e61c741	0.22048666
98	0xbe9804bb	-0.2969111
99	0x3df54ac8	0.11977154
100	0xbe3e4cb4	-0.18583947
101	0x3e653e20	0.2238698
102	0x3ea2953c	0.31754482
103	0xbe98f745	-0.29876152
104	0x3e06f001	0.13177492
105	0x3e750307	0.23926936
106	0x3ea45382	0.3209496
107	0x3e88f4d0	0.26749277
108	0x3d8d67d8	0.06904572
109	0x3cae300a	0.021263141
110	0x3d9627d4	0.07331815
111	0xbe575684	-0.21029097
112	0xbd8edafa	-0.0697536
113	0xbbc32c04	-0.005956175
114	0xbe659710	-0.22420907
115	0xbc846090	-0.016159326
116	0xbd3e4366	-0.046450995
117	0xbdfc7774	-0.123274714
118	0xbddf5eae	-0.109067306
119	0xbeb48a69	-0.3526185
120	0x3eacc1b9	0.3374155
121	0x3e32edf9	0.17473592
122	0x3e829b93	0.2550932
123	0xbe99d382	-0.3004418
124	0xbeb0f963	-0.34565267
125	0x3e86e61c	0.26347435
126	0xbd7c5b6a	-0.061610617
127	0x3d63c93b	0.05561183
128	0x3e360d58	0.17778528
129	0x3cbc7c68	0.02300854
130	0xbc481bb5	-0.012213637
131	0x3e57a790	0.21060014
132	0x3e90e065	0.282962
133	0xbdc8aeea	-0.09798987
134	0xbe9a5053	-0.30139408
135	0xbe45fbdb	-0.19334356
136	0x3e819f59	0.25316885
137	0x3cf79658	0.030223057
138	0x3e9b42b5	0.3032433
139	0xbdfe4a36	-0.12416498
140	0xbeab41ee	-0.33448738
141	0x3ddf9b14	0.10918251
142	0xbe1acb7e	-0.15116689
143	0xbe58fb58	-0.2118963
144	0x3e623a2e	0.22092506
145	0x3ccdc35f	0.025117574
146	0xbcf32644	-0.029681332
147	0x3eb08c98	0.34482265
148	0x3e9d6a4f	0.3074517
149	0xbe9425f2	-0.289352
150	0xbea62544	-0.32450306
151	0xbe327b88	-0.17429936
152	0xbe8cce46	-0.27501124
153	0xbe3ed2de	-0.18635127
154	0x3e74cedf	0.2390704
155	0xbe71749d	-0.2357964
156	0x3ea5c3c9	0.32375935
157	0x3de0bcfa	0.109735444
158	0x3c737ec8	0.01486177
159	0x3d758e34	0.05995007
160	0x3d97ce61	0.074124105
161	0x3de82dbd	0.11336849
162	0xbe92f691	-0.2870374
163	0xbbda94df	-0.006670579
164	0x3e6fa449	0.23402514
165	0x3eb39161	0.35071853
166	0xbc9cea51	-0.0191547
167	0xbe8194fa	-0.25308973
168	0x3e25dc43	0.16197304
169	0xbea55ba6	-0.32296485
170	0x3ea11597	0.31461784
171	0x3e5f0364	0.21778637
172	0x3e228ad5	0.15873273
173	0x3d484fd1	0.048904244
174	0x3e83d924	0.25751603
175	0xbe11b65c	-0.14229721
176	0xbe973e67	-0.29539797
177	0xbe48acfc	-0.19597238
178	0x3e86718e	0.2625851
179	0xbe357680	-0.17720985
180	0xbe900f88	-0.2813685
181	0x3d9facc5	0.07796625
182	0xbe616883	-0.22012524
183	0xbc7defa1	-0.0154990265
184	0xbe6545f8	-0.22389972
185	0x3d9a04a4	0.075204164
186	0xbd6ea432	-0.058262058
187	0x3d414a48	0.04718998
188	0x3e27dd76	0.16393074
189	0xbe68865b	-0.22707503
190	0xbdf5dcf1	-0.12005032
191	0xbe70e10e	-0.23523352
192	0x3e967652	0.29387146
193	0xbe01e839	-0.12686242
194	0x3e08e9ca	0.13370433
195	0x3da5f3a5	0.08103112
196	0xbeb2e120	-0.34937382
197	0xbe80cecf	-0.25157782
198	0xbdbb073e	-0.09132241
199	0xbe8b1165	-0.27161708
200	0x3e3f63d9	0.18690433
201	0x3e64291a	0.22281304
202	0xbaa07aaf	-0.0012243594
203	0x3d3373f0	0.04381174
204	0x3dbda5ce	0.0926014
205	0x3df1f4d8	0.11814278
206	0xbd8ae327	-0.06781607
207	0xbe0ddc89	-0.13853659
208	0xbe606dd7	-0.219169
209	0x3c5d1779	0.013494366
210	0x3e8edb10	0.27901506
211	0xbd365042	-0.044510134
212	0x3e9c0f3b	0.3048037
213	0x3dfe743b	0.12424513
214	0xbe3adaf8	-0.18247592
215	0x3e0c061a	0.13674203
216	0x3e11957b	0.14217179
217	0xbe208dc4	-0.1567908
218	0xbd801fca	-0.06256063
219	0xbd13fed3	-0.03613169
220	0x3e005fd6	0.12536559
221	0x3e8d9087	0.27649328
222	0xbd9e1f98	-0.0772087
223	0x3e6c047a	0.23048583
224	0x3e43bb0a	0.19114318
225	0xbe9cfae3	-0.3066016
226	0x3e8413ac	0.25796258
227	0xbc62de1d	-0.013846901
228	0x3e8bf63b	0.27336296
229	0x3e8d3d44	0.27585804
230	0xbeaf4001	-0.3422852
231	0xbe967fb5	-0.29394308
232	0xbd2306f1	-0.03980154
233	0x3de798ca	0.11308439
234	0xbd648d99	-0.0557991
235	0xbeae877e	-0.34087747
236	0x3e45707d	0.19281192
237	0xbe4f7b71	-0.20261933
238	0x3e23dcac	0.16002148
239	0x3e7f3aa2	0.2492471
240	0xbdf33694	-0.11875644
241	0x3e5a8bd4	0.21342403
242	0x3d42a8a0	0.047524095
243	0xbde24f17	-0.110502414
244	0x3cb7e6ac	0.02244886
245	0x3e01b9fa	0.126686
246	0x3e39d00a	0.18145767
247	0xbe4f3ff1	-0.20239235
248	0x3e870c7b	0.2637671
249	0xbe2bb70d	-0.16769047
250	0xbe9bb1db	-0.3040913
251	0xbe1cf851	-0.153291
252	0xbea08385	-0.3135034
253	0x3dc9bb8b	0.09850224
254	0x3cbf048a	0.023317594
255	0xbc9107ab	-0.017703852

residual.0.bias f4 [16]
0	0xb9fa50c1	-0.00047743882
1	0x3a192e9c	0.0005843432
2	0xba19d128	-0.00058676535
3	0xba0ae2c2	-0.0005298072
4	0x3a121d47	0.00055738207
5	0xba11fe59	-0.0005569212
6	0xba1c6d36	-0.00059672014
7	0x39f79a7e	0.00047226617
8	0xba1f7aee	-0.00060836866
9	0x38d64754	0.00010217601
10	0xb9ee715a	-0.0004547935
11	0xba168687	-0.0005742092
12	0xba16c16d	-0.00057508686
13	0x3a07648c	0.0005164824
14	0xba124185	-0.0005579221
15	0x3a129d3a	0.00055928866

residual.2.weight f4 [16, 16]
0	0x3e200b23	0.15629248
1	0x3e88e82f	0.26739642
2	0x3e902d91	0.28159764
3	0x3e72c7ab	0.2370898
4	0xbeae215b	-0.34009823
5	0x3dff9071	0.12478722
6	0xbe9770c0	-0.2957821
7	0x3d63dab4	0.055628493
8	0x3e721c12	0.2364352
9	0xbe14be4a	-0.14525715
10	0x3ec02274	0.37526286
11	0x3ec5a959	0.38605765
12	0x3e00154c	0.12508124
13	0xbea01ba1	-0.3127108
14	0x3c1a6712	0.009423988
15	0x3eacc5c3	0.3374463
16	0x3da03f30	0.07824552
17	0x3ec0e1f8	0.376724
18	0x3d027fce	0.031860165
19	0xbe4cdc6e	-0.20005962
20	0x3e90ee12	0.28306633
21	0x3e134b05	0.14384086
22	0x3e7445d0	0.23854756
23	0xbe8455e4	-0.2584678
24	0xbea7ca0e	-0.32771343
25	0x3e94bf2c	0.29052103
26	0x3e1b92d2	0.15192726
27	0x3ea1f32b	0.31630835
28	0xbeb919e2	-0.3615256
29	0xbe4c8fe5	-0.19976766
30	0xbc690bd8	-0.014224015
31	0xbe66d082	-0.22540477
32	0x3e8a6f43	0.2703801
33	0x3eb0467c	0.34428775
34	0x3ebfe961	0.3748274
35	0x3d76c870	0.060249746
36	0xbec992b2	-0.39369732
37	0xbe1f9218	-0.15583074
38	0x3dceba9c	0.10094187
39	0xbdefc214	-0.11706939
40	0x3e3cd9fa	0.18442526
41	0xbdedd523	-0.11612918
42	0x3eb7025f	0.35743997
43	0x3ec03e22	0.37547404
44	0x3edbcd07	0.4292986
45	0x3e1361ed	0.14392824
46	0xbe95f100	-0.2928543
47	0xbde487a2	-0.111586824
48	0xbe6d0d33	-0.23149566
49	0x3e47fc8a	0.1952993
50	0xbd1dd23d	-0.038530577
51	0x3e3115e3	0.17293505
52	0x3e003572	0.12520388
53	0xbe089f40	-0.13341999
54	0x3d77f56e	0.060536794
55	0xbd8875a0	-0.0666306
56	0x3d98a592	0.07453455
57	0xbe930e16	-0.28721684
58	0x3bf7dc69	0.0075641167
59	0x3ea93bb7	0.3305337
60	0x3e65af9f	0.22430275
61	0xbe896d82	-0.2684136
62	0x3eb9151f	0.36148927
63	0xbe28f944	-0.16501337
64	0x3ec5ea19	0.38655165
65	0xbdb3bf9f	-0.08776783
66	0x3ed59553	0.41715488
67	0x3e821ce3	0.25412664
68	0xbd14ca6f	-0.03632587
69	0x3e9516ef	0.2911906
70	0x3ebc9686	0.3683359
71	0xbead8bde	-0.33895773
72	0x3d9e2799	0.077223964
73	0x3e977f0c	0.29589117
74	0xbd39630d	-0.045260478
75	0x3e8c9997	0.2746093
76	0x3ead27a0	0.33819294
77	0xbeaf8efa	-0.3428877
78	0x3e722d1c	0.2365002
79	0xbecb6ed3	-0.3973299
80	0x3e8a9175	0.270641
81	0xbe74a38a	-0.2389051
82	0xbe0a9207	-0.13532268
83	0x3dd7cf4f	0.10537588
84	0xbebf2e1d	-0.3733987
85	0xbc7dbc5b	-0.015486802
86	0xbe1a8ff2	-0.15093973
87	0x3e0c06a0	0.13674402
88	0xbcd739e2	-0.026272718
89	0xbec9c09e	-0.39404768
90	0xbddbcb3f	-0.107321255
91	0x3d8b6cf2	0.06807889
92	0x3e733421	0.23750354
93	0xbe7c95ac	-0.2466647
94	0xbe8696fb	-0.26287064
95	0x3e485028	0.19561827
96	0xbe84dec3	-0.25951204
97	0xbe2fcd31	-0.17168118
98	0xbedd4fa9	-0.43224838
99	0xbdd4950b	-0.1037999
100	0xbeb08268	-0.34474492
101	0x3d8c0f57	0.06838863
102	0x3eb340c0	0.35010338
103	0x3e451c84	0.19249159
104	0xbeb892dc	-0.36049545
105	0x3ec70133	0.38868102
106	0xbec5eaf9	-0.38655832
107	0xbe2aac5b	-0.16667311
108	0x3e7882a7	0.2426859
109	0x3e51daba	0.20493594
110	0x3e741694	0.23836738
111	0xbdd41f89	-0.10357577
112	0xbec1ead5	-0.37874475
113	0xbed95482	-0.42447287
114	0x3d133639	0.035940383
115	0xbed641ea	-0.41847163
116	0xbe91e55a	-0.28495294
117	0x3e9118f4	0.2833935
118	0xbd8975bc	-0.06711909
119	0x3e1ada5f	0.15122364
120	0xbeae2da1	-0.34019187
121	0x3d8d87a1	0.06910635
122	0x3ec7ecbb	0.390478
123	0x3da0687c	0.07832429
124	0x3d9b9647	0.075970225
125	0xbe890aba	-0.26765996
126	0xbea08366	-0.3135025
127	0x3e80fe61	0.25194076
128	0xbec63db8	-0.38718963
129	0xbcdd9693	-0.027049338
130	0xbeb15dc3	-0.34641847
131	0x3cfd851f	0.030947266
132	0xbed8f8cd	-0.4237732
133	0x3e135cd2	0.14390877
134	0x3946e806	0.00018969187
135	0xbe91a516	-0.28446263
136	0xbe247949	-0.16061892
137	0xbe30a714	-0.17251235
138	0xbe469b36	-0.19395146
139	0xbdde37c4	-0.1085048
140	0x3da27ce5	0.07933978
141	0xbe7fad76	-0.24968514
142	0x3ddef701	0.10886956
143	0xbeb6f571	-0.35734132
144	0x3ed0fcf6	0.40817994
145	0xbe85168c	-0.25993764
146	0x3e3d0b99	0.18461455
147	0xbe977982	-0.2958489
148	0xbe9710a6	-0.2950489
149	0xbd81291e	-0.063066706
150	0xbe7d1767	-0.24715959
151	0xbdf7e366	-0.1210392
152	0xbe406443	-0.18788247
153	0xbdf70c16	-0.12062852
154	0xbeab2a2a	-0.33430606
155	0x3ed800b5	0.4218804
156	0x3e79ddd2	0.24401024
157	0xbe1ee564	-0.15517193
158	0x3ea0ffb6	0.31445092
159	0xbe4610ca	-0.19342342
160	0xbeb4dd4f	-0.35325095
161	0x3e0d7cfc	0.13817209
162	0xbe180574	-0.1484583
163	0x3ea70004	0.326172
164	0xbded8d69	-0.115992375
165	0xbeb4395c	-0.35200012
166	0x3ebaaa72	0.36458164
167	0x3dc79e3a	0.09746976
168	0x3e073309	0.13203062
169	0xbd295fde	-0.04135119
170	0xbeb01188	-0.34388375
171	0x3e0e3560	0.13887548
172	0x3a3fcd2d	0.00073166454
173	0xbe93106a	-0.2872346
174	0x3e7c4323	0.24634986
175	0xbecfe059	-0.4060085
176	0xbe89d4f2	-0.26920277
177	0xbdcdcae9	-0.10048468
178	0xbed00f86	-0.40636843
179	0xbec7cf91	-0.39025548
180	0xbe05b09f	-0.13055657
181	0xbda83d79	-0.0821485
182	0x3ea2e308	0.31813836
183	0x3e4ea9df	0.20181988
184	0x3ecdd577	0.40201923
185	0x3e093e83	0.13402753
186	0x3d6b4ed5	0.057448227
187	0xbda9fcf7	-0.08300202
188	0xbe3a93e9	-0.18220486
189	0xbec65deb	-0.3874353
190	0xbeca4877	-0.3950841
191	0x3e3d263d	0.18471618
192	0xbe8c96c1	-0.27458766
193	0xbe355bef	-0.17710851
194	0x3e4ead4c	0.20183295
195	0xbe894e04	-0.26817334
196	0x3e236b12	0.15958813
197	0xbcc89684	-0.024485834
198	0x3db8158b	0.08988484
199	0xbe4a40c5	-0.1975127
200	0x3ea166bc	0.31523693
201	0xbeb59d6a	-0.3547166
202	0xbecf2a7b	-0.40462098
203	0x3ead3c54	0.3383509
204	0xbe958103	-0.2919999
205	0x3ed51966	0.4162094
206	0x3e457745	0.19283779
207	0x3e2bab78	0.16764629
208	0xbd59af3c	-0.053145632
209	0x3da5bc09	0.080925055
210	0x3de4893f	0.1115899
211	0xbe4ffb8b	-0.203108
212	0x3ea3750b	0.31925234
213	0x3e888c70	0.26669645
214	0x3ccc17ca	0.024913687
215	0x3dfecfad	0.12441955
216	0xbd54c154	-0.051942185
217	0xbe1f9fa4	-0.15588242
218	0xbeaaace7	-0.3333504
219	0xbe2adf27	-0.16686688
220	0xbed49401	-0.41519168
221	0xbe0bfe9a	-0.13671342
222	0x3e677246	0.22602186
223	0x3ed6d5f5	0.4196011
224	0xbecb1dbb	-0.3967112
225	0xbeb807da	-0.3594349
226	0x3eb6b446	0.35684413
227	0xbe1d0aef	-0.15336202
228	0x385abefb	5.2153115e-05
229	0x3e8ad34c	0.27114332
230	0x3ec4a813	0.3840948
231	0x3e27a7e2	0.16372636
232	0x3dda69f6	0.10664742
233	0xbc33bd0c	-0.010970365
234	0x3c2be14a	0.010490725
235	0x3e3374c9	0.17525019
236	0xbed04827	-0.40680048
237	0xbed65730	-0.41863394
238	0x3e95c371	0.29250672
239	0xbed8bf1c	-0.42333305
240	0x3e697ecc	0.22802275
241	0x3ea034cf	0.3129029
242	0x3e934d6f	0.28770015
243	0x3e07c82e	0.13259956
244	0x3d4741f2	0.048646875
245	0x3e4d5907	0.20053492
246	0x3e83d43f	0.25747868
247	0x3c637f30	0.013885304
248	0xbe9f369e	-0.31096357
249	0x3e8a34db	0.2699345
250	0x3d474820	0.048652768
251	0x3e8546c2	0.26030546
252	0xbe94d641	-0.29069713
253	0xbddecd14	-0.10878959
254	0xbe8eb246	-0.27870387
255	0x3cc6c651	0.024264487

residual.2.bias f4 [16]
0	0xba15d265	-0.000571525
1	0x3a114ee5	0.0005543067
2	0xba032558	-0.0005002818
3	0xba02ccb1	-0.0004989608
4	0xba162a88	-0.00057283835
5	0xba16b4e1	-0.0005748999
6	0x3a16b172	0.00057484873
7	0x39ee959f	0.00045506374
8	0x3a164722	0.00057326455
9	0x39f941f2	0.00047542114
10	0x3a15fafa	0.00057212973
11	0xba0a38f1	-0.0005272767
12	0xba06ffb1	-0.00051497953
13	0x3a15fa50	0.00057211984
14	0xba16a93b	-0.0005747263
15	0x3a16adc9	0.0005747942

residual.4.weight f4 [8, 16]
0	0x3ed9d717	0.42546913
1	0x3dc3b58f	0.09556114
2	0x3ed9e4c3	0.42557344
3	0x3ebbd907	0.36689016
4	0xbeafcdc4	-0.34336674
5	0x3ef576f4	0.47942317
6	0x3cdf2c51	0.027242811
7	0x3ed62274	0.4182316
8	0x3dc52ee4	0.09628084
9	0xbdaf633d	-0.0856385
10	0x3ed90cc1	0.42392543
11	0xbebdb2b1	-0.37050393
12	0x3c3e510f	0.011616006
13	0xbd8e4c22	-0.06948115
14	0x3cbdae34	0.023154356
15	0xbe125819	-0.14291419
16	0x3ecaf5ba	0.396406
17	0xbcda66c8	-0.026660338
18	0x3e52fdb6	0.20604596
19	0x3e5cf909	0.21579374
20	0x3ee8f914	0.45502532
21	0x3e38a7e0	0.18032789
22	0xbefeed35	-0.4979035
23	0xbed40524	-0.41410172
24	0xbef1959c	-0.47184455
25	0xbefad67f	-0.48991773
26	0xbed4b801	-0.41546634
27	0xbbdd3340	-0.0067504942
28	0x3ef215f4	0.47282374
29	0xbea5f867	-0.32416078
30	0x3e56d331	0.20979
31	0xbe6a2936	-0.22867283
32	0x3ec69cb7	0.3879144
33	0x3ea6c41a	0.3257149
34	0x3e6e76c1	0.23287489
35	0x3ee1486a	0.4400056
36	0xbec0ce31	-0.37657312
37	0xbed9a7c8	-0.4251082
38	0xbe830f43	-0.2559758
39	0x3dceb3a2	0.10092856
40	0x3ee20a79	0.44148615
41	0x3ea8e226	0.32985038
42	0x3e1f7d28	0.15575087
43	0xbdb6e3c6	-0.08930163
44	0xbe9125d4	-0.28349173
45	0x3efee14f	0.49781272
46	0xbedfca29	-0.43708923
47	0xbeb05106	-0.34436816
48	0x3e96f398	0.29482722
49	0x3ec7fa36	0.39058083
50	0x3e07223f	0.13196658
51	0xbc17026c	-0.009216886
52	0xbd711882	-0.058861263
53	0x3d8443ce	0.06458245
54	0xbe8116e2	-0.2521277
55	0x3efce289	0.49391583
56	0x3eff65c3	0.49882326
57	0xbe46924c	-0.19391745
58	0x3eb17758	0.34661365
59	0xbdf47e61	-0.11938167
60	0xbeb97fd9	-0.36230353
61	0x3db0f2e9	0.086400814
62	0xbdc28e04	-0.094997436
63	0x3ed529a2	0.41633326
64	0x3d0b9a5b	0.03408275
65	0xbde1accc	-0.110192865
66	0xbecba342	-0.39772993
67	0x3ea7b9a0	0.32758808
68	0x3eaa9634	0.3331772
69	0x3d911fe6	0.07086162
70	0xbd3145d1	-0.043279473
71	0xbe2b1978	-0.16708934
72	0x3dee72d2	0.11642994
73	0x3ef5cea1	0.48009208
74	0xbda79df6	-0.081844255
75	0x3d3d0af5	0.046153028
76	0xbef41b8a	-0.4767726
77	0x3e02246e	0.1270921
78	0xbe5bf026	-0.21478328
79	0xbdf3e0bb	-0.11908098
80	0xbe878251	-0.2646661
81	0x3eed4795	0.46343675
82	0x3eae9353	0.34096774
83	0xbe5ceea8	-0.21575415
84	0xbdfa4ac5	-0.122212924
85	0x3e1b8a6d	0.15189524
86	0x3e403fab	0.18774287
87	0xbe7159ae	-0.23569366
88	0x3e4f83ed	0.2026517
89	0x3da2d5d8	0.07950944
90	0x3e92e35c	0.28689086
91	0xbe8a8b1f	-0.27059266
92	0xbea542bb	-0.32277474
93	0x3e6e76bf	0.23287486
94	0xbc9c5785	-0.019084701
95	0xbe5eb05e	-0.21746966
96	0x3ec93787	0.39300177
97	0xbd61aa11	-0.05509383
98	0xbeaaaee1	-0.33336547
99	0xbd93227a	-0.0718431
100	0xbe6ca7b7	-0.23110853
101	0xbe316120	-0.17322206
102	0xbed30411	-0.4121404
103	0x3ecc23f1	0.3987117
104	0x3ee0fa09	0.43940762
105	0xbed81941	-0.42206767
106	0x3e9fde57	0.3122432
107	0x3e151a2b	0.14560764
108	0xbe4f3617	-0.20235477
109	0xbe15987d	-0.14608951
110	0x3dafb473	0.0857934
111	0x3dda5713	0.10661139
112	0x3ed9a2a9	0.42506912
113	0x3ef4e3b3	0.4782997
114	0x3cf0efd4	0.029411234
115	0x3ef08e9f	0.4698381
116	0xbe971ff1	-0.29516557
117	0x3b7202e6	0.0036927997
118	0xbed3b397	-0.41347954
119	0x3e74d886	0.23910722
120	0x3dcb21b4	0.09918538
121	0xbe9b35de	-0.30314535
122	0xbec39cad	-0.38205472
123	0xbdcc6d51	-0.09981788
124	0xbe40f8bb	-0.18844883
125	0xbe501348	-0.20319855
126	0xbedeac73	-0.43490943
127	0xbea2d51a	-0.3180321

residual.4.bias f4 [8]
0	0x3a168837	0.00057423435
1	0xba1684c5	-0.000574183
2	0x3a168355	0.0005741616
3	0x3a16b402	0.0005748869
4	0xba1565ea	-0.00056990853
5	0x39e9db51	0.00044604627
6	0x3a1687a3	0.00057422573
7	0x3a168049	0.0005741162

residual.6.weight f4 [1, 8]
0	0x3f2d5977	0.6771464
1	0xbecd51ee	-0.4010157
2	0x3ea9e172	0.33179814
3	0x3d65f3fb	0.05614088
4	0xbde33dbb	-0.110957585
5	0x3e88e1b3	0.26734695
6	0x3f1d4157	0.61427826
7	0x3e81faa5	0.2538654

nee_decoder.0.weight f4 [16, 32]
0	0x3d94b11f	0.07260346
1	0x3e7a5f1c	0.24450344
2	0xbc11f960	-0.008909553
3	0x3dcece0c	0.10097894
4	0x3ebca2fe	0.36843103
5	0xbe5b7824	-0.21432549
6	0x3e9ccae6	0.3062355
7	0xbe1256b7	-0.14290892
8	0x3cd66f3e	0.026176091
9	0xbe860181	-0.26173022
10	0x3e8a8c60	0.27060223
11	0xbe90a16d	-0.28248158
12	0xbdc565bc	-0.09638545
13	0x3df9fe76	0.12206738
14	0xbe3acea3	-0.18242888
15	0xbb9afecd	-0.0047300817
16	0x3ebe1ced	0.37131444
17	0xbeb04e66	-0.34434813
18	0xbe4c7324	-0.19965798
19	0xbe6976e8	-0.22799265
20	0x3eb892b7	0.36049435
21	0x3d904130	0.070436835
22	0xbe52f951	-0.20602919
23	0xbe8b9aa1	-0.2726641
24	0x3e6c78c9	0.23092951
25	0x3e927af3	0.28609428
26	0xbe46b8a5	-0.19406374
27	0x3d86785b	0.06565925
28	0xbdf97954	-0.12181345
29	0x3e8eac4d	0.2786583
30	0xbe708917	-0.23489796
31	0x3e56fb09	0.209942
32	0x3ec29d43	0.38010606
33	0xbd5284d0	-0.05139619
34	0xbdc7ad7e	-0.09749888
35	0xbc858ef3	-0.016303515
36	0x3e0bf97c	0.1366939
37	0xbe75dc14	-0.24009734
38	0xbd8077f7	-0.062728815
39	0xbeafd4a0	-0.34341908
40	0x3eb2eb16	0.3494498
41	0xbe6291e4	-0.22125965
42	0x3ea13b7c	0.31490695
43	0xbcc0cd3f	-0.023535369
44	0xbdb97af4	-0.090566546
45	0x3f5a9ab8	0.8539233
46	0xbdde16e9	-0.108442135
47	0xbe8f8f1f	-0.2803888
48	0x3da7fc94	0.08202472
49	0xbe4bb8ff	-0.19894789
50	0xbe66834b	-0.22511022
51	0xbe42b384	-0.19013792
52	0x3e3e93e0	0.18611097
53	0x3e02ed16	0.12785754
54	0xbde4788d	-0.11155806
55	0x3dff45db	0.12464496
56	0xbdeeb16b	-0.116549335
57	0xbea17465	-0.31534114
58	0x3d8b3677	0.06797498
59	0xbcff86f4	-0.03119228
60	0xbdff4cc4	-0.12465814
61	0x3ee94e70	0.45567656
62	0x3e838390	0.25686312
63	0xbeaca458	-0.33719134
64	0x3ea8ebab	0.329923
65	0x3f101a3a	0.5629002
66	0xbe71f4e7	-0.23628579
67	0xbe115b9c	-0.14195102
68	0xbd696834	-0.05698414
69	0x3db4c0dc	0.088258475
70	0xbcf06263	-0.02934379
71	0x3e61a98e	0.22037336
72	0x3e8af07f	0.2713661
73	0x3cd075ae	0.025446739
74	0xbe491a5e	-0.19638965
75	0x3ee1f827	0.44134638
76	0x3e9c94b4	0.305822
77	0xbe9c7fee	-0.30566353
78	0x3e061ab9	0.13096131
79	0xbe2e0053	-0.16992311
80	0x3d8a777e	0.067610726
81	0xbe1b3186	-0.1515561
82	0x3e8d1553	0.27555332
83	0xbeac8582	-0.33695608
84	0x3dde5fc3	0.10858109
85	0x3e3b410d	0.18286534
86	0xbe693f57	-0.22778068
87	0xbe8be016	-0.27319402
88	0x3c58be58	0.013228975
89	0xbe8fb798	-0.28069758
90	0xbe0cb5bf	-0.13741206
91	0xbee96129	-0.4558194
92	0x3e81532c	0.25258768
93	0xbec1e8d1	-0.37872937
94	0xbea1e8c8	-0.3162291
95	0xbe68eafc	-0.2274589
96	0x3e75db7a	0.24009505
97	0x3cc5a594	0.024126805
98	0x3e73e528	0.23817885
99	0xbd5510e9	-0.05201808
100	0xbe622b54	-0.22086841
101	0x3e1f806d	0.15576334
102	0x3db3fdee	0.087886676
103	0x3e7c1220	0.24616289
104	0xbed04348	-0.40676332
105	0xbe59e34e	-0.21278116
106	0x3e41e4b6	0.18934903
107	0x3db4d790	0.08830178
108	0x3e637643	0.22213082
109	0xbe4f352b	-0.20235126
110	0x3ed01e4c	0.40648115
111	0x3e27c0d0	0.16382146
112	0xbe329d6b	-0.17442863
113	0xbe0d9f0a	-0.138302
114	0x3d9ef9bc	0.07762477
115	0xbc9fc7ed	-0.019504512
116	0xbe462c6f	-0.19352888
117	0xbe2fc113	-0.17163496
118	0x3def9a74	0.116993815
119	0x3e294d0a	0.16533294
120	0x3ebf31a0	0.37342548
121	0xbdd751e8	-0.10513669
122	0xbe498e9b	-0.19683306
123	0xbe537952	-0.20651749
124	0xbe582e3d	-0.21111389
125	0x3eae438c	0.3403591
126	0xbddb676b	-0.10713085
127	0xbe095b53	-0.13413744
128	0x3e94e080	0.2907753
129	0x3daf8f53	0.08572259
130	0xbec16927	-0.37775537
131	0xbdc357bd	-0.09538219
132	0x3da8f44f	0.08249723
133	0x3ca47f95	0.020080367
134	0xbdb88228	-0.090092
135	0xbe8f5c08	-0.27999902
136	0xbe3093b8	-0.1724385
137	0x3d55c150	0.05218631
138	0xbe0ce563	-0.13759379
139	0xbe9e0fe4	-0.308715
140	0x3ece5af2	0.4030376
141	0x3f277995	0.65419894
142	0xbe42fce4	-0.19041783
143	0x3b44216e	0.0029927152
144	0xbd93318b	-0.07187184
145	0xbe91c28d	-0.28468743
146	0xbe938c38	-0.28817916
147	0x3e8f7333	0.28017578
148	0xbe7504d2	-0.2392762
149	0xbe567930	-0.20944667
150	0x3eb0de3b	0.34544548
151	0xbe5c26a4	-0.21499115
152	0xbe0c3747	-0.13692962
153	0xbd4f42ff	-0.050601
154	0xbecf7024	-0.40515244
155	0xbe861f08	-0.2619555
156	0xbea59527	-0.32340357
157	0x3e0411a8	0.1289736
158	0xbe204916	-0.1565288
159	0x3e841013	0.25793514
160	0x3e97ac2c	0.29623544
161	0x3e744cd8	0.23857439
162	0xbec66155	-0.38746133
163	0xbe422dfb	-0.18962853
164	0x3e89430d	0.26808968
165	0x3dcc4d64	0.099756986
166	0xbdda519b	-0.10660096
167	0x3ea0c557	0.31400558
168	0xbda431de	-0.08017324
169	0x3e842df0	0.25816298
170	0xbe6ed8f2	-0.23324946
171	0x3e1c1238	0.15241325
172	0x3d2815e7	0.041036513
173	0x3cb3f816	0.021968883
174	0x3db7fc54	0.08983675
175	0xbe4fe207	-0.20301066
176	0x3d9d785b	0.076889716
177	0xbdf2ffa0	-0.11865163
178	0xbc97f5c2	-0.018549804
179	0xbcf27502	-0.02959681
180	0x3e6add7e	0.22936055
181	0x3c2f70af	0.010708018
182	0x3e981e59	0.29710653
183	0x3e36ea58	0.17862833
184	0xbd74d5ba	-0.059774138
185	0x3d7c67e0	0.0616225
186	0xbe0d43e1	-0.13795425
187	0xbe7a54d4	-0.24446422
188	0xbe99a3a8	-0.30007672
189	0xbe016814	-0.12637359
190	0xbeaef7c9	-0.3417342
191	0x3ca0c1a9	0.019623594
192	0xbd63c509	-0.05560783
193	0xbd76f063	-0.060287844
194	0x3e5ddb21	0.21665622
195	0x3e94ba61	0.29048446
196	0x3eafcc4c	0.34335554
197	0x3d6196df	0.055075523
198	0xbe09f350	-0.13471723
199	0x3e620f7b	0.22076218
200	0xbebd62cf	-0.36989447
201	0x3d9806ee	0.07423197
202	0x3e74ac08	0.2389375
203	0x3e4f0170	0.20215392
204	0x3b9965c6	0.004681322
205	0xbf43429c	-0.7627351
206	0x3e2f6be9	0.17131008
207	0x3ddf4508	0.109018385
208	0xbd42a4c7	-0.047520425
209	0x3ea3f87a	0.3202551
210	0x3e851500	0.25992584
211	0xbe6de0ba	-0.23230258
212	0x3e846485	0.2585794
213	0xbe3ce323	-0.18446021
214	0x3d44ac46	0.048015855
215	0x3ea320de	0.31861013
216	0xbe2fcede	-0.17168757
217	0x3e40c4a7	0.18825017
218	0x3c877d6d	0.0165393
219	0xbe91ffab	-0.28515372
220	0xbc13fa02	-0.0090317745
221	0x3e134a45	0.143838
222	0x3e4202e0	0.18946409
223	0xbe53c5f0	-0.20680976
224	0x3ebc1f8d	0.3674282
225	0xbddb8a81	-0.10719777
226	0x3e727db6	0.23680767
227	0x3e97eeba	0.2967432
228	0xbdd6e6f3	-0.10493269
229	0x3e886537	0.2663972
230	0x3d8e4372	0.06946458
231	0x3da37575	0.079813875
232	0x3ddde52d	0.108347274
233	0xbd91a36e	-0.0711125
234	0x3c80b695	0.015712062
235	0xbea3f673	-0.32023963
236	0x3dc31d2d	0.09527049
237	0x3f4aa456	0.79157007
238	0x3c9e194d	0.019299174
239	0xbec9152d	-0.39273968
240	0x3e06955d	0.13142915
241	0xbda6e5fc	-0.08149335
242	0x3e1addba	0.15123644
243	0xbe8700b2	-0.26367718
244	0x3e0214b2	0.12703207
245	0xbe526ffe	-0.20550534
246	0x3de46d2d	0.11153636
247	0x3e7313ab	0.23737971
248	0x3e5e8af4	0.21732694
249	0xbdfc1cb9	-0.12310166
250	0x3e913637	0.28361675
251	0x3cc88c62	0.024481002
252	0xbe8172cd	-0.252829
253	0x3ea6d7be	0.32586473
254	0xbcdc30d9	-0.026878761
255	0xbe9a189e	-0.30096906

nee_decoder.0.bias f4 [16]
0	0x3cfbd73c	0.03074228
1	0xbdc65af6	-0.09685318
2	0x3dbc0fcb	0.091827
3	0x3ac4bec2	0.0015010464
4	0xbd6e23e5	-0.0581397
5	0xbd02b273	-0.031908464
6	0x3e0f550e	0.1399729
7	0xbd237d8b	-0.03991465
8	0x3e5a223d	0.21302123
9	0xbc643a42	-0.013929905
10	0xbbfaaf4b	-0.007650291
11	0x3ce4b883	0.027920013
12	0xbd8808f4	-0.06642333
13	0xbdad29f0	-0.084552646
14	0xbc82e838	-0.015979871
15	0x3e1e8993	0.15482168
