climate/Final Experiments/PERNN_res999/best_model.pth (torch, 62626 bytes, 83 tensors)

encoder.0.fc.weight f4 [16, 16]
-0.13818699 0.015374859 0.15388708 -0.16179185 -0.34451964 -0.105196446 0.15105969 0.24406467
0.4820745 -0.12407977 0.5843128 -0.5676472 -0.42175227 -0.31021425 0.29331747 -0.0039510033
0.07768152 -0.0051934207 0.15043294 -0.014165176 0.26237068 0.60385257 -0.044834297 0.34451053
0.156381 -0.059053022 -0.22056398 0.38455778 0.4091395 0.43155932 0.5135553 -0.030818313
0.31013116 -0.023071654 -0.35684788 -0.1138599 0.0013507707 0.3345777 -0.22072706 -0.047339793
-0.027067326 -0.312811 -0.03852499 0.6689495 0.10942554 -0.2626539 -0.20079626 -0.043727268
0.44597232 -0.2937642 -0.26728424 -0.023993757 -0.1778758 0.07684006 -0.11812148 -0.5073816
0.39659178 0.26871902 -0.2523754 0.19966249 0.06267248 -0.3828641 -0.12664364 -0.17575358
-0.028321667 0.24254566 -0.4955547 -0.07204338 0.0978994 -0.41451135 -0.19738877 0.2744287
0.18210858 -0.5692834 0.34529084 0.3094175 0.54954165 -0.056490123 0.011370018 -0.16296174
0.10919284 -0.0698357 0.07070082 -0.010238576 0.14294387 -0.06472593 -0.3105403 0.28852698
0.22990204 -0.13452303 -0.4655801 -0.12233071 -0.44769254 -0.3677965 0.3808122 -0.011125092
-0.103855334 -0.11969905 -0.17317426 -0.13330166 -0.10592498 -0.08162335 -0.14170076 -0.17617232
0.099785306 0.07517296 -0.4400946 -0.4254304 0.2518838 0.16998345 0.5834795 0.122671254
-0.10040451 -0.32013914 -0.2922522 0.0069154617 0.33750767 0.059672788 0.019097675 -0.07482147
0.2086803 0.15794428 0.5439024 0.36356306 0.4089945 0.27059352 0.22585613 -0.17561045
-0.25800502 -0.18770006 0.047199655 -0.045934595 0.20886257 0.0074208607 -0.25032902 0.12324114
-0.027165838 0.007698239 0.48599714 -0.5761794 0.10407857 -0.1707936 0.28789216 0.046890136
-0.2946071 0.22385666 0.19033907 0.2310059 -0.17105134 -0.1299553 -0.10914738 0.15972771
-0.30984885 0.33906636 0.2772314 -0.51309925 0.009889075 0.09382696 -0.61035246 -0.14818077
0.16844536 0.39032882 0.34914777 0.020991918 -0.48836288 0.12793802 -0.011543266 0.1716523
0.30107215 -0.28959498 -0.28158945 0.6459997 0.05123514 -0.371887 0.17476591 -0.24958701
0.24108101 0.31942534 -0.037418947 -0.21302196 0.29354656 -0.38424823 0.06989116 0.35862336
0.60275817 0.011676744 0.377978 -0.09825661 -0.26564687 -0.24360816 0.27449557 0.059481062
0.09447701 0.114834845 -0.49499896 0.046343964 -0.23818278 0.16560268 -0.082901105 -0.5462765
-0.3226754 -0.25777954 0.113890305 -0.6177776 0.30778345 0.55173856 0.061712883 -0.34782213
-0.13677575 -0.1511425 -0.36317453 -0.074890874 0.14127342 -0.22980179 -0.12161567 0.1705229
-0.018572537 0.21002421 0.39437732 -0.53731143 -0.031467807 0.2921289 0.080891035 -0.003289519
-0.33241996 0.09323524 0.13565777 0.0060437084 0.22312094 0.3470175 -0.16707931 -0.20510459
0.11698516 0.047288276 -0.25759292 0.29936025 -0.54489076 -0.45194826 -0.10846401 -0.22452563
0.2715423 -0.21356495 -0.3297751 -0.13102756 -0.41683334 0.47321415 -0.15964884 0.38049647
-0.24829279 -0.28499082 -0.06802004 0.2519543 -0.1649578 0.049819063 0.31858605 0.02876497
00000000: e480 0dbe d5e6 7b3c 9394 1d3e c3ac 25be
00000010: e164 b0be 3c71 d7bd 64af 1a3e 17ec 793e
00000020: 78d2 f63e 891d febd 8695 153f 5451 11bf
00000030: eaef d7be 67d4 9ebe b52d 963e 6b77 81bb
00000040: 7d17 9f3d 922d aabb 180b 1a3e 0e15 68bc
00000050: 7355 863e 1596 1a3f 2ba4 37bd af63 b03e
00000060: 5722 203e 95e1 71bd 86db 61be c2e4 c43e
00000070: bc7a d13e 58f5 dc3e 5c78 033f b076 fcbc
00000080: 83c9 9e3e c400 bdbc c4b4 b6be 612f e9bd
00000090: 580c b13a c54d ab3e 4606 62be 5fe7 41bd
000000a0: 4cbc ddbc c328 a0be 61cc 1dbd 4640 2b3f
000000b0: 7f1a e03d 927a 86be 899d 4dbe 5d1b 33bd
000000c0: 7c56 e43e 4368 96be 7bd9 88be 8e8e c4bc
000000d0: 1325 36be 525e 9d3d ade9 f1bd c3e3 01bf
000000e0: 140e cb3e 8a95 893e 5937 81be 5374 4c3e
000000f0: 6e5a 803d c306 c4be dfae 01be bff8 33be
00000100: d702 e8bc e45d 783e 58b9 fdbe 7b8b 93bd
00000110: 7b7f c83d d53a d4be 4820 4abe eb81 8c3e
00000120: ac7a 3a3e 8fbc 11bf f6c9 b03e f86b 9e3e
00000130: c3ae 0c3f 3062 67bd 5049 3a3c 71df 26be
00000140: 7fa0 df3d 0506 8fbd 97cb 903d b3bf 27bc
00000150: e15f 123e 078f 84bd 23ff 9ebe cfb9 933e
00000160: 716b 6b3e 68c0 09be 8460 eebe 8688 fabd
00000170: f537 e5be d34f bcbe d1f9 c23e 0546 36bc
00000180: 1bb2 d4bd c724 f5bd 9854 31be 3b80 08be
00000190: 32ef d8bd 252a a7bd 011a 11be 8466 34be
000001a0: 3d5c cc3d 48f4 993d 1454 e1be 03d2 d9be
000001b0: eaf6 803e 2410 2e3e ea5e 153f 113b fb3d
000001c0: e1a0 cdbd 47e9 a3be 15a2 95be 199b e23b
000001d0: cecd ac3e 746b 743d ba72 9c3c 003c 99bd
000001e0: 4ab0 553e 25bc 213e 303d 0b3f f024 ba3e
000001f0: ba67 d13e 3c8b 8a3e d446 673e 3ad3 33be
00000200: 3c19 84be 7234 40be 6d54 413d ea25 3cbd
00000210: 12e0 553e b12a f33b 202b 80be da65 fc3d
00000220: e48a debc 8241 fc3b 9ed4 f83e 7e80 13bf
00000230: 2527 d53d 84e4 2ebe 9a66 933e df0f 403d
00000240: bed6 96be ae3a 653e 3fe8 423e d08c 6c3e
00000250: 1528 2fbe 0113 05be a988 dfbd a98f 233e
00000260: 82a4 9ebe 1b9a ad3e 46f1 8d3e 795a 03bf
00000270: c905 223c 5928 c03d 0f40 1cbf b3bc 17be
00000280: f17c 2c3e 2ed9 c73e 7fc3 b23e 3ef7 ab3c
00000290: b30a fabe 2f02 033e f71f 3dbc 9fc5 2f3e
000002a0: 2126 9a3e cb45 94be 7e2c 90be 3d60 253f
000002b0: f0db 513d f967 bebe d6f5 323e bd93 7fbe
000002c0: f1dd 763e b88b a33e 9c44 19bd 6e22 5abe
000002d0: bc4b 963e 2fbc c4be 1923 8f3d 7b9d b73e
000002e0: 5c4e 1a3f d04f 3f3c 5586 c13e c33a c9bd
000002f0: de02 88be 6b74 79be af8a 8c3e 6aa2 733d
00000300: 2a7d c13d 882e eb3d 8170 fdbe 2bd3 3d3d
00000310: 30e6 73be c093 293e 0ec8 a9bd c7d8 0bbf
00000320: b635 a5be aefb 83be 523f e93d ac26 1ebf
00000330: cb95 9d3e bd3e 0d3f a6c6 7c3d be15 b2be
00000340: f10e 0cbe 19c5 1abe 03f2 b9be 6360 99bd
00000350: fba9 103e 2951 6bbe a311 f9bd 8e9d 2e3e
00000360: 6f25 98bc 9610 573e d3eb c93e 3e8d 09bf
00000370: 63e4 00bd eb91 953e 33aa a53d f994 57bb
00000380: f332 aabe 1ef2 be3d dfe9 0a3e 4d0a c63b
00000390: d179 643e 47ac b13e d716 2bbe f006 52be
000003a0: ea95 ef3d 5ab1 413d 38e3 83be bf45 993e
000003b0: f67d 0bbf c365 e7be 6122 debd 0cea 65be
000003c0: 9807 8b3e c5b0 5abe 48d8 a8be 172c 06be
000003d0: 2e6b d5be 2049 f23e fc7a 23be 6fd0 c23e
000003e0: 7740 7ebe 51ea 91be 174e 8bbd 2700 813e
000003f0: b3ea 28be 130f 4c3d b61d a33e 84a4 eb3c

encoder.0.fc.bias f4 [16]
0.116487786 -0.0061728377 0.0077819657 0.021690149 0.08401553 -0.027200539 -0.048765566 -0.013078112
0.0997776 0.07224719 0.12322291 -0.0026623553 -0.02316177 0.017957173 0.027358308 0.05927178
00000000: 2691 ee3d 8445 cabb dcff fe3b 8aaf b13c
00000010: 5610 ac3d aad3 debc 67be 47bd 9445 56bc
00000020: 3358 cc3d 56f6 933d 4b5c fc3d e97a 2ebb
00000030: c1bd bdbc ec1a 933c 881e e03c f7c6 723d

encoder.0.norm.weight f4 [16]
1.139179 1.2778451 1.2174066 1.2579447 1.2729467 1.0809197 1.3093214 1.2738895
1.2202832 1.217558 1.1836108 1.2328681 1.2182275 1.2806444 1.2357582 1.2131937
00000000: 9ed0 913f 6e90 a33f fbd3 9b3f 5504 a13f
00000010: ebef a23f 945b 8a3f d897 a73f d00e a33f
00000020: 3d32 9c3f f1d8 9b3f 8f80 973f 9fce 9d3f
00000030: e1ee 9b3f 28ec a33f 532d 9e3f ee49 9b3f

encoder.0.norm.bias f4 [16]
0.19188766 0.2863542 0.21919246 0.29555735 0.28608772 0.014380971 0.28615683 0.30052537
0.26180044 0.28749913 0.20331444 0.3062792 0.2725789 0.26517832 0.23616901 0.2764342
00000000: 337e 443e 059d 923e fd73 603e 4b53 973e
00000010: 177a 923e 2a9e 6b3c 2683 923e 76de 993e
00000020: b50a 863e 1633 933e a931 503e a1d0 9c3e
00000030: 768f 8b3e 74c5 873e 4ad6 713e c988 8d3e

encoder.0.norm.running_mean f4 [16]
0.0667451 0.29311988 -0.27247232 -0.7616016 -0.7277776 -0.075532295 0.73723525 -0.5361324
0.30803168 -0.7441132 -0.9550343 0.19585945 -1.2448914 0.096928045 -0.98959595 0.35626322
00000000: a8b1 883d cf13 963e 7e81 8bbe 53f8 42bf
00000010: a24f 3abf adb0 9abd 73bb 3c3f f93f 09bf
00000020: 54b6 9d3e 347e 3ebf 217d 74bf 618f 483e
00000030: 9a58 9fbf 3682 c63d 2956 7dbf 2268 b63e

encoder.0.norm.running_var f4 [16]
0.6887574 1.0507239 0.84186244 0.6702664 1.0856786 0.42748848 0.4310792 0.5483783
0.55254287 0.60058504 1.2732348 0.59052867 2.154838 0.5717081 0.728046 1.1199692
00000000: 6852 303f 1f7e 863f 4c84 573f 9496 2b3f
00000010: 84f7 8a3f c5df da3e 6ab6 dc3e 8562 0c3f
00000020: 7373 0d3f f1bf 193f 5cf9 a23f e32c 173f
00000030: dee8 0940 765b 123f 3961 3a3f 275b 8f3f

encoder.1.fc.weight f4 [16, 16]
-0.26283306 0.1309326 -0.30140108 0.012434435 -0.2547412 -0.11354279 -0.29516974 -0.2688983
0.43692225 -0.4786089 0.24208757 -0.3862683 0.059910387 0.22296438 -0.14736304 0.062192045
-0.18930303 -0.28323448 0.14319831 0.06522761 -0.06433606 0.20810334 -0.29173777 0.0036073572
-0.21299352 -0.43099043 -0.40735814 0.025884375 -0.31089714 0.10895042 -0.030149464 -0.016094476
0.10059984 0.15296431 0.104695484 -0.03818346 -0.03838228 0.15306212 -0.5034581 -0.14074425
-0.45289993 0.05931925 -0.5322729 -0.02146154 -0.07785993 -0.6371907 -0.4381543 0.0024336593
0.041397344 -0.27525628 -0.08268413 0.016495464 0.014867989 -0.14721297 -0.29414278 0.12150451
0.16061659 -0.5126702 0.34101644 -0.05790046 -0.47595274 0.09933047 0.07123461 -0.3554521
-0.1600732 -0.09175723 0.066887945 -0.017689917 -0.233818 -0.22035688 -0.09283833 0.13658151
0.23282097 -0.062007453 -0.23471965 -0.039825715 -0.030628867 -0.03532242 -0.72981036 -0.07497267
-0.28137553 0.048328303 0.3276474 0.029526005 0.047093097 -0.26493138 0.0006220418 -0.12652391
-0.22483338 -0.15079913 0.2301553 -0.50812817 -0.41763014 -0.0730303 -0.49337506 -0.08989476
0.11414197 -0.19937642 -0.68361706 -0.15624568 0.056627255 -0.39264655 -0.42529187 -0.12040413
-0.031846616 -0.13021559 -0.24476424 0.21851157 -0.5785343 0.4513768 0.4360755 0.12575684
-0.68350494 0.28603557 0.096192144 -0.013930709 -0.1693345 -0.21698803 -0.054706257 -0.43386889
-0.3134903 -0.2097178 0.0030409712 -0.28317913 -0.012245825 0.34022865 -0.23202655 -0.37019548
-0.051643103 -0.074168034 -0.24488133 -0.20244431 0.19923165 0.028241644 -0.10673221 -0.53531784
0.108363755 0.20495628 -0.48274094 -0.33819726 -0.11031443 -0.06350886 -0.6488951 -0.06782133
0.07965569 -0.051604625 0.13332263 -0.11411299 0.10902553 -0.005123306 -0.18659659 0.5655429
0.22870997 -0.598971 -0.29648608 0.20818795 -0.051371507 -0.44382757 0.3467021 -0.129348
0.16206934 -0.26228052 -0.49031472 -0.06976858 0.08007473 0.18585053 0.18819445 -0.08591307
-0.030502487 0.10047345 -0.10932854 -0.6008221 -0.13059315 0.31889853 -0.08396938 -0.30094662
-0.5109212 -0.34107524 -0.14038192 -0.15497038 -0.11527624 -0.022966094 -0.60050124 0.13388154
-0.39973575 -0.30497423 0.23128088 -0.29179275 -0.5697079 -0.31798956 0.16896234 0.1039228
0.083644874 -0.48092446 -0.038880743 -0.18293636 -0.36153716 0.0015467718 -0.16967696 -0.25951087
0.16194142 0.17558372 -0.27112857 0.13827597 0.06837805 -0.37532252 -0.24569874 -0.17959785
0.23783386 -0.47000617 -0.32009906 -0.24434914 -0.40554616 -0.0635604 -0.11369279 -0.36323574
-0.20455511 -0.35436293 -0.012728567 -0.1591237 -0.10950176 0.36605436 -0.13828741 -0.020980095
0.19860438 -0.27114478 -0.26338047 -0.06967681 -0.21997476 -0.27949157 0.19163646 -0.57943106
0.005982824 0.012218464 -0.4328518 -0.1268698 -0.415021 0.32446265 0.17991702 -0.10200623
0.01659845 -0.03779948 0.12155661 -0.21097061 -0.34950557 -0.41960457 -0.094971135 -0.5704115
0.08838975 0.3260358 -0.09832003 -0.11244724 -0.059565123 -0.24679306 0.28488082 -0.02858893
00000000: 0e92 86be 3213 063e 3e51 9abe cdb9 4b3c
00000010: 706d 82be 1f89 e8bd 7d20 97be 0aad 89be
00000020: 46b4 df3e 3a0c f5be cee5 773e f5c4 c5be
00000030: 9864 753d c650 643e 56e6 16be 16bd 7e3d
00000040: a7d8 41be 1c04 91be 94a2 123e 0e96 853d
00000050: a0c2 83bd 0b19 553e a75e 95be 6969 6c3b
00000060: f91a 5abe c7aa dcbe 3f91 d0be 780b d43c
00000070: e92d 9fbe 6621 df3d 02fc f6bc 90d8 83bc
00000080: 4a07 ce3d ada2 1c3e 966a d63d 4266 1cbd
00000090: bd36 1dbd 51bc 1c3e a1e2 00bf 431f 10be
000000a0: 80e2 e7be bef8 723d 0943 08bf 1dd0 afbc
000000b0: 0775 9fbd ee1e 23bf c355 e0be 077e 1f3b
000000c0: 4390 293d 64ee 8cbe 4c56 a9bd 7f21 873c
000000d0: de98 733c ffbe 16be e299 96be 5bd7 f83d
000000e0: ad78 243e 5b3e 03bf b599 ae3e 0829 6dbd
000000f0: 14b0 f3be c66d cb3d 74e3 913d d1fd b5be
00000100: 3bea 23be 37eb bbbd 8cfc 883d 72ea 90bc
00000110: fc6d 6fbe 3ca5 61be 0622 bebd 06dc 0b3e
00000120: 9f68 6e3e 87fb 7dbd 595a 70be 4a20 23bd
00000130: 64e9 fabc 3eae 10bd dad4 3abf 458b 99bd
00000140: 7410 90be e6f3 453d 66c1 a73e 85e0 f13c
00000150: b1e4 403d 16a5 87be 8510 233a 7c8f 01be
00000160: b93a 66be 166b 1abe d5ad 6b3e b014 02bf
00000170: 9ed3 d5be e990 95bd a89b fcbe be1a b8bd
00000180: 44c3 e93d 5529 4cbe 8701 2fbf defe 1fbe
00000190: fbf1 673d f808 c9be dbbf d9be 7196 f6bd
000001a0: 9971 02bd 3c57 05be 7aa3 7abe 7fc1 5f3e
000001b0: d31a 14bf dc1a e73e 4a45 df3e 67c6 003e
000001c0: 2efa 2ebf 4173 923e 6300 c53d a13d 64bc
000001d0: 0666 2dbe 1c32 5ebe ab13 60bd 1024 debe
000001e0: cd81 a0be 43c0 56be 084b 473b dbfc 90be
000001f0: b6a2 48bc 7332 ae3e 5e98 6dbe 438a bdbe
00000200: b887 53bd 69e5 97bd 2cc2 7abe 904d 4fbe
00000210: 6203 4c3e 055b e73c 6b96 dabd 970a 09bf
00000220: d1ed dd3d 0fe0 513e d229 f7be 3128 adbe
00000230: 88ec e1bd ef10 82bd fd1d 26bf e9e5 8abd
00000240: 8622 a33d 5f5f 53bd ba85 083e 12b4 e9bd
00000250: c748 df3d 68e1 a7bb 2d13 3fbe 6bc7 103f
00000260: f232 6a3e 2a56 19bf 06cd 97be 392f 553e
00000270: ee6a 52bd 5e3d e3be f082 b13e cd73 04be
00000280: 81f5 253e a249 86be 880a fbbe d4e2 8ebd
00000290: 38fe a33d 9a4f 3e3e 0cb6 403e 31f3 afbd
000002a0: 5ae0 f9bc 06c5 cd3d a4e7 dfbd 7acf 19bf
000002b0: 36ba 05be ab46 a33e 23f8 abbd ad15 9abe
000002c0: bbcb 02bf 6aa1 aebe 47c0 0fbe 8eb0 1ebe
000002d0: f315 ecbd 6423 bcbc 73ba 19bf 3e18 093e
000002e0: 2aaa ccbe 9525 9cbe e5d4 6c3e dc65 95be
000002f0: 60d8 11bf 87cf a2be 7704 2d3e 7ad5 d43d
00000300: 014e ab3d bb3b f6be 6a41 1fbd ab53 3bbe
00000310: 661b b9be 0dbd ca3a ccbf 2dbe 9cde 84be
00000320: f9d3 253e 38cc 333e 5dd1 8abe 3798 0d3e
00000330: cb09 8c3d 462a c0be 7398 7bbe 80e8 37be
00000340: b88a 733e a6a4 f0be 06e4 a3be a936 7abe
00000350: bfa3 cfbe f42b 82bd c4d7 e8bd 09fa b9be
00000360: e576 51be 0f6f b5be 7b8b 50bc 53f1 22be
00000370: 7542 e0bd 7a6b bb3e 379b 0dbe 73de abbc
00000380: f25e 4b3e 7dd3 8abe ced9 86be b7b2 8ebd
00000390: 1041 61be 8519 8fbe 593c 443e 9855 14bf
000003a0: 910b c43b f42f 483c c09e ddbe 28ea 01be
000003b0: a27d d4be f81f a63e 2b3c 383e a4e8 d0bd
000003c0: 79f9 873c a1d3 1abd acf2 f83d ae08 58be
000003d0: 65f2 b2be 69d6 d6be 3a80 c2bd 7d06 12bf
000003e0: af05 b53d 2aee a63e 035c c9bd bd4a e6bd
000003f0: 8ffa 73bd 52b7 7cbe e6db 913e 5533 eabc

encoder.1.fc.bias f4 [16]
0.03466843 0.11325121 0.030145956 0.008334111 0.08517185 0.08882898 0.0088514 0.014121914
0.085227 0.18511862 0.068762794 0.0708436 0.13059339 0.12524411 0.035519406 0.08436223
00000000: 7c00 0e3d 40f0 e73d a7f4 f63c cc8b 083c
00000010: 946e ae3d f8eb b53d 7605 113c 9a5f 673c
00000020: 7e8b ae3d bc8f 3d3e 82d3 8c3d 7316 913d
00000030: 46ba 053e fe3f 003e cc7c 113d 1bc6 ac3d

encoder.1.norm.weight f4 [16]
1.1091461 1.2461724 1.159162 1.2898053 1.2859725 1.102587 1.2798128 1.2100661
1.2558212 1.1680719 1.2527778 1.2900208 1.2633978 1.2515808 1.2107364 1.2625775
00000000: 80f8 8d3f 9482 9f3f 6c5f 943f 5718 a53f
00000010: bf9a a43f 9221 8d3f e8d0 a33f 72e3 9a3f
00000020: c0be a03f 6183 953f 065b a03f 671f a53f
00000030: 05b7 a13f cd33 a03f 69f9 9a3f 249c a13f

encoder.1.norm.bias f4 [16]
0.17025709 0.31106067 0.21464913 0.2943297 0.3051689 0.08199308 0.29403967 0.25843713
0.28307873 0.23155294 0.2511303 0.3097977 0.3079276 0.2792378 0.21894099 0.2886865
00000000: e057 2e3e 5843 9f3e fbcc 5b3e 62b2 963e
00000010: 193f 9c3e fdeb a73d 5e8c 963e df51 843e
00000020: b2ef 903e 371c 6d3e 2794 803e ce9d 9e3e
00000030: b0a8 9d3e 42f8 8e3e 1132 603e b8ce 933e

encoder.1.norm.running_mean f4 [16]
-0.5288922 -1.0478055 -1.8591989 -2.3328354 -1.4348872 -1.7653835 -0.15141223 -2.9032469
-1.8701793 -0.59327275 -1.7828887 -1.6583991 -2.0315955 -1.4837444 -1.3565053 -0.88204473
00000000: 7b65 07bf 7e1e 86bf 3bfa edbf 2d4d 15c0
00000010: 62aa b7bf 16f8 e1bf cf0b 1bbe ccce 39c0
00000020: 0962 efbf b9e0 17bf b235 e4bf 6c46 d4bf
00000030: a905 02c0 56eb bdbf f7a1 adbf afcd 61bf

encoder.1.norm.running_var f4 [16]
0.6196881 0.9300738 1.0776861 1.4756267 0.4833588 0.45635232 3.0385685 2.4907985
2.276829 1.2343556 3.2814655 2.7689712 0.70685893 1.5382898 3.1129951 0.7211411
00000000: e1a3 1e3f 5119 6e3f 9ef1 893f 56e1 bc3f
00000010: ce7a f73e 03a7 e93e e877 4240 3e69 1f40
00000020: 91b7 1140 5dff 9d3f 8803 5240 d336 3140
00000030: b5f4 343f aee6 c43f 503b 4740 b49c 383f

encoder.2.weight f4 [32, 16]
-0.48223597 -0.54889596 0.047402944 -0.26388615 -0.056086052 -0.39170003 -0.15366893 0.18336
0.21479702 0.03203325 0.04071646 0.10790738 -0.2138278 -0.10450941 -0.08036453 -0.16933663
-0.1365181 0.37303996 0.11248704 -0.11004099 0.24473555 -0.24127115 0.34511408 -0.13906927
0.35396567 -0.017321711 0.42122835 0.043956384 0.33238703 -0.01253359 0.27114937 0.18867381
0.36535946 0.016147744 -0.1893503 0.46043253 0.077180654 -0.07921507 0.2045949 0.45952255
0.10796302 -0.29801866 0.033264562 0.5618209 0.40589514 0.15910429 0.02770492 -0.07085722
0.08639087 -0.4270773 -0.12459055 0.023807863 -0.36443004 0.077741615 -0.10244461 -0.15378761
-0.3406957 0.03893081 0.09188884 -0.019526966 -0.51796997 -0.29106584 -0.20131327 -0.14669351
0.27483714 -0.09374443 -0.14756128 -0.093039475 0.3422952 -0.37265867 -0.21031341 0.2513285
-0.26178092 0.29313108 -0.048711725 -0.1655118 0.18111041 -0.347245 0.0029462627 0.17733242
-0.35803944 -0.055404156 -0.07874297 0.018920464 -0.07955512 -0.12571047 0.11106762 0.11389632
-0.31777903 0.00057099474 -0.08589053 -0.48013103 -0.029587101 0.14007379 -0.16912772 -0.18149927
-0.18662786 0.57655877 0.3093986 -0.014836566 0.27512723 -0.098711945 0.008576739 -0.16958869
0.01897859 -0.091718405 0.1359517 0.10751866 0.41439372 0.3220303 0.09232594 0.33717528
-0.46219826 -0.20240061 0.10442365 -0.50922364 0.13981427 -0.20386043 0.07496631 -0.029557113
-0.16896206 0.0040464737 -0.05279892 0.10400113 -0.4050857 0.06592612 -0.19728264 -0.34976983
-0.27513415 -0.46284494 -0.33475634 -0.017930768 -0.1208548 -0.42545307 -0.1322388 -0.42394274
-0.35557222 0.31476188 0.10912691 -0.11057335 -0.20733994 0.08789613 -0.21448776 0.07164596
0.11909224 -0.049205635 0.11959453 -0.15891589 0.2196532 -0.2743178 -0.20034604 0.13394466
-0.15286987 -0.25452632 0.08055991 -0.45944268 -0.06981092 -0.34249464 -0.26825556 -0.2872182
-0.20839526 0.10519439 0.165638 0.02742197 0.05730111 -0.231361 -0.00863517 0.13540906
0.3546537 -0.08131254 0.14119211 0.44355446 0.5368906 0.2897757 0.015421185 -0.265512
0.27773088 -0.09630066 -0.21135597 0.43851408 0.44595796 0.14689063 0.21146184 -0.1939494
-0.17119798 0.032180563 0.5475432 0.15826012 0.4298097 -0.09595313 -0.14241771 0.09497958
0.12967806 0.080625705 0.19495593 -0.019614358 0.121618964 0.2750564 0.16678098 0.25145173
0.29793403 0.08565629 0.22444794 0.25299755 0.19562817 0.28297853 -0.13042362 0.03946563
0.106887594 0.028756835 0.27249104 0.40776828 0.11754627 -0.015898287 -0.069302075 0.19548817
-0.22801183 0.29050946 0.42238215 0.18024792 0.3929441 0.23208399 0.14201705 0.30590037
-0.44842172 -0.29564238 -0.19799037 -0.1930883 0.2662626 0.27041215 0.22589707 -0.20914257
0.030347856 -0.13791002 0.098211184 -0.27807662 0.17524262 -0.38961753 0.18103117 0.25201988
-0.02087573 0.4687743 -0.0039557004 0.3178067 0.24885686 0.008924472 0.3129002 0.29255185
0.098120786 0.18949829 0.44415978 0.26414442 0.13508673 0.25948477 -0.046359245 0.2954526
00000000: a2e7 f6be 7284 0cbf 9729 423d 161c 87be
00000010: 7dba 65bd e88c c8be 635b 1dbe b9c2 3b3e
00000020: c0f3 5b3e 4c35 033d 4ec6 263d 8bfe dc3d
00000030: adf5 5abe 0809 d6bd 2996 a4bd 9566 2dbe
00000040: 67cb 0bbe 18ff be3e 9b5f e63d 2c5d e1bd
00000050: f59b 7a3e c90f 77be cbb2 b03e 2d68 0ebe
00000060: fd3a b53e 43e6 8dbc 3eab d73e 9c0b 343d
00000070: a22e aa3e b059 4dbc 17d4 8a3e b533 413e
00000080: 6510 bb3e 4648 843c 0ce5 41be d0bd eb3e
00000090: e410 9e3d 833b a2bd 5381 513e 8a46 eb3e
000000a0: b71b dd3d e795 98be 6c40 083d 7fd3 0f3f
000000b0: 7dd1 cf3e 3cec 223e 6ef5 e23c 971d 91bd
000000c0: b2ed b03d e0a9 dabe 5529 ffbd b508 c33c
000000d0: 9396 babe ff36 9f3d 7bce d1bd 807a 1dbe
000000e0: ab6f aebe ea75 1f3d 3730 bc3d 04f7 9fbc
000000f0: ae99 04bf 9506 95be 1125 4ebe d336 16be
00000100: 74b7 8c3e 14fd bfbd 4e1a 17be 7b8b bebd
00000110: 5141 af3e 1ecd bebe 665c 57be 21ae 803e
00000120: 2608 86be 4715 963e f285 47bd ed7b 29be
00000130: 0275 393e 19ca b1be 1616 413b a196 353e
00000140: f250 b7be 78ef 62bd ff43 a1bd 17ff 9a3c
00000150: cbed a2bd 3fba 00be 6c77 e33d 7942 e93d
00000160: efb3 a2be cfae 153a 60e7 afbd bcd3 f5be
00000170: a660 f2bc 816f 0f3e d12f 2dbe f2da 39be
00000180: 601b 3fbe 5b99 133f 7e69 9e3e 1115 73bc
00000190: 7add 8c3e 7d29 cabd 7385 0c3c a8a8 2dbe
000001a0: fd78 9b3c dcd6 bbbd ec36 0b3e be32 dc3d
000001b0: 6a2b d43e 28e1 a43e 6215 bd3d 3da2 ac3e
000001c0: 40a5 ecbe 1b42 4fbe 11dc d53d 7b5c 02bf
000001d0: 792b 0f3e cac0 50be f087 993d c221 f2bc
000001e0: 6404 2dbe 4898 843b ae43 58bd 8bfe d43d
000001f0: 6567 cfbe 4604 873d 7604 4abe 0815 b3be
00000200: 62de 8cbe 03fa ecbe 2f65 abbe 8ce3 92bc
00000210: b982 f7bd fcd4 d9be 9c69 07be 060f d9be
00000220: 900d b6be 7828 a13e ee7d df3d 4874 e2bd
00000230: ec50 54be e302 b43d aea2 5bbe 1ebb 923d
00000240: a2e6 f33d d98b 49bd faed f43d d9ba 22be
00000250: c5ec 603e 6273 8cbe 8327 4dbe ca28 093e
00000260: eb89 1cbe 4651 82be 98fc a43d 123c ebbe
00000270: 07f9 8ebd 755b afbe cb58 89be 440e 93be
00000280: 9165 55be 2870 d73d 029d 293e 0aa4 e03c
00000290: 92b4 6a3d e6e9 6cbe 877a 0dbc aca8 0a3e
000002a0: 2b95 b53e 3087 a6bd aa94 103e 9219 e33e
000002b0: aa71 093f 7b5d 943e 23a9 7c3c 30f1 87be
000002c0: be32 8e3e 4839 c5bd b36d 58be eb84 e03e
000002d0: 9a54 e43e 7f6a 163e 7489 583e ac9a 46be
000002e0: 864e 2fbe c4cf 033d cb2b 0c3f f10e 223e
000002f0: 0410 dc3e 1383 c4bd f3d5 11be a784 c23d
00000300: 53ca 043e 171f a53d 87a2 473e 4aae a0bc
00000310: 5d13 f93d 31d4 8c3e a2c8 2a3e 48be 803e
00000320: cf8a 983e 916c af3d aed5 653e e588 813e
00000330: c052 483e 90e2 903e c58d 05be b6a6 213d
00000340: e2e7 da3d 7493 eb3c f283 8b3e 01c7 d03e
00000350: 19bc f03d 203d 82bc 3fee 8dbd 0d2e 483e
00000360: ef7b 69be a8bd 943e 7942 d83e e992 383e
00000370: f82f c93e 6da7 6d3e eb6c 113e f99e 9c3e
00000380: 8897 e5be 705e 97be fdbd 4abe f0b8 45be
00000390: 9253 883e 7673 8a3e 9051 673e 7829 56be
000003a0: 119c f83c 4938 0dbe f222 c93d 0f60 8ebe
000003b0: cd72 333e f37b c7be 3c60 393e c008 813e
000003c0: 9403 abbc 2f03 f03e d29e 81bb 8fb7 a23e
000003d0: 55d4 7e3e f337 123c 7434 a03e 5bc9 953e
000003e0: 8df3 c83d d70b 423e e968 e33e f03d 873e
000003f0: 2d54 0a3e 30db 843e 31e3 3dbd 9045 973e

encoder.2.bias f4 [32]
-0.25571877 0.23336826 0.25920975 -0.2694799 0.041130334 -0.2673494 0.25678253 -0.24051578
-0.2535953 -0.23580071 0.22134234 0.27113274 0.2555625 0.251321 -0.15058662 0.2695616
-0.23724918 0.24130744 -0.2380543 -0.2775428 0.24528968 0.26784685 0.27156973 0.26402217
0.24244343 0.2667063 -0.2585661 0.24634229 -0.27861345 -0.27041614 -0.25841174 0.19221844
00000000: 92ed 82be 17f8 6e3e 24b7 843e 45f9 89be
00000010: 4878 283d 05e2 88be 0079 833e c549 76be
00000020: 3ed7 81be be75 71be 91a7 623e e9d1 8a3e
00000030: 17d9 823e 25ad 803e 6133 1abe fa03 8a3e
00000040: 73f1 72be 4c19 773e 82c4 73be 171a 8ebe
00000050: 382d 7b3e 3923 893e 300b 8b3e ea2d 873e
00000060: 1743 783e ba8d 883e c762 84be 2741 7c3e
00000070: 6ca6 8ebe fc73 8abe 8b4e 84be e9d4 443e

residual.0.fc.weight f4 [16, 32]
-0.26284146 -0.14278127 -0.25459892 0.2515115 -0.1958511 -0.09164882 0.20817146 -0.114712015
-0.100377746 0.2244956 0.2621668 -0.056835424 -0.13289456 0.18527089 -0.250771 0.12463893
-0.2854122 0.020609485 0.37763014 -0.020884128 -0.14674003 0.31286132 0.29063836 -0.34675083
-0.37432438 -0.24059595 -0.0048947646 0.19369127 -0.22741345 -0.33148888 0.17720617 -0.06455214
0.22800118 -0.092322156 -0.025876362 -0.29321772 -0.2553948 0.060681183 0.25553676 -0.008397507
-0.21295851 -0.067300916 0.18559077 0.13356796 -0.2602444 -0.016202793 -0.23263034 -0.23703378
0.3110453 -0.14882985 -0.19726358 0.25183252 -0.16951561 -0.37857014 -0.10066886 -0.12677737
-0.39643714 -0.14801578 0.2728163 -0.12794602 -0.1213183 0.13766538 -0.18388835 0.04941548
-0.31140065 0.2683015 -0.1445758 -0.1619673 -0.2922853 -0.097869925 -0.22404477 0.30630878
-0.11100911 0.053791303 -0.044212822 -0.03572608 0.2428394 -0.20788492 0.020177757 0.21841188
-0.33531606 -0.11236738 -0.24923067 -0.12205174 0.12087056 0.03672806 0.37727448 -0.29240525
-0.29189593 0.20906419 -0.16312325 0.29898557 0.04324049 -0.12933308 0.12325653 0.15420854
-0.27647853 0.12802108 -0.15291214 -0.062264223 0.32095325 -0.010202476 0.04462845 0.2994842
0.03604048 0.26426384 -0.23172356 -0.29673564 -0.034350872 -0.23816358 -0.205626 -0.059172224
0.083945915 -0.31232545 -0.028943796 0.05403612 -0.15264565 -0.21443757 -0.15692346 0.032961212
-0.1542705 -0.25924954 0.09450486 -0.08236488 -0.060230263 0.16855666 -0.12347243 -0.07702267
0.25364384 -0.12999612 0.049654696 0.11483604 -0.15831815 0.24656102 -0.015016756 0.20466079
-0.13269538 -0.19928983 -0.2769851 -0.24935824 -0.14896195 0.20152791 0.1842144 -0.048574604
-0.041976754 -0.10278964 -0.25089934 -0.14712137 0.10766028 0.28884986 0.26747727 0.103594236
0.095931605 0.265744 0.2922779 -0.22302803 -0.24973173 0.1336454 -0.031259816 -0.29901245
0.1735245 0.32344332 -0.33306152 0.2845618 0.06350189 -0.24253123 0.3082254 0.06551511
0.16327678 -0.37464884 0.32588902 -0.19977553 -0.059803963 -0.22257715 0.1477054 -0.11162887
-0.012205569 -0.085792296 -0.09511881 0.24824134 0.051701315 -0.13150735 0.09435435 -0.039757088
-0.26114863 0.21547537 -0.11777591 0.21587436 0.10394457 0.24580625 0.111614846 0.18471014
-0.26583412 -0.312773 -0.12739745 0.03376517 -0.11355759 -0.18495269 0.22554299 -0.3394635
-0.060483888 0.06516363 0.16893812 0.005250791 0.05406252 0.05063038 0.30554834 -0.031618487
-0.11292613 -0.05066383 0.2135348 -0.049883585 0.13403545 0.3052817 -0.34788147 -0.19942172
-0.074539505 0.12539968 -0.26196408 0.02441969 -0.24678975 -0.16168433 0.058304194 0.29836917
-0.016698927 -0.051164426 -0.36138773 0.081509165 0.14643034 -0.10092398 0.29776564 -0.2636084
0.14377335 -0.15639716 0.22067873 -0.11374334 -0.011448394 0.051687688 0.13475038 0.32584175
0.41229743 -0.33677688 0.12635067 -0.037037782 0.08160469 -0.08876155 0.037016034 0.059746962
0.17126441 -0.3217176 -0.08258022 -0.033869 -0.044213917 0.13427126 -0.053312838 -0.07020528
00000000: 2893 86be 4135 12be ca5a 82be 1ec6 803e
00000010: 318d 48be 60b2 bbbd e62a 553e 22ee eabd
00000020: d992 cdbd 2de2 653e ba3a 863e 43cc 68bd
00000030: 8315 08be a7b7 3d3e 0e65 80be b242 ff3d
00000040: 8c21 92be 39d5 a83c bd58 c13e 3115 abbc
00000050: 0543 16be 5c2f a03e 8dce 943e 5389 b1be
00000060: 72a7 bfbe c95e 76be 4364 a0bb 0157 463e
00000070: 12df 68be e9b8 a9be 8975 353e ea33 84bd
00000080: 2479 693e 6613 bdbd aafa d3bc a220 96be
00000090: 1bc3 82be d58c 783d b7d5 823e b295 09bc
000000a0: cc11 5abe 10d5 89bd 820b 3e3e 0ac6 083e
000000b0: c13e 85be b8bb 84bc a636 6ebe fcb8 72be
000000c0: 5441 9f3e da66 18be 77ff 49be 31f0 803e
000000d0: 8095 2dbe f2d3 c1be 7a2b cebd edd1 01be
000000e0: cff9 cabe 7391 17be 94ae 8b3e 4804 03be
000000f0: bb75 f8bd 27f8 0c3e 3a4d 3cbe e367 4a3d
00000100: e86f 9fbe d05e 893e ae0b 14be c2da 25be
00000110: 6ba6 95be 0770 c8bd fe6b 65be 81d4 9c3e
00000120: bf58 e3bd 4554 5c3d 8118 35bd 8355 12bd
00000130: e4aa 783e c9df 54be d34b a53c 5da7 5f3e
00000140: 8cae abbe de20 e6bd 5336 7fbe 43f6 f9bd
00000150: fc8a f73d 2a70 163d 1f2a c13e 24b6 95be
00000160: 6273 95be ec14 563e c809 27be a314 993e
00000170: f11c 313d e46f 04be eb6d fc3d d8e8 1d3e
00000180: 988e 8dbe f517 033e 0095 1cbe c508 7fbd
00000190: fc53 a43e 4928 27bc 52cc 363d fe55 993e
000001a0: 2f9f 133d 974d 873e f148 6dbe bced 97be
000001b0: 80b3 0cbd 27e1 73be 9f8f 52be 935e 72bd
000001c0: d6eb ab3d 1fe9 9fbe 8a1b edbc fb54 5d3d
000001d0: 244f 1cbe 8695 5bbe 8bb0 20be 5602 073d
000001e0: 16f9 1dbe 5bbc 84be c48b c13d ebae a8bd
000001f0: 02b4 76bd 1e9a 2c3e 1ddf fcbd 10be 9dbd
00000200: 9bdd 813e b41d 05be b962 4b3d 282f eb3d
00000210: 271e 22be 7e7a 7c3e d708 76bc 9992 513e
00000220: 4ce1 07be a212 4cbe fed0 8dbe c457 7fbe
00000230: 7b89 18be 555d 4e3e b3a2 3c3e 2af6 46bd
00000240: d1ef 2bbd 6083 d2bd e175 80be fca6 16be
00000250: fe7c dc3d 21e4 933e c8f2 883e 3729 d43d
00000260: ca77 c43d 990f 883e 73a5 953e 7661 64be
00000270: adb9 7fbe 57da 083e 4b0a 00bd 2918 99be
00000280: 68b0 313e 5d9a a53e 0a87 aabe 16b2 913e
00000290: 470d 823d 1b5a 78be b8cf 9d3e c92c 863d
000002a0: 0732 273e f9d1 bfbe edda a63e f591 4cbe
000002b0: 00f5 74bd 44eb 63be 1640 173e ad9d e4bd
000002c0: def9 47bc dfb3 afbd a7cd c2bd fa32 7e3e
000002d0: c2c4 533d dda9 06be da3c c13d 54d8 22bd
000002e0: 46b5 85be 93a5 5c3e 7f34 f1bd 2b0e 5d3e
000002f0: e4e0 d43d a2b4 7b3e 5396 e43d a824 3d3e
00000300: 691b 88be c823 a0be 7a74 02be 594d 0a3d
00000310: e290 e8bd 3d64 3dbe bef4 663e 29ce adbe
00000320: f4bd 77bd 8274 853d 1dfe 2c3e d40e ac3b
00000330: a970 5d3d cd61 4f3d d570 9c3e 6382 01bd
00000340: d145 e7bd e084 4fbd dea8 5a3e bb52 4cbd
00000350: 9740 093e e24d 9c3e 851d b2be 3535 4cbe
00000360: 2ba8 98bd c668 003e 2820 86be cd0b c83c
00000370: 74b6 7cbe 9490 25be 61d0 6e3d d8c3 983e
00000380: 30cc 88bc ca91 51bd d007 b9be 47ee a63d
00000390: d6f1 153e 3bb1 cebd bd74 983e aef7 86be
000003a0: 5239 133e 9426 20be 9bf9 613e 45f2 e8bd
000003b0: 0b92 3bbc 78b6 533d 01fc 093e bbd4 a63e
000003c0: a618 d33e 056e acbe 1262 013e eeb4 17bd
000003d0: 5c20 a73d 9ec8 b5bd 209e 173d 3bb9 743d
000003e0: f05f 2f3e 2bb8 a4be d21f a9bd 38ba 0abd
000003f0: a719 35bd 687e 093e 905e 5abd c9c7 8fbd

residual.0.fc.bias f4 [16]
0.00045739752 0.005923314 0.0031021426 0.010528172 0.0028703066 0.0071328375 -0.00474032 0.00097125623
0.013934598 0.0019868664 0.0018160694 -0.0052211434 0.016564 0.0011046806 0.00013008493 0.004977652
00000000: dbce ef39 5c18 c23b 514d 4b3b 5b7e 2c3c
00000010: c11b 3c3b 94ba e93b b054 9bbb e79b 7e3a
00000020: f14d 643c 1636 023b 2d09 ee3a 2016 abbb
00000030: 3ab1 873c eeca 903a 6867 0839 921b a33b

residual.0.norm.weight f4 [16]
0.9097128 0.93441296 1.0670407 0.9018353 0.9851656 0.94537556 0.9802557 1.058012
1.0318938 0.99730134 0.9716722 1.0445099 1.0218692 0.9632486 0.9817271 0.95963603
00000000: f0e2 683f b035 6f3f ca94 883f aede 663f
00000010: d033 7c3f 2204 723f 0af2 7a3f f06c 873f
00000020: 1915 843f 244f 7f3f 82bf 783f 80b2 853f
00000030: 9ccc 823f 7697 763f 7852 7b3f b5aa 753f

residual.0.norm.bias f4 [16]
-0.08312644 0.00500647 0.029114671 -0.034102768 -0.0048318305 -0.037428543 0.003909636 0.011108594
0.013657144 -0.025512528 0.005239127 0.037047815 0.008988394 0.023221167 0.011429566 -0.037655253
00000000: 323e aabd 500d a43b e481 ee3c 58af 0bbd
00000010: 5554 9ebb ac4e 19bd 671c 803b d200 363c
00000020: 37c2 5f3c a6ff d0bc fcac ab3b 73bf 173d
00000030: 0f44 133c 513a be3c 1343 3b3c 653c 1abd

residual.0.norm.running_mean f4 [16]
-0.6159542 -6.900974 5.9826384 -8.90073 1.7025253 -2.133986 3.4666448 1.5592763
8.151956 4.4918284 -0.42151478 -1.1482501 -2.6035745 3.1163158 0.8264279 -1.526253
00000000: 2daf 1dbf c7d4 dcc0 c671 bf40 6469 0ec1
00000010: 59ec d93f 3a93 08c0 82dd 5d40 5e96 c73f
00000020: 696e 0241 0fbd 8f40 c9d0 d7be dcf9 92bf
00000030: f7a0 26c0 b871 4740 c790 533f 425c c3bf

residual.0.norm.running_var f4 [16]
2.314032 1.4057134 2.7204967 1.420118 0.95187056 0.7980237 1.211167 2.532648
0.82150215 0.8951498 2.1811657 1.0953159 0.6783014 3.2671132 0.6474177 4.6273704
00000000: 1a19 1440 6bee b33f 9e1c 2e40 6dc6 b53f
00000010: caad 733f 484b 4c3f 8507 9b3f e816 2240
00000020: f74d 523f 8a28 653f 3898 0b40 5033 8c3f
00000030: 29a5 2d3f 6218 5140 2bbd 253f 6b13 9440

residual.0.projection.weight f4 [16, 32]
0.27310485 -0.30713272 0.17608534 0.016911846 -0.26528338 0.2652814 -0.067686655 0.35220674
-0.32656062 -0.103543535 0.23962575 0.10174819 -0.17688185 0.32781428 0.317322 0.2598347
0.1095013 0.22035556 -0.23734419 -0.08399242 0.06289302 -0.20162375 -0.07027324 0.085271336
-0.26885566 -0.032903105 -0.29927236 -0.015116126 -0.33815387 -0.03783753 -0.2148557 -0.10032969
0.1702966 0.1921709 -0.10747992 -0.28464493 0.21598804 0.28086013 0.03131511 -0.16882975
0.03769666 0.06989315 0.3340168 0.15012309 0.1782055 -0.11071048 0.3665039 0.0723633
-0.06296112 -0.20693079 0.006785734 0.20970707 -0.3403371 0.32874537 0.19471468 -0.116939306
0.26267868 -0.1554071 0.15554743 -0.23215748 0.0875886 -0.048172247 -0.09982417 0.27174369
-0.28304693 0.03563659 0.15089396 -0.026463578 0.06581083 -0.096431926 -0.3146337 -0.1455764
-0.31097353 -0.35496706 -0.008966076 -0.13943622 0.15020591 0.30720276 0.30354822 -0.3106992
-0.08009473 0.33369467 -0.09834529 0.1293249 0.3756931 0.14794871 0.2714978 0.26830512
-0.29830378 0.14746048 -0.35174316 -0.20822273 -0.307294 -0.3118528 0.08663798 -0.27493566
0.35631013 -0.02650588 0.078629464 0.32112843 0.07200241 -0.2503778 0.30622512 -0.060020976
0.12995648 -0.1595797 -0.17875426 -0.12895267 -0.11137804 -0.13370453 0.20643099 -0.16610684
0.30224207 -0.25790307 -0.13395956 0.09102754 -0.22967191 -0.24571878 0.110196404 -0.19772239
0.29064143 -0.27111766 -0.16624643 0.10417056 -0.028163403 -0.056373958 -0.3329146 -0.045257874
0.31866008 0.33713976 0.03892939 0.029834416 -0.08998498 0.33163694 -0.023290701 0.20278239
-0.081471376 -0.19910298 0.14887519 -0.15854883 -0.34432322 0.24749555 -0.08076519 -0.26270813
-0.093648046 -0.26818904 0.28780815 0.040998172 -0.19155745 0.13251528 -0.014315888 -0.021173429
0.1830262 -0.18816759 -0.1072401 -0.10841083 0.3068272 -0.14096417 -0.23942953 0.2164888
0.03502833 0.22659214 -0.093947485 -0.24240069 0.28244337 0.03759438 -0.13572615 -0.11195353
-0.05933328 0.040457334 -0.3251556 0.24904703 0.34315822 0.1013278 -0.06788374 -0.12681295
-0.18878263 0.033892516 0.22270526 0.18551214 -0.30976832 -0.34609792 -0.039335817 0.26788458
-0.07354434 0.31026593 -0.15022485 0.22111449 0.33361617 -0.21741515 -0.267671 0.24975066
-0.34801164 -0.065516114 0.033335097 -0.2952855 0.15574755 -0.1662249 -0.1703857 -0.15268329
0.18652017 0.22484738 0.19942448 0.14178331 0.08847866 -0.1051399 -0.19427983 -0.18497953
-0.21374291 0.31668702 -0.10639762 -0.027949236 -0.09542792 0.3030099 -0.033859786 -0.19658045
-0.3204263 0.20244353 0.14801581 0.1535337 0.19964601 0.2092285 0.31153736 -0.113839835
-0.16744402 0.28758204 -0.25582853 -0.3021969 -0.26432398 -0.09034455 0.3009288 0.005562592
0.038585372 -0.23584421 -0.20016311 -0.023364842 0.3004277 0.1288704 0.3218696 0.27581435
0.1492686 -0.013098463 -0.12241997 0.3248849 0.23009564 -0.35796463 0.30493253 0.24322262
-0.1437863 0.1886874 -0.18505292 0.040214732 -0.23973835 0.1558976 -0.14217009 -0.26333293
00000000: 66d4 8b3e 8040 9dbe b74f 343e b68a 8a3c
00000010: 39d3 87be f7d2 873e 4d9f 8abd 7154 b43e
00000020: f432 a7be a20e d4bd 7460 753e 5b61 d03d
00000030: 8420 35be 46d7 a73e 0778 a23e 0e09 853e
00000040: 3842 e03d e3a4 613e 5b0a 73be 3804 acbd
00000050: 0ece 803d 7576 4ebe 6beb 8fbd bda2 ae3d
00000060: 73a7 89be 68c5 06bd 3a3a 99be a1a9 77bc
00000070: 8122 adbe 87fb 1abd 2203 5cbe a779 cdbd
00000080: 3b62 2e3e 73c8 443e 6f1e dcbd fbbc 91be
00000090: f82b 5d3e e6cc 8f3e 4644 003d b5e1 2cbe
000000a0: d067 1a3d 2424 8f3d 4004 ab3e deb9 193e
000000b0: 817b 363e 2dbc e2bd 66a6 bb3e 3633 943d
000000c0: c2f1 80bd aae5 53be dd5a de3b 73bd 563e
000000d0: aa40 aebe 5051 a83e 4963 473e e07d efbd
000000e0: d27d 863e 0a23 1fbe d347 1f3e b1ba 6dbe
000000f0: a761 b33d 4350 45bd 9d70 ccbd fd21 8b3e
00000100: 87eb 90be acf7 113d f283 1a3e 25ca d8bc
00000110: d4c7 863d 1a7e c5bd ab17 a1be fb11 15be
00000120: ec37 9fbe 3ebe b5be 73e6 12bc 5ec8 0ebe
00000130: 94cf 193e ae49 9d3e ac6a 9b3e f713 9fbe
00000140: b508 a4bd 07da aa3e 4169 c9bd bf6d 043e
00000150: d95a c03e de7f 173e c201 8b3e 4a5f 893e
00000160: 46bb 98be e1ff 163e ae17 b4be 5738 55be
00000170: a455 9dbe 2cab 9fbe 416f b13d 5ec4 8cbe
00000180: 486e b63e dc22 d9bc 7c08 a13d f26a a43e
00000190: 0076 933d 8531 80be 8ac9 9c3e 8ed8 75bd
000001a0: 5013 053e dc68 23be 5b0b 37be 2b0c 04be
000001b0: 2b1a e4bd d7e9 08be a562 533e e917 2abe
000001c0: 79bf 9a3e df0b 84be b22c 09be a66c ba3d
000001d0: 1d2f 6bbe b49d 7bbe a7ae e13d bd77 4abe
000001e0: f4ce 943e efcf 8abe 813c 2abe 6057 d53d
000001f0: f0b6 e6bc 61e8 66bd c873 aabe 5260 39bd
00000200: 6a27 a33e 959d ac3e 6d74 1f3d 4e67 f43c
00000210: 0c4a b8bd 51cc a93e 24cc bebc 30a6 4f3e
00000220: 77da a6bd a7e1 4bbe bd72 183e a05a 22be
00000230: 224b b0be 796f 7d3e 3868 a5bd ae81 86be
00000240: 8cca bfbd 1350 89be 975b 933e b3ed 273d
00000250: a327 44be 16b2 073e 308d 6abc e673 adbc
00000260: 386b 3b3e 01af 40be b3a0 dbbd 7f06 debd
00000270: 7418 9d3e e958 10be 042d 75be 3daf 5d3e
00000280: de79 0f3d c507 683e 8a67 c0bd e337 78be
00000290: 6b9c 903e 91fc 193d ccfb 0abe e447 e5bd
000002a0: 7407 73bd 97b6 253d cb7a a6be 2f06 7f3e
000002b0: 6fb2 af3e f384 cf3d a106 8bbd 41db 01be
000002c0: 3c50 41be e1d2 0a3d d90c 643e e5f6 3d3e
000002d0: f499 9ebe bf33 b1be 981e 21bd 2b28 893e
000002e0: 6a9e 96bd 2ddb 9e3e 8bd4 19be d66b 623e
000002f0: bdcf aa3e 14a2 5ebe 2c0c 89be a3be 7f3e
00000300: 952e b2be 502d 86bd 628a 083d a92f 97be
00000310: 497c 1f3e dc36 2abe 9779 2ebe 0259 1cbe
00000320: 25ff 3e3e 643e 663e ee35 4c3e a52f 113e
00000330: 4d34 b53d 9753 d7bd 4bf1 46be 466b 3dbe
00000340: 6cdf 5abe cd24 a23e ffe6 d9bd ccf5 e4bc
00000350: b76f c3bd 1d24 9b3e 8fb0 0abd 634c 49be
00000360: ea0e a4be 5b4d 4f3e 7591 173e f037 1d3e
00000370: 0170 4c3e ff3f 563e d381 9f3e dc24 e9bd
00000380: 7276 2bbe f43d 933e f5fb 82be 8db9 9abe
00000390: 7955 87be 9006 b9bd 5713 9a3e 6746 b63b
000003a0: b20b 1e3d 2581 71be 8ff7 4cbe a067 bfbc
000003b0: a9d1 993e 9af6 033e 18cc a43e 8a37 8d3e
000003c0: ded9 183e f09a 56bc 52b7 fabd 5057 a63e
000003d0: 319e 6b3e 2447 b7be 1e20 9c3e 5a0f 793e
000003e0: b73c 13be 4537 413e 837e 3dbe 34b8 243d
000003f0: f87d 75be 9fa3 1f3e 0995 11be 93d3 86be

residual.0.projection.bias f4 [16]
-0.013864033 -0.013795375 0.01429911 -0.013812379 -0.013979994 0.013492728 -0.014030395 0.014049978
0.014329081 0.014067734 -0.013933225 0.01438481 0.013894754 -0.01390165 -0.014499762 -0.013865541
00000000: f825 63bc ff05 62bc d046 6a3c 514d 62bc
00000010: 580c 65bc 9a10 5d3c bedf 65bc e131 663c
00000020: 86c4 6a3c 5a7c 663c 2e48 64bc 44ae 6b3c
00000030: d3a6 633c bfc3 63bc 6990 6dbc 4b2c 63bc

residual.1.fc.weight f4 [16, 16]
0.17709659 0.38385946 0.30338138 0.10098068 -0.2221896 -0.0672561 -0.048449073 0.018281845
0.2554392 -0.11755312 -0.20552306 -0.3219499 0.2118825 0.13140778 -0.14325476 0.36246628
0.3335001 0.18163678 -0.18947169 -0.2326774 -0.018320663 0.34638375 0.3832381 0.2548562
0.13583742 -0.19204654 0.34055647 -0.42935362 0.38024867 -0.14760114 -0.097669676 0.18456794
0.1350602 0.19787532 -0.0650465 -0.095598586 0.012655418 0.1356821 0.16108023 -0.1382975
-0.32000276 -0.16823164 -0.21128866 0.0736607 -0.13032082 0.33896792 -0.38781744 0.13391945
-0.06380405 -0.41167971 -0.040414408 -0.41339293 -0.017527606 0.31341267 -0.41285482 -0.2107879
0.019413758 0.09318387 0.36677852 0.3646268 0.33278823 -0.3703415 0.24897699 0.12569992
0.2711159 0.24120326 0.3346538 -0.43810567 -0.080596305 0.0025296337 0.4027689 -0.052284505
0.16521364 0.08851408 -0.28302085 -0.061127316 0.13816583 0.14570712 0.20358671 -0.07844959
0.030295027 0.008501899 0.41726533 0.38445896 -0.4058752 0.028321361 0.17785619 0.039943937
-0.4149385 0.1878649 -0.19158855 -0.22809952 0.08236515 -0.2328259 0.20751381 0.25252864
0.18218313 -0.37551358 -0.2683161 -0.47205883 0.018089961 0.37760934 -0.21660356 0.37050632
-0.15877233 -0.31774035 -0.14723985 -0.1714515 0.27199766 -0.13588731 0.181078 0.23499057
-0.027868865 -0.3357758 -0.1250507 -0.23391995 0.08965031 -0.34086895 -0.23006529 0.22396164
-0.17811523 0.05977589 -0.27450743 -0.18991701 -0.2717691 -0.2564017 0.29928285 0.4245042
-0.27991027 0.040289424 0.14093152 -0.16139145 -0.3253443 0.26456738 -0.033697575 0.030000163
0.21779615 0.11171318 -0.24702246 -0.44235447 0.39092383 -0.027115086 0.27153787 -0.29315346
0.28702042 -0.348253 0.11947126 0.25169492 -0.19167824 0.18819273 0.3128587 0.31222373
0.09724485 -0.22997996 -0.0058893217 0.36028206 -0.08201509 0.30985165 -0.08943742 0.12491503
0.1458437 0.25354928 0.33186424 -0.23512907 -0.3511639 -0.02953718 0.25296047 -0.0014702203
-0.08833055 -0.054773737 0.039795432 0.3214351 -0.07453368 0.11757656 -0.4112054 -0.40012348
-0.056223635 -0.23492946 0.11919455 0.42260742 -0.14255102 -0.22993474 0.37016183 -0.055889983
-0.34769914 -0.46739572 0.28845847 0.042491686 -0.16960344 0.4533687 0.093692325 -0.21012914
0.10967608 0.1695966 0.31306675 -0.4048646 0.06559449 0.12800013 0.04249755 0.040947184
0.22735596 -0.068888895 0.12268787 0.18075103 0.27000085 -0.19839698 0.081294075 0.4410624
-0.09065531 -0.39411977 0.23764576 -0.29937842 -0.44256365 0.011630316 0.18855216 0.31778234
0.22286862 0.15046826 -0.28128368 0.35114133 -0.13839923 -0.1122538 0.35343492 -0.08053761
0.28123972 -0.11826319 -0.38086253 0.11929165 -0.08116086 -0.35198817 -0.25604728 -0.050963663
0.29031378 -0.28660378 -0.06835866 -0.24458216 0.30550814 0.14088428 -0.022647584 -0.3126706
0.14833565 0.04443578 -0.34654182 -0.36489543 -0.05167835 0.25755706 0.3910632 0.2786728
-0.18686216 0.43501988 0.28141543 -0.114657655 -0.3882345 -0.04622048 -0.028607713 0.37389994
00000000: cf58 353e 3a89 c43e ce54 9b3e f5ce ce3d
00000010: ac85 63be 91bd 89bd 8972 46bd cfc3 953c
00000020: edc8 823e b1bf f0bd a374 52be 9ed6 a4be
00000030: baf7 583e c38f 063e 60b1 12be 2e95 b93e
00000040: 86c0 aa3e fefe 393e de04 42be fc42 6ebe
00000050: 3715 96bc 3659 b13e c937 c43e 837c 823e
00000060: f718 0b3e d9a7 44be 6b5d ae3e 3dd4 dbbe
00000070: f4af c23e c124 17be 0a07 c8bd 61ff 3c3e
00000080: 394d 0a3e d49f 4a3e 1937 85bd 31c9 c3bd
00000090: ac58 4f3c 40f0 0a3e 37f2 243e dc9d 0dbe
000000a0: 67d7 a3be ea44 2cbe 0e5c 58be 6cdb 963d
000000b0: d272 05be 348d ad3e 0290 c6be 2e22 093e
000000c0: b3ab 82bd afc7 d2be 9489 25bd 3da8 d3be
000000d0: 0e96 8fbc a077 a03e b561 d3be c9d8 57be
000000e0: 9a09 9f3c 2fd7 be3d 65ca bb3e 5db0 ba3e
000000f0: 3863 aa3e 679d bdbe d3f3 7e3e 7bb7 003e
00000100: b4cf 8a3e fdfd 763e be57 ab3e 634f e0be
00000110: ad0f a5bd 36c8 253b ba37 ce3e 4728 56bd
00000120: c42d 293e df46 b53d 1ce8 90be a360 7abd
00000130: 587b 0d3e 3f34 153e 0979 503e 2eaa a0bd
00000140: 472d f83c 8d4b 0b3c cda3 d53e ced7 c43e
00000150: e0ce cfbe 3302 e83c ef1f 363e 419c 233d
00000160: d272 d4be a85f 403e ca2f 44be ec92 69be
00000170: 0faf a83d ea69 6ebe 807e 543e 6f4b 813e
00000180: 378e 3a3e 5143 c0be ba60 89be b2b1 f1be
00000190: 6631 943c 0356 c13e 53cd 5dbe 01b3 bd3e
000001a0: 3795 22be ddae a2be 0bc6 16be fb90 2fbe
000001b0: 4743 8b3e 0b26 0bbe 836c 393e 5ea1 703e
000001c0: 3f4d e4bc ceea abbe 4a0d 00be b688 6fbe
000001d0: 959a b73d 6086 aebe 3c96 6bbe 3356 653e
000001e0: d763 36be 90d7 743d 3d8c 8cbe 9b79 42be
000001f0: 5225 8bbe 1547 83be 9a3b 993e 9d58 d93e
00000200: 6650 8fbe 8606 253d 5a50 103e cd43 25be
00000210: 8793 a6be 6075 873e 7806 0abd e7c2 f53c
00000220: f405 5f3e e1c9 e43d 75f3 7cbe 497c e2be
00000230: 2b27 c83e 7520 debc 0307 8b3e 3618 96be
00000240: 57f4 923e 384e b2be 59ad f43d 28de 803e
00000250: 4d47 44be 98b5 403e 042f a03e cadb 9f3e
00000260: 4f28 c73d de7f 6bbe 36fb c0bb e476 b83e
00000270: 87f7 a7bd e0a4 9e3e f72a b7bd 74d3 ff3d
00000280: 0d58 153e 36d1 813e 1cea a93e adc5 70be
00000290: c1cb b3be f5f7 f1bc 0984 813e 68b4 c0ba
000002a0: a6e6 b4bd 6d5a 60bd 8900 233d 2493 a43e
000002b0: 1da5 98bd fbcb f03d 8489 d2be fcdc ccbe
000002c0: c14a 66bd 5991 70be 461c f43d 0060 d83e
000002d0: e5f8 11be 0374 6bbe da85 bd3e e5ec 64bd
000002e0: 9f05 b2be 7e4e efbe d4b0 933e c30b 2e3d
000002f0: 86ac 2dbe f11f e83e c3e1 bf3d 182c 57be
00000300: da9d e03d bbaa 2d3e 494a a03e 6a4a cfbe
00000310: 6756 863d 7712 033e e911 2e3d 3cb8 273d
00000320: 00d0 683e 9f15 8dbd c743 fb3d cc16 393e
00000330: 8d3d 8a3e 9428 4bbe 827d a63d eed2 e13e
00000340: 7ea9 b9bd 11ca c9be 6959 733e 2148 99be
00000350: b497 e2be 158d 3e3c d113 413e 5eb4 a23e
00000360: ac37 643e 5a14 1a3e 6a04 90be ccc8 b33e
00000370: 87b8 0dbe 52e5 e5bd 6cf5 b43e e7f0 a4bd
00000380: a7fe 8f3e f933 f2bd 6a00 c3be 2e4f f43d
00000390: aa37 a6bd cb37 b4be a118 83be 46bf 50bd
000003a0: 02a4 943e bbbd 92be a0ff 8bbd bf73 7abe
000003b0: 906b 9c3e f843 103e 6d87 b9bc 5c16 a0be
000003c0: 4de5 173e 4b02 363d ee6d b1be 93d3 babe
000003d0: adac 53bd 85de 833e 7039 c83e 34ae 8e3e
000003e0: cb58 3fbe edba de3e af15 903e a2d1 eabd
000003f0: acc6 c6be b051 3dbd b95a eabc d06f bf3e

residual.1.fc.bias f4 [16]
-0.018389089 0.0051454757 0.007873515 0.0018632405 -0.0036516897 -0.005743231 -0.011166727 -0.0049116607
0.0015704542 0.013444866 -0.008781195 0.01034342 -0.0039036018 0.005354528 -0.008724486 0.0070113647
00000000: b7a4 96bc 619b a83b eaff 003c fa37 f43a
00000010: 3051 6fbb b731 bcbb a6f4 36bc fff1 a0bb
00000020: b3d7 cd3a db47 5c3c 00df 0fbc 7377 293c
00000030: 92d3 7fbb 0975 af3b 26f1 0ebc 97bf e53b

residual.1.norm.weight f4 [16]
0.950573 1.0245309 1.0803639 0.9948799 0.99244744 1.0065823 0.94209814 1.008377
0.9828637 1.0363792 0.9699504 1.0510421 0.9640478 0.9714068 0.9982478 0.99884295
00000000: c158 733f d423 833f 5d49 8a3f 73b0 7e3f
00000010: 0911 7e3f b0d7 803f 582d 713f 7f12 813f
00000020: f59c 7b3f 13a8 843f ab4e 783f 8c88 863f
00000030: d6cb 763f 1eae 783f 2b8d 7f3f 2cb4 7f3f

residual.1.norm.bias f4 [16]
-0.023424147 0.04920313 0.028568618 0.03944526 0.015334694 -0.050638333 -0.02901154 -0.014972571
-0.009668552 0.026101083 0.012828254 0.063272 -0.028713627 0.028557383 0.007038215 0.005118272
00000000: ffe3 bfbc 3989 493d bc08 ea3c 5a91 213d
00000010: 5e3e 7b3c 246a 4fbd 9ca9 edbc 844f 75bc
00000020: d968 1ebc f0d1 d53c 992d 523c c094 813d
00000030: d738 ebbc 2cf1 e93c d4a0 e63b 2db7 a73b

residual.1.norm.running_mean f4 [16]
5.027669 1.7340317 2.2463038 -1.6039596 3.8488681 5.1566496 4.1702256 1.4946135
-2.4347742 10.022666 6.607239 3.26058 6.4898496 7.662319 -6.7289643 2.6337516
00000000: aae2 a040 c0f4 dd3f 71c3 0f40 8c4e cdbf
00000010: db53 7640 4603 a540 7d72 8540 7f4f bf3f
00000020: 57d3 1bc0 d75c 2041 806e d340 58ad 5040
00000030: d9ac cf40 b831 f540 ad53 d7c0 638f 2840

residual.1.norm.running_var f4 [16]
1.0546572 4.196858 1.0959506 0.7454219 5.776604 1.864305 1.8312441 1.6225804
6.2029095 2.2935245 1.3350472 1.3070225 1.1044496 2.1598873 5.841539 2.8282242
00000000: 02ff 863f a94c 8640 1c48 8c3f f8d3 3e3f
00000010: f1d9 b840 8ca1 ee3f 3566 ea3f b7b0 cf3f
00000020: 3c7e c640 1bc9 1240 d4e2 aa3f 834c a73f
00000030: 9b5e 8d3f 983b 0a40 e3ed ba40 a001 3540

residual.2.fc.weight f4 [8, 16]
0.2697936 0.14831688 0.39059335 -0.07598521 -0.015146594 -0.10172256 -0.08866829 0.40488857
0.4203026 0.5280009 0.1584914 -0.48540458 -0.1429246 0.066428505 0.11698354 0.06606562
-0.00312321 -0.52231413 0.25933433 0.34283116 -0.27949178 0.39500916 0.4594671 0.13628948
0.066696495 0.39401484 -0.038786244 0.48405313 -0.402996 -0.38487256 0.29235375 -0.38891432
0.44884187 0.40058753 -0.19036193 0.29954767 -0.25883237 0.023775142 -0.0918915 -0.05669744
-0.18125044 0.12411599 0.30518863 -0.52267367 -0.3296651 0.05615766 0.1262055 -0.58289945
-0.16785094 -0.14931063 0.43678176 -0.34123805 -0.39948922 0.42636737 0.40984386 -0.051176853
-0.04409345 -0.07874592 0.20634091 -0.19196638 -0.4330348 -0.33041054 -0.0013036419 0.39073652
0.20158732 -0.013265428 -0.36115023 0.11882955 0.34380427 0.4632139 -0.20979425 -0.5297457
0.4234873 0.40469915 0.33746096 -0.46850684 -0.10856075 0.22122191 0.4480764 0.24598323
-0.031548038 -0.30238944 -0.041667454 -0.08412952 -0.4628979 -0.14755914 0.16532321 0.15766636
0.16924131 0.23662363 0.34709167 0.10113552 -0.30889323 0.12680589 -0.43772927 -0.23730624
0.5292109 0.45762163 -0.117186174 -0.09061753 -0.08673971 0.30172968 0.29881105 0.48125124
0.06807962 0.0030007015 0.24878387 -0.45740023 0.28431448 -0.07902811 -0.09286399 0.17588897
0.17212707 -0.48515344 0.45241052 -0.4750673 0.3229402 0.09726295 -0.049620006 -0.39620468
0.06419063 -0.45552668 0.44335783 -0.075191095 0.31600466 0.35854474 -0.09859618 -0.34573528
00000000: 6322 8a3e 61e0 173e dafb c73e 229e 9bbd
00000010: 6b29 78bc eb53 d0bd b897 b5bd 8e4d cf3e
00000020: e731 d73e 112b 073f 924b 223e f386 f8be
00000030: d45a 12be ab0b 883d 1195 ef3d 694d 873d
00000040: c5ae 4cbb 61b6 05bf 78c7 843e 9187 af3e
00000050: 8c19 8fbe a43e ca3e 463f eb3e 788f 0b3e
00000060: 2c98 883d 50bc c93e 53de 1ebd d0d5 f73e
00000070: 7e55 cebe 040e c5be 64af 953e c71f c7be
00000080: 9ace e53e cf19 cd3e 3dee 42be 505e 993e
00000090: ad85 84be 16c4 c23c 9c31 bcbd 933b 68bd
000000a0: b799 39be 8630 fe3d af41 9c3e f1cd 05bf
000000b0: ddc9 a8be 9305 663d 043c 013e e638 15bf
000000c0: 1ee1 2bbe e3e4 18be dca1 df3e c1b6 aebe
000000d0: da89 ccbe d34c da3e 0ed7 d13e d29e 51bd
000000e0: 559b 34bd 8a45 a1bd 084b 533e d692 44be
000000f0: bdb6 ddbe 922b a9be f7de aaba 9e0e c83e
00000100: e86c 4e3e 3d57 59bc afe8 b8be e85c f33d
00000110: 1d07 b03e 5f2a ed3e 4ed4 56be 6a9d 07bf
00000120: 54d3 d83e ba34 cf3e afc7 ac3e 21e0 efbe
00000130: 1955 debd ff87 623e 456a e53e 07e3 7b3e
00000140: 8438 01bd cad2 9abe 7eab 2abd 194c acbd
00000150: f400 edbe be19 17be 7d4a 293e 4a73 213e
00000160: 984d 2d3e 774d 723e 00b6 b13e 2420 cf3d
00000170: 4127 9ebe 67d9 013e 0d1e e0be 6800 73be
00000180: 5e7a 073f 624d ea3e 4eff efbd af95 b9bd
00000190: 97a4 b1bd 507c 9a3e c3fd 983e 9066 f63e
000001a0: 546d 8b3d 6ba7 443b 33c1 7e3e 5d30 eabe
000001b0: ab91 913e 7dd9 a1bd 7a2f bebd 3d1c 343e
000001c0: 1442 303e 0866 f8be 5aa2 e73e 053c f3be
000001d0: 6b58 a53e cc31 c73d 593e 4bbd 57db cabe
000001e0: 6176 833d cb3a e9be ccff e23e cafd 99bd
000001f0: 5dcb a13e 2d93 b73e cbec c9bd 3704 b1be

residual.2.fc.bias f4 [8]
-0.0032347676 0.005986488 0.0026239324 0.0016445376 0.005316131 -0.010080125 -0.0045813466 0.0040025
00000000: 65fe 53bb 4d2a c43b 48f6 2b3b 868d d73a
00000010: f032 ae3b 1c27 25bc 1f1f 96bb 6727 833b

residual.2.norm.weight f4 [8]
0.94127846 0.9948561 0.90787095 0.98052496 0.9038111 0.9514443 1.0161783 0.9828839
00000000: a0f7 703f e4ae 7e3f 3b6a 683f af03 7b3f
00000010: 2a60 673f db91 733f 2112 823f 479e 7b3f

residual.2.norm.bias f4 [8]
0.0030873534 -0.00074000435 -0.01821086 -0.022575822 -0.047143273 -0.0076521677 0.018629054 0.0036261838
00000000: 3255 4a3b dafc 41ba f12e 95bc eef0 b8bc
00000010: 4e19 41bd 09bf fabb f59b 983c 45a5 6d3b

residual.2.norm.running_mean f4 [8]
7.151728 4.064114 -2.9230974 9.199149 -10.243969 2.054555 6.266726 1.306578
00000000: f5da e440 390d 8240 0714 3bc0 b72f 1341
00000010: 4ce7 23c1 d47d 0340 0589 c840 f33d a73f

residual.2.norm.running_var f4 [8]
3.8049994 2.7838614 4.2142286 5.4429126 2.6640613 2.562452 9.782694 6.95194
00000000: 1c85 7340 c92a 3240 f6da 8640 572c ae40
00000010: fb7f 2a40 37ff 2340 ea85 1c41 4b76 de40
