climate/PERNN_small/best_model.pth (torch, 62626 bytes, 83 tensors)

encoder.0.fc.weight f4 [16, 16]
000000 52 fe 3d be dc 5e d0 3d ca 94 a3 3e 81 fc d3 3c
       -0.18554047 0.10174343 0.31949455 0.02587724
000010 09 63 6f 3c 09 ba 01 bf b3 7f 0c be c1 55 27 3e
       0.014611014 -0.5067449 -0.13720588 0.16341306
000020 8e e2 89 bd 07 12 48 3f 6b c9 06 be c9 16 bb 3d
       -0.06732665 0.7815251 -0.13162772 0.09135205
000030 5c 02 d0 be 56 36 15 bf a3 a9 21 3b 09 84 dc be
       -0.406268 -0.58286035 0.0024667762 -0.43069485
000040 71 ef a8 3e 2f cf cb 3c b2 fa 32 3d fe d6 16 3c
       0.3299518 0.024879066 0.043696113 0.009206532
000050 3f 10 9a 3d db 2b a3 3d 24 78 28 bd 21 96 4b 3e
       0.0752263 0.07967349 -0.0411302 0.19881488
000060 db db a0 be 53 f5 f7 be ea 08 5d bf 8d 47 0d 3e
       -0.31417736 -0.48429355 -0.86341727 0.13796826
000070 61 3b ba be 26 92 1c be 16 f5 9c 3d 03 0f 76 3d
       -0.36373428 -0.15290126 0.07663934 0.06007291
000080 2a 6e 9e 3d a5 29 56 3d 91 e1 75 be 0d 43 84 3d
       0.07735856 0.05228581 -0.24011828 0.064581014
000090 36 fd b7 be 2b 06 f1 3e 28 b8 ce 3d ec ab df 3d
       -0.35935372 0.47075018 0.10093719 0.10921463
0000a0 8f d7 02 3f ce 39 27 be ed c8 57 be 4c 56 2a 3e
       0.51110166 -0.16330644 -0.21072741 0.16634482
0000b0 9e 2c c7 bd 37 10 d9 be af 5b 4d be 09 da 40 bc
       -0.09725307 -0.42395183 -0.20054506 -0.011770734
0000c0 cd 65 b8 3e 18 f2 56 bd aa aa c6 3e 73 1f b6 bb
       0.36015168 -0.052476972 0.3880208 -0.0055579483
0000d0 4b 7d c0 3c 70 de 0e bf 64 78 32 be 41 10 7d bd
       0.023497244 -0.5580816 -0.17428738 -0.06178308
0000e0 f3 f0 96 3e df 65 5e be fc 14 b5 bd b4 fb 90 3e
       0.29480705 -0.21718548 -0.08841893 0.28317034
0000f0 eb d2 08 3f e7 fd 35 be 6b 73 e5 3e 5d 88 0b 3e
       0.53446835 -0.17772637 0.4481462 0.13626237
000100 e7 6a 22 3f 20 af 5f 3e 26 5a 8d 3d cd d2 8c 3c
       0.6344437 0.21844149 0.0690196 0.017190361
000110 03 1b 68 3d a9 84 b5 3e 28 2f 22 bd 80 b0 df 3d
       0.056666385 0.35452774 -0.039595753 0.109223366
000120 c9 83 f9 be 57 f2 20 bf bd fd 39 3e 1b e4 b2 be
       -0.48733357 -0.6286978 0.181632 -0.34939656
000130 3c d8 78 be 98 22 a3 bd f4 ae b3 3e 08 3d 46 bc
       -0.24301237 -0.079655826 0.35094416 -0.012099512
000140 5a 01 0c be d7 25 9d bd 83 05 86 3d 81 f0 13 3c
       -0.1367239 -0.07673233 0.0654402 0.009029509
000150 0d 89 92 be 8f 69 f2 be 44 e8 37 be cd 13 02 be
       -0.28620186 -0.4734616 -0.17959696 -0.12702866
000160 2c 79 c6 be 6b 29 bc 3c f7 e2 b8 be 1d a6 28 bf
       -0.38764322 0.022968968 -0.3611066 -0.6587847
000170 cd 3c 58 be 29 9c 14 3e 29 d0 19 3e 6c 7e 6b be
       -0.21116944 0.14512695 0.15020813 -0.22997445
000180 2c b5 09 bf 74 3d 76 be 53 53 af 3d 32 2c 68 3b
       -0.5379207 -0.2404688 0.08560815 0.0035426733
000190 c7 7c 28 3d 37 30 92 bd 9d a6 45 bc 08 a3 54 be
       0.041134622 -0.071381025 -0.0120636495 -0.20765316
0001a0 ac 05 49 3e b8 6d 23 3f b8 2e 44 3f ac f4 a5 3e
       0.1963107 0.6383929 0.7663379 0.32413232
0001b0 58 68 14 bc ca 86 e4 bd 42 25 be 3e 2c c3 34 bc
       -0.009058081 -0.111585215 0.371378 -0.011032861
0001c0 1f 8a a0 3e 7e 61 a1 3e d3 e6 a8 3e 74 a2 7f 3c
       0.31355378 0.31519693 0.32988605 0.015602697
0001d0 4a e6 5f 3d 86 b7 68 3e 2e e2 11 3e 6b 6f dc be
       0.05466298 0.22726259 0.14246437 -0.43053755
0001e0 45 de c4 be 82 4f 8a 3e 7f 63 15 bf b0 8d 6c 3e
       -0.38450828 0.27013785 -0.58354944 0.23100924
0001f0 db 86 29 3e 6e e6 c1 bd ad bc e1 bd 49 fe 15 bd
       0.1655535 -0.09467779 -0.11022315 -0.03661946
000200 ec de e3 be 9b 85 e2 bc 4f 9e b0 3e e5 9e 04 3f
       -0.44506013 -0.027651599 0.3449578 0.51804954
000210 d9 54 3a 3d cc 73 ab 3e 38 01 76 3e a3 e4 50 3e
       0.045491073 0.33486784 0.24023902 0.20399718
000220 79 14 83 3e e0 3c 05 be 5f 1a 98 be 1a 1f f7 bd
       0.25601557 -0.13011503 -0.2970762 -0.12066479
000230 a0 5e 68 be 58 b2 56 be 28 96 4e bb 7a 10 bb 3c
       -0.22692347 -0.2096647 -0.0031522606 0.022835005
000240 66 5e 10 bf 70 d4 c3 3d c9 ff 42 bd 4c c5 bc 3d
       -0.5639404 0.095620036 -0.047607217 0.09217319
000250 d9 dc 66 3e 63 92 0e 3e 8f bf ce bd fd 91 88 3e
       0.22545184 0.1392303 -0.10095131 0.2667388
000260 21 1b 00 3b a4 3c dc 3d 5c f4 84 be 76 39 18 3f
       0.001954742 0.10753754 -0.2596768 0.5946268
000270 0a fe 11 3f 49 bd 7d 3e f7 18 42 be 60 e8 b4 3c
       0.5702826 0.24779238 -0.18954836 0.022083461
000280 92 5e 02 bf e0 24 a2 be 80 ce cd be 4c eb bc 3b
       -0.5092555 -0.31668758 -0.4019661 0.0057653543
000290 e4 af 35 3e a9 4b 17 3e 05 92 e6 bd 2b 8d 83 bb
       0.17742878 0.14774956 -0.1125832 -0.0040146313
0002a0 15 40 15 3f 7c d7 b4 bd 73 5d e9 bc 7b 52 e8 be
       0.58300906 -0.08830163 -0.028486943 -0.45375428
0002b0 f9 00 b4 3c 74 2f 49 be d0 43 8b be 09 a7 da 3b
       0.02197312 -0.19647008 -0.27200174 0.006672744
0002c0 32 49 c8 be f9 28 4a be fc 16 c8 be 76 78 62 bc
       -0.39118344 -0.19742192 -0.39080036 -0.013822665
0002d0 a2 0c bc 3e 5c 11 62 3e 35 10 3b be ef fb 3f be
       0.36728388 0.22076935 -0.18267901 -0.18748449
0002e0 1d a2 25 be a8 c5 4f 3e 9e 3d 22 be e8 a0 2e bf
       -0.16175123 0.20290244 -0.15843818 -0.68214273
0002f0 05 17 a7 bd 5f 1f f7 3e ab 3b 8b 3e 8e bb fd 3c
       -0.081586875 0.48266122 0.2719396 0.030973222
000300 bc d1 ad 3d 5f ce 13 3c 6d 98 43 be 8f 00 6b bf
       0.08487269 0.009021371 -0.19101115 -0.9179773
000310 a7 df ae be 2e 34 f2 be aa c9 07 3c d7 19 32 3e
       -0.34155008 -0.47305435 0.008287827 0.1739267
000320 8d 67 a1 3b f8 5f 36 3e 6a 2c 87 bd cb cc 17 3d
       0.0049256743 0.17810047 -0.06600268 0.03706054
000330 5b 4f 1b 3d 7d 5b 0a 3e 68 10 9c be c0 ad af bc
       0.037917476 0.13511463 -0.30481267 -0.021445155
000340 a9 6d 0e 3e 00 45 da be b1 13 1c bf cf 5c 59 be
       0.1390902 -0.42630768 -0.60967547 -0.2122681
000350 97 a3 a1 be d4 87 bf be ba 5f d2 3d b2 a7 2a 3d
       -0.31570122 -0.37408316 0.10272165 0.041663833
000360 21 49 40 3f 60 9b 2c 3e 8f b8 47 be 9d 09 eb 3d
       0.75111586 0.16856146 -0.19503997 0.11476443
000370 e8 4a 01 be e1 1d a8 3e df 96 72 3e da 35 06 3e
       -0.1262623 0.32835296 0.23690365 0.1310648
000380 a0 d5 81 be 71 77 58 3d 63 ff a0 3e b0 87 98 3e
       -0.25358295 0.052848283 0.31444845 0.2979102
000390 cc 05 0c bf 38 71 82 3c 8d 58 08 bf f1 68 be 3d
       -0.54696345 0.015923128 -0.5326012 0.0929736
0003a0 8a 08 45 be f1 e2 21 3e fd 52 2b be fe ef 91 be
       -0.19241539 0.15809228 -0.16730876 -0.28503412
0003b0 ba 99 59 3c 07 1a 19 3f fe bd b7 3d e5 8f f6 3d
       0.01328128 0.5980534 0.08971785 0.120391645
0003c0 c1 62 ae 3d 72 13 18 3f 73 5d 1a 3d 5b 68 9e 3e
       0.085149296 0.5940467 0.037686776 0.30938992
0003d0 dd 4e bf bd 63 6e 4e be 2c 9c 3a 3d 25 4e 45 bc
       -0.09341214 -0.20159297 0.045559093 -0.012042557
0003e0 b0 5a 65 be 13 c3 a1 3e 20 9e 0c bf f9 f8 c3 3e
       -0.22397876 0.31594142 -0.5492878 0.3827589
0003f0 bb 8d 37 be 05 93 82 3d 6f 00 bb 3d 58 b5 5b be
       -0.1792516 0.06375698 0.09130942 -0.21455896

encoder.0.fc.bias f4 [16]
000000 a0 7a 24 3f cd 64 6b 3e d1 80 0b 3c 9e c1 a3 3e
       0.6424961 0.22987671 0.008514599 0.31983656
000010 03 2c 4b be a7 69 ce 3d 4d 42 60 3e 8a 12 19 bc
       -0.19841008 0.10078745 0.21900292 -0.009342799
000020 b0 0c b6 bd c6 40 c6 3d 4e c4 89 3c 99 be 7f 3e
       -0.08889139 0.09680323 0.016817238 0.24975051
000030 ed 53 89 3e 01 ee b2 bd d0 37 bc 3d 65 55 9a bd
       0.26821843 -0.08736802 0.09190333 -0.07535819

encoder.0.norm.weight f4 [16]
000000 ee 90 94 3f cc 78 a3 3f 9d c6 a7 3f b7 50 90 3f
       1.1606729 1.2771239 1.3107487 1.1274632
000010 e1 ed 99 3f ee ac 9f 3f 49 09 b4 3f 8d 56 71 3f
       1.202572 1.2474649 1.4065334 0.9427269
000020 6f cf 70 3f 2a ed 90 3f c1 b4 a2 3f a6 0c b9 3f
       0.9406652 1.1322377 1.2711412 1.4456985
000030 e8 d7 c4 3f c8 92 ad 3f fb 0a 86 3f 64 9c a6 3f
       1.5378389 1.3560419 1.0472101 1.3016477

encoder.0.norm.bias f4 [16]
000000 80 52 9c 3e 08 e6 84 3e 91 70 88 3d 56 16 22 3d
       0.30531693 0.2595675 0.06662095 0.039572082
000010 3a 52 09 3e 25 26 65 3e f4 e8 93 3e 9b a5 bf 3c
       0.13410273 0.22377832 0.28888667 0.023394397
000020 e2 40 fe bc 55 ec 32 3e 9a 5e fe 3d b6 b8 9b 3e
       -0.031036798 0.17472966 0.124203876 0.3041436
000030 3b 40 6a 3e ad 83 6a 3e da 86 d6 bd f5 7a f1 3d
       0.22876064 0.22901793 -0.1047494 0.1179103

encoder.0.norm.running_mean f4 [16]
000000 c2 c1 ae bf c4 63 d1 3e 85 44 de bd dd 3a 59 3f
       -1.365288 0.40896428 -0.10852913 0.84855443
000010 60 68 5f be eb 15 5c bf b6 5c a0 3e 94 79 2f be
       -0.2181716 -0.85970944 0.31320733 -0.17136222
000020 c1 bd 2d bb 97 6e 84 3e 56 09 bd bc 6d 29 34 3f
       -0.0026510807 0.25865623 -0.02307574 0.7037571
000030 f5 97 76 3d 66 66 2e 3f 44 e9 53 3f 6b 56 6a bf
       0.06020351 0.68125 0.8277781 -0.91538113

encoder.0.norm.running_var f4 [16]
000000 e0 5a 8f 3f 7a 2b a8 3e ce 90 40 3f 8c 64 42 3f
       1.1199608 0.3284567 0.75220954 0.7593467
000010 1b aa 9a 3e ba 09 a2 3f 4d 3f 82 3e 99 f4 98 3e
       0.30207905 1.2659218 0.2543892 0.29874113
000020 ba 0b 1d 3f 70 9c 36 3f d2 3b bb 3e c6 d8 7f 3f
       0.6134602 0.71332455 0.36569077 0.99940145
000030 76 83 33 3f fc 77 00 3f e3 0d 53 3f 36 f8 39 3f
       0.7012247 0.5018308 0.82443064 0.72644365

encoder.1.fc.weight f4 [16, 16]
000000 dc 57 5b be 25 bf 42 be 6d 3e b0 be 97 c3 46 3c
       -0.21420234 -0.19018228 -0.34422627 0.012131593
000010 29 aa a0 be 4f 92 3f 3e 54 38 85 3d ed 8a c6 3c
       -0.31379822 0.18708156 0.06504884 0.024236167
000020 bb cc 37 be 98 67 9a 3e 62 13 09 bf d4 cd a2 be
       -0.17949192 0.3015716 -0.535452 -0.3179766
000030 57 8d 50 be 38 27 39 be cb de b7 bd 9c 92 1f 3e
       -0.20366417 -0.18081367 -0.08978041 0.15583271
000040 bf eb 24 bf 0f f1 b2 bd d6 b2 5a 3e cb e5 61 be
       -0.6442222 -0.087373845 0.21357283 -0.22060315
000050 51 08 91 3e 5d 2c a3 be 16 c8 56 be 85 b9 a0 bd
       0.28326657 -0.31869784 -0.20974764 -0.07847885
000060 e0 b1 60 bd d4 40 55 3e be a4 6f 3d c2 c7 5b bf
       -0.054857135 0.20825511 0.05850672 -0.8585168
000070 ac 8e b2 be c5 e3 1e be 75 6a 09 3f db 8f cd bc
       -0.34874475 -0.15516575 0.53678066 -0.02509301
000080 fc 95 b5 bd cb f7 3c 3e 34 ee 46 be 81 4d 31 be
       -0.08866498 0.184539 -0.19426805 -0.17314722
000090 5d 5d 3f be 1a a7 aa bd ad ee fe bc 02 4b ee be
       -0.18687959 -0.08332653 -0.031119669 -0.465416
0000a0 b4 a4 01 3f 27 a4 00 bf 0b f8 cc 3c 7c 91 98 3e
       0.5064194 -0.50250477 0.02502062 0.29798496
0000b0 2d 5a cb be 72 b9 32 b8 43 1c 8b 3e e8 15 0e 3e
       -0.39717236 -4.2611216e-05 0.2717 0.13875544
0000c0 76 c3 b5 be 0f 56 9d be bc e3 ca be 7c f2 ce bc
       -0.35500687 -0.3072972 -0.39626873 -0.02526211
0000d0 6c b7 9c 3d 95 e7 98 bd 4e 74 00 bf e8 4e 9d bd
       0.076521724 -0.07466046 -0.50177467 -0.07681066
0000e0 4a 0a fe 3e af 15 d2 be 57 96 61 bd 95 84 98 bd
       0.49617225 -0.41032168 -0.055075016 -0.07447163
0000f0 b4 ed ed 3d 3d 90 75 bd 42 93 18 be 97 bc e9 3d
       0.11617604 -0.05995201 -0.14899924 0.11412924
000100 db cb 96 bd 95 89 a5 be 20 38 17 bf 40 1e 8b be
       -0.07363101 -0.3233153 -0.59070015 -0.27171516
000110 70 c5 01 bf e8 15 74 bd d8 e3 51 bd 01 ae 86 3e
       -0.5069189 -0.059591204 -0.05124268 0.2630463
000120 86 14 87 3d 6c f2 c0 3e af fd 0d bd 17 98 e2 3d
       0.065957114 0.37684953 -0.03466576 0.11064165
000130 d0 67 95 be ca 81 f2 bd a7 79 32 be e6 54 13 be
       -0.29180765 -0.118411615 -0.17429219 -0.14387855
000140 2c 3e 8b bd 75 0d 82 be 79 f7 19 3e b1 4a 0e 3e
       -0.06798968 -0.25400892 0.1503581 0.1389568
000150 95 7d fc 3d e0 14 53 bf f6 92 d5 be eb c4 95 bb
       0.1232864 -0.8245373 -0.41713685 -0.0045705936
000160 09 63 ef bc c3 d3 a2 be fa d2 0c be 59 3e d2 bd
       -0.029222028 -0.31802186 -0.13752356 -0.10265798
000170 63 5f ad bd f0 5c 2a be aa b0 b3 be 3e ca b4 bd
       -0.08465459 -0.16637015 -0.3509572 -0.08827637
000180 42 6a 6a be 14 c4 00 3e a2 25 2b bf 07 84 17 be
       -0.22892097 0.12574798 -0.668543 -0.14796458
000190 3d e1 11 3d 02 6b a3 be d1 8e c1 be bc bf 18 3e
       0.035615195 -0.31917578 -0.37804273 0.14916891
0001a0 a6 88 bd bd f9 e4 05 3e b7 a9 ae be 82 29 ac bd
       -0.09254579 0.13075627 -0.34113857 -0.084063545
0001b0 32 63 48 be 59 e4 11 bf a1 c5 43 3e e6 df d7 bd
       -0.1956909 -0.56989056 0.19118358 -0.10540752
0001c0 52 96 a2 be a2 ba de be f5 ec 21 be 00 11 db be
       -0.3175531 -0.43501765 -0.15813048 -0.42786407
0001d0 c1 b5 7f be d1 aa 11 bf 60 ab 27 3e 24 7e 4c 3e
       -0.24971677 -0.5690127 0.16373968 0.19969994
0001e0 6b ca c7 3d 35 99 e1 be 7b ca 8e bc 49 82 1b be
       0.09755405 -0.440622 -0.017430535 -0.15186419
0001f0 1b 4d df 3d 1d a6 1b 3d 53 53 69 bd bf 99 2c bd
       0.109033786 0.038000215 -0.05696423 -0.04213881
000200 8a 5b 7c 3e 3d 41 99 bd 3a 06 b9 be fb b2 e2 3e
       0.24644294 -0.07483146 -0.36137563 0.44277176
000210 5c 8b eb bd 19 0c e3 3e 3a 5e 0b 3e 5b a5 11 be
       -0.1150119 0.44345167 0.13610163 -0.14223234
000220 d4 83 97 bd c4 27 6f 3e 91 75 bb bd 8f 37 7a 3e
       -0.07398191 0.23355013 -0.091532834 0.24435256
000230 4a ce 60 bc bf b0 98 be c5 94 fe 3d ab c2 dc 3b
       -0.013721058 -0.29822347 0.12430719 0.0067370734
000240 5f f1 5d be 23 86 9b 3e 3b bb d1 3d 7f 3b 88 3e
       -0.21674107 0.30375776 0.102407895 0.26607892
000250 da 3e 67 be 9f a3 8e be b0 26 10 be 51 f5 1b be
       -0.2258257 -0.27859208 -0.14077258 -0.152303
000260 38 94 f5 3e 4d 6f cc bd 79 7b fa 3e 59 95 27 bd
       0.47964644 -0.099821664 0.48922327 -0.040913913
000270 54 83 f2 bc b1 8a 05 be 60 d4 4d be 82 bc 89 be
       -0.029603638 -0.13041188 -0.20100546 -0.26901633
000280 38 9e 26 be 83 13 61 be c3 4b 21 bf d2 d8 76 3d
       -0.16271293 -0.219801 -0.6300623 0.06026537
000290 e2 9f 62 3e 39 83 3b be d6 28 9d be c3 e3 96 3e
       0.22131303 -0.18311776 -0.30695218 0.29470643
0002a0 0e 37 a9 3d 26 9e 54 be 9b 0c b4 bd fe 2d c9 be
       0.08262454 -0.20763454 -0.08791467 -0.39292902
0002b0 a8 80 26 bd b4 3f c4 3e 8c a4 85 3e 47 80 b7 bc
       -0.04065004 0.38329852 0.26102102 -0.022400035
0002c0 14 2e 8f be 01 f6 60 be e9 08 aa 3e 06 e1 46 3e
       -0.27964842 -0.21968843 0.33209923 0.19421777
0002d0 14 0c 25 3e 4d 3b 99 be 01 f1 1a be 85 bc cc be
       0.16117889 -0.29928055 -0.15130998 -0.3998758
0002e0 ec ea b7 3d 46 71 97 be cb e9 3e bd 75 29 60 be
       0.08980355 -0.29578608 -0.04660968 -0.21890815
0002f0 88 de a3 be 68 37 0a 3f 8b dd 8e be dd 75 78 be
       -0.32005715 0.53990793 -0.279034 -0.24263711
000300 ec b9 84 bd 31 b2 79 be ff e4 26 be 3f 69 31 3d
       -0.06480774 -0.24384381 -0.16298293 0.04331326
000310 1f b5 ef bd e2 00 27 3e 55 b7 17 bc d9 c3 45 3e
       -0.11704468 0.1630893 -0.009260018 0.19312991
000320 8f 99 62 3d 1b d1 3f 3e e5 d9 88 be b2 8d 10 3f
       0.055322226 0.18732111 -0.2672874 0.5646621
000330 e2 cf 20 bf f4 bd 8d be 94 50 f6 3d 0c 59 c1 bd
       -0.62817204 -0.27683985 0.12027088 -0.094408125
000340 e7 86 2b bf c5 7e 55 be 04 59 69 3e da 73 4d be
       -0.6700272 -0.2084914 0.22787863 -0.20063725
000350 06 a1 5f 3e 2f c3 9e 3c 23 ee e8 be d6 36 56 be
       0.2183877 0.01938018 -0.45494184 -0.20919356
000360 fd 60 12 3f 5f 15 24 be 10 51 e6 bd 57 ee 06 bf
       0.5717924 -0.16023777 -0.1124593 -0.5270743
000370 3e 90 24 be 24 bc 13 be 49 f7 4c 3d a2 9f 39 3e
       -0.16070649 -0.14427239 0.050040517 0.18127301
000380 53 ab cd 3e 0b a8 f4 3d 72 a0 50 bc 03 88 fb be
       0.40169773 0.11946114 -0.012733566 -0.49127206
000390 99 f5 a7 bb eb ea 36 be 6e ee 90 bd bc 9c 4a 3e
       -0.005125713 -0.17863052 -0.07076727 0.19786352
0003a0 b5 1b 06 bf ca 68 3f 3e 1e 2e fe 3e 7d a2 d3 3d
       -0.5238603 0.18692318 0.4964456 0.103337266
0003b0 25 38 04 3e c9 7b 9f 3e b2 35 3e bd fc 2d 47 bd
       0.12912042 0.31149128 -0.046437927 -0.04862784
0003c0 2f 3c 12 3e 8f 2c 8c be 3b 43 56 3d b4 de 39 be
       0.1428077 -0.27377746 0.05231021 -0.18151361
0003d0 33 51 50 bb 83 b6 0a bf f1 b7 37 be 59 47 d2 bc
       -0.003178668 -0.5418474 -0.17941262 -0.025668787
0003e0 f4 ac 07 bf 6b e3 ae 3e 0e 8d 71 be 4a 23 2a 3c
       -0.5299828 0.3415788 -0.23588964 0.01038439
0003f0 58 7a 4d be 49 fa 0e bd 97 bd 30 bf 8b 77 ce be
       -0.20066202 -0.03490666 -0.6903929 -0.4032558

encoder.1.fc.bias f4 [16]
000000 30 aa fd 3d fc 74 24 3e 87 9e c8 3d a8 ff aa 3e
       0.12385976 0.16060251 0.09795862 0.33398175
000010 2d 25 be bb b6 6f bd 3e 64 cc bb 3e a1 46 d6 bd
       -0.0058027715 0.3699929 0.36679375 -0.1046269
000020 f4 8c a6 bd db 02 b7 3d 21 bb 09 3f 87 05 d0 3e
       -0.081323534 0.089360915 0.5380116 0.40629217
000030 dc e7 82 3e 84 d5 18 bd 47 92 00 bf 17 d8 dc bd
       0.2556752 -0.037313 -0.502232 -0.10783403

encoder.1.norm.weight f4 [16]
000000 9d 2d 9a 3f 8e de af 3f e4 18 99 3f 25 e8 88 3f
       1.204517 1.3739793 1.1960721 1.0695845
000010 a7 a8 a8 3f e2 24 91 3f 95 49 9e 3f 9a c1 8c 3f
       1.3176469 1.1339381 1.2366205 1.0996583
000020 b2 fe 9d 3f 3c 93 a3 3f 08 9a a8 3f 3f 98 a0 3f
       1.2343352 1.2779307 1.3172007 1.2546462
000030 63 03 b0 3f dc e2 a9 3f a9 b2 a2 3f c2 38 a7 3f
       1.3751034 1.3272357 1.2710773 1.3064196

encoder.1.norm.bias f4 [16]
000000 14 ef 7a 3e 21 61 7d 3e 60 c1 e0 3d 95 6b e5 bc
       0.24505264 0.24744083 0.10974383 -0.0280054
000010 a5 f8 f8 3d b6 6f 1a 3e 08 97 78 3e fc bc c4 bd
       0.121568 0.15081677 0.24276364 -0.096063584
000020 91 f6 c5 bc 62 d2 91 3e da 64 2b 3e cc 8a a3 3e
       -0.024165424 0.28480822 0.1673769 0.3194183
000030 3d da 8a 3e c8 e6 40 3e b7 74 68 be 99 69 b4 3d
       0.27119628 0.18838036 -0.22700773 0.08809204

encoder.1.norm.running_mean f4 [16]
000000 dc e0 99 be be f7 9b bf 98 f8 b3 3e 2c 9e dc be
       -0.30054367 -1.218498 0.351506 -0.43089426
000010 8c a9 d7 bf bf 92 ed bf 74 68 e8 bf 89 ef e7 bf
       -1.6848617 -1.8560408 -1.8156877 -1.8119975
000020 32 5a f5 3e b4 96 ac bf 63 74 48 be 57 f8 b1 bf
       0.47920376 -1.3483491 -0.19575648 -1.3903912
000030 3a 13 d6 be a2 15 09 bf 9d 9e 17 be 9d be 5c c0
       -0.41811544 -0.53548634 -0.148066 -3.449134

encoder.1.norm.running_var f4 [16]
000000 c8 85 f3 3e 83 e4 51 3f 4e 15 d2 3f cd 97 5f 3f
       0.47563004 0.81989306 1.6412752 0.87341005
000010 99 17 44 3f 86 13 5a 3f 6c 0e f7 3f 23 aa 89 3f
       0.7659851 0.8518604 1.9301276 1.0755047
000020 98 9d f7 3e e6 40 fa 3e ca d4 3f 3f b3 52 24 3f
       0.48362422 0.4887764 0.74934065 0.6418869
000030 6c d5 67 3f 79 b1 85 3f c2 18 45 3f ba 29 e7 3f
       0.9056003 1.0444785 0.769909 1.8059609

encoder.2.weight f4 [32, 16]
000000 04 9e fb be 61 a5 a4 bd 2e fe 72 3e 2a d5 90 bd
       -0.49143994 -0.08039356 0.23729774 -0.07071908
000010 78 4f ee 3e 22 10 01 bd a2 b6 30 3b 86 d3 59 bd
       0.46545005 -0.031509526 0.0026964326 -0.05318024
000020 00 ed be 3e 24 4f 79 3e 0d e8 3b be 7b 36 8d be
       0.37290192 0.24346596 -0.18350239 -0.27580628
000030 42 cd 14 bf 29 fa 9a be 5b 27 b3 3e 87 59 59 3d
       -0.581257 -0.30268982 0.34990963 0.053063896
000040 a6 8e 26 bf 73 f9 21 be 4d 86 c3 be 77 9d 7b be
       -0.65061414 -0.15817814 -0.381884 -0.24571787
000050 e6 61 df 3d f5 af 5c be 8f 2c 8e be 8d 9d 95 3e
       0.109073445 -0.21551497 -0.2776837 0.29221764
000060 f3 e5 aa 3d 89 4d 41 3e f9 33 2f be d5 e5 c5 be
       0.083446406 0.18877234 -0.1710967 -0.3865191
000070 69 96 b2 be 7b 9d 50 3e bb 8d c2 3e d0 9b 24 be
       -0.3488038 0.20372574 0.37998757 -0.16075063
000080 a3 bc 3d 3f 7d 9a ca 3e fe aa a8 bd 45 21 dd bc
       0.7411596 0.3957099 -0.08235739 -0.026993403
000090 81 4b d7 bd fe 9a b7 3e 90 9e 59 3c ef 9f 8f be
       -0.10512448 0.35860437 0.013282433 -0.28051707
0000a0 c9 6a 89 3d cd c2 23 3e ef 98 0e 3b f6 3a 21 3d
       0.06709821 0.1599228 0.0021758636 0.03936287
0000b0 66 12 b2 3e e8 de 42 3e a2 30 e5 be 1e b0 0e 3d
       0.34779662 0.19030344 -0.44763666 0.034835927
0000c0 50 89 74 3f ce b7 73 3e 45 f7 5d 3e d3 42 38 3e
       0.9552202 0.23800585 0.21676357 0.17994241
0000d0 2c 06 a0 3d cf 32 6f 3e f4 7e 6d 3e 21 4d 20 3d
       0.07813677 0.23359226 0.2319296 0.039136056
0000e0 1b 22 dc be 75 d0 bc 3e d2 ac cf 3e f0 b1 ae 3e
       -0.4299477 0.3687779 0.4056154 0.3412013
0000f0 e7 72 0e 3f 86 a5 cb 3e 80 1f b7 bd 88 39 ac be
       0.5564408 0.39774722 -0.08941555 -0.33637643
000100 a7 08 62 3f 02 e1 0c be 5e cd 1c 3e 8d 5e cf 3e
       0.8829445 -0.13757709 0.15312716 0.40501824
000110 69 d5 9e 3d 73 00 a7 be 04 d1 6d 3d 82 97 96 be
       0.077555485 -0.3261753 0.05806066 -0.29412466
000120 b9 d5 c3 be fc 65 05 be 57 be c6 3e 5b 73 d1 bd
       -0.38248995 -0.13027185 0.38817093 -0.102270804
000130 2d 35 31 3e b3 7a c7 3e 87 da d0 be 1b fb f7 3d
       0.17305441 0.389608 -0.40791723 0.121084414
000140 17 1e f5 3e 99 a1 6f 3e 61 28 b4 3c 5c 24 29 3e
       0.4787452 0.23401488 0.02199191 0.16517776
000150 80 f2 cb be 75 d2 4f be 06 e8 44 3d 84 c3 75 3e
       -0.3983345 -0.20295127 0.048072837 0.24000365
000160 78 0a 7b 3d b2 30 6d be e0 6b fe 3e 78 f7 81 bd
       0.06128928 -0.23163107 0.49691677 -0.06346029
000170 9f 9c 98 3e 8a 7b e8 3e 28 9a be be 03 48 2b 3e
       0.29806992 0.45406753 -0.37226987 0.16726689
000180 0a d6 5d 3f 49 03 76 3e a3 c2 be be b1 36 07 bc
       0.8665472 0.2402469 -0.3725787 -0.008252786
000190 00 4b b3 bd c5 21 3d be 9a 69 9a 3e 6e ca 72 be
       -0.087545395 -0.18469913 0.30158693 -0.23710033
0001a0 c4 e5 4c bd 4c 56 fb 3d b4 8a 2e 3e f3 1f 3f bd
       -0.05002381 0.12272319 0.17045099 -0.04666133
0001b0 8b cb f8 3d 61 5c 01 3e 9d fe ed be 1a 71 5c be
       0.12148198 0.12632896 -0.46483317 -0.2152752
0001c0 5a 56 73 bf ab 97 f2 be 3c 4f f6 3d 06 06 a4 be
       -0.9505364 -0.47381338 0.120268315 -0.32035846
0001d0 72 9e ff bc f0 90 1e 3e 4a 53 06 bf b3 9c 53 be
       -0.031203482 0.15484977 -0.5247084 -0.20665245
0001e0 5d 76 8a bd 18 28 e2 be b3 6b 4f bd 48 6c 84 3d
       -0.06760857 -0.44171214 -0.05063982 0.064659655
0001f0 ec 8e cf be 35 54 55 3e 8e b5 d0 bd c3 04 d2 3d
       -0.40538728 0.20832904 -0.10190879 0.102548145
000200 7a 7e 59 3e 26 36 34 3e d1 f4 7c be 23 3a 98 3d
       0.21239653 0.17598781 -0.24702765 0.07432964
000210 d6 9f 6e be e4 7b 1f 3c c7 70 89 3e 23 ec cb be
       -0.2330316 0.009734128 0.26843855 -0.39828596
000220 55 ae 71 3d 6f 1c ad 3e 0f 18 ce 3d 2a 0c 16 3e
       0.059004147 0.33810756 0.100631826 0.14653078
000230 d6 5a 79 bd 89 7f 9b bd c4 94 c4 3d cc 70 13 be
       -0.060877644 -0.07592685 0.09598687 -0.14398497
000240 23 02 95 be a5 51 02 bf 54 d9 8e bd 4a 9f ad bb
       -0.29103193 -0.5090583 -0.06975046 -0.0052985298
000250 85 07 1f 3e e9 78 70 3d eb df 0a 3d a3 6d 5c 3e
       0.15530212 0.05870906 0.03390495 0.21526198
000260 ee c5 eb 3e fd e0 e3 be 9d 72 0b bf c5 38 16 bf
       0.46049446 -0.4450759 -0.5447176 -0.58680373
000270 f3 a6 36 be 3c 5b 52 3e 69 f4 b9 3e a5 7f c8 3d
       -0.17837124 0.20542616 0.36319283 0.09789971
000280 f8 e2 c2 3e d7 12 ef 3e 21 d8 ef bd 0d 06 8c 3d
       0.38063788 0.4669406 -0.11711145 0.068370916
000290 b9 b2 2a 3e 94 b1 dc 3d 15 5f ce 3e 31 08 81 be
       0.1666974 0.10776058 0.40306917 -0.25201562
0002a0 72 31 cd bd d4 86 3d 3e 6e 04 cc 3e 07 1e 5a 3e
       -0.100191966 0.18508464 0.3984713 0.21300517
0002b0 cb ce e1 3e af 08 1c bd 7f 93 73 bd 95 46 13 3d
       0.44103083 -0.03809422 -0.059466835 0.035955984
0002c0 1b aa 11 3f 0a 46 08 be 15 9d 8e 3e 30 e1 d4 3e
       0.56900185 -0.13307968 0.2785422 0.41578054
0002d0 d7 79 3c 3e 4f 75 4f bd 9b 71 b3 3e 0b f8 a6 bd
       0.18405853 -0.050648984 0.35047612 -0.08152779
0002e0 96 1e fb bc 7d 65 2a 3e 73 5f 9c 3e 5e 8e 81 3e
       -0.030654233 0.16640277 0.30541572 0.2530393
0002f0 c2 79 81 3e 7d c6 00 3d d8 8d f9 be 86 4a c4 bd
       0.25288206 0.031439293 -0.4874103 -0.09584527
000300 44 23 1d bf f0 4f 3d 3d 01 f3 98 3e 45 8c ae bd
       -0.61381936 0.046218812 0.29872897 -0.08522848
000310 cb 01 01 3f e2 06 ce 3e 88 de 4a 3d 29 98 25 3e
       0.5039336 0.40239626 0.04952863 0.16171326
000320 dd 5b 9e 3e 6d c0 10 3e bc e5 a9 be 13 dd 97 be
       0.3092946 0.14135905 -0.33183086 -0.29660854
000330 c8 0e d3 bc fb 77 97 be b1 6f 1e 3e e9 d5 09 bc
       -0.025763884 -0.29583725 0.15472294 -0.008412817
000340 26 ac 4f bf cf b2 49 be a5 92 37 be d3 e1 da be
       -0.8112205 -0.19697116 -0.17927034 -0.42750415
000350 5a 99 3a be 6f fe cd 3c fa d2 bb be 00 60 9a bc
       -0.18222561 0.025145737 -0.366844 -0.018844604
000360 16 38 d3 3e d5 92 eb be 17 c3 e4 be b7 74 ab be
       0.41253728 -0.4601046 -0.44680092 -0.33487484
000370 bd c3 a9 be 95 b6 db be 06 ed 58 3e c5 d2 2e 3e
       -0.3315715 -0.42912737 0.21184167 0.1707259
000380 20 12 6e bf 8c af c6 be 5f cb 10 be 10 fe b3 be
       -0.92996407 -0.38805807 -0.1414008 -0.35154772
000390 8c 6d de 3e 45 5d 9d be cf b1 cf be 72 bc dd 3e
       0.43442953 -0.30735222 -0.40565345 0.43307835
0003a0 58 60 95 3e 38 4b 89 3e 0e 33 bc be 8f 74 2b be
       0.29175067 0.268152 -0.36757702 -0.16743682
0003b0 f5 02 00 bf e9 9c 92 be dd 16 d7 3e 4a 85 f9 3e
       -0.5000451 -0.28635338 0.4200963 0.48734504
0003c0 b6 6a 49 bf ee a9 27 3c bf e1 c3 bd 97 51 04 bf
       -0.7867845 0.0102333855 -0.09564542 -0.51686996
0003d0 98 a4 c4 3d 5d 64 dd bd a8 73 8f be 9b af c0 3b
       0.09601706 -0.108101584 -0.28017926 0.005880309
0003e0 54 a5 f7 bd 25 c1 f9 bd 12 bb aa be ed b8 37 be
       -0.12092081 -0.121950425 -0.33345848 -0.17941637
0003f0 d5 70 08 bf 6f 5f 70 3c 42 18 2a be dd 08 c8 3d
       -0.5329717 0.014671191 -0.16610816 0.097673155

encoder.2.bias f4 [32]
000000 28 0a 81 be e5 21 6a be 2b 15 68 3e d0 ae 8f 3e
       -0.2520306 -0.22864492 0.22664325 0.2806306
000010 06 39 79 3e 1f 84 6a 3e a2 56 1d 3d a3 58 80 be
       0.24338159 0.22901963 0.038412698 -0.25067624
000020 9d 4f 32 3e 00 37 81 be 23 b1 73 3e 78 dd 82 3e
       0.17413183 -0.25237274 0.23798041 0.25559592
000030 15 5d f9 bd c3 c5 87 be ab f2 86 be f9 54 84 be
       -0.12175957 -0.26518068 -0.26357016 -0.2584608
000040 4a e6 f1 bd f7 05 4e be fb d9 73 3e 8b 80 81 3e
       -0.11811502 -0.20119463 0.23813622 0.25293383
000050 18 85 47 3e d4 43 7d 3e 08 85 82 3e 0f 8a 6d be
       0.19484365 0.24732906 0.2549212 -0.23197196
000060 bf 65 46 be 1b 5e bd bd dc 00 7c 3e 92 26 81 3e
       -0.1937475 -0.09246465 0.24609703 0.2522474
000070 e1 fb 85 be 2d e6 19 be 9f f4 9b be a6 03 8c 3e
       -0.2616873 -0.15029211 -0.3046007 0.27346534

residual.0.fc.weight f4 [16, 32]
000000 ae 94 b1 3d ad 16 fd bc 9f b3 17 3c 58 8e 02 bc
       0.086709365 -0.030894602 0.009259134 -0.007968508
000010 5d 84 d0 3e 71 78 ce bd 12 22 0c be b0 5a ac bd
       0.40725985 -0.10081566 -0.13684872 -0.08415735
000020 3e c1 11 be 50 21 8b be 96 1e c6 3e 5a f8 ce be
       -0.14233872 -0.27173853 0.3869521 -0.40423852
000030 d2 97 1e 3d da 5a 2f be 5f 0e 5f 3e 00 f2 59 be
       0.038719006 -0.17124501 0.21782826 -0.21283722
000040 59 5e 44 3e ba 38 7a 3e b5 56 1c 3e 31 1c d7 bc
       0.19176616 0.24435702 0.15267451 -0.02625856
000050 b2 57 df bd c6 91 c1 3d 00 f9 36 3e e9 5a 7a 3e
       -0.109053984 0.09451632 0.17868423 0.24448742
000060 bb a6 63 be 16 86 ac be ea a2 49 be 48 db 45 be
       -0.22231571 -0.3369605 -0.19691053 -0.1932193
000070 c6 5b 53 3e e9 22 a4 3d da 2b 38 3d f1 7c 37 3d
       0.20640478 0.08014471 0.044963695 0.044796888
000080 e4 46 9d be 75 56 b4 3e 38 fe 45 be 49 6c 6a be
       -0.30718148 0.3522221 -0.19335258 -0.2289287
000090 0e c7 93 bd c7 d8 4f 3e 3b 47 99 be 83 55 9f 3d
       -0.07215701 0.20297538 -0.29937157 0.07779982
0000a0 26 7e 59 be ec 07 33 be c8 72 cd bd f5 14 a9 bc
       -0.21239528 -0.1748349 -0.100316584 -0.020639876
0000b0 84 e1 4d 3d 0b 88 23 3e 34 c9 2e be df 66 60 3d
       0.050263897 0.15969865 -0.1706894 0.054785606
0000c0 52 41 8d be 6c 90 40 be ef 5a c5 be e4 7c 13 3e
       -0.27588898 -0.18805093 -0.3854594 0.1440311
0000d0 c0 7a 29 be 9f 19 90 3e b6 86 14 3e 76 ce 86 3e
       -0.16550732 0.28144547 0.14504513 0.26329392
0000e0 a8 15 9f 3e e7 34 a9 3e 9d cb 4b 3d 83 f6 8e 3d
       0.3107121 0.33048174 0.049754728 0.06980612
0000f0 01 35 dc 3d 67 01 88 be 52 eb 55 3e b4 d8 18 bd
       0.10752297 -0.2656357 0.20890549 -0.03731604
000100 90 da 15 3e a1 0b bc 3d 75 e4 21 bd 8b 44 b2 3d
       0.14634156 0.091819055 -0.039524514 0.0870448
000110 ea 2a 96 be d1 64 ab 3e 12 5a 5e be 5e ab 76 be
       -0.29329616 0.33475354 -0.21714047 -0.24088809
000120 15 3a b6 3e 0f 6e 91 be cc 56 47 3e 3b 9b d5 3e
       0.35591188 -0.2840428 0.19466704 0.41719994
000130 36 f6 cf 3d 59 90 08 3e ef ea b9 3c 3d e0 56 3e
       0.10154383 0.13336314 0.022695033 0.20983978
000140 c4 97 63 3d ed 00 11 be 73 6e 23 3e ce bf f6 bc
       0.055564657 -0.1416051 0.15960102 -0.030120756
000150 30 02 e6 3d 39 b4 69 be d4 d7 d2 3e 6e af 4f 3d
       0.11230886 -0.22822656 0.4118029 0.050704412
000160 16 21 8b 3e fd b2 80 3e ac 3f 86 3e b7 99 3d bc
       0.2717368 0.25136557 0.26220453 -0.011572293
000170 b3 a1 ba 3e 43 f0 60 3d 95 2a 29 be 3f 20 00 3e
       0.36451492 0.05491663 -0.1652015 0.12512301
000180 bc b4 9f be 61 c7 d9 3e be bf 73 3e 63 2e 2a be
       -0.31192577 0.42534927 0.23803613 -0.16619258
000190 62 19 2d be ac a1 2e bb 17 f3 ff bd df 14 1d be
       -0.16904214 -0.0026646657 -0.124975376 -0.15339993
0001a0 77 1f 80 3e 3b dc 55 3d 72 e4 bd be 07 22 5a be
       0.25024006 0.05221198 -0.37088352 -0.21302043
0001b0 3a 0e 94 3b a7 90 cc be cf 1e 21 be da d0 81 be
       0.0045182975 -0.3995411 -0.15734409 -0.25354654
0001c0 54 d1 85 bd df 83 15 be 44 b4 78 3e a6 58 1d be
       -0.06534067 -0.14601086 0.24287516 -0.15365848
0001d0 1e 5c 93 bb e2 db 57 3d e7 b9 93 bd 05 78 5f be
       -0.004497065 0.05269993 -0.072131924 -0.21823128
0001e0 d7 27 11 be 2f f7 8a be cc 5d 2e 3c e1 9a 2c be
       -0.14175354 -0.2714171 0.01064248 -0.16855957
0001f0 d7 52 5c be 71 e5 74 3e 83 33 5b bd e9 bc b2 3e
       -0.21515976 0.2391565 -0.053515922 0.34909752
000200 d0 9d 08 be fb 9f bf 3d d8 5a 1e 3e 6c b5 f1 3d
       -0.1334145 0.09356686 0.15464342 0.118021816
000210 8f f8 d6 3e ab fd 03 be 42 06 85 bd 56 2b 88 3e
       0.4198651 -0.12889735 -0.06495334 0.26595563
000220 4b e9 08 be a6 a9 3a be 1a a6 24 be 5f 99 84 3e
       -0.13370244 -0.18228778 -0.16078988 0.25898263
000230 49 02 f5 3d 3d b5 a9 be b7 e2 c9 3c 56 3f b7 3e
       0.119633265 -0.33146086 0.024644239 0.3579051
000240 c3 5d 83 be 73 07 6f be 9a 14 9f be b6 61 2c 3d
       -0.25657472 -0.23342685 -0.31070405 0.042085372
000250 41 04 84 3e 59 f4 11 3e bd 9d f2 bd bc e3 93 3e
       0.25784495 0.14253367 -0.118464924 0.28884685
000260 c5 e7 e8 be b2 05 b3 be 18 6f 04 be 53 ac 83 3d
       -0.45489326 -0.34965283 -0.12933004 0.064293526
000270 37 7f 86 be fb 12 30 be 98 a9 9e 3d 1a c4 15 3e
       -0.26268932 -0.1719474 0.07747191 0.14625588
000280 15 ba b2 3d 8d b8 84 be d4 c3 8f 3e 2f 31 8f be
       0.087268986 -0.2592205 0.28079093 -0.27967212
000290 f7 3d c9 3d fe d7 ab bd 47 cb 1a bd c7 93 db 3d
       0.09826272 -0.083908066 -0.037791517 0.10721546
0002a0 dc 21 82 3e c7 2c d9 3d 72 28 42 bc 24 78 b1 be
       0.25416458 0.10604244 -0.011850463 -0.34661973
0002b0 7c b9 3b 3e 5b f1 17 3e 61 53 77 3e 08 3b bd bd
       0.18332475 0.14838164 0.241529 -0.09239775
0002c0 37 60 18 bf 8d f6 01 3e ee d3 ef bc 85 c6 c9 bd
       -0.5952181 0.12691708 -0.02927586 -0.09852318
0002d0 43 6f 8c 3d 11 e6 65 3e 56 fa 48 3e e7 ca 1b be
       0.06857159 0.22451045 0.19626746 -0.1521412
0002e0 9a 6b 91 bd 06 e4 35 3d 0e 44 a0 3c a4 a0 21 3e
       -0.071006015 0.044406913 0.019563701 0.15783936
0002f0 74 9d cb bd 7f e9 3b 3e 78 ec 90 be 4d f5 99 3e
       -0.09942141 0.1835079 -0.2830541 0.30069962
000300 f1 e2 cc 3d 9a 5b ab be ac 26 4c be 4c b3 0b 3e
       0.10004223 -0.33468324 -0.19936627 0.13642615
000310 a5 39 12 be 70 42 ad be 6f 6d ee 3c 70 bd 8c bd
       -0.14279802 -0.3383975 0.029104916 -0.0687207
000320 d8 b5 4c 3e 2b 52 62 be af 45 13 3e ae 80 6b be
       0.19991243 -0.22101657 0.14382051 -0.22998306
000330 b7 c4 52 3d 0a df 5a be 26 7b d9 be c2 eb 5d be
       0.051457133 -0.21374145 -0.42476767 -0.21671966
000340 fe 0c 8e be bb 63 6a 3d 2b b7 46 be bd 88 b8 be
       -0.27744287 0.057224017 -0.1940581 -0.36041823
000350 c5 9f 46 bd ad 22 3c 3d 37 a8 0a 3e 6b 34 3c 3e
       -0.04849221 0.045931507 0.13540731 0.18379371
000360 65 19 86 be f8 56 71 3c 69 0e a7 3e fc cf c4 3e
       -0.2619125 0.014730208 0.32628182 0.3843993
000370 cb f2 af be 72 45 07 3c b0 df 11 3e 6a 6c 4a be
       -0.34364924 0.008256303 0.14245486 -0.19767919
000380 f1 0c 84 be ba 84 15 be fe df eb 3d 71 d2 82 bd
       -0.25791124 -0.14601412 0.115173325 -0.06387795
000390 e1 ad 4c be 51 19 b7 be a8 c0 69 3e 24 60 03 bd
       -0.19988205 -0.35761502 0.22827399 -0.03207411
0003a0 77 6f 8a 3e bf 17 26 be 2c 2b 6f be 0c 63 df 3d
       0.27038166 -0.16219996 -0.23356313 0.109075636
0003b0 db c3 45 3d b1 01 82 be af af 87 3c d8 b9 ab bd
       0.048282485 -0.25391915 0.016563265 -0.08385056
0003c0 cc 14 b9 3c 36 1f c3 be b1 e4 20 3d 3c 18 95 3e
       0.022592925 -0.3810975 0.039280597 0.29120052
0003d0 f3 b8 03 3e 00 e1 f7 3d fe ad cf bd cb 38 95 be
       0.12863521 0.12103462 -0.10140608 -0.29144892
0003e0 ee 14 fe 3d 02 75 94 be 60 0c 63 3e bf 3a 4a be
       0.12406336 -0.2899552 0.2217269 -0.19748972
0003f0 df 54 1f be 8d 16 31 3d 4d 16 d7 bd ad f1 39 3e
       -0.1555972 0.043234397 -0.105023004 0.18158598

residual.0.fc.bias f4 [16]
000000 26 c9 cc 3d ea 9f 6e bd 4c 8b cc bc d7 ef f7 bc
       0.099993035 -0.058257975 -0.024968766 -0.030265732
000010 05 a9 a1 bd 90 94 cd 3c 2a 9e 81 bb 65 ce 23 3c
       -0.07893566 0.025095254 -0.003955622 0.009997939
000020 6d 55 a0 bd 68 2c 17 be f2 5f a0 3c 6b 20 c2 3b
       -0.07828794 -0.14763033 0.019577 0.0059242747
000030 4d 5d 40 bb 14 af 22 3c 5e e7 15 bd 9e 67 0a 3c
       -0.0029352487 0.009929437 -0.036597602 0.008447556

residual.0.norm.weight f4 [16]
000000 b8 26 7a 3f ca 91 65 3f 93 c1 86 3f ea 4d 57 3f
       0.9771533 0.8967558 1.0527824 0.8410326
000010 b5 dc 87 3f a5 02 91 3f cc 93 82 3f 2b 76 84 3f
       1.061423 1.1328932 1.0201354 1.0348562
000020 62 63 7a 3f f2 07 84 3f 48 52 81 3f 73 1a 7d 3f
       0.97807896 1.0314925 1.0103235 0.98868483
000030 30 42 86 3f 7f 13 83 3f 10 7b 8b 3f 16 f1 78 3f
       1.0488949 1.0240325 1.0896931 0.9724287

residual.0.norm.bias f4 [16]
000000 82 1a 11 be 99 3f b1 bd 80 f6 0b 3e dd 18 93 bd
       -0.14170268 -0.086547084 0.13668251 -0.07182477
000010 aa 84 b4 bd ab 45 04 3d 77 d9 07 bd 97 09 9b 3d
       -0.08814366 0.032293003 -0.033166375 0.075701885
000020 59 59 fb bd 19 8f 2c be fe 3f 1b bd 6d ff 7c bd
       -0.12272901 -0.16851462 -0.037902825 -0.06176703
000030 12 71 85 3c bb 9e 3e 3d 79 dc 15 bd 9e d1 11 bd
       0.016289268 0.046538096 -0.036587212 -0.035600297

residual.0.norm.running_mean f4 [16]
000000 56 2b c2 3f 79 ff 29 c0 6e e2 cc 3f 91 c9 fb 3f
       1.5169475 -2.6562178 1.6006601 1.9670888
000010 97 27 37 40 c5 d6 54 40 cb 39 4e 40 67 ac 9b 40
       2.8617914 3.3256085 3.2222774 4.864795
000020 6e d8 0e 40 a2 c1 a8 3f 54 38 cb bf d1 42 90 40
       2.2319598 1.3184092 -1.5876565 4.5081563
000030 22 f8 93 3f b9 14 2d 3f 6f e6 72 40 ca b2 8f 40
       1.1560099 0.67609745 3.7953146 4.490575

residual.0.norm.running_var f4 [16]
000000 6c 86 50 3f c3 9f b0 3f 32 75 55 3f 07 8d 42 3f
       0.8145511 1.3798755 0.8338195 0.7599644
000010 a8 45 eb 3f 87 c5 e3 3f de d0 ba 3f 82 ce a2 3f
       1.8380632 1.7794656 1.4594991 1.2719271
000020 08 15 2b 40 03 25 b8 3f 6d 66 05 40 63 2c a6 3f
       2.6731586 1.4386295 2.0843766 1.2982296
000030 ec 9c 86 3f 89 df bb 3f 9a 0a 87 3f 7c ee 6e 40
       1.0516639 1.4677593 1.055011 3.733306

residual.0.projection.weight f4 [16, 32]
000000 36 6c 1d be ce b3 a0 bd 91 56 e6 3d 68 ba bd bd
       -0.1537331 -0.07846795 0.1124698 -0.0926407
000010 72 c9 1d 3e cc 67 ab 3d 9b 9b 3d bd 7f 1f 1b 3e
       0.15408877 0.08369407 -0.046290975 0.15148734
000020 db 42 9d be aa f3 b9 bd 7a 96 4e 3e f2 75 8e 3e
       -0.3071507 -0.09079678 0.2017459 0.2782436
000030 cb 48 07 3c 35 65 69 bd 15 7b 89 be 6c c7 f0 3c
       0.008257101 -0.056981284 -0.26851717 0.029391967
000040 2f a0 06 be 78 24 5d bd 7f 23 14 3e 6b ab 2e bd
       -0.13147043 -0.053989857 0.14466666 -0.042643946
000050 c6 c6 78 3d e3 6f d6 bd b2 00 64 bd 7f 49 52 3e
       0.06073644 -0.104705594 -0.055664726 0.20535849
000060 b7 57 b5 3d df ff 75 bd c6 10 8e 3d be 82 4d 3e
       0.08854621 -0.06005847 0.06936793 0.20069405
000070 8f 7e 89 3d 77 ba 9b 3d 79 da aa bd 08 47 83 be
       0.06713592 0.07603925 -0.083424516 -0.2564013
000080 de 71 56 3e 82 9f 9f be 48 03 28 be 43 d8 51 be
       0.20941874 -0.31176382 -0.16407502 -0.20492654
000090 6d 06 ce bd a8 fc c4 3d b2 ae 24 3e 44 9e 7f 3e
       -0.10059819 0.09618503 0.16082266 0.24962717
0000a0 d7 04 99 bd 32 87 89 3d a3 ab 8f bd 5d 12 6e 3e
       -0.07471626 0.067152396 -0.07015159 0.23249193
0000b0 d8 ed 4a 3e 3e b9 a1 3e e9 fd 36 3e 2d 5f 20 be
       0.19817293 0.3158664 0.17870297 -0.15661307
0000c0 5f 00 75 be 2d 7c 2a be 32 bc 2c 3e e1 78 9f bd
       -0.23925923 -0.16648932 0.16868666 -0.07786728
0000d0 f4 0e ad 3e 99 f3 26 be 80 d8 c4 3d a1 50 2a be
       0.3380047 -0.16303863 0.096116066 -0.1663232
0000e0 eb 19 af bd 0b d7 c6 3d 2e ba 82 3e b3 f0 85 bd
       -0.08549865 0.09708985 0.2553267 -0.0654005
0000f0 e8 c8 ad 3e f5 50 32 be 5c 5b c4 bd e9 3d 89 bc
       0.33942342 -0.17413695 -0.09587738 -0.016753154
000100 dd 53 f7 bd f8 d9 48 3e be 27 57 3b d3 1d 87 3d
       -0.120765425 0.19614398 0.0032830085 0.065974854
000110 ae 2e 54 be 76 f6 7c bd 46 4f 9d be 6e 67 ad 3b
       -0.20720932 -0.06175848 -0.30724543 0.005291871
000120 dd 5c c6 3d 95 60 0e be 17 b4 49 3e 8f b9 4a be
       0.09685681 -0.1390403 0.19697605 -0.19797347
000130 e9 3d b7 be 06 0b 8d be 5d ee 79 3d f4 42 96 3e
       -0.3578942 -0.27547473 0.061018337 0.29347956
000140 94 ab 9a be 9a 4d 5b be 16 fb b8 3d d4 b4 15 3e
       -0.3020903 -0.21416321 0.09032266 0.14619762
000150 13 b2 9c be c3 a5 3b 3d 87 2d 81 be be 37 0a 3d
       -0.3060461 0.04581238 -0.25230047 0.033744566
000160 8b 48 aa 3e 7e 45 60 3c d4 53 a3 3e 3d 75 bb be
       0.3325847 0.013688443 0.31899893 -0.36612883
000170 8c 69 18 3e 7d a4 33 3d 14 3e cf 3d ee 61 da 3d
       0.14884013 0.04385804 0.10119262 0.1066321
000180 80 7b be 3e b2 c4 0f 3e 5a f8 93 3d 45 63 20 3e
       0.37203598 0.14039877 0.07225104 0.15662868
000190 4d a6 52 bc 9f e5 fe 3d 17 ed 87 3e 12 62 6d be
       -0.012857032 0.124461405 0.26548073 -0.23181942
0001a0 fe 15 3c 3e 42 8b 80 3e d4 0e 85 3d b6 f4 8c 3e
       0.18367764 0.25106245 0.06496969 0.2753045
0001b0 40 74 93 bd ed 8f 35 3d 74 61 8b 3d 4e cd 9f be
       -0.07199907 0.04432671 0.06805697 -0.31211323
0001c0 ef 06 a1 be af 1d 23 3d f9 cd f2 3d 7e 9c a8 be
       -0.31450602 0.03982323 0.118556924 -0.32931894
0001d0 84 09 27 3e 62 2d c7 be 45 39 8f 3e ba da 90 be
       0.16312224 -0.38901812 0.2797338 -0.28291875
0001e0 d1 d9 a5 bd d2 67 8f be 00 f9 3f 3e 6a d0 c2 3d
       -0.08098186 -0.28008896 0.1874733 0.09512408
0001f0 c9 42 51 be 34 50 65 3d 83 2a 26 3d 91 c1 42 3d
       -0.20435633 0.05598469 0.040567886 0.04754788
000200 f4 24 06 be bf 44 fb 3d 4f 5f 83 be 02 b2 7a bd
       -0.13100034 0.12268972 -0.25658652 -0.061204918
000210 a3 30 b1 bd e8 d1 a4 3e 68 26 a5 3d 2c e5 78 3e
       -0.08651855 0.32191396 0.08063966 0.24306172
000220 fc 3a cc 3d bf 2c 63 3e 1f 3a 66 be dc d3 15 3e
       0.09972188 0.22185038 -0.22483109 0.14631599
000230 b8 e5 8d bd ef 1d 2e be 46 81 0c 3d 4b ec 95 3e
       -0.06928581 -0.17003606 0.034302972 0.2928184
000240 08 c6 eb bd 8d 12 1c 3d 17 42 a4 be b7 34 11 3d
       -0.11512381 0.03810363 -0.32081673 0.035450663
000250 53 69 e1 3d bc c2 62 3e 98 77 f1 3d a4 1b 67 be
       0.11006417 0.22144598 0.11790389 -0.22569138
000260 04 a0 4e 3e 1d 8e 51 bd 0a 35 5f be d0 0e 0e be
       0.20178229 -0.05116092 -0.21797577 -0.13872838
000270 3c d0 76 be f8 91 88 be 8f fd ff 3d 96 96 00 3e
       -0.24102873 -0.26673865 0.12499534 0.12557444
000280 eb ca 4c bd bb e8 75 3e e4 2f 87 3e 1e 79 26 3d
       -0.049998205 0.24014561 0.26403725 0.04064285
000290 32 45 5c 3e 39 4d 78 bd 0e ed 34 3d 2f ac 3a 3d
       0.21510771 -0.06062052 0.044171385 0.045574363
0002a0 ec 4e a5 3c 81 03 71 3e 5a d0 56 3d b4 ad 88 be
       0.020179234 0.23536493 0.052444793 -0.26695025
0002b0 79 db 2a be 69 d1 84 3e 8f 97 bc 3e 05 83 da bd
       -0.16685285 0.25941017 0.3683438 -0.10669521
0002c0 39 61 1c be 17 90 16 3e 13 94 7f 3d c2 6b 46 3e
       -0.15271463 0.14703403 0.062397074 0.19377044
0002d0 d4 6a 93 3e 73 8d cf 3d a9 dc 8a bd f4 42 ab 3e
       0.2879244 0.10134401 -0.06780369 0.3344952
0002e0 18 be 9a 3d ac b2 01 3e e9 41 4a 3d 3d e7 9e be
       0.07555789 0.12665814 0.049379263 -0.31035796
0002f0 ea 09 6f bd d1 fe a7 bd 2c d5 5f be 22 b5 98 be
       -0.058359064 -0.08202899 -0.21858662 -0.29825693
000300 b4 f0 7d bc 13 6b b7 3e 1a ed b2 bd 06 eb 46 bc
       -0.015499283 0.3582388 -0.0873663 -0.012140995
000310 ab 89 b1 3d d1 b2 3b 3d 50 df 30 be 90 0c 9f be
       0.08668836 0.04582483 -0.17272687 -0.31064272
000320 4b 3b 4f 3d d9 8c 36 be e0 fc 8f 3d 30 fc 76 bd
       0.050593656 -0.17827167 0.07030654 -0.0602991
000330 fa ca 75 be 6b c5 8c bd dc 28 a5 3c f8 db 2d 3e
       -0.2400321 -0.06873592 0.020161085 0.16978443
000340 3a c6 92 be 7f 05 99 be db 94 fc 3d a2 23 af be
       -0.2866686 -0.29887006 0.123330794 -0.34206873
000350 c9 91 c7 bd 9a 0f d9 bd c8 eb 49 be f3 96 32 be
       -0.09744603 -0.10598679 -0.1971885 -0.17440395
000360 29 eb 79 be 44 90 0e be e6 ad 11 3e f1 63 3c bc
       -0.24406113 -0.1392222 0.14226493 -0.011498437
000370 92 24 d0 bd 7e 36 21 3e 29 bf aa 3e 43 f4 2a 3e
       -0.10163225 0.15743443 0.3334897 0.16694741
000380 68 db f6 bd 2f 43 96 be d8 d8 25 3e 49 ca 82 be
       -0.12053567 -0.29348132 0.16196 -0.25544956
000390 73 b5 b0 3c 60 16 9b 3e b3 2a 83 be e2 67 82 3e
       0.021570897 0.30290508 -0.25618514 0.2546988
0003a0 a3 31 db bc 24 a2 08 3e b6 cf 97 be 96 07 66 3e
       -0.026757067 0.13343102 -0.29650658 0.22463831
0003b0 32 b6 99 3e 06 ba 9f 3e fa 90 83 3e dd 4b 1f be
       0.30021816 0.31196612 0.25696546 -0.15556283
0003c0 20 c5 8c be d5 d7 8b 3e 5b 73 04 3e 82 8d dc 3d
       -0.27494144 0.27313104 0.1293463 0.10769178
0003d0 2e d1 99 3d 47 60 c9 bd f9 90 95 3d 9b 4d 0e 3d
       0.07510601 -0.098328166 0.07303042 0.03474198
0003e0 00 b5 85 3e cf 10 65 3e 08 38 cb bc 8d ae 07 3e
       0.26114655 0.22369693 -0.024806991 0.1325018
0003f0 9f 13 67 3d ed 03 35 3e dd 2a 3f be be 35 1e bc
       0.056415197 0.17677279 -0.18668695 -0.009656368

residual.0.projection.bias f4 [16]
000000 b3 fc b9 bd 62 5a 37 bd 1c 4a 69 bb 37 6b d4 bd
       -0.09081402 -0.04476393 -0.003559715 -0.10372012
000010 4e 94 d1 3c ae 3c 92 bd 9d ea 72 bd 9e df 97 3c
       0.025583412 -0.0714048 -0.059305776 0.018539246
000020 b3 df 4e bd cb cf 3d bd 36 99 49 bc 67 37 7c bd
       -0.050506305 -0.046340745 -0.012304595 -0.061576273
000030 bc 76 02 3d 32 f5 2f 3d 99 a9 5c bc 8c 9e cf bc
       0.031851515 0.042958446 -0.01346817 -0.025344156

residual.1.fc.weight f4 [16, 16]
000000 01 a9 90 3e 35 38 c3 be 40 f3 79 3d 43 f3 8a 3c
       0.2825394 -0.3812882 0.061022997 0.0169617
000010 8f f3 26 bd 0a 1a b1 3e 6b a7 d0 be cd c0 10 be
       -0.04075962 0.3459018 -0.4075273 -0.14136048
000020 6e 72 bb 3e 9f 7c 93 be af 8e 77 3e 1b 23 8c 3e
       0.3661074 -0.28806016 0.24175523 0.27370533
000030 b8 5e d1 3d be 26 f6 bd bd ac a6 3e 52 15 12 bc
       0.10223144 -0.12019108 0.32553664 -0.008916216
000040 12 12 81 be a1 12 03 3c 53 3e b1 be 0a 7f f2 3e
       -0.252091 0.008000047 -0.34617862 0.47362548
000050 43 ed f2 3d db 52 e3 3e 5d c0 d3 3e c8 2e b1 3d
       0.1186166 0.4439915 0.413577 0.08651501
000060 6d b3 01 3d fb bc 94 3e 0b f6 ea bd 2c 02 19 3e
       0.031665254 0.2905043 -0.1147271 0.14942235
000070 2f b8 20 be c9 1f 1e 3e 68 32 81 3e a2 52 d6 bc
       -0.1569526 0.15441813 0.2523377 -0.02616245
000080 ba fd 4c 3e 7e 5c 67 be 3b 68 be bd ea 5f 2d bd
       0.20018664 -0.22593877 -0.09297224 -0.0423278
000090 7d 0a 99 3e 83 82 c5 3e 45 3d 84 3d 4a 20 fc bd
       0.29890814 0.38576135 0.06456999 -0.12310846
0000a0 86 b4 ba bd 48 0f af 3d 4e d5 99 be bc b7 a7 3e
       -0.09116463 0.085478365 -0.3004555 0.32757366
0000b0 09 7a 3b bd d1 c6 82 be ca 35 84 bd a3 e8 88 be
       -0.04577068 -0.2554231 -0.06455572 -0.26739988
0000c0 bf de c8 be 9b 49 0e be 2d c6 85 3e 32 ad a6 be
       -0.39232442 -0.13895266 0.2612776 -0.32554013
0000d0 7e 85 92 3e c3 47 8e be b0 3a 29 bd 12 87 29 3e
       0.2861747 -0.27789125 -0.041315734 0.16555431
0000e0 03 60 c6 3e 96 43 09 3e 9c 72 d2 be 35 1b 40 bc
       0.38745126 0.13404688 -0.41103065 -0.011725237
0000f0 15 d8 f3 3c 10 53 a9 3e 4e d4 8c bd eb f6 85 be
       0.029766122 0.33071184 -0.068764314 -0.26164946
000100 74 18 89 be d9 ac 61 be b8 c0 6e 3e e2 70 82 be
       -0.2677647 -0.22038592 0.23315704 -0.25476748
000110 9a 02 55 bd 70 90 65 3e 9a f5 5c 3e d3 03 22 3e
       -0.052004434 0.2241838 0.21578065 0.15821771
000120 a3 0f 27 be d5 89 4b 3e 36 2e 09 be 1e eb f0 be
       -0.16314559 0.19876797 -0.13396534 -0.4705438
000130 9f 9d 4a bd 8b b6 02 be 26 c2 c5 be 96 87 03 bf
       -0.049466725 -0.12764947 -0.38624686 -0.5137876
000140 f8 91 07 3e 59 8a ac bd 9a 29 55 3e 5a 43 57 be
       0.13239276 -0.08424825 0.20816651 -0.21021786
000150 95 03 02 3e b1 01 8b be 55 63 c5 3e 8c fb 85 3d
       0.12696679 -0.27149728 0.38552347 0.065421194
000160 0e 5b 13 3e 6f 2b ac 3e be 8e da bd 1c a8 d4 3e
       0.14390203 0.33626887 -0.10671757 0.41534507
000170 65 18 31 be e1 7f 4e 3e 01 a2 af 3e e1 a9 f3 3c
       -0.17294462 0.2016597 0.34303287 0.02974409
000180 3c e4 6d bd 66 b9 3e be 67 c0 95 be bf 40 2f 3e
       -0.05807899 -0.18625411 -0.29248354 0.17114542
000190 aa 53 f9 3d e0 34 5c 3e 1d 0c 67 be a6 67 91 be
       0.12174161 0.21504545 -0.22563215 -0.2839939
0001a0 c1 74 d1 be 40 86 c9 be 31 a2 ff 3d d3 8f d0 be
       -0.4090939 -0.39360237 0.124821074 -0.4073473
0001b0 98 6d 13 3e 3c d8 c4 bd 9c ab 34 be f1 ba 64 3e
       0.14397275 -0.09611556 -0.17643589 0.22336937
0001c0 21 dc 8e be 82 02 43 3e 5d 72 c0 3e 7e 43 60 bd
       -0.2790232 0.19043925 0.37587252 -0.054751866
0001d0 a9 be 0f be 97 a5 08 bf 21 48 81 be 96 95 4e 3e
       -0.14037575 -0.5337767 -0.25250342 0.2017425
0001e0 16 d2 8a 3e 93 3c de be cf 45 1d be db 3d e5 bd
       0.27113408 -0.4340559 -0.15358661 -0.111934386
0001f0 2f 14 11 be b8 cc 02 be c9 ea b1 be a7 71 e4 be
       -0.14167856 -0.12773407 -0.3474944 -0.4461796
000200 93 d6 2d 3d 7f da e1 3e 90 ca a7 be 88 09 90 3e
       0.042440962 0.44112012 -0.3277173 0.28132272
000210 6f f5 6e be d2 4c 60 3e 5a f4 74 3d ed 27 79 be
       -0.23335813 0.21904305 0.059803344 -0.24331637
000220 00 3f e5 bd 6d 23 06 3f ec 89 05 be e3 d4 cd bc
       -0.11193657 0.52397805 -0.13040894 -0.025125926
000230 d1 b0 b6 bd 73 ee 93 be 9f 1e 2f 3e f1 0c af 3e
       -0.08920444 -0.2889286 0.17101525 0.3418956
000240 01 52 0f bd f0 6e bc 3d f7 64 8e 3b 8f 6f 3d 3e
       -0.034990314 0.09200847 0.004345532 0.18499587
000250 86 49 ee be 81 f4 98 be 68 1b e2 3e 94 7e 61 be
       -0.4654047 -0.29874042 0.44161534 -0.22020942
000260 66 90 db 3d ac 34 6f 3e 78 ad 8c be 64 d7 e8 3d
       0.10720901 0.23359936 -0.27476096 0.113692075
000270 5b 4c 8d 3e d4 09 af 3d 67 81 5a 3e a5 dd d1 3c
       0.27597317 0.085467964 0.21338426 0.025618384
000280 53 8f 60 3e 1d d7 03 be 3e a6 f2 be 6c 7c f3 3e
       0.21929674 -0.12875028 -0.47392458 0.47555864
000290 04 48 ac 3e c8 5b f2 3e d0 65 c6 bd 4e 7b 24 3e
       0.33648694 0.4733565 -0.09687388 0.16062662
0002a0 52 86 84 be 5d cf c2 3e 73 76 3e 3e c1 6b 1e 3e
       -0.25883728 0.3804883 0.18599872 0.15470792
0002b0 49 7f 82 3d 80 20 5e be 65 7b 73 be e0 d0 0e 3e
       0.06371934 -0.21692085 -0.2377754 0.13946867
0002c0 ad 92 22 be bb 4c 95 3e c4 f0 39 3e 99 ce c5 3e
       -0.15876265 0.29160103 0.18158251 0.38634184
0002d0 ec f0 85 3a d8 79 71 3e a9 c2 81 be e9 73 c9 3e
       0.0010218895 0.23581636 -0.25343826 0.39346245
0002e0 4c aa 88 be 49 74 01 be 3d 87 4c be 92 8b 5c be
       -0.26692426 -0.12642016 -0.19973464 -0.21537617
0002f0 24 f6 9c bd 3a d8 9e 3e c9 c5 d2 bb 42 ec c7 3e
       -0.07664135 0.31024343 -0.0064322692 0.39047438
000300 55 59 1f 3e fc 70 bf 3e 57 81 5b 3d aa 07 17 be
       0.15561421 0.37390888 0.053590145 -0.14749017
000310 95 6e db be ed 2a 38 be c5 67 dc be 16 0c cd bc
       -0.42857805 -0.17985125 -0.4304792 -0.025030177
000320 69 bd c0 bd 4e 53 86 3e 81 e5 cd 3e 36 ce 05 bf
       -0.09411127 0.2623543 0.4021416 -0.5226778
000330 54 d1 cb 3c 08 ca 22 3f 1c 9d c1 be b4 e7 9f 3e
       0.024880089 0.63589525 -0.37815177 0.31231463
000340 12 27 e9 3c db d1 82 be 83 f5 fd bd dc d2 9c 3e
       0.028461013 -0.25550732 -0.12400343 0.30629623
000350 93 af 4c bd 03 a9 b6 be b9 c8 47 3e d3 e6 6f be
       -0.049972128 -0.3567582 0.19510163 -0.23427896
000360 20 cc 08 3d b9 03 ab 3e 60 69 91 3e c1 42 97 3e
       0.033397794 0.33401278 0.28400707 0.29543117
000370 5c a9 5d be ab 2c 84 be 59 8c 06 be f2 33 ad be
       -0.21646637 -0.2581533 -0.13139476 -0.33828694
000380 71 16 53 3e 32 02 92 be ed 73 1c 3b 53 bb 68 be
       0.2061403 -0.285173 0.0023872808 -0.22727709
000390 64 a2 b4 3d 7b bf 9c be 1a 39 bf be 0c f0 de 3e
       0.08820036 -0.30614838 -0.37348253 0.43542516
0003a0 82 3d a2 be f7 ad 52 3e 56 f7 d7 be 8a 16 e3 3e
       -0.31687552 0.20574175 -0.4218089 0.44353133
0003b0 8e 84 77 bc 2a 4a 48 be 6b a6 af 3e 6a 0a d6 bd
       -0.015107287 -0.19559541 0.34306654 -0.10451205
0003c0 1e 0d 6a be 5d ca db 3e 51 c6 df 3e 7b b7 28 3e
       -0.22856566 0.42927828 0.4370599 0.16476242
0003d0 b5 05 a3 3e e0 f6 90 be 6c f7 34 3d ae d4 80 be
       0.31840292 -0.2831335 0.044181272 -0.25162262
0003e0 3a 41 94 bd 1d 61 0d 3e d0 fb 94 bd b2 a5 18 3f
       -0.072390035 0.13806577 -0.07274592 0.5962783
0003f0 36 35 30 be 8a e5 4b 3e 0c 28 82 3d 1a 4f 0e 3e
       -0.17207798 0.19911781 0.063552946 0.13897362

residual.1.fc.bias f4 [16]
000000 e9 58 36 bd 90 2d 08 3e 85 4c 0a 3d 36 36 57 3c
       -0.044518385 0.1329863 0.03376438 0.0131354835
000010 25 04 af be bc b9 f3 3a a5 2f a4 3c c9 bf 48 bc
       -0.3418285 0.0018594782 0.02004225 -0.012252756
000020 08 a6 49 bb fc f5 7e 3c e8 46 2f 3d 8f 3f 10 3e
       -0.0030769128 0.015561577 0.04279223 0.14086746
000030 f0 92 a4 bd 9a 32 ae bc 52 1f 49 bd 28 b0 0a bb
       -0.080358386 -0.021264363 -0.049102135 -0.0021162126

residual.1.norm.weight f4 [16]
000000 dd 8b 78 3f a2 ca 8a 3f 77 3c 73 3f de c9 68 3f
       0.97088414 1.0843089 0.9501414 0.90933025
000010 bc 0c 9a 3f 4b ef 8a 3f 97 ec 74 3f cc 59 74 3f
       1.2035136 1.0854276 0.9567351 0.9544952
000020 cf 56 91 3f 4b a5 92 3f 0d 72 80 3f b1 4d 80 3f
       1.1354617 1.1456693 1.0034806 1.002371
000030 5c b2 77 3f 06 5c 8a 3f e8 35 7e 3f e4 9a 71 3f
       0.9675653 1.0809333 0.99301004 0.9437697
