climate/Final Experiments/PERNN_res41/best_model.pth (torch, 62626 bytes, 83 tensors)

encoder.0.fc.weight f4 [16, 16]
-0.35955378 -0.1605675 -0.13949677 -0.0022426797 -0.05797269 -0.086454965 -0.08434637 -0.05488739
-0.2168381 0.174851 -0.24934019 0.14884001 0.28074437 0.2420818 -0.13340144 -0.026579369
0.49162775 -0.3399003 0.0041888095 -0.022117527 -0.020232864 0.049229678 -0.17395155 -0.1758421
-0.11123023 -0.03181708 0.057094067 0.3946282 -0.1522243 0.044571765 0.34179354 -0.020602843
-0.3201639 -0.044064492 -0.106009245 0.24422146 -0.2005274 0.1259775 0.07713083 -0.18479596
0.25809154 0.079330906 -0.38327736 0.18634866 0.45606217 0.083299555 -0.5421266 -0.519977
-0.22153932 0.30689234 -0.18190537 0.06997 0.6248769 -0.6087104 -0.30581036 -0.35703886
-0.16302268 0.117402844 -0.15786241 -0.07003531 -0.045941796 0.49364838 -0.2986596 0.22618078
0.08179101 -0.26519594 -0.06517356 -0.047017835 0.2753347 -0.17766489 0.02665382 -0.38868088
0.14809535 0.1570109 -0.047920097 -0.5404854 -0.19863524 0.061460763 0.041200317 -0.040715683
0.018471017 -0.44609907 0.08730363 0.005044175 -0.46038052 0.35315576 0.023134457 0.048089188
-0.19452178 -0.35951263 0.5483306 -0.15837206 0.5292945 0.32289994 0.4297274 -0.03970936
-0.25256228 -0.21243554 0.09062633 -0.0154323 -0.09981104 -0.2300589 -0.2104316 -0.23037772
0.4951212 0.26715407 0.38910285 0.40091452 0.1365554 -0.24621235 0.09479747 -0.022739962
-0.46960738 0.033788126 -0.012050874 0.008515673 0.16216546 -0.13890716 -0.19229756 0.02219556
0.27533102 0.0133684855 -0.20160982 -0.79032576 0.09220653 -0.2163272 -0.33339724 -0.09290762
0.048367757 0.30831543 -0.037319217 -0.08952201 0.39785287 -0.41753504 0.1070507 -0.39785957
-0.39321426 -0.273417 -0.36882398 -0.19900087 -0.65825 -0.28423217 0.0049074986 -0.00025263656
-0.35445118 -0.11166123 -0.08329589 -0.04329248 -0.12479398 -0.29059145 -0.6378106 0.31297746
0.46338034 0.106043 0.2933982 0.01846269 0.08642384 0.048610847 0.16463122 -0.37268636
-0.18251628 -0.14258377 0.2301493 -0.025884103 0.26878986 0.17021497 0.009858926 0.19526537
-0.041659027 0.33530703 0.5969935 -0.0868347 -0.56952345 0.35198036 0.13258718 -0.08465864
-0.49381864 -0.058787752 -0.12988901 0.023071572 -0.48375893 -0.32226124 -0.3687052 -0.2365465
-0.012876724 -0.42078176 -0.109953545 -0.056493524 0.3039742 0.16321939 0.4041369 0.29649964
0.16075009 0.18443218 -0.25498495 -0.052132316 -0.27298883 -0.2545218 -0.12493534 -0.17417118
0.19462013 -0.34767336 0.65648496 0.41555268 -0.6721038 0.3722183 0.31241015 -0.2727775
0.37921673 0.3891424 -0.16447932 0.16496247 0.38955545 -0.03202177 -0.12109163 -0.03929771
0.1695647 -0.21125415 0.510465 -0.13949619 0.3411482 -0.018882805 -0.09294033 -0.26878458
-0.25861785 -0.2764452 -0.287825 -0.3257248 0.095493756 0.16479887 0.017228384 0.11404149
-0.4941728 -0.050480384 -0.52966243 0.11565193 0.029933678 -0.4634144 -0.18507674 0.027702177
-0.44041994 -0.15907599 -0.20800103 0.018043958 0.06623764 -0.052004334 0.22058287 0.26695478
0.15325288 0.18603508 -0.29545212 -0.62399507 -0.4542051 0.40019143 -0.44066373 -0.08968215
00000000: 6f17 b8be cf6b 24be 3ed8 0ebe ecf9 12bb
00000010: c574 6dbd 4d0f b1bd cabd acbd 9ad1 60bd
00000020: cf0a 5ebe 240c 333e 0953 7fbe 8469 183e
00000030: babd 8f3e 4be4 773e 639a 08be fabc d9bc
00000040: a2b6 fb3e 6a07 aebe 4842 893b d12f b5bc
00000050: 64bf a5bc 0fa5 493d 5b20 32be f40f 34be
00000060: adcc e3bd a052 02bd 78db 693d b50c ca3e
00000070: b0e0 1bbe e290 363d 90ff ae3e 4bc7 a8bc
00000080: 86ec a3be f87c 34bd 601b d9bd 3115 7a3e
00000090: 0e57 4dbe 3f00 013e c5f6 9d3d 273b 3dbe
000000a0: 9324 843e 3e78 a23d ee3c c4be 2fd2 3e3e
000000b0: fb80 e93e f598 aa3d cfc8 0abf 361d 05bf
000000c0: 34db 62be fe20 9d3e 6745 3abe 6e4c 8f3d
000000d0: eff7 1f3f 72d4 1bbf 2d93 9cbe cccd b6be
000000e0: 6bef 26be e770 f03d afa6 21be ac6e 8fbd
000000f0: 772d 3cbd 7bbf fc3e e9e9 98be ef9b 673e
00000100: 0c82 a73d c3c7 87be b779 85bd c695 40bd
00000110: abf8 8c3e c9ed 35be 1d59 da3c 2e01 c7be
00000120: 4fa6 173e 77c7 203e dd47 44bd 405d 0abf
00000130: 0967 4bbe 48be 7b3d aac1 283d 7dc5 26bd
00000140: 8850 973c 1967 e4be 3fcc b23d 9b49 a53b
00000150: ffb6 ebbe d5d0 b43e 7984 bd3c 2bf9 443d
00000160: b830 47be 0a12 b8be 655f 0c3f 492c 22be
00000170: d87f 073f 2453 a53e 3b05 dc3e 48a6 22bd
00000180: d84f 81be b488 59be 4c9a b93d c2d7 7cbc
00000190: bb69 ccbd 8f94 6bbe 627b 57be 23e8 6bbe
000001a0: 8780 fd3e 6bc8 883e 7d38 c73e ab44 cd3e
000001b0: 2ed5 0b3e 171f 7cbe 2d25 c23d 2849 babc
000001c0: 6170 f0be 6b65 0a3d 0771 45bc 5285 0b3c
000001d0: b40e 263e ae3d 0ebe a7e9 44be 77d3 b53c
000001e0: 30f8 8c3e 7e07 5b3c ce72 4ebe ca52 4abf
000001f0: c7d6 bc3d e184 5dbe 0bb3 aabe 5a46 bebd
00000200: 451d 463d 85db 9d3e 09dc 18bd 5157 b7bd
00000210: 5fb3 cb3e 27c7 d5be 663d db3d 40b4 cbbe
00000220: 6153 c9be 50fd 8bbe 7fd6 bcbe e2c6 4bbe
00000230: 1283 28bf e186 91be 15cf a03b 4e74 84b9
00000240: a07a b5be a5ae e4bd 0997 aabd 7553 31bd
00000250: fc93 ffbd 67c8 94be 8e47 23bf 953e a03e
00000260: 3040 ed3e 132d d93d 4a38 963e 113f 973c
00000270: fbfe b03d 2b1c 473d 1695 283e bfd0 bebe
00000280: 8ce5 3abe 7b01 12be 42ac 6b3e e60a d4bc
00000290: d39e 893e d54c 2e3e 5587 213c a5f3 473e
000002a0: a8a2 2abd 5dad ab3e 91d4 183f 64d6 b1bd
000002b0: 4acc 11bf c536 b43e efc4 073e 8261 adbd
000002c0: ccd5 fcbe 6dcb 70bd a001 05be 9800 bd3c
000002d0: 40af f7be 6dff a4be eec6 bcbe 3f39 72be
000002e0: e5f8 52bc b570 d7be 532f e1bd c165 67bd
000002f0: 82a2 9b3e fc22 273e 08eb ce3e cdce 973e
00000300: ac9b 243e cadb 3c3e 638d 82be b288 55bd
00000310: 31c5 8bbe ae50 82be 19de ffbd ee59 32be
00000320: 804a 473e 3e02 b2be 660f 283f 52c3 d43e
00000330: ff0e 2cbf 6693 be3e 39f4 9f3e 7ea9 8bbe
00000340: b228 c23e ac3d c73e 446d 28be eceb 283e
00000350: d073 c73e 4229 03bd e3fe f7bd a3f6 20bd
00000360: 5ea2 2d3e 0253 58be d6ad 023f 17d8 0ebe
00000370: faaa ae3e 1db0 9abc 8057 bebd 229e 89be
00000380: 8f69 84be 3a8a 8dbe cc5d 93be 67c5 a6be
00000390: 3b92 c33d 09c1 283e 8a22 8d3c 968e e93d
000003a0: 3804 fdbe 85c4 4ebd f597 07bf ebda ec3d
000003b0: 7937 f53c a744 edbe c284 3dbe adef e23c
000003c0: b97e e1be d1e4 22be 39fe 54be ecd0 933c
000003d0: 9aa7 873d 7f02 55bd 7ae0 613e 4cae 883e
000003e0: 53ee 1c3e fb7f 3e3e 8045 97be 24be 1fbf
000003f0: 928d e8be e4e5 cc3e ad9e e1be 46ab b7bd

encoder.0.fc.bias f4 [16]
0.13943018 0.08587174 -0.06979012 -0.054252874 0.013086117 0.05438003 0.090839356 0.09330128
0.06286394 -0.071740285 0.04626134 -0.05215294 0.10730849 0.109215535 0.08606701 0.0403401
00000000: c9c6 0e3e 86dd af3d 1fee 8ebd 4338 5ebd
00000010: 2767 563c 98bd 5e3d fc09 ba3d be14 bf3d
00000020: cfbe 803d 92ec 92bd 887c 3d3d 529e 55bd
00000030: 8ec4 db3d 65ac df3d e743 b03d a93b 253d

encoder.0.norm.weight f4 [16]
1.252713 1.2732924 1.2062576 0.99987286 1.2257951 1.224347 1.249706 1.2429662
1.2589519 0.9594488 1.305691 0.9630955 1.2535502 1.2358108 1.2251741 1.2360989
00000000: e658 a03f 3ffb a23f a666 9a3f abf7 7f3f
00000010: dbe6 9c3f 67b7 9c3f 5ef6 9f3f 8419 9f3f
00000020: 5625 a13f 709e 753f e220 a73f 6d8d 763f
00000030: 5574 a03f 0c2f 9e3f 81d2 9c3f 7d38 9e3f

encoder.0.norm.bias f4 [16]
0.29179204 0.30259043 0.22971013 0.12922867 0.2517197 0.26222107 0.25593475 0.2699559
0.29166457 -0.12044715 0.29532912 0.19175223 0.32087323 0.2797285 0.18969862 0.26701182
00000000: c465 953e 22ed 9a3e 2239 6b3e 8554 043e
00000010: 68e1 803e d741 863e e109 833e a937 8a3e
00000020: 0f55 953e ffac f6bd 6135 973e b25a 443e
00000030: 7f49 a43e 9338 8f3e 5b40 423e c6b5 883e

encoder.0.norm.running_mean f4 [16]
0.07306116 0.12700725 -2.28687 0.84470654 -0.12234723 0.13618658 -0.030836258 -0.46997678
-0.1582292 -1.5540013 -0.11792147 1.2873333 -0.8651851 -1.0738372 0.0028989112 -0.31416333
00000000: 17a1 953d 300e 023e 145c 12c0 b03e 583f
00000010: 2f91 fabd 7f74 0b3e 529c fcbc cca0 f0be
00000020: d606 22be 84e9 c6bf d080 f1bd 56c7 a43f
00000030: c57c 5dbf 7f73 89bf a9fb 3d3b 04da a0be

encoder.0.norm.running_var f4 [16]
0.2028787 0.4428428 1.7312118 2.4982724 0.67847925 1.2320063 0.3222508 1.1108407
2.3254075 1.0108442 0.58149135 0.6855645 1.4363682 1.024424 0.28762197 0.8976817
00000000: 6fbf 4f3e 4bbc e23e 5998 dd3f b2e3 1f40
00000010: d1b0 2d3f 62b2 9d3f 0ffe a43e 0730 8e3f
00000020: 7ad3 1440 5863 813f 9edc 143f 2881 2f3f
00000030: eada b73f 5320 833f 3043 933e 78ce 653f

encoder.1.fc.weight f4 [16, 16]
-0.018642254 -0.15656544 0.18562154 0.0052270303 0.33675948 -0.3722226 -0.17538805 -0.028298017
0.18313707 -0.33359444 -0.08987283 -0.32495165 0.027074918 -0.055211037 -0.4779241 -0.31865868
-0.07898676 -0.20378183 -0.004354294 0.006671442 0.035789285 -0.027767694 -0.00021894788 -0.2727636
-0.48918617 0.29732627 -0.7335449 -0.121048525 0.22821161 -0.036036734 -0.3773103 -0.28705025
-0.28812116 -0.2724347 0.24657087 -0.13701019 -0.23156747 -0.0769592 -0.5374869 0.282255
0.008505789 0.20448539 0.16617814 -0.7660739 -0.1590946 -0.103216715 -0.101154335 0.17363276
-0.13349664 -0.41019896 -0.57343143 0.12583423 -0.26786685 -0.07188355 -0.062446434 -0.009556392
-0.41098547 0.04078546 -0.06606667 -0.26527804 0.3232698 0.04517198 0.1784572 -0.11781489
0.37474826 -0.084256865 -0.15702516 -0.34360892 -0.21653832 0.23819612 0.14926843 0.011376433
-0.31564724 0.070408516 -0.6821462 -0.22731985 -0.09746786 0.36761972 -0.17518805 0.15047248
0.28732422 0.07623017 -0.34097522 0.053425144 -0.13934158 0.021351194 0.059428718 -0.008846002
-0.22740099 0.46054798 -0.46953487 0.10795507 0.11272089 -0.1082731 0.015713368 -0.20555389
-0.32526276 -0.640284 -0.45334855 -0.14106967 0.35545728 0.3217262 -0.47956178 -0.06789093
-0.026402319 -0.33809015 -0.38491526 -0.081682056 0.03482939 0.013393273 -0.32929736 0.016997362
-0.21422485 0.0071728844 -0.32469288 0.08230978 -0.35664314 -0.28536284 0.1644573 0.028939366
-0.19752207 0.22603334 0.13325064 0.40485448 -0.2345758 -0.40921232 0.24139583 -0.22250494
-0.06012763 0.22451295 0.22472882 -0.010137327 -0.15869924 -0.28800452 -0.20127483 -0.45116028
-0.34542894 0.13373691 -0.0081946235 -0.5236797 -0.47171587 -0.4087872 0.20218354 0.04100794
-0.2104103 0.40940142 0.27568325 0.4403246 0.085743435 0.29667574 0.106082045 -0.12017329
0.30532113 0.062123973 -0.22767054 -0.0050301184 -0.15479732 -0.19606337 0.4469148 0.08569269
-0.231103 0.056164432 -0.3031805 0.091608495 -0.32166836 -0.09591247 0.025864672 -0.10887105
-0.429849 0.33267924 0.2362956 -0.40498206 -0.4574529 -0.14005473 0.09925514 -0.19680634
-0.19991413 -0.57008046 -0.40817448 -0.12326407 0.30550444 0.25938433 -0.08299589 0.041850176
-0.40987486 -0.030512854 -0.23708893 -0.29573885 -0.27145708 -0.13149577 -0.096078955 -0.19450621
-0.3249667 0.09099857 -0.65113777 0.0020891533 0.2076442 -0.4946362 -0.10252656 0.07647917
0.19246599 -0.14536689 -0.5035042 0.22341771 -0.24855432 0.02805738 0.41374266 -0.14424226
0.060002256 0.039733596 0.05564088 -0.06700952 -0.36128855 -0.18115065 -0.06977689 -0.28664207
-0.35255492 0.41936287 -0.28949913 -0.4993379 -0.3464174 0.11454405 -0.0106841205 0.114247285
0.096603386 -0.39802158 0.068589464 0.09440953 0.2419468 -0.16770998 -0.44634014 -0.4984736
-0.5034347 -0.39975408 0.18167745 -0.29579005 0.103961475 -0.48224288 -0.34830847 -0.18937077
-0.14622822 -0.60862625 -0.5182803 0.10310335 0.1783164 -0.31604412 -0.19300658 0.17475098
0.117470965 0.20814045 0.29600945 0.082848795 -0.5686176 -0.20280221 -0.025491469 -0.20257562
00000000: a4b7 98bc b152 20be 9313 3e3e 8247 ab3b
00000010: bd6b ac3e f693 bebe ed98 33be 3ed1 e7bc
00000020: 4988 3b3e e4cc aabe 3f0f b8bd 1060 a6be
00000030: 38cc dd3c f824 62bd 78b2 f4be 3b27 a3be
00000040: cfc3 a1bd 2fac 50be 77ae 8ebb 1d9c da3b
00000050: c997 123d 1379 e3bc 6095 65b9 aca7 8bbe
00000060: 9c76 fabe 263b 983e 99c9 3bbf 4ae8 f7bd
00000070: 4eb0 693e 419b 13bd d12e c1be 40f8 92be
00000080: 9e84 93be 907c 8bbe 137d 7c3e 664c 0cbe
00000090: 0620 6dbe c99c 9dbd be98 09bf ba83 903e
000000a0: dd5b 0b3c 9e64 513e 9a2a 2a3e 6b1d 44bf
000000b0: b2e9 22be 4963 d3bd 012a cfbd c9cc 313e
000000c0: 58b3 08be 9905 d2be 67cc 12bf b0da 003e
000000d0: d825 89be af37 93bd d5c7 7fbd 6a92 1cbc
000000e0: b06c d2be a80e 273d f64d 87bd 86d2 87be
000000f0: 9f83 a53e 4106 393d 7cbd 363e ef48 f1bd
00000100: 01df bf3e dd8e acbd 34cb 20be 82ed afbe
00000110: 39bc 5dbe afe9 733e d3d9 183e 3864 3a3c
00000120: 849c a1be 5732 903d 22a1 2ebf 89c6 68be
00000130: 3b9d c7bd a738 bc3e 7f64 33be 7515 1a3e
00000140: 291c 933e 901e 9c3d 4e94 aebe 53d4 5a3d
00000150: 8faf 0ebe b3e8 ae3c 876b 733d d2ee 10bc
00000160: cedb 68be f2cc eb3e e066 f0be 8c17 dd3d
00000170: 36da e63d 49be ddbd 52b9 803c b87c 52be
00000180: d788 a6be a7e9 23bf 4d1d e8be 9174 10be
00000190: 7ffe b53e 4cb9 a43e 1f89 f5be 660a 8bbd
000001a0: ad49 d8bc 271a adbe 9d13 c5be ec48 a7bd
000001b0: 43a9 0e3d 756f 5b3c aa99 a8be 0d3e 8b3c
000001c0: c25d 5bbe 840a eb3b 253e a6be 0892 a83d
000001d0: ee99 b6be 141b 92be 7f67 283e 4012 ed3c
000001e0: 3a43 4abe 4975 673e db72 083e 1649 cf3e
000001f0: a334 70be 4784 d1be 7830 773e 56d8 63be
00000200: 6448 76bd b9e6 653e 501f 663e 0817 26bc
00000210: 0e82 22be 5475 93be fd1a 4ebe 7bfe e6be
00000220: 10dc b0be 54f2 083e be42 06bc df0f 06bf
00000230: be84 f1be 8e4c d1be 3409 4f3e f1f7 273d
00000240: cc75 57be 109d d13e 5b26 8d3e 3a72 e13e
00000250: 419a af3d e2e5 973e 8b41 d93d 6a1d f6bd
00000260: 0d53 9c3e b575 7e3d 7722 69be b1d3 a4bb
00000270: 3083 1ebe d6c4 48be 04d2 e43e a67f af3d
00000280: 44a6 6cbe ad0c 663d 793a 9bbe 3c9d bb3d
00000290: b7b1 a4be c26d c4bd 26e2 d33c c9f7 debd
000002a0: 2b15 dcbe ef54 aa3e 79f7 713e cf59 cfbe
000002b0: 4437 eabe 826a 0fbe 4746 cb3d 9a87 49be
000002c0: 4ab6 4cbe cbf0 11bf 3ffc d0be df71 fcbd
000002d0: 146b 9c3e 06ce 843e c0f9 a9bd 176b 2b3d
000002e0: 1edb d1be 18f6 f9bc 71c7 72be 156b 97be
000002f0: 6cfc 8abe d4a6 06be 0bc5 c4bd a32c 47be
00000300: 0962 a6be 755d ba3d f7b0 26bf 2dea 083b
00000310: aea0 543e f540 fdbe 72f9 d1bd 1ca1 9c3d
00000320: ce15 453e 0fdb 14be a7e5 00bf 9dc7 643e
00000330: 0685 7ebe 97d8 e53c 14d6 d33e 3eb4 13be
00000340: edc4 753d b2bf 223d b1e7 633d 4a3c 89bd
00000350: d0fa b8be 8e7f 39be 30e7 8ebd c0c2 92be
00000360: 1482 b4be bbb6 d63e 3b39 94be 38a9 ffbe
00000370: 9f5d b1be 1296 ea3d 730c 2fbc 7bfa e93d
00000380: ffd7 c53d 7cc9 cbbe a278 8c3d c959 c13d
00000390: e7c0 773e 2abc 2bbe b286 e4be ef37 ffbe
000003a0: 19e1 00bf 91ac ccbe a709 3a3e cb71 97be
000003b0: c1e9 d43d 8ae8 f6be 7d55 b2be 69ea 41be
000003c0: dabc 15be eece 1bbf 05ae 04bf d927 d33d
000003d0: 9398 363e 89d0 a1be 84a3 45be ecf1 323e
000003e0: 9e94 f03d c522 553e 8d8e 973e a1ac a93d
000003f0: ec90 11bf 62ab 4fbe 7cd3 d0bc fc6f 4fbe

encoder.1.fc.bias f4 [16]
-0.044919886 0.07336327 -0.04353029 -0.048183918 -0.09101765 -0.013990316 0.05217871 0.16600795
0.12720439 0.048808925 -0.0724268 0.064379476 0.094294414 -0.0151178315 0.08784731 0.10548847
00000000: eafd 37bd 7b3f 963d d14c 32bd 805c 45bd
00000010: 7667 babd a337 65bc 58b9 553d fdfd 293e
00000020: de41 023e deeb 473d 8154 94bd 63d9 833d
00000030: 6e1d c13d c8b0 77bc 4ae9 b33d 570a d83d

encoder.1.norm.weight f4 [16]
1.1895698 1.2838421 1.108347 1.2216334 1.1980724 1.2595803 1.2382836 1.2921146
1.3062127 0.9519615 1.3328204 1.1928625 1.2612871 1.3152575 1.1988058 1.2437388
00000000: d343 983f f054 a43f 51de 8d3f 7c5e 9c3f
00000010: 705a 993f ed39 a13f 1480 9e3f 0364 a53f
00000020: fa31 a73f c0b3 733f dc99 aa3f b8af 983f
00000030: db71 a13f 5c5a a83f 7872 993f d532 9f3f

encoder.1.norm.bias f4 [16]
0.2925314 0.29596907 0.17650358 0.17918204 0.2625622 0.30012688 0.24477902 0.30005342
0.3113755 -0.13891336 0.31874254 0.21444128 0.3078607 0.31279016 0.22359067 0.27663705
00000000: adc6 953e 4289 973e 5bbd 343e 7f7b 373e
00000010: 8d6e 863e 3baa 993e 5aa7 7a3e 9aa0 993e
00000020: 9c6c 9f3e 4e3f 0ebe 3932 a33e 7f96 5b3e
00000030: eb9f 9d3e 0826 a03e f4f4 643e 5fa3 8d3e

encoder.1.norm.running_mean f4 [16]
-2.4784763 -2.6802337 -0.34878895 -1.55768 0.10081929 -1.2214968 -1.3979577 -1.6296066
-1.2117041 1.4514117 -2.174823 -2.3019257 -1.3020594 -0.67840844 -2.8239722 -1.9696939
00000000: 5b9f 1ec0 f388 2bc0 7794 b2be 0f62 c7bf
00000010: 587a ce3d 025a 9cbf 47f0 b2bf f396 d0bf
00000020: 1f19 9bbf dcc7 b93f 4d30 0bc0 c052 13c0
00000030: e2a9 a6bf 2dac 2dbf f6bb 34c0 ee1e fcbf

encoder.1.norm.running_var f4 [16]
2.3625383 1.5908055 3.3499157 0.44270644 1.3944145 1.1690552 1.6952994 0.91039735
0.51727885 0.5952785 0.6612927 1.193855 3.0459738 0.29426223 0.94580555 2.420493
00000000: d433 1740 849f cb3f 0565 5640 6baa e23e
00000010: 2d7c b23f 9aa3 953f 92ff d83f cd0f 693f
00000020: 636c 043f 2c64 183f 7a4a 293f 3ed0 983f
00000030: 3cf1 4240 8aa9 963e 5020 723f 5be9 1a40

encoder.2.weight f4 [32, 16]
0.27060786 0.1295519 -0.10579344 0.10297479 0.30426165 0.33539245 0.18290597 0.24473415
-0.0018169422 -0.24365345 0.3299168 0.27010176 0.0659459 -0.036590796 0.41278338 0.23090039
-0.16390412 -0.5039886 0.027701007 -0.3154321 -0.037322436 0.13408963 0.12054368 -0.35128185
-0.16449822 -0.006614708 -0.2121153 -0.0018121351 -0.3130082 -0.033573836 -0.20512855 -0.12010094
0.1550721 0.034584645 -0.1270071 0.09195126 -0.29334378 -0.041889433 0.07572662 -0.3189759
0.27210787 0.006652086 0.049370848 -0.21668862 0.2915788 0.19805603 -0.18426877 0.16911091
0.3806452 0.44658327 -0.063986324 0.42702425 0.2411352 0.36376077 -0.036120083 0.042969745
0.11912994 0.21113808 0.46606866 0.28319275 0.1467145 0.35888237 0.059671268 -0.086816534
-0.049043566 0.027816137 0.10866779 -0.02588552 0.005846916 0.071766675 -0.39250082 -0.4401831
-0.13981798 0.18162403 -0.45993143 0.019574536 0.09097338 0.15596119 -0.038384095 -0.36974585
-0.08771431 0.2891906 -0.031606566 -0.015374052 -0.17139857 -0.09591767 0.36808154 -0.13253862
0.30582547 0.13164675 -0.08847992 0.29065207 0.38702124 -0.0248108 0.058353536 0.22868194
-0.14342643 -0.55343723 0.123632886 -0.039973065 0.06082924 0.20560375 -0.522751 -0.4682532
-0.373834 -0.086431436 0.061680812 0.042970825 -0.0049527064 0.24595396 0.21740788 -0.30135676
-0.06324008 0.097778425 0.22258979 0.19898337 -0.3640307 0.27843934 0.34372038 0.032529138
0.2015322 -0.18967329 0.1646086 -0.039415836 0.37657383 -0.3165507 0.318364 0.25261116
0.3726045 0.04098446 0.2872307 -0.044230003 0.020386998 0.14574471 -0.04170405 -0.17480989
0.33734566 -0.2992585 0.41690058 -0.08206924 0.6058273 0.23493591 0.34118268 0.2752514
0.058447465 -0.18909961 0.22304876 0.17347763 -0.36665475 -0.23846188 -0.50767994 -0.29826272
-0.10872631 -0.20244557 -0.051497594 -0.38077223 0.08536486 -0.0060252612 0.21317196 -0.3639447
-0.011725115 -0.5273064 0.229685 -0.34039927 -0.32625064 0.25975087 -0.12233281 -0.16718179
0.07499584 0.025501717 0.011168626 -0.41961128 -0.42696762 0.20984726 0.009869656 0.02471074
-0.24064411 -0.59294605 -0.4129423 0.10099948 -0.032663215 -0.44350788 -0.4758273 -0.38250044
-1.0986853e-05 0.09635045 -0.49772504 -0.54803693 -0.47493038 0.11651642 0.20573105 0.12294575
0.24036896 -0.06407274 0.28144836 0.38586092 0.30838013 0.17971097 0.53899086 0.2375683
0.4337588 -0.17999709 0.1751444 0.5415226 0.17695464 -0.22341502 0.3172329 0.07618447
0.041466758 0.1407726 -0.2845796 0.14464253 0.28468648 0.31027436 -0.12089813 0.40757328
0.35644618 -0.27640918 0.23500605 -0.18341841 0.28559375 -0.036794998 0.016108064 -0.3428468
-0.22405209 -0.25072864 -0.05378165 -0.22989167 -0.43676862 -0.1746754 0.15258731 -0.25740573
-0.42163882 0.16773568 -0.5631022 0.04108893 -0.36647698 -0.27603096 0.09718413 -0.24374446
0.13291335 -0.25255534 0.0007884181 -0.49286866 -0.23259883 -0.3145192 0.13102888 -0.11442745
-0.4097177 0.23124698 -0.24296233 -0.15558729 -0.19344701 0.018293727 -0.22995427 -0.07333747
00000000: 1d8d 8a3e 41a9 043e 3baa d8bd 72e4 d23d
00000010: 2fc8 9b3e 8fb8 ab3e b44b 3b3e 979b 7a3e
00000020: 7726 eeba 4a80 79be dbea a83e c74a 8a3e
00000030: a50e 873d 3be0 15bd 5858 d33e 2771 6c3e
00000040: 7bd6 27be 6605 01bf 39ed e23c 5180 a1be
00000050: 69df 18bd cb4e 093e 9bdf f63d 37db b3be
00000060: 3972 28be 31c0 d8bb c134 59be 2a85 edba
00000070: 9c42 a0be b884 09bd 380d 52be 7bf7 f5bd
00000080: 38cb 1e3e a1a8 0d3d 260e 02be f150 bc3d
00000090: 2831 96be 4194 2bbd 8f16 9b3d cf50 a3be
000000a0: b951 8b3e bef9 d93b 1639 4a3d 9fe3 5dbe
000000b0: d149 953e 33cf 4a3e f4b0 3cbe 692b 2d3e
000000c0: ede3 c23e 90a6 e43e 430b 83bd eca2 da3e
000000d0: 25ec 763e da3e ba3e a7f2 13bd 0b01 303d
000000e0: 66fa f33d 9534 583e 8da0 ee3e a4fe 903e
000000f0: 533c 163e 6ebf b73e dc69 743d decc b1bd
00000100: e8e1 48bd abde e33c 388d de3d df0d d4bc
00000110: 7d97 bf3b 68fa 923d def5 c8be ae5f e1be
00000120: 722c 0fbe a6fb 393e 227c ebbe c75a a03c
00000130: 4050 ba3d 4ab4 1f3e a438 1dbd 544f bdbe
00000140: 8fa3 b3bd ca10 943e e375 01bd 73e3 7bbc
00000150: 1b83 2fbe 7c70 c4bd 2f75 bc3e 34b8 07be
00000160: 2895 9c3e 68ce 063e f634 b5bd 59d0 943e
00000170: a627 c63e 0540 cbbc 1e04 6f3d 992b 6a3e
00000180: 61de 12be 10ae 0dbf 3d33 fd3d ccba 23bd
00000190: 1528 793d ca89 523e 02d3 05bf e2be efbe
000001a0: 2c67 bfbe f702 b1bd 05a5 7c3d 2d02 303d
000001b0: 504a a2bb 5bdb 7b3e 2ca0 5e3e 6f4b 9abe
000001c0: 0484 81bd 0e40 c83d 94ee 633e 4cc2 4b3e
000001d0: 3b62 babe 9a8f 8e3e 1efc af3e 463d 053d
000001e0: 755e 4e3e b739 42be 288f 283e 8072 21bd
000001f0: 49ce c03e ef12 a2be 9b00 a33e 4056 813e
00000200: 04c6 be3e 52df 273d e70f 933e 852a 35bd
00000210: a202 a73c 1a3e 153e ded1 2abd 5d01 33be
00000220: 92b8 ac3e 6938 99be fe73 d53e eb13 a8bd
00000230: 7f17 1b3f 0a93 703e 7faf ae3e c0ed 8c3e
00000240: 9c66 6f3d 54a3 41be e566 643e 1fa4 313e
00000250: 2cba bbbe 5a2f 74be 50f7 01bf e4b5 98be
00000260: e6ab debd e44d 4fbe 24ef 52bd 94f4 c2be
00000270: c6d3 ae3d 8e6f c5bb c049 5a3e f656 babe
00000280: b21a 40bc 8dfd 06bf 8b32 6b3e d048 aebe
00000290: 530a a7be 11fe 843e a089 fabd b431 2bbe
000002a0: 6b97 993d fae8 d03c 9dfc 363c 4ad7 d6be
000002b0: 809b dabe 33e2 563e 56b4 213c 2e6e ca3c
000002c0: 696b 76be 50cb 17bf 2c6d d3be d1d8 ce3d
000002d0: ddc9 05bd 7713 e3be a39f f3be 19d7 c3be
000002e0: 2d54 38b7 6253 c53d d1d5 febe 264c 0cbf
000002f0: 132a f3be 29a0 ee3d 29ab 523e fbca fb3d
00000300: 4823 763e 9238 83bd 001a 903e 908f c53e
00000310: 00e4 9d3e 2706 383e 4efb 093f 1b45 733e
00000320: a215 de3e 2851 38be 0e59 333e 3aa1 0a3f
00000330: 9933 353e e8c6 64be 5a6c a23e 9a06 9c3d
00000340: 0cd9 293d b126 103e 6bb4 91be 2c1d 143e
00000350: 6dc2 913e 48dc 9e3e 7099 f7bd 72ad d03e
00000360: 1d80 b63e 8185 8dbe 6da5 703e 09d2 3bbe
00000370: 5839 923e 5ab6 16bd 0ff5 833c 9e89 afbe
00000380: e96d 65be 815f 80be 264a 5cbd b968 6bbe
00000390: 23a0 dfbe 1cde 32be d93f 1c3e afca 83be
000003a0: 0be1 d7be e7c2 2b3e 7727 10bf de4c 283d
000003b0: dfa2 bbbe ee53 8dbe 7908 c73d 2698 79be
000003c0: 701a 083e ef4e 81be d8ad 4e3a 4859 fcbe
000003d0: 632e 6ebe a908 a1be 6f2c 063e f058 eabd
000003e0: 85c6 d1be 02cc 6c3e 1ecb 78be 4652 1fbe
000003f0: f916 46be badc 953c 2279 6bbe f531 96bd

encoder.2.bias f4 [32]
0.2741096 -0.19015943 0.070401825 0.27609506 -0.25130293 0.14620866 -0.2526172 0.18148714
0.27289328 -0.23043843 -0.23161781 -0.27055576 0.25725815 0.18235976 -0.22987305 -0.28568545
0.25847855 -0.288594 0.2702509 0.29474035 0.22304265 0.20659919 0.27499625 -0.17950238
-0.19485271 -0.2617927 -0.24619819 0.25763613 -0.17911676 -0.076354966 -0.265352 -0.18141688
00000000: 1858 8c3e 27b9 42be d52e 903d 555c 8d3e
00000010: c7aa 80be b9b7 153e 0b57 81be c4d7 393e
00000020: abb8 8b3e 0df8 6bbe 382d 6dbe 4986 8abe
00000030: 57b7 833e 84bc 3a3e d763 6bbe 5d45 92be
00000040: 4d57 843e 98c2 93be 535e 8a3e 35e8 963e
00000050: 4b65 643e bd8e 533e 4fcc 8c3e 79cf 37be
00000060: 7887 47be b109 86be 611b 7cbe e2e8 833e
00000070: 626a 37be fe5f 9cbd 38dc 87be 59c5 39be

residual.0.fc.weight f4 [16, 32]
-0.14591557 -0.20128642 -0.33277538 -0.26572213 -0.08909705 0.3093594 -0.24335966 0.14732185
-0.30505434 -0.23619011 0.22330016 0.06534892 0.09939324 0.08584389 -0.13083822 -0.256126
0.31764564 0.2677282 0.1870279 -0.3314473 -0.28225458 0.05665297 -0.08699583 0.006611491
-0.23362018 0.28732902 -0.12597553 0.21585153 -0.3147016 0.10796083 0.17254761 0.11445328
-0.14656942 -0.269319 0.17589165 0.26847848 -0.23028782 -0.14764252 -0.020467235 0.10399196
0.31351697 -0.34401193 -0.26155832 -0.23680356 -0.20433143 0.18088701 0.11225199 -0.055925626
-0.27433357 0.31762087 -0.08749322 -0.20307007 -0.066225454 0.22578953 0.22570856 -0.21979426
0.24751705 0.2874326 -0.1629036 0.33361852 0.12910274 0.12760313 -0.093165785 -0.21780208
-0.12804298 0.272716 0.36132264 -0.20939855 0.10938857 -0.34143952 -0.04208162 0.13878696
-0.030851979 -0.25925294 0.14979509 0.3443864 0.275186 0.21347925 -0.121004954 -0.0052927337
0.14851286 0.21024323 0.22176315 0.029093174 -0.26303262 -0.26940492 0.083987534 -0.2838603
0.0031639645 -0.33764014 -0.27078763 -0.3213459 0.193709 -0.17123304 -0.3067683 0.11180232
0.18370841 -0.14051369 -0.33206433 0.14333291 0.101589836 -0.2996538 0.0044912267 -0.12943968
-0.05837445 -0.27771357 -0.077179335 -0.016757688 0.30294174 -0.3604014 0.29333863 -0.09303347
0.020663455 -0.01243994 0.1852771 0.16941968 0.16633719 0.3250052 -0.0065469714 -0.27373058
-0.1621825 -0.324774 0.35793918 0.32240248 -0.30170047 0.0834562 0.20458737 -0.19050272
0.18955013 0.09578272 -0.016834557 -0.040421337 0.023559246 0.3259398 0.061505675 0.12611037
0.008316085 0.19013797 0.07071237 0.23150763 0.002069685 -0.3301146 0.33677316 -0.30465242
0.012513107 0.2812689 -0.3006791 0.061735373 -0.10154592 -0.3292471 0.11813741 0.16728374
-0.29663756 0.19336268 0.15113251 -0.1949719 -0.12983741 0.1547453 0.024746742 0.18714988
-0.3393472 0.21299303 -0.28240362 0.19061954 -0.17801309 0.1493052 0.27529478 -0.10753791
0.12950824 -0.22063899 0.07225088 0.2524532 -0.15909413 -0.24482621 0.18408668 0.25644445
-0.22350374 -0.30150416 -0.029567543 0.38200307 -0.25852644 -0.2623585 -0.06454147 -0.18188074
0.1882809 -0.090902716 0.13197899 0.29372215 0.28061137 -0.18342549 0.26294816 0.10417969
0.0007994905 0.03715116 -0.105239026 0.11440877 -0.29353377 -0.35318202 -0.028079318 0.066751406
0.3029091 0.1362494 0.17810687 -0.3377826 0.20702064 -0.18172729 0.29752937 -0.10540926
0.26400495 -0.23915707 -0.2288357 0.19489244 -0.033856194 -0.2594918 0.18996619 -0.08427985
0.3237197 -0.12226862 0.012169104 -0.09378048 -0.16296479 0.19800377 0.14095362 0.17083369
0.041853838 -0.36437538 -0.16634089 -0.07351836 -0.33523583 0.30372712 -0.16982847 -0.04783077
-0.25528532 -0.0017860229 -0.28581402 0.122077025 -0.100258596 -0.16953781 0.298379 -0.2580584
0.001138659 -0.14892803 -0.097644106 0.23485734 -0.18984029 0.05594319 -0.21761347 -0.017714882
-0.23426361 -0.098066196 -0.02460511 -0.22436184 -0.19202836 -0.0149135245 0.13284323 0.32856733
00000000: e46a 15be 071e 4ebe 8961 aabe bb0c 88be
00000010: 8478 b6bd 5b64 9e3e 4633 79be 8adb 163e
00000020: 1530 9cbe d2db 71be cca8 643e a8d5 853d
00000030: af8e cb3d ecce af3d 74fa 05be f222 83be
00000040: 73a2 a23e ac13 893e 3e84 3f3e 76b3 a9be
00000050: ac83 90be f20c 683d df2a b2bd 35a5 d83b
00000060: 213a 6fbe ca1c 933e bbff 00be 2f08 5d3e
00000070: 9120 a1be 911a dd3d 52b0 303e 7b66 ea3d
00000080: 4b16 16be 2ee4 89be f11c 343e 0376 893e
00000090: 92d0 6bbe 9a2f 17be e7aa a7bc bdf9 d43d
000000a0: 4c85 a03e 5522 b0be f9ea 85be a27c 72be
000000b0: 423c 51be 723a 393e 5fe4 e53d 4512 65bd
000000c0: 7375 8cbe 349f a23e a52f b3bd 9af1 4fbe
000000d0: 36a1 87bd 5f35 673e 2520 673e bf11 61be
000000e0: 1c75 7d3e 5e2a 933e 34d0 26be 0cd0 aa3e
000000f0: 8233 043e 65aa 023e b4cd bebd 8207 5fbe
00000100: b31d 03be 6ea1 8b3e 48ff b83e 936c 56be
00000110: 1d07 e03d 29d1 aebe c75d 2cbd 2b1e 0e3e
00000120: 4abd fcbc cdbc 84be e263 193e 6a53 b03e
00000130: 2ee5 8c3e 4e9a 5a3e 72d1 f7bd ab6e adbb
00000140: c113 183e 004a 573e e115 633e cf54 ee3c
00000150: 36ac 86be 71ef 89be a801 ac3d 2356 91be
00000160: 845a 4f3b 2bdf acbe ada4 8abe 7387 a4be
00000170: a75b 463e b757 2fbe bc10 9dbe 9df8 e43d
00000180: 0f1e 3c3e d2e2 0fbe 5604 aabe ddc5 123e
00000190: 550e d03d 396c 99be 242b 933b d68b 04be
000001a0: 0c1a 6fbd 7930 8ebe 3310 9ebd 6b47 89bc
000001b0: 2e1b 9b3e 8886 b8be 7b30 963e 5588 bebd
000001c0: 6846 a93c e4d0 4bbc 48b9 3d3e 5a7c 2d3e
000001d0: 4c54 2a3e 1567 a63e fa87 d6bb 6a26 8cbe
000001e0: 2b13 26be c748 a6be ce43 b73e f011 a53e
000001f0: 7c78 9abe 16eb aa3d 5a7f 513e 2513 43be
00000200: 6e19 423e bb29 c43d a0e8 89bc d890 25bd
00000210: 52ff c03c 95e1 a63e 60ed 7b3d 1423 013e
00000220: 3040 083c 87b3 423e a6d1 903d 5610 6d3e
00000230: 8da3 073b c804 a9be 886d ac3e 67fb 9bbe
00000240: c603 4d3c 7a02 903e 9cf2 99be 3bde 7c3d
00000250: 4ff7 cfbd 1393 a8be 07f2 f13d 6e4c 2b3e
00000260: e1e0 97be de00 463e 7bc2 1a3e b7a6 47be
00000270: 19f4 04be 8d75 1e3e aeb9 ca3c 38a4 3f3e
00000280: ebbe adbe d81a 5a3e 3597 90be c531 433e
00000290: 1049 36be 76e3 183e 70f3 8c3e d63c dcbd
000002a0: cf9d 043e 30ef 61be 45f8 933d 8c41 813e
000002b0: 92e9 22be b9b3 7abe 3881 3c3e b04c 833e
000002c0: 2ade 64be c15e 9abe a237 f2bc e895 c33e
000002d0: 945d 84be da53 86be 512e 84bd f23e 3abe
000002e0: b5cc 403e 342b babd 8025 073e c062 963e
000002f0: 4bac 8f3e e4d3 3bbe 24a1 863e 295c d53d
00000300: e694 513a d12b 183d 8f87 d7bd 254f ea3d
00000310: 0f4a 96be 46d4 b4be 9906 e6bc f6b4 883d
00000320: e716 9b3e f684 0b3e a661 363e d7f1 acbe
00000330: 38fd 533e b816 3abe c555 983e cfe0 d7bd
00000340: a82b 873e 97e5 74be e853 6abe e291 473e
00000350: cbac 0abd 1cdc 84be 7f86 423e ea9a acbd
00000360: 97be a53e f867 fabd ec60 473c fb0f c0bd
00000370: 3ee0 26be 80c1 4a3e 2556 103e 07ef 2e3e
00000380: ee6e 2b3d 698f babe 4455 2abe cb90 96bd
00000390: 08a4 abbe 1f82 9b3e 84e7 2dbe 33ea 43bd
000003a0: c2b4 82be fc18 eaba 3756 92be 8503 fa3d
000003b0: 6154 cdbd 529b 2dbe 22c5 983e 3b20 84be
000003c0: 0e3f 953a 9780 18be a2f9 c7bd 717e 703e
000003d0: 7e65 42be b024 653d 11d6 5ebe cd1e 91bc
000003e0: cde2 6fbe eed6 c8bd a890 c9bc 1cbf 65be
000003f0: 15a3 44be db57 74bc 0e08 083e fa39 a83e

residual.0.fc.bias f4 [16]
0.0021411069 0.0007464487 -0.0053920667 0.00067648944 -0.01270671 0.015748236 -0.003264379 -0.0016601688
-0.0037204903 -0.0032416063 0.0004213394 -0.0016494945 0.0066211713 0.003648227 0.002743699 0.0020283603
00000000: d051 0c3b 53ad 433a efaf b0bb 7056 313a
00000010: ce2f 50bc 7202 813c 31ef 55bb 059a d9ba
00000020: 78d3 73bb 2171 54bb 38e7 dc39 da33 d8ba
00000030: 69f6 d83b 1817 6f3b a1cf 333b 3dee 043b

residual.0.norm.weight f4 [16]
1.007482 0.9919193 0.9835548 1.0060365 1.0381004 0.9511842 0.98208237 1.0296912
0.9643272 0.9834659 0.9778759 1.0009483 1.001815 0.9678951 1.0064621 0.97916716
00000000: 2cf5 803f 6cee 7d3f 3fca 7b3f cec5 803f
00000010: 79e0 843f cf80 733f c069 7b3f eccc 833f
00000020: 26de 763f 6cc4 7b3f 1356 7a3f 131f 803f
00000030: 793b 803f f9c7 773f c0d3 803f b3aa 7a3f

residual.0.norm.bias f4 [16]
-0.0020280643 0.032686383 -0.009002182 0.01602637 -0.0002605486 -0.03928221 -0.030596279 0.013310781
-0.009979025 0.00049177 -0.024588345 -0.0016855055 0.00046135267 0.010424213 0.009897877 0.0037752506
00000000: 46e9 04bb 28e2 053d e37d 13bc bc49 833c
00000010: 3e9a 88b9 62e6 20bd 0ca5 fabc 7615 5a3c
00000020: 117f 23bc 20ea 003a 7f6d c9bc 2eec dcba
00000030: b5e1 f139 51ca 2a3c b52a 223c 326a 773b

residual.0.norm.running_mean f4 [16]
1.2317141 5.5431356 1.4153192 5.7433996 -7.067858 -5.819078 2.3121357 -0.6587255
1.1865368 0.16243762 1.1439642 0.84152615 -3.5109415 -0.6359331 -0.2504616 -2.362868
00000000: cfa8 9d3f 5e61 b140 2e29 b53f eec9 b740
00000010: e52b e2c0 e335 bac0 08fa 1340 3ca2 28bf
00000020: 70e0 973f 0c56 263e 6b6d 923f 426e 573f
00000030: 44b3 60c0 83cc 22bf 813c 80be 3b39 17c0

residual.0.norm.running_var f4 [16]
0.6903986 0.64394027 6.474129 3.0172894 1.3098401 1.0890665 2.049848 1.369909
2.0678444 1.8867725 1.798297 0.5814205 0.31567496 2.0659454 1.1664569 3.4751508
00000000: f6bd 303f 45d9 243f 112c cf40 451b 4140
00000010: d7a8 a73f 8866 8b3f b630 0340 2e59 af3f
00000020: 9057 0440 c381 f13f 992e e63f f9d7 143f
00000030: 26a0 a13e 7338 0440 764e 953f df68 5e40

residual.0.projection.weight f4 [16, 32]
0.12673439 -0.02608399 0.34283108 -0.011526158 -0.010228066 0.34522462 0.016641865 0.32743603
0.14568664 0.27022642 0.067376204 -0.25062084 0.2672027 0.041136034 -0.19393523 0.24413137
-0.15486014 -0.0623139 0.053425614 0.092269026 0.026097737 0.00011727293 0.26584536 -0.055046048
0.28441697 0.17535979 0.1320862 -0.08338171 -0.09435368 0.14487669 -0.19559053 -0.14187689
0.23000184 -0.0786682 -0.099272765 0.2276178 -0.19864944 -0.23286314 0.29238796 0.30903012
-0.112284146 -0.043930866 -0.08157559 -0.28063676 -0.3246648 -0.13409281 0.24208489 0.13879532
0.12667705 -0.1917739 0.22155333 -0.07548886 0.05854294 -0.043493927 0.29533482 -0.34041876
0.14546733 0.27280185 -0.30828568 0.18250339 -0.3532241 0.2221462 -0.192083 -0.23240346
0.14034109 -0.25140017 -0.31814212 -0.3239032 -0.19317278 -0.01754899 0.0362582 -0.31034523
0.3279439 -0.32785365 -0.01816737 -0.107224934 -0.29557124 0.38950685 0.1427103 -0.33686817
-0.2879215 0.16759686 -0.26044586 0.03514572 0.16116066 0.084277555 -0.16336806 -0.19802773
0.044927314 -0.2543479 0.1363413 -0.007079985 0.026773004 0.01718602 -0.27996087 -0.28515455
-0.055727035 -0.016802156 -0.35360578 -0.3259635 -0.15694527 0.027306413 -0.08156356 -0.2558408
0.14191048 0.22792104 -0.015507429 0.22959058 0.22126202 -0.17509244 -0.12971976 -0.081473745
0.30109203 -0.1217895 0.04791027 0.07793107 -0.31934288 -0.1623694 -0.16148508 -0.21605076
-0.19983125 -0.065446645 -0.041879736 0.22044589 0.16980933 -0.2983969 -0.10075929 -0.3008262
-0.1298864 -0.0786753 -0.0020416381 -0.3633396 -0.111290775 -0.31001756 0.059828207 0.27523577
0.1136894 -0.36896527 0.18360218 -0.07253762 0.34803537 -0.1792226 -0.28151447 0.0658401
-0.32005608 0.3523396 0.011347649 -0.23371553 -0.04018773 -0.34975216 0.07468114 -0.3124158
-0.069851555 -0.10081931 -0.26394346 0.24326017 0.22352056 -0.0045706644 -0.024432704 -0.010337914
0.3337517 0.20782049 -0.23572254 0.3005149 0.120376416 -0.33208063 -0.25829023 0.15636677
-0.35431355 -0.3224053 0.24131279 0.040183276 0.12234839 -0.14751233 0.21790291 -0.048770092
-0.24854279 -0.11638219 0.3262414 -0.13374604 -0.093274795 0.3915378 -0.13611373 0.073893815
0.12021984 0.09656511 -0.14230128 -0.028707713 -0.1657926 -0.19897673 0.029465223 0.11342674
0.05688744 -0.13852257 -0.27910906 -0.01956085 0.110354654 0.17650719 0.321097 -0.034283515
0.15176527 -0.12926334 -0.14279169 -0.3074813 -0.16529869 -0.13649948 0.26992473 0.19167067
-0.34469968 -0.105557084 -0.06206662 0.033156864 0.08743035 -0.19422005 -0.25422722 0.18791634
-0.1779882 -0.027503276 0.26962206 -0.048121378 0.25766712 0.19394276 -0.15257171 -0.13974059
0.16685928 -0.3241025 -0.02934929 0.07630153 -0.23851857 0.21579655 -0.011260022 0.35013637
-0.045129295 -0.08919129 -0.2509876 0.15347506 0.2583868 0.16810767 -0.038969196 0.3241562
0.07594975 -0.26988646 0.19349217 0.22693305 -0.15516222 -0.06576878 -0.009087343 0.08733349
0.23204026 -0.21167508 0.19300608 0.29761592 -0.17113683 0.10145876 -0.28161445 0.26542628
00000000: a9c6 013e 17ae d5bc 8e87 af3e 36d8 3cbc
00000010: 9e93 27bc 48c1 b03e 8554 883c b2a5 a73e
00000020: e12e 153e 1e5b 8a3e 89fc 893d 6051 80be
00000030: cbce 883e 427e 283d f596 46be 93fd 793e
00000040: a893 1ebe dc3c 7fbd d1d4 5a3d 8bf7 bc3d
00000050: ecca d53c 6df0 f538 e21c 883e f777 61bd
00000060: 1a9f 913e 8491 333e 9b41 073e 08c4 aabd
00000070: 813c c1bd 8e5a 143e e248 48be 2d48 11be
00000080: 9a85 6b3e cb1c a1bd 854f cbbd a414 693e
00000090: c26a 4bbe ad73 6ebe e0b3 953e 3239 9e3e
000000a0: 3bf5 e5bd daf0 33bd 1a11 a7bd 9faf 8fbe
000000b0: 773a a6be a04f 09be 1ae5 773e 5c20 0e3e
000000c0: a1b7 013e 6160 44be e0de 623e e799 9abd
000000d0: b9ca 6f3d b026 32bd 2036 973e 5e4b aebe
000000e0: 63f5 143e afac 8b3e 9fd7 9dbe 2be2 3a3e
000000f0: cad9 b4be 4b7a 633e 68b1 44be 2cfb 6dbe
00000100: 93b5 0f3e 86b7 80be 86e3 a2be a4d6 a5be
00000110: 16cf 45be e6c2 8fbc 7a83 143d 92e5 9ebe
00000120: 43e8 a73e 6fdc a7be bdd3 94bc bf98 dbbd
00000130: 1d55 97be 716d c73e a622 123e fc79 acbe
00000140: 726a 93be 839e 2b3e 2959 85be f5f4 0f3d
00000150: 4d07 253e b699 ac3d f549 27be c8c7 4abe
00000160: b405 383d e339 82be 0e9d 0b3e 38ff e7bb
00000170: 0f53 db3c b2c9 8c3c 0857 8fbe c7ff 91be
00000180: 0842 64bd ada4 89bc d10b b5be b0e4 a6be
00000190: 43b6 20be b3b1 df3c cc0a a7bd 91fd 82be
000001a0: fb50 113e 2264 693e df12 7ebc cb19 6b3e
000001b0: 8392 623e 6f4b 33be 42d5 04be b5db a6bd
000001c0: bc28 9a3e c66c f9bd 8f3d 443d 539a 9f3d
000001d0: e980 a3be 2a44 26be 585c 25be 693c 5dbe
000001e0: 90a0 4cbe e408 86bd 168a 2bbd 91bc 613e
000001f0: 7fe2 2d3e 7ac7 98be e35a cebd e405 9abe
00000200: f100 05be 8420 a1bd 01cd 05bb a607 babe
00000210: 6bec e3bd 9fba 9ebe 6c0e 753d b4eb 8c3e
00000220: fdd5 e83d 04e9 bcbe 3602 3c3e 9b8e 94bd
00000230: b131 b23e 2186 37be aa22 90be 2dd7 863d
00000240: 64de a3be db65 b43e 7deb 393c 2053 6fbe
00000250: e49b 24bd b712 b3be 6df2 983d f7f4 9fbe
00000260: 550e 8fbd 5b7a cebd 9923 87be 3219 793e
00000270: 93e2 643e 83c5 95bb 1827 c8bc 5b60 29bc
00000280: 81e1 aa3e e5ce 543e 4061 71be 17dd 993e
00000290: e987 f63d 7906 aabe 9e3e 84be 9c1e 203e
000002a0: 9668 b5be 4f12 a5be b31a 773e 3897 243d
000002b0: cb91 fa3d 790d 17be f121 5f3e 26c3 47bd
000002c0: 0082 7ebe c959 eebd 1d09 a73e b9f4 08be
000002d0: db06 bfbd a477 c83e 6661 0bbe a455 973d
000002e0: d235 f63d eec3 c53d 6db7 11be 702c ebbc
000002f0: 89c5 29be 8ec0 4bbe 0d61 f13c 474c e83d
00000300: ce02 693d dcd8 0dbe 62e7 8ebe 133e a0bc
00000310: 9f01 e23d 4dbe 343e d366 a43e df6c 0cbd
00000320: 5b68 1b3e 9c5d 04be fc37 12be 306e 9dbe
00000330: 0f44 29be 85c6 0bbe 9333 8a3e 5145 443e
00000340: 7a7c b0be 502e d8bd 9139 7ebd 7ecf 073d
00000350: af0e b33d 9fe1 46be 122a 82be 246d 403e
00000360: 8a42 36be 8d4e e1bc e70b 8a3e ec1a 45bd
00000370: f2ec 833e ee98 463e c23b 1cbe 2818 0fbe
00000380: 29dd 2a3e c3f0 a5be ec6d f0bc fa43 9c3d
00000390: 363e 74be c5f9 5c3e f57b 38bc 1345 b33e
000003a0: 7fd9 38bd eca9 b6bd 7281 80be 9128 1d3e
000003b0: 464b 843e 6b24 2c3e 2a9e 1fbd cdf7 a53e
000003c0: 8b8b 9b3d 8f2e 8abe d022 463e 2361 683e
000003d0: d8e2 1ebe c8b1 86bd 14e3 14bc e7db b23d
000003e0: f69b 6d3e 5ac1 58be 63a3 453e 1d61 983e
000003f0: 7e3e 2fbe 9cc9 cf3d c52f 90be f4e5 873e

residual.0.projection.bias f4 [16]
-0.005301982 0.0054075643 0.0052186875 0.005261225 -0.0063939122 0.0049458705 -0.005063514 -0.005829083
0.005250802 0.0051550297 0.005065217 0.0053007435 0.0051654396 0.004941998 0.0050994367 0.005193567
00000000: 40bc adbb f031 b13b 8601 ab3b 5b66 ac3b
00000010: 0684 d1bb f810 a23b d6eb a5bb e401 bfbb
00000020: eb0e ac3b 86eb a83b 1ffa a53b dcb1 ad3b
00000030: d942 a93b 7cf0 a13b 2d19 a73b cc2e aa3b

residual.1.fc.weight f4 [16, 16]
-0.39594004 -0.11866602 0.45571283 0.107093215 0.28999707 0.08894947 0.104301095 0.15263519
0.07963379 0.23815985 0.036158815 -0.3790623 -0.14983323 -0.20216626 0.30057698 0.39652622
-0.16604215 0.32880503 0.41484475 -0.32314748 -0.025494263 -0.14015315 0.18463646 -0.18730004
-0.230478 -0.12174151 0.07026679 -0.3888525 -0.046464607 0.19176869 0.065966606 -0.4439645
-0.08992899 -0.16543095 0.1317738 0.089903384 -0.32036093 0.21930626 -0.08506149 0.11085877
0.2852477 0.08598352 -0.36242157 -0.39254925 -0.32731438 0.35699213 -0.09234354 -0.23655753
0.0043686116 -0.20114397 0.2386267 0.024878997 -0.08800945 -0.15154384 0.064926974 0.0012915017
-0.25894105 -0.16432665 0.23562512 0.037113708 -0.32793865 0.15233172 -0.4141103 -0.16328698
-0.14591937 -0.32342774 0.03919737 -0.24920443 -0.23003855 0.26753277 0.07175565 -0.06694081
-0.2878957 0.11831852 0.05190607 -0.31955254 -0.042001165 -0.010175768 -0.26111096 -0.46181127
0.0340798 -0.06696259 -0.31400558 -0.04723353 -0.35664225 0.16634999 0.048872747 -0.27336764
0.15385695 0.10365911 -0.0010959428 0.12807871 -0.084405795 0.068872645 0.012094434 0.21614805
0.13394783 -0.16845141 0.10055103 -0.15675776 -0.05717309 -0.19391258 -0.18818407 0.1743214
0.0023442656 0.4423695 -0.34708163 -0.13124315 0.28365734 -0.10564764 0.39835638 0.023222776
0.0992848 0.02858356 0.27841267 0.203347 -0.32538655 -0.32706356 0.052005548 -0.18933436
-0.21456635 0.2742289 -0.23540074 0.16181174 0.19438063 0.14350696 0.060226526 0.104926914
0.24870777 -0.18806626 -0.42589816 -0.046544038 -0.28140086 -0.3788486 -0.07914585 0.40925834
0.3001383 0.40218866 0.26285526 -0.32627708 0.26815975 0.12203813 0.39826006 0.13717622
0.13871974 -0.29639953 -0.19204572 0.00016580419 0.28084505 0.024954537 -0.23709998 -0.2574328
0.21991713 0.30298778 0.1873995 -0.07687575 -0.057944704 0.2823646 0.2920153 0.11323091
0.06571002 0.43597624 0.00849458 0.12438934 0.37027094 0.3558627 -0.0009844636 0.04502236
-0.32580033 -0.21074422 0.15317443 -0.104531616 -0.011867169 0.11505709 -0.117336325 0.38329998
0.30376127 0.24568121 -0.23263948 0.2133985 0.10164255 0.12283773 0.08908749 0.08721494
-0.0225326 -0.026197484 -0.3241784 0.124552116 -0.42882574 -0.24092507 -0.27543604 -0.42752886
0.3973513 -0.40130016 0.042946067 0.27200225 -0.088960215 0.16290689 -0.01610753 0.15208276
0.19914405 -0.045505468 -0.42576548 -0.015581558 -0.36362383 0.37762254 -0.28281358 0.054108202
-0.4019043 0.076915294 0.037430637 0.1301299 -0.4544612 -0.21710439 -0.18828328 0.34477773
-0.13077396 0.23977458 0.374477 0.1211166 0.27786472 -0.15842387 0.057203222 0.39869067
0.20035854 0.2944194 -0.08297057 -0.2305757 0.41049746 0.18630484 0.11550618 -0.32402092
0.0067032827 -0.09824292 -0.14095163 -0.1023462 0.008563669 -0.113479674 -0.050253842 -0.25790787
-0.019217053 0.3721857 -0.22552194 0.22281308 -0.41594487 -0.12709703 0.09255207 -0.046873424
0.26950562 0.29318732 -0.18507414 -0.19336446 -0.10312755 -0.1974718 -0.039716315 -0.22409444
00000000: a7b8 cabe 2c07 f3bd 3153 e93e b053 db3d
00000010: 7f7a 943e 242b b63d d09b d53d 664c 1c3e
00000020: 0a17 a33d 2de0 733e 441b 143d 7414 c2be
00000030: e26d 19be ac04 4fbe 3ae5 993e 7c05 cb3e
00000040: f406 2abe 2259 a83e 8866 d43e 9673 a5be
00000050: 58d9 d0bc 4f84 0fbe 5711 3d3e 95cb 3fbe
00000060: 6d02 6cbe 9d53 f9bd 09e8 8f3d ad17 c7be
00000070: ac51 3ebd 035f 443e 8019 873d 514f e3be
00000080: b12c b8bd bb66 29be b6ef 063e 441f b83d
00000090: 5906 a4be d291 603e b834 aebd ec09 e33d
000000a0: fd0b 923e 2118 b03d 528f b9be 37fc c8be
000000b0: c095 a7be acc7 b63e 9c1e bdbd 233c 72be
000000c0: 9226 8f3b aff8 4dbe 8f5a 743e 0acf cb3c
000000d0: 4c3e b4bd 4f2e 1bbe 6ff8 843d 9b47 a93a
000000e0: ec93 84be 3f45 28be b647 713e 8b04 183d
000000f0: 93e7 a7be d9fc 1b3e 4406 d4be b434 27be
00000100: e36b 15be 5298 a5be 6c8d 203d 722f 7fbe
00000110: 3a8f 6bbe 0efa 883e a0f4 923d 4318 89bd
00000120: 1167 93be fb50 f23d 769b 543d 649c a3be
00000130: 6a09 2cbd 44b8 26bc 56b0 85be 8772 ecbe
00000140: 4397 0b3d af23 89bd 57c5 a0be f277 41bd
00000150: d099 b6be a757 2a3e ca2e 483d d8f6 8bbe
00000160: ad8c 1d3e 3a4b d43d bda5 8fba 1127 033e
00000170: f2dc acbd 1a0d 8d3d bc27 463c ea55 5d3e
00000180: 9f29 093e 877e 2cbe b3ed cd3d 1b85 20be
00000190: 542e 6abd 0591 46be 53b3 40be 4f81 323e
000001a0: 40a2 193b 417e e23e afb4 b1be 9b64 06be
000001b0: 893b 913e ca5d d8bd 5ef5 cb3e b13d be3c
000001c0: d455 cb3d 1228 ea3c 1b8c 8e3e 323a 503e
000001d0: 1199 a6be e074 a7be c503 553d dee0 41be
000001e0: 48b7 5bbe bb67 8c3e e40c 71be fab1 253e
000001f0: b70b 473e 7df3 123e 17b0 763d ece3 d63d
00000200: 40ad 7e3e 7194 40be 530f dabe f6a4 3ebd
00000210: c613 90be 72f8 c1be 3817 a2bd 4f8a d13e
00000220: baab 993e aceb cd3e f794 863e ca0d a7be
00000230: 3c4c 893e 21ef f93d bee8 cb3e ec77 0c3e
00000240: 8c0c 0e3e aec1 97be a2a7 44be b9db 2d39
00000250: ecca 8f3e 756d cc3c 56ca 72be 3bce 83be
00000260: f531 613e 3721 9b3e a8e5 3f3e 0971 9dbd
00000270: 6d57 6dbd 1892 903e 0883 953e 9be5 e73d
00000280: fa92 863d 4738 df3e da2c 0b3c d7bf fe3d
00000290: 2794 bd3e a333 b63e 1e09 81ba 5e69 383d
000002a0: 4dcf a6be 55cd 57be c2d9 1c3e ac14 d6bd
000002b0: 846e 42bc 0da3 eb3d 074e f0bd e53f c43e
000002c0: 9986 9b3e db93 7b3e 0b39 6ebe 2385 5a3e
000002d0: f829 d03d 5992 fb3d 8173 b63d bf9d b23d
000002e0: 4a96 b8bc 1b9c d6bc b6fa a5be 2e15 ff3d
000002f0: 0c8f dbbe 10b5 76be f405 8dbe 10e5 dabe
00000300: a171 cb3e 3777 cdbe 37e8 2f3d e143 8b3e
00000310: c630 b6bd 10d1 263e f0f3 83bc 95bb 1b3e
00000320: 6bec 4b3e f163 3abd effd d9be cb49 7fbc
00000330: e72c babe be57 c13e f1cc 90be 90a0 5d3d
00000340: 67c6 cdbe c485 9d3d de50 193d c640 053e
00000350: 23af e8be 9d50 5ebe 55cd 40be b586 b03e
00000360: 9ce9 05be 7887 753e 73bb bf3e fb0b f83d
00000370: 4944 8e3e de39 22be ed4d 6a3d 2f21 cc3e
00000380: ca2a 4d3e 24be 963e 79ec a9bd 091c 6cbe
00000390: b92c d23e b2c6 3e3e 818e ec3d 12e6 a5be
000003a0: 36a7 db3b 9633 c9bd a055 10be e29a d1bd
000003b0: a24e 0c3c 0868 e8bd f9d6 4dbd 800c 84be
000003c0: 156d 9dbc 208f be3e 39ef 66be 1d29 643e
000003d0: baf6 d4be b925 02be f18b bd3d 59fe 3fbd
000003e0: a4fc 893e a61c 963e 1384 3dbe 5501 46be
000003f0: 8934 d3bd 0c36 4abe 93ad 22bd 0379 65be

residual.1.fc.bias f4 [16]
-0.0018652923 0.00819392 0.0068883137 0.0053013973 -0.0015549669 -0.0007971808 -0.0001122485 0.0036025778
0.005400393 0.0059666317 0.0020643575 0.0023255176 -0.0018535246 -0.010706898 0.0022819217 0.008331925
00000000: d37c f4ba cb3f 063c 5db7 e13b 58b7 ad3b
00000010: 08d0 cbba e6f9 50ba f466 ebb8 3a19 6c3b
00000020: c8f5 b03b bc83 c33b 2c4a 073b b667 183b
00000030: f7f1 f2ba fc6b 2fbc 4b8c 153b a082 083c

residual.1.norm.weight f4 [16]
1.0211186 0.9713509 1.0089303 1.0134797 1.0141578 0.9878408 1.0088768 1.0224978
0.9781594 0.9749079 0.99504685 1.0061733 1.0042657 0.9533177 0.9868372 0.98919785
00000000: 04b4 823f 74aa 783f a124 813f b4b9 813f
00000010: eccf 813f 22e3 7c3f e022 813f 35e1 823f
00000020: a868 7a3f 9093 793f 64bb 7e3f 49ca 803f
00000030: c78b 803f a10c 743f 5da1 7c3f 123c 7d3f

residual.1.norm.bias f4 [16]
0.011498891 0.0028098268 0.016715357 0.02134997 0.008282752 0.00613537 -0.006409639 0.027071936
-0.008435061 -0.0050020916 0.016419012 0.02372525 0.016662987 -0.016249122 0.003722575 0.015097902
00000000: d865 3c3c 1225 383b a5ee 883c 22e6 ae3c
00000010: 61b4 073c 370b c93b f307 d2bb f7c5 dd3c
00000020: 3633 0abc 96e8 a3bb 2a81 863c 755b c23c
00000030: d180 883c e11c 85bc 72f6 733b 315d 773c

residual.1.norm.running_mean f4 [16]
-1.7410271 -2.2501712 -3.4572365 0.20216495 -6.9907203 -4.6881113 -0.59398997 0.678677
-1.9010544 -4.1772532 7.485668 4.6581 1.6907324 1.8656682 -0.88963884 -2.2480175
00000000: fad9 debf ce02 10c0 5d43 5dc0 5404 4f3e
00000010: fbb3 dfc0 0205 96c0 ba0f 18bf c7bd 2d3f
00000020: c055 f3bf 0fac 85c0 988a ef40 280f 9540
00000030: eb69 d83f 37ce ee3f 5fbf 63bf 85df 0fc0

residual.1.norm.running_var f4 [16]
4.7194653 1.0451213 1.798675 1.8520387 3.879235 3.3837478 3.6110287 0.65951717
3.010898 3.3147488 2.1090012 1.5471308 2.1690428 2.1765952 2.1227252 3.232567
00000000: dc05 9740 89c6 853f fb3a e63f 9b0f ed3f
00000010: 6345 7840 538f 5840 181b 6740 1ed6 283f
00000020: 8eb2 4040 d824 5440 e0f9 0640 6208 c63f
00000030: 99d1 0a40 564d 0b40 bbda 0740 61e2 4e40

residual.2.fc.weight f4 [8, 16]
-0.3173068 -0.18976505 -0.4476678 -0.0023707785 0.38412008 -0.1647644 0.5022561 0.3665344
-0.17777754 -0.07138846 -0.24041818 0.45859742 0.37257573 -0.41480106 0.24900192 0.40269864
-0.026017949 0.16406183 -0.00019765852 0.41990632 0.48582202 0.26859966 0.29308483 -0.08307238
0.31341508 0.35032818 0.43526828 -0.522066 0.13086319 0.25431553 0.5713381 -0.13512634
-0.11473634 -0.3294731 0.39466453 -0.116458625 -0.23433466 0.11423647 -0.23132323 0.3258714
0.46581158 0.087795585 0.29847568 0.21342342 0.14833097 -0.18520321 0.09715987 -0.3481359
-0.050896347 -0.38338128 0.19833459 0.18728098 0.4229613 0.13868971 -0.3732573 -0.3397205
0.5074823 0.47918445 0.50974715 0.123095825 -0.078543276 0.017061662 -0.40771958 0.27000102
-0.047512826 0.22579889 0.2665015 -0.3271245 0.029845541 -0.22768411 0.0072530992 0.37312296
-0.24081926 -0.100929044 -0.23622659 -0.10096095 -0.36054784 0.48366493 0.11804412 -0.08387265
0.27398705 0.16259845 0.41511494 -0.34074733 0.14687951 -0.35445628 0.39877877 -0.007660059
-0.43823212 0.024241677 0.0738127 0.18357682 -0.19081119 -0.2521738 0.28050467 -0.16989622
0.32794568 0.23815244 0.37104446 0.36080036 -0.02576936 -0.15100363 -0.015226149 -0.3583531
-0.21984583 -0.27001503 -0.33324075 -0.2301316 0.5187567 -0.21103157 0.019111378 0.46188733
0.25382084 0.10094855 0.40005672 -0.24039413 0.10339375 0.11906909 0.09695163 -0.21269226
0.37152478 0.4420427 0.42237023 -0.5125483 0.19682571 -0.030319225 0.3959825 0.40843585
00000000: 0976 a2be c551 42be b734 e5be 105f 1bbb
00000010: 63ab c43e 00b8 28be db93 003f 66aa bb3e
00000020: 510b 36be 1d34 92bd 2f30 76be 48cd ea3e
00000030: 3fc2 be3e ce60 d4be 5cfa 7e3e 842e ce3e
00000040: 9823 d5bc d3ff 273e 8e42 4fb9 f6fd d63e
00000050: aabd f83e e585 893e 370f 963e da21 aabd
00000060: f177 a03e 375e b33e 7cdb de3e 1ea6 05bf
00000070: 0001 063e a535 823e 3743 123f 8f5e 0abe
00000080: e3fa eabd b3b0 a8be 7811 ca3e dc81 eebd
00000090: 6df5 6fbe cff4 e93d ffdf 6cbe 9ed8 a63e
000000a0: db7e ee3e 2cce b33d ced1 983e ab8b 5a3e
000000b0: 13e4 173e e9a5 3dbe c1fb c63d de3e b2be
000000c0: b078 50bd 8d4a c4be 3918 4b3e 96c6 3f3e
000000d0: 628e d83e ad04 0e3e 951b bfbe d8ef adbe
000000e0: 5cea 013f aa57 f53e ca7e 023f aa19 fc3d
000000f0: 4cdb a0bd e6c4 8b3c 9fc0 d0be 933d 8a3e
00000100: cf9c 42bd d337 673e e272 883e dd7c a7be
00000110: a37e f43c 0626 69be 68ab ed3b f909 bf3e
00000120: 5399 76be e3b3 cebd 62e5 71be 9dc4 cebd
00000130: ba99 b8be eea2 f73e 1ec1 f13d 6dc5 abbd
00000140: 0848 8c3e 3580 263e f289 d43e 6f76 aebe
00000150: 9567 163e 4b7b b5be bb2c cc3e 3b01 fbbb
00000160: f65f e0be 7b96 c63c 1d2b 973d 90fb 3b3e
00000170: 0264 43be ed1c 81be 4f9e 8f3e 46f9 2dbe
00000180: 7fe8 a73e 3cde 733e 8af9 bd3e d3ba b83e
00000190: 441a d3bc b2a0 1abe 1977 79bc 0f7a b7be
000001a0: 441f 61be 693f 8abe 889e aabe 9ea7 6bbe
000001b0: 3dcd 043f a918 58be 778f 9c3c 7f7c ec3e
000001c0: cef4 813e 1dbe ce3d 3cd4 cc3e e129 76be
000001d0: 1ac0 d33d 7fda f33d 948e c63d 00cc 59be
000001e0: 7f38 be3e 6c53 e23e e940 d83e 5e36 03bf
000001f0: ae8c 493e 0660 f8bc 38be ca3e 811e d13e

residual.2.fc.bias f4 [8]
0.0009199131 0.00321581 -0.009779701 -0.010937974 -0.0025736883 -0.00055206165 -0.0064217923 0.0040573813
00000000: 5326 713a 57c0 523b 0a3b 20bc 3035 33bc
00000010: 53ab 28bb 3bb8 10ba e66d d2bb c8f3 843b

residual.2.norm.weight f4 [8]
1.0078499 0.9690255 1.0080663 1.0349052 0.993883 1.0027658 0.9931262 0.97142196
00000000: 3a01 813f 0e12 783f 5108 813f c677 843f
00000010: 1e6f 7e3f a15a 803f 853d 7e3f 1caf 783f

residual.2.norm.bias f4 [8]
0.013002844 -0.025916003 0.0018087933 0.008321618 -0.011430429 0.0035458922 -0.008637744 -0.022415366
00000000: e109 553c cc4d d4bc 0815 ed3a 6557 083c
00000010: b246 3bbc 3362 683b 5385 0dbc 6ea0 b7bc

residual.2.norm.running_mean f4 [8]
1.783373 -1.0931197 -1.2996719 -5.5108933 5.09648 3.637602 4.678655 -3.8403993
00000000: 9145 e43f 59eb 8bbf a65b a6bf 3d59 b0c0
00000010: 5d16 a340 79ce 6840 8bb7 9540 1ac9 75c0

residual.2.norm.running_var f4 [8]
2.569193 8.615201 1.4260229 2.9281576 1.6269635 4.9089756 1.9498508 6.5346985
00000000: a86d 2440 ddd7 0941 eb87 b63f ef66 3b40
00000010: 5740 d03f 5416 9d40 b694 f93f 401c d140
