climate/PENN/best_model.pth (torch, 46754 bytes, 60 tensors)

encoder.0.fc.weight f4 [16, 16]
00000000: c23f 30bf da6b 87be 8a2b cebc 9a8c 0f3c
00000010: b9d1 803d c8c9 f93b b730 bfbc d074 bdbd
00000020: 4c89 493f a1cc 333e 6e37 c03d ad44 e33e
00000030: 8f0c 2d3c 5444 1cbe f6b5 593e 5b8d c63a
00000040: 2e4d 1ebf 80a8 8fbe 86b7 eebe 2ffb edbb
00000050: 792a 813b 7214 fdbd 7a5e 1a3e fe52 233e
00000060: 65ec e83e d2f6 ef3e 277f c8bd 3f71 003f
00000070: 287a aebb de5b 9abe f141 173e 9b43 cdbc
00000080: 8a9d 2ebf 1424 3abe 2cbb 33bd 7b2c c4bc
00000090: 4cd4 013e be06 99bd bb78 01bb a0d8 b9bd
000000a0: 74cb b83e bcc1 fa3e afd3 583f 02b1 adbb
000000b0: 1a56 9cbe 560a c23e 8226 f2be 2b73 4b3d
000000c0: ed98 563f 1793 283e 2ba2 4d3e 1de2 cabb
000000d0: af51 20bf 6476 ba3e 2d01 51bd c308 e03e
000000e0: 61d9 7b3e 37cc ee3e fe64 733f 36ab 9f3e
000000f0: fe0b d13d d1ac 483f d61f d53d 440d 36be
00000100: a349 f8bd 2376 163f c1e8 fdbd afee 85bc
00000110: b7dd db3d b5da 0a3e 64d1 3cbd 4615 3f3e
00000120: 374c 50be 5707 6b3e 106b 4dbe 39fe cc3c
00000130: c4ab 2abf 27d9 a7be df67 c13e 2817 35be
00000140: 71de 393d 7490 c0bc 32f9 62be b675 633d
00000150: 0cc9 edbe 99a5 e7be 8bdd 3dbd 019d b8bd
00000160: 67a1 c53d 357b 27bd 05fd 64bf c4f3 3dbe
00000170: 26b2 5d3e 1a23 e7be 6472 cc3d f6a2 ecbd
00000180: 59bd 32be 5822 1dbe 47f5 89be f28a 0c3b
00000190: 1ade c13d b8f1 cebe 5d8e 65be e976 7fbc
000001a0: 06cc 1d3e 6177 443e 8d55 d6bd 4096 dfbe
000001b0: bca1 fa3c 8a02 413e de18 18bf 137d 8bbc
000001c0: 79a9 563f 4a2b c83c d28e 3e3e aefc 83bd
000001d0: f2e8 2ebc f3aa 033e 022b f8bd 2377 0fbe
000001e0: f1ff 39bf e174 67be 3a3a 0a3e 5c62 d43e
000001f0: f2e6 65be 5097 523e 746a 133e 6718 f13c
00000200: afde 943e 2a37 0e3e 6cd9 5e3e cb3f 133f
00000210: 4ce0 70bc 2fc3 c9be c3d2 a13e 6dfb 57be
00000220: f165 c33e 87b3 29be e9e7 9e3e 6cd2 33be
00000230: 9521 843d cb37 463d 2d59 a03e 9792 9dbe
00000240: 7744 7c3b 8564 e3be 5a9e e53e e94c ffbb
00000250: 5d9b 443e 4bf9 ad3e 4844 c9be 9f74 b2bd
00000260: 762e 633e 9d9a 273f 6ac5 0d3e 9176 dd3e
00000270: 868e 393e e49b 2abf e3df 07be 9b20 69bd
00000280: 789f 163e 6f58 f33c 93c0 903d 244f 0abf
00000290: c9f9 003e d885 0e3e 7ad8 17be e256 babc
000002a0: d42a fdbe c488 61be d7f7 443d a662 8d3c
000002b0: 30a1 e6bb d0e1 113e 1cd5 5ebe d894 a93d
000002c0: 23d6 bd3e 3f47 02bd f9a0 f6be 2476 d2bd
000002d0: dc5a d33e 9437 b93e 619a 5a3f 31f7 a43e
000002e0: 22b3 31be 131e 40be 76e5 963e fef1 42bb
000002f0: 49a6 bfbb e6d3 01bf d326 9e3d 8bfe 94bc
00000300: bac9 d13e ab35 0ebe a3a0 78be 0236 b73d
00000310: 733a d4bd 635c b3be 6643 2d3e 5ffd b03e
00000320: d5a0 35bf c2ec bf3e 5343 873e c038 153d
00000330: 44de 21bd b4d1 ed3d b067 a43d 4fe9 bbbe
00000340: 4f18 e8be 39e7 dfbe 3f69 e7be 4892 1bbc
00000350: deb1 5abe 1751 46bd 17b9 dbbc 72d4 9fbe
00000360: d5f5 513d 5869 dd3e 0ec1 f4be 0ddb 4a3e
00000370: b135 8d3d ecf7 ae3d d440 7abf 67ca aabd
00000380: 5f43 1cbf c79d 6f3d 1448 a3be ac06 91bd
00000390: c78d 15bf a5a6 2fbe 2d8d 90be 2567 8cbe
000003a0: 4cc2 acbd c1f1 04bd 4036 44be b082 e6be
000003b0: 8226 2e3e 7cf7 dfbe 7ce6 a8be 1d93 1d3e
000003c0: 5e7f 30bd d3a6 27bf 033d 9a3d d335 2d3d
000003d0: 1df5 7e3c 7fb7 7cbe 8db3 a2bd b29d 92bc
000003e0: 5e86 8bbd 81e4 a4be bd2b 463e 9f06 eebd
000003f0: d137 9dbe e444 a0bb 80c1 13bf f319 9fbe
-0.68847287 -0.26449472 -0.025167245 0.008761549 0.062900014 0.007622931 -0.023338659 -0.09250796
0.78725123 0.17558528 0.093855724 0.44388333 0.010562076 -0.1526044 0.21260819 0.0015148328
-0.61836517 -0.28058243 -0.46624392 -0.0072626094 0.0039418307 -0.12357415 0.15075102 0.15949628
0.45492855 0.46867996 -0.097898774 0.501728 -0.0053246208 -0.30148214 0.14771248 -0.02505665
-0.68209136 -0.18177825 -0.043879673 -0.023946991 0.12678641 -0.07471989 -0.00197558 -0.09074521
0.36092722 0.48975933 0.84698004 -0.005300642 -0.3053444 0.3789851 -0.47295004 0.04967038
0.83827096 0.1646236 0.20081393 -0.0061915056 -0.6262464 0.3641845 -0.051026512 0.43756685
0.24594642 0.4664018 0.95075977 0.3118531 0.102073655 0.78388697 0.10406463 -0.17778498
-0.1212342 0.5877401 -0.1239791 -0.016349165 0.10735648 0.13559993 -0.046098128 0.18660459
-0.20341574 0.22952019 -0.20060372 0.025023567 -0.66668344 -0.32782862 0.3777456 -0.17684615
0.045378152 -0.02350638 -0.22165373 0.05553218 -0.4644245 -0.45243528 -0.046353858 -0.09014321
0.09649926 -0.040888984 -0.8944858 -0.1855002 0.2164999 -0.45143968 0.09982756 -0.1155452
-0.17455043 -0.15345132 -0.26944944 0.0021445123 0.09466191 -0.40418792 -0.22417589 -0.015592315
0.1540986 0.19186164 -0.10465536 -0.4366932 0.0305947 0.18848625 -0.59412944 -0.017027413
0.83852345 0.024434704 0.18609169 -0.06444679 -0.010675656 0.1285818 -0.12117578 -0.14010291
-0.7265616 -0.2260318 0.13498774 0.41481292 -0.2245138 0.20565534 0.14396077 0.029430581
0.29076144 0.13888231 0.21762627 0.57519215 -0.014701914 -0.39406726 0.3160611 -0.21092005
0.38163713 -0.1657239 0.31036308 -0.17560738 0.06451718 0.048393052 0.31318036 -0.30775902
0.0038492957 -0.44412628 0.44847375 -0.007791151 0.19199891 0.33979258 -0.39309907 -0.0871365
0.22185692 0.65470296 0.13844839 0.4325452 0.18120775 -0.6664412 -0.13269 -0.05691586
0.1470927 0.029705254 0.070679806 -0.5402701 0.12595285 0.13918245 -0.14828673 -0.022746507
-0.49446738 -0.22024828 0.04808792 0.017258953 -0.007038258 0.14246297 -0.21760982 0.08280343
0.37077436 -0.031806227 -0.48169687 -0.1027644 0.41280258 0.36175215 0.85391814 0.32219842
-0.1735349 -0.18761472 0.2947194 -0.002974629 -0.00584868 -0.50713956 0.07722249 -0.018187782
0.40974218 -0.1388766 -0.24280028 0.08945848 -0.10362711 -0.35031423 0.16920242 0.34568307
-0.70948535 0.3748532 0.26418552 0.036431074 -0.03951861 0.11612263 0.08027589 -0.36701438
-0.45331046 -0.43731096 -0.45197484 -0.009495325 -0.21356913 -0.048417177 -0.026821656 -0.3121677
0.051259834 0.43244433 -0.4780354 0.19810124 0.068950064 0.08543381 -0.9775517 -0.083393864
-0.610403 0.058500078 -0.3189093 -0.07081351 -0.5841946 -0.17153414 -0.2823271 -0.27422443
-0.08435497 -0.032457117 -0.1916132 -0.45021582 0.17006877 -0.43743503 -0.32988346 0.1538815
-0.043090217 -0.6548893 0.07531168 0.04228766 0.015561369 -0.24679373 -0.07944403 -0.01789746
-0.06812738 -0.32205585 0.19352622 -0.116223566 -0.30706647 -0.004891025 -0.5771713 -0.31074485

encoder.0.fc.bias f4 [16]
00000000: 1203 6bbe e276 fcbd a043 c8be 4e53 2b3e
00000010: 20bf b1bd 90f4 833e 68a0 5f3e a285 a43e
00000020: 90be 73be 0b54 023d a4ca e1bd 4172 e23d
00000030: 73e5 863d 976c 09bc 9307 4e3d 6fd3 b9be
-0.2295039 -0.123273626 -0.39114094 0.16730997 -0.08679032 0.25772524 0.21838534 0.32133204
-0.23803163 0.03181843 -0.11024979 0.110569485 0.06586733 -0.008387706 0.050300192 -0.36294124

encoder.0.norm.weight f4 [16]
00000000: a5df b33f 5d27 ac3f 70f3 aa3f 88ca 893f
00000010: 93fd 9c3f 4f64 903f fb40 a73f 9d01 a93f
00000020: aa53 893f 17cd 9b3f 1807 9d3f bb8c 843f
00000030: 1338 a13f 93b8 8f3f 4a46 9c3f 7f30 983f
1.4052626 1.3449513 1.3355541 1.0764933 1.2264885 1.1280612 1.3066705 1.3203617
1.0728657 1.2171963 1.226779 1.0355448 1.2595237 1.1228203 1.220895 1.18898

encoder.0.norm.bias f4 [16]
00000000: cd56 143e 9036 313e a2f7 0b3e 841b 533e
00000010: 717a dc3d 13eb 213c 3cab 8c3e 2ad7 743e
00000020: 8905 24be 1693 f13d 77ce 4e3d 106a d2be
00000030: ec0c 713e 45a8 dd3d 1282 b03d c71f 133e
0.14486237 0.1730597 0.13668683 0.20615965 0.10765541 0.009882706 0.2747439 0.23910204
-0.16017736 0.117956325 0.05048987 -0.41096544 0.23540086 0.108231105 0.08618559 0.14367591

encoder.0.norm.running_mean f4 [16]
00000000: 5208 dfbd 0e68 40be 5450 2cbe dd50 3dbe
00000010: 29d1 42bf dbd5 bfbe 168c 8fbc deab f83e
00000020: d42c bdbf 36bf a9be 6cb2 2b3e 2410 b9bd
00000030: 76d1 bebf eae0 0cbf 5fe6 df3e be86 f8bf
-0.10890259 -0.18789694 -0.16827518 -0.18487878 -0.76100403 -0.37467846 -0.017522853 0.48568624
-1.4779305 -0.33153695 0.16767281 -0.09036282 -1.4907672 -0.5503069 0.43730447 -1.941612

encoder.0.norm.running_var f4 [16]
00000000: 7dfd 953e d0f4 c23e 298d ac3e a6cc 3a40
00000010: 994f 673f 0064 c03e d7c7 143f 1b01 e03e
00000020: 45a0 7a3f 33dc b13f 9cdf 963e 0460 393f
00000030: d99f 323f 14ec 0e3f bd7b 503f b60b 833f
0.2929496 0.38077402 0.33701447 2.9187407 0.9035583 0.37576294 0.5811743 0.43750843
0.979008 1.3895324 0.29467475 0.72412133 0.6977516 0.55828977 0.8143881 1.0237949

encoder.1.fc.weight f4 [16, 16]
00000000: 4860 1abf a71d 14bf 1058 febd 0633 29be
00000010: 4aae dcbe f5aa 93bc 8cd0 c7bd 2d3f fabe
00000020: 259c 943e 4ac5 55be 374a babd 056e c03e
00000030: fc06 95be b4c7 1ebf 8d51 f5be 6bbb 4f3e
00000040: 1d0a b8be a3f2 98bd 3581 f7bc 18a5 113e
00000050: 863b b23c e3c9 a9be aecd 27bf 1b79 56be
00000060: 6a3e cebc 287a 2abf 593e 15be 1bae 023f
00000070: e6d7 51be c63b e93d 2101 5e3e aae9 b7bd
00000080: 2ebb 163e cc55 00bf 886a fbbd 48f6 3ebe
00000090: fa87 2fbe a2e0 a6be 8b0f aabe d7d6 46be
000000a0: 6d75 683e 6299 ddbe ef07 0abf 9feb a93c
000000b0: 85db fb3d b7f5 ef3c ab53 32bf ccc5 103e
000000c0: f3bf 6dbc 4b6d 0bbf f4e8 80be 34a8 e4bc
000000d0: 1b5a 9b3d 42a0 98be 5473 97be f58a 0abf
000000e0: 3cf0 6b3b 235c 25bd 639b 43be 491b 41bd
000000f0: cda7 9e3d a301 dbbd 5b47 65be 2a61 263d
00000100: aa86 2f3d 58f1 21be 9d78 aebe 5d3f ac3e
00000110: 3a47 b4be 82a7 ab3e df97 91bd 0213 973c
00000120: f060 3ebf 41df 80bd 3931 63bd 10d2 d8be
00000130: 395f 8d3e 4d3d 6139 bb1c 923d 10ad bb3e
00000140: 07c4 42be d36c 543e 56d6 8bbe f473 b0be
00000150: c157 83be 6e09 26be 4a98 1abf 64de e23d
00000160: 9b85 903e bfb1 03be ce4c 98be c9ee 32be
00000170: c402 c03d 67f2 dcbd 1dcf 4bbe 2dc2 473e
00000180: 2688 1d3e 71e0 ccbd 6dbd c93e bd72 03be
00000190: ce85 7e3e 0169 c4bd 4c47 ce3d e74b ccbe
000001a0: 980a ef3d de84 bf3d 1023 fdbc d36e 44bf
000001b0: d00e 4a3e 77e1 8d3e cd36 163f b58d 29be
000001c0: b7b6 7ebc 751c d6be 51fe 003e 9a52 b7bd
000001d0: b385 eabc 0e79 93be ad09 f4be 15b7 09be
000001e0: f6a7 ba3e c5ac afbe 67ea 2ebe 3123 bf3e
000001f0: 458a 9bbd de0f 753e d392 4dbe 2538 e63d
00000200: f952 423e 1f34 f73d 0753 613e 8e14 0a3f
00000210: 3a13 243e f150 c0bd 0ead d2be b2ef 36be
00000220: b2fe 78be 9dc9 50be fba0 3cbd 7e55 b0be
00000230: a81f 373e e95e 7d3e 0fc2 873e a775 c63e
00000240: 71c2 eb39 4325 813d c4a8 c9bd c5f3 dfbd
00000250: 72d5 abbe f023 6f3e 49a7 a4be 94be 2b3e
00000260: c8a6 273e e15c 11be bbd0 4bbf c098 80be
00000270: 9ae2 52be 0835 8dbe 8de3 8abe aec8 5dbe
00000280: a9ea fbbd 8b95 11be 765e 16be c36e 15be
00000290: 3cf6 89bc 8922 3dbe 5338 44be b003 6d3e
000002a0: 4a4c d73e 3b6f 23bd e4d5 51bf 5326 103d
000002b0: c46c 123c a863 b53e 8c8d 073e a01c d13d
000002c0: bdd5 74be b2d6 d1be ea16 e33b 6e8f e43e
000002d0: 4b02 f7be bfa5 923d ff9d 0f3e e6dc e0be
000002e0: c194 7a3d 8a61 b6ba 827f 2e3e 604c 373b
000002f0: 3067 8cbd 967e b4be c412 03bf 7dad 833d
00000300: d09f 2cbe 17b0 7b3d 7d93 bfbe e992 9cbd
00000310: 8bd2 2d3f 1cc4 f9bc 1ec6 383d c58d 003d
00000320: 766f 0fbc a13b ecbe 5fc6 16bd 8ccc c33e
00000330: fc9d 7dbe c989 0fbd 6c5c 9bbe b2ab 943e
00000340: 52a0 24be 3c86 b8bc b043 3e3e 82a6 e6be
00000350: fd24 12bf 4f0a 33be 765b 50bc 9ada 90be
00000360: ae71 b13e 747c 863d 01fc 463e f431 523d
00000370: 9aaa 52be f861 89bd 4e49 afbe f4da 5bbe
00000380: da04 94be 8b1d 05be 1252 4e3e 08e8 583e
00000390: dfe0 b73e 7ac1 4a3d 1d5e 883e fc6a 813e
000003a0: 38b2 73be 1941 73be e667 00bf 8d05 95be
000003b0: e712 19be 5f56 353f 0443 bb3e 131d 0bbe
000003c0: 9af0 0d3e 37b3 76be c61d a6be 88dd 183d
000003d0: d7df b13c 44fc b3be f275 58bc d059 a2bd
000003e0: 1548 ac3c cbaa dc3d 6ea3 fcbe 254e 6f3e
000003f0: 7121 5d3c cfff 883e c81a d8be 4be3 b5be
-0.60303164 -0.57857746 -0.1241914 -0.1652337 -0.43101722 -0.018025855 -0.09756574 -0.48876324
0.2902538 -0.20876041 -0.090961866 0.37583938 -0.2910689 -0.6202347 -0.4791378 0.20286338
-0.35945216 -0.07468154 -0.030212978 0.14223135 0.021756899 -0.3316184 -0.6554822 -0.20944636
-0.025176246 -0.66592646 -0.14574565 0.51046914 -0.20492515 0.11388354 0.21680118 -0.08980115
0.14719841 -0.50130916 -0.122761786 -0.18648636 -0.17141715 -0.32593256 -0.33214983 -0.19417892
0.22701044 -0.43281084 -0.53918356 0.020742236 0.122977294 0.02929197 -0.6965892 0.14137954
-0.014511096 -0.5446364 -0.2517773 -0.027912237 0.07585546 -0.29809767 -0.29580176 -0.5411828
0.0036001345 -0.04037107 -0.19102244 -0.04714516 0.07746849 -0.106936716 -0.22390501 0.040620007
0.042853035 -0.15814722 -0.34076396 0.33642092 -0.35210592 0.33526236 -0.07109045 0.01844168
-0.74366665 -0.06292582 -0.055466864 -0.42347765 0.27611712 0.00021480508 0.07134386 0.36655474
-0.19020091 0.20744638 -0.27311963 -0.34463465 -0.25652888 -0.16214535 -0.60388625 0.11077574
0.28226933 -0.12860774 -0.29746097 -0.17473902 0.093755275 -0.10788422 -0.19903226 0.19507666
0.15383968 -0.10003746 0.39402333 -0.12836738 0.2485573 -0.095903404 0.100721925 -0.3990166
0.116719425 0.09351514 -0.030900508 -0.76731604 0.19732213 0.2771108 0.5867737 -0.16557963
-0.015546492 -0.41818586 0.12597014 -0.08951302 -0.028628206 -0.28803295 -0.47663632 -0.13448747
0.3645627 -0.343115 -0.17081605 0.37331536 -0.07594732 0.23931834 -0.2007554 0.112411775
0.18976964 0.12070488 0.22004329 0.53937614 0.1602296 -0.09390438 -0.41147655 -0.17864874
-0.24315909 -0.2038941 -0.04605196 -0.34440225 0.1788317 0.24743237 0.26515242 0.38761637
0.00044967563 0.06305935 -0.098466426 -0.10935167 -0.33561283 0.23353553 -0.32158878 0.16771919
0.16372216 -0.14195587 -0.7961537 -0.2511654 -0.20594254 -0.27579522 -0.27126732 -0.21658584
-0.12300617 -0.14217202 -0.14684471 -0.14593033 -0.016841047 -0.18470205 -0.19162111 0.23145938
0.4205039 -0.039901 -0.81966996 0.0351928 0.008937065 0.35427594 0.1323759 0.10210538
-0.2390966 -0.40984112 0.006930222 0.44640678 -0.48243937 0.0716052 0.14025114 -0.43918532
0.06117702 -0.0013914567 0.17040828 0.0027969107 -0.06855619 -0.35252827 -0.5120051 0.06429575
-0.16857839 0.06144723 -0.37417212 -0.076452084 0.6789939 -0.03048902 0.045110814 0.031385202
-0.008754602 -0.46139243 -0.036810275 0.38241994 -0.24767298 -0.03504351 -0.3034395 0.29037243
-0.16076782 -0.022524945 0.18580508 -0.4504891 -0.5708769 -0.17484401 -0.0127171185 -0.2829178
0.34657043 0.06566706 0.1943207 0.05131717 -0.20572892 -0.06708139 -0.34235615 -0.21470243
-0.2890995 -0.12999551 0.20148495 0.21182263 0.3591375 0.04950092 0.26634303 0.25276935
-0.23798454 -0.23755302 -0.50158536 -0.29105797 -0.14948617 0.70834917 0.36574566 -0.1358531
0.13861313 -0.24091803 -0.3244459 0.037320644 0.02171318 -0.351534 -0.013211714 -0.079272866
0.021030465 0.10774764 -0.49343437 0.23369654 0.013496743 0.26757666 -0.42207932 -0.35524973

encoder.1.fc.bias f4 [16]
00000000: 1806 97bc a2b3 d73e 514a 133e 6a1e 133e
00000010: be77 b53d 80fa 4bbd 2b89 2b3d c3f7 a33e
00000020: fb91 2dbe ecaa 913e fe79 7abd d959 10be
00000030: 5a97 1f3e afd3 603d 85a7 843e aab8 e4bd
-0.018435523 0.42129236 0.14383818 0.14367071 0.0886073 -0.049799442 0.04187886 0.32024965
-0.16950218 0.28450716 -0.061151497 -0.14096774 0.1558508 0.054889377 0.25909057 -0.111680344

encoder.1.norm.weight f4 [16]
00000000: d4fe 9f3f c0c9 a23f e20b a43f f09b a33f
00000010: 7147 8e3f 6245 863f 0f08 a43f a46f b53f
00000020: 9cf7 8c3f 0b79 ac3f 266c a43f bbad 753f
00000030: a207 9d3f 3b8c ab3f 8ac2 9c3f 7e6a 8a3f
1.2499642 1.2717819 1.2816126 1.2781963 1.1115552 1.0489924 1.2814959 1.4174695
1.1013064 1.3474439 1.2845504 0.95968217 1.2267954 1.340217 1.2246869 1.0813749

encoder.1.norm.bias f4 [16]
00000000: fd17 943e e00d 8b3e e4c8 d23d 2a1f 383e
00000010: 4a63 cb3d c8f9 fc3d 6556 1b3e 8431 6b3e
00000020: 658f f7bd 2652 383e 24fe 4d3d e1be 79be
00000030: 4093 7c3e b0d3 b13d e4f6 5a3e 1969 5e3d
0.28924552 0.27159023 0.10292223 0.17980638 0.09931047 0.123523295 0.15169676 0.22968107
-0.12087897 0.18000087 0.050291196 -0.24389221 0.24665546 0.08682954 0.21383244 0.054299448

encoder.1.norm.running_mean f4 [16]
00000000: 4862 dbbf af2c 9fbf 2fcc 90bf 61dc 9cbf
00000010: 006b c13f d614 bfbe dba6 003e c265 f9bd
00000020: 26b8 0740 2a60 f4bf c923 5e3e 601a 8ebf
00000030: 7753 6b3f 9057 02c0 91eb e93e 34be 1dc0
-1.7139368 -1.2435511 -1.1312312 -1.2254754 1.5110779 -0.37320584 0.1256365 -0.12177612
2.1206145 -1.9091847 0.21693338 -1.1101799 0.9192423 -2.0365944 0.45687535 -2.464734

encoder.1.norm.running_var f4 [16]
00000000: a110 953f f3a3 963f 31b8 183f 1f00 313f
00000010: 3e07 1140 9c5f 0d3f 1327 1540 da65 bc3e
00000020: 7a19 a13f 3b4e b93f 844e 063f bfcf 7f3f
00000030: c6d2 0740 6a88 023f 1bb3 bc3f 29b0 c23f
1.16457 1.1768783 0.59656054 0.6914081 2.266067 0.55224013 2.33051 0.36796457
1.25859 1.4476999 0.52463555 0.9992637 2.1222396 0.509894 1.4742159 1.521001

encoder.2.weight f4 [32, 16]
00000000: 2112 a8be 3fe6 2dbe d2ab 72be 62ce edbe
00000010: fadb 63be 0c20 683e b6e4 a2be 1385 6ebe
00000020: 7e9a 993e 4ac9 d0be 3037 21bf 230a ba3e
00000030: b7af 93be f798 d33e d76d 253e 47df 2c3a
00000040: 6e27 66bf e4fe 19be cebe 243d c9cc 1cbd
00000050: 7dd4 a13e 366d a9bd d3be e0be 4007 cc3d
00000060: b98f 113e 4634 0c3d 4220 c9be dd1d 923e
00000070: 7f0f d73d 2bd5 8c3e 6811 3cbe 697c b33e
00000080: da71 28bf 2657 97be 0fe6 a7be 8332 c73d
00000090: 69d6 7f3e 1793 23bb f3b8 8a3c 74cb fabc
000000a0: fee8 a23c c71e 77be fa0f 76bd 7244 b03e
000000b0: 9772 90be 77b9 cfbd 3f2f 8b3d f417 50be
000000c0: a72c 34be adac a1be efb6 4dbe 482c 8bbe
000000d0: 7c81 cd3e b5e7 90bc 04aa 2bbe 69c7 99bd
000000e0: 66af ec3e 8fd3 68bd 8f7e c83d cc41 9e3e
000000f0: d4fd cfbe 5858 423e 0714 1cbe 3e5d 41bc
00000100: 066a 49bf 257f 9ebe 7ec4 d3bd facc 41bd
00000110: 5216 323e 4843 123e 0cd9 88bd 1e53 e2bd
00000120: 80c4 833e 9377 4cbe 6df5 efbe a761 bd3e
00000130: f8c3 8ebe fa8d a63e 8d21 aebe 92fa e13e
00000140: 523d 423f 9a50 933e 2d44 053d bac1 ef3e
00000150: 49f3 7c3e a6f2 a2bd 07bf 9e3e 1257 243e
00000160: 79df cfbd 51bd 3c3d 40a5 a43e 1f8b c8be
00000170: 4fda 2bbc edc8 90be 73e7 aabd af4c 383e
00000180: 26bf abbe ab7a cebe 7e21 9f3d 7e24 1f3e
00000190: ca77 7b3d fcf9 253e 913b 46bd 7a31 b2be
000001a0: 9706 eebd 0614 b0be a62f 2dbe fabf 2c3d
000001b0: 241d 09bf 2d8b a03e 8e30 a23d e172 b73d
000001c0: 5016 efbe 9f64 52bc c650 5fbe 8e62 b6be
000001d0: 160f 89bc c1f1 e43d 3e95 91be 06dc a3be
000001e0: 5236 7c3e 91e6 bcbd 31f5 253d fdcf fa3d
000001f0: 2327 0cbf 1553 febd 2753 883e 33df 7d3e
00000200: 159d a0be 80a4 17be bc9b a4be 5247 d0be
00000210: cce4 8b3e ddf0 18be 3d69 023e 62c7 c6be
00000220: c0b7 4d3e b790 a4be 9ae1 0abf eaff 1b3e
00000230: 3aef 1dbe 5a48 a13e c0f5 7c3e 3879 bcbc
00000240: d088 243e 2829 6e3e a7e5 65be 69eb 7abe
00000250: a798 203e 9c8c 543e 8904 0fbe 4755 e1bc
00000260: 57f2 63be 7730 1abe 10f8 313e de3f 9abc
00000270: 9661 d43e 8a1b 52bd 7d84 003e aeba 063e
00000280: a6aa de3e 32ac 813e 81ce f4bd f416 89bb
00000290: 0ec5 953d 74ad 32be 6999 f33e 2deb eb3e
000002a0: 17e5 07bf f2b3 913e 8da5 4a3c 434c f4be
000002b0: 5d18 0e3e f001 a83d acf4 813d a779 abbd
000002c0: 4eac e3be 94ce 34be 2de7 a73d 1542 40be
000002d0: cd42 9b3e 84ff 27bd 99a6 17be f6ef 37be
000002e0: f355 503e 7477 a3bd 3844 1dbf 7dc4 163f
000002f0: 1e6f 83be 6879 89bd a21e 4cbe d3c9 d73e
00000300: 1af8 97be 8454 33be fcd6 3cbe 7a58 18bd
00000310: f88b 01be a673 64be c2b0 93be 224e a53c
00000320: cd0a a93e 7643 e13d 7ba0 12bd 62fa 15be
00000330: 3118 f4bd 3796 943d 1286 943d 939f 963e
00000340: c25b c5be 9e96 d1be 8b71 bebe 074c 19bc
00000350: 283d 29bd 4e85 533e 734b dfbe 8bd4 5539
00000360: bb2e df3d e005 613e d80d cabe 1b18 b13e
00000370: 87ec cfbe 5eac e73e 37c5 47be 7707 1bbe
00000380: 3f36 c7be 4acf 783c 99a0 b53d ab2e d1be
00000390: 4dd6 1bbe 1595 d0be 4ab0 e7be dea3 08be
000003a0: 24aa 933e 9c24 803c dc93 39be feea c03e
000003b0: 9e5c 0b3d f800 6a3e b168 bdbd 62f7 5ebd
000003c0: 9671 193d cb39 b93e 52f0 c5bd fc40 56be
000003d0: 4765 1abe 2c34 87bd e4c1 6ebe 0296 9eb9
000003e0: de27 2f3e e5ab e33b 1b32 4d3e 5a13 11bf
000003f0: 25ed ad3e 6095 e13c 2021 98be ad0f b23d
-0.3282633 -0.16982363 -0.23698357 -0.4644652 -0.22251883 0.22668475 -0.31815118 -0.23292951
0.3000068 -0.4077857 -0.62974834 0.3633586 -0.28844997 0.4132764 0.16155182 0.000659455
-0.89903915 -0.1503864 0.040221028 -0.038281236 0.31607428 -0.082727835 -0.43895587 0.0996232
0.14214982 0.03422954 -0.39282423 0.2853841 0.105010025 0.27506384 -0.18366015 0.35055855
-0.65798724 -0.29558676 -0.32792708 0.09726431 0.24984135 -0.0024959499 0.016933894 -0.030614592
0.01988649 -0.24132834 -0.06007383 0.3442722 -0.28212425 -0.101427965 0.06796121 -0.20321637
-0.17595159 -0.31577054 -0.20089315 -0.2718222 0.4013785 -0.017688612 -0.16764075 -0.075087376
0.46227568 -0.056842383 0.09789764 0.30909574 -0.40623343 0.18979013 -0.15242015 -0.011802016
-0.78677404 -0.3095638 -0.10340212 -0.04731462 0.17391327 0.14283478 -0.066820234 -0.110510096
0.25735855 -0.19967489 -0.46866933 0.36988565 -0.27883887 0.32530195 -0.34009972 0.44136482
0.7587482 0.28772432 0.03253572 0.4682749 0.24702181 -0.07956438 0.31005117 0.1604884
-0.10150046 0.046078984 0.32157326 -0.3916864 -0.010489061 -0.28278294 -0.08344927 0.17998002
-0.33544272 -0.40327963 0.0777006 0.15541264 0.061393537 0.16208643 -0.04839665 -0.34803373
-0.11622351 -0.34390277 -0.16912708 0.04217527 -0.5356009 0.31356183 0.07919417 0.08957458
-0.4669671 -0.012841373 -0.21808156 -0.35622066 -0.016730826 0.111789234 -0.28434175 -0.32003802
0.24630097 -0.092236646 0.040517036 0.12246702 -0.5474722 -0.124181904 0.2662594 0.24792175
-0.31369844 -0.14808846 -0.32150066 -0.40679413 0.27322996 -0.14935632 0.12735458 -0.38823992
0.20089626 -0.3214166 -0.5425049 0.15234342 -0.15423289 0.31500512 0.24703121 -0.02300702
0.16067815 0.23257887 -0.22450887 -0.24503864 0.15683232 0.20756763 -0.13966574 -0.027506484
-0.22260414 -0.1505755 0.17379785 -0.018829282 0.41480702 -0.051295795 0.1255054 0.1315715
0.4348957 0.25326687 -0.1195345 -0.0041836444 0.07312976 -0.1744898 0.4757798 0.46077862
-0.5308394 0.284576 0.012368572 -0.47714433 0.13876481 0.082034945 0.063454956 -0.08372813
-0.44467396 -0.17656928 0.0819839 -0.18775208 0.30324402 -0.041015163 -0.14809646 -0.17962632
0.20345287 -0.07981768 -0.6143222 0.5889357 -0.25670713 -0.067126095 -0.1993356 0.42146167
-0.29681474 -0.17512709 -0.18441385 -0.037193753 -0.1265105 -0.22309741 -0.28845793 0.020178858
0.33016053 0.10999195 -0.035797577 -0.14646295 -0.11918677 0.07255214 0.072521344 0.2941862
-0.38546568 -0.40935224 -0.37196 -0.009356505 -0.04131809 0.2065632 -0.4361225 0.00020392441
0.10897585 0.21974897 -0.39463687 0.34588704 -0.40610144 0.45248693 -0.19508825 -0.15139566
-0.38908574 0.01518614 0.08868522 -0.40855917 -0.15218468 -0.4073874 -0.45251685 -0.1334376
0.28840744 0.015642457 -0.1812281 0.37679285 0.034023874 0.22851932 -0.09248484 -0.05443514
0.03746184 0.36176905 -0.09664978 -0.20923227 -0.15077697 -0.06601748 -0.23316151 -0.00030247873
0.17105052 0.0069479817 0.20038645 -0.56670153 0.3396999 0.027537048 -0.29712772 0.08694396

encoder.2.bias f4 [32]
00000000: cd47 79be eea2 6ebe f665 5bbe cf6d 69be
00000010: ac7c 87be 75b6 6a3e 421a 78be 0038 84be
00000020: d0ac 7bbe b5bd 3e3e fb9d 793e 4822 65be
00000030: 85c0 5abe 33fb 6ebe e705 68be fc9d d93d
00000040: b525 023d 4415 8d3e fdbb 83be 79e6 813e
00000050: 4b8f 56be 1e94 423e e54e 8d3d b6d9 83be
00000060: da72 643e 5795 aebc 5d90 7fbe 0209 803e
00000070: 2ae1 7bbe 93a3 7d3e 3161 5ebe 02e0 47be
-0.24343796 -0.2330434 -0.21425614 -0.22795795 -0.26462305 0.22921164 -0.24228767 -0.25823975
-0.24577641 0.18627055 0.24376671 -0.22376359 -0.21362503 -0.23338012 -0.22658502 0.10625836
0.03177424 0.27555287 -0.2572936 0.2537115 -0.209531 0.19001815 0.068998136 -0.25752038
0.22309437 -0.021311445 -0.24957414 0.25006872 -0.24597612 0.2476943 -0.21716763 -0.19519046

nee_decoder.0.fc.weight f4 [16, 32]
00000000: c1ee 40bd 293d f03e d927 bf3e deb4 ac3e
00000010: 8ee5 39be 7b81 e2bc 4044 b13e 482c 5ebe
00000020: 603d 043e dde6 103e a9cb 03be 2680 1c3e
00000030: 702f 3b3d b4c9 87be 6839 0f3d d5eb 2dbe
00000040: 8f9b 21bd 9b13 39be abf5 423e 38c3 5e3e
00000050: ac84 c5be 2933 afbd 1dc1 343e d518 b5bd
00000060: ebe8 f3bc 4c63 eebd 8dbe dd3d 4423 d23e
00000070: 4b32 bd3c b113 a53e 99ec 373e 0128 53be
00000080: 6c74 2fbe 68ca 8fbe f3d0 9b3c b164 423e
00000090: 3ac5 94be 29f2 3abe f8e7 ed3d d736 523e
000000a0: 2e95 543a 0e35 8cbe 6a7d d73d 03fa c33d
000000b0: c6a8 1bbe 5039 f0bc 1d0c 913e 60e8 213e
000000c0: 4550 7a3d 386a d3be 0ba7 243e 0a1f 503d
000000d0: 57a0 f0bd 6588 d53e ab1e d63e c7e6 27be
000000e0: 28d8 ea3e 32ba 063d b94c df3d 30cb b4bc
000000f0: d9af c8be edfc c8be c5f9 9a3e c6eb 0bbe
00000100: a1c3 56be a129 b8be 982e 823e 9394 fd3d
00000110: 4091 d6be 6c82 4bbe b76a 91be 5cd2 d4be
00000120: 07a6 f83d bee2 94bd 40ec 793e d6e6 67be
00000130: 5607 b3be da70 1a3e 319e f03e 77d9 10be
00000140: 7c21 bdbe 84d7 dabd c3b5 bdbd 07ce 5abe
00000150: edcd 223e 1722 d83a 3e97 f4bd 5b8a 5e3e
00000160: eabb 6dbe a880 4e3d 91b9 653e 4f91 59be
00000170: da25 4dbe 8605 b53e 342c 49bd a31e b93d
00000180: b232 383e 3d9e f63c 6a8c 2fbe e1a5 853c
00000190: 7628 8abd a53b 613d 2cb9 153e 3c80 18be
000001a0: b249 9abe beed 10be eab9 963e bc96 8e3e
000001b0: 7755 a2be 751a 0abe 98d8 bdbd 05fd 3dbd
000001c0: a4ce 113f c674 59be a447 2d3e d88f a13e
000001d0: 1cf6 16be e03a 39be a665 d13d 2684 c63d
000001e0: d961 acbe fbbc 823e 1e1a a8bd 32ed d43e
000001f0: c5bf 0d3e 5356 b0bc ed1c d8bb 49e3 59be
00000200: cd4b a0bd af37 1f3f 56d2 5a3d cb36 523e
00000210: adfb 663d a31e fabd 3ffa 883e aeb9 2fbe
00000220: 1bcd aabd 4eed cb3c 3d9b af3e d76a 8d3e
00000230: 83b3 863d 5747 af3e c89a 05be d76f d5b9
00000240: cd7a bebd a835 71be 48b5 02be 34d5 613e
00000250: c291 263d 01e8 a53d 105a 823e 5e76 11bc
00000260: 577b 913e 0c6e 323e 9c49 c6bd 8742 96be
00000270: d217 a53e 468d 883e ce86 64be a91c a3be
00000280: 9ca0 d9bd b708 153e a83f 093e a711 0cbf
00000290: 152b 4f3e 5396 433e cd07 8f3e 4740 82be
000002a0: 1a42 93bd 44ed 053e 30cf b4be 815c 17bd
000002b0: d236 0f3e 2d4e 4dbe e7aa 46be 13d7 c13b
000002c0: 8a29 e83e 5fae 863d b038 a73e dd83 a13e
000002d0: abcf cdbc cd3a 853d 5fa5 453e 6934 86be
000002e0: 261a 143e 0fe2 263f 8fed aa3e bb7a 873e
000002f0: cddf 9bbd b215 06be bbf8 c73e 666b a13e
00000300: ec25 50be 5419 96be 0918 893e 8695 f5be
00000310: 9354 833e 7450 9dbd e1fc 4abe db72 093e
00000320: 7822 82be d51f 913d 2b87 9bbd b138 db3d
00000330: df81 cebe 2f43 013e 136c 14be 9309 a63e
00000340: aa1a 53be 64f7 0b3f 504f 073e cc93 95be
00000350: a8c5 b2be 0910 57be 5de0 92bd 92bf 623e
00000360: 8b32 96be 295f ec3d 337c 823e 64f4 103e
00000370: bab9 25be 2bf0 833e a397 9b3c 9177 0fbe
00000380: b073 9e3c 7501 2abe 161b 813d d576 20bd
00000390: 282e ac3e eff8 543e 12b1 cf3d 1317 783d
000003a0: 967e 323e b851 c53d 8e40 bc3c 7f42 86be
000003b0: 36a3 133f ca4a 33be 2e0c 3a3e 98df 873e
000003c0: 3940 34be d7d2 bf3e e93f 233e f8c9 423e
000003d0: 51fe 8bbe 60b0 dfbd 902a 1abe c3d9 c53e
000003e0: 7cea f3bd b82d d9bd d0aa c6be 488f 26be
000003f0: 19fc 743d b01a ffbc f2e3 b53d e3a4 023e
-0.047102693 0.46921661 0.3733509 0.3373174 -0.18153974 -0.027649632 0.34622383 -0.2169658
0.12914038 0.14150567 -0.12870659 0.1528326 0.045699537 -0.26521075 0.034966856 -0.16984494
-0.039454993 -0.18073885 0.19039027 0.21754158 -0.38577783 -0.0855468 0.17651792 -0.08842627
-0.02977415 -0.11640033 0.1082736 0.4104253 0.02309527 0.32241586 0.17961349 -0.20620729
-0.17134255 -0.2808411 0.019020533 0.18983723 -0.29056722 -0.1825644 0.1161651 0.20528732
0.00081093877 -0.27384228 0.10521968 0.0956917 -0.152011 -0.029324204 0.28329554 0.158113
0.061111707 -0.41291976 0.16079347 0.05081085 -0.117493324 0.41705623 0.41820273 -0.16396628
0.4586804 0.032892413 0.109033056 -0.022069544 -0.3919666 -0.39255467 0.30268684 -0.13664159
-0.20973064 -0.3596926 0.25426173 0.12381854 -0.41907692 -0.19873971 -0.2840173 -0.4156674
0.12141042 -0.0726981 0.24406528 -0.2264665 -0.34966534 0.15082112 0.4699569 -0.14145456
-0.3693961 -0.106856376 -0.09263184 -0.21367656 0.15898867 0.0016489652 -0.1194291 0.21732466
-0.23216215 0.050415665 0.22434069 -0.21246837 -0.2003397 0.35355777 -0.04911442 0.090390466
0.17988089 0.03010475 -0.17143407 0.016314449 -0.067459986 0.054988522 0.14621419 -0.14892668
-0.3013435 -0.14153191 0.29438716 0.27849376 -0.3170583 -0.13486655 -0.092698276 -0.046383876
0.56955934 -0.21235952 0.1692186 0.31555057 -0.14742321 -0.18088865 0.10224466 0.09693174
-0.33668402 0.25534806 -0.082081065 0.41587216 0.13842686 -0.021525538 -0.006595245 -0.21278109
-0.07826958 0.6219434 0.05342325 0.20528714 0.05639236 -0.12212875 0.26753423 -0.17160675
-0.08339902 0.02489343 0.34298125 0.27620575 0.06577208 0.34234115 -0.13047326 -0.00040709853
-0.09300766 -0.23555624 -0.12764466 0.22053987 0.04066635 0.08100892 0.25459337 -0.008878319
0.28414413 0.17424792 -0.096820086 -0.2934763 0.32244736 0.26670283 -0.22317049 -0.31857803
-0.10626337 0.14554106 0.13403189 -0.54714435 0.20231278 0.19100313 0.2793564 -0.25439665
-0.07190342 0.13078791 -0.35314322 -0.036953453 0.13985756 -0.20049353 -0.19401132 0.0059155314
0.45344192 0.065762274 0.32660437 0.31545916 -0.025123438 0.06505356 0.19301365 -0.2621186
0.144631 0.6518869 0.33384368 0.26460823 -0.07611046 -0.13094214 0.39056954 0.3152725
-0.20326966 -0.293162 0.2677615 -0.4796564 0.25650463 -0.07681361 -0.19823028 0.1342272
-0.25416923 0.070861496 -0.075941406 0.107041724 -0.4033346 0.12623285 -0.14494352 0.3242918
-0.2061564 0.54674363 0.13213849 -0.29214323 -0.34916425 -0.2100221 -0.071717 0.22143391
-0.29335436 0.11541588 0.2548538 0.14155728 -0.1618413 0.2576917 0.018993204 -0.14010455
0.019342273 -0.16602118 0.06303994 -0.039175827 0.33628964 0.20798086 0.10141195 0.06056888
0.17431101 0.09634727 0.02298 -0.26222607 0.57670915 -0.17508999 0.18168709 0.26537776
-0.17602624 0.37465546 0.15942349 0.19022357 -0.27342466 -0.10922313 -0.15055299 0.38642702
-0.11909959 -0.10604423 -0.38802195 -0.16265595 0.05981073 -0.031140655 0.08881368 0.12758212

nee_decoder.0.fc.bias f4 [16]
00000000: 67be c1bd be72 9abd 734c a8bd 50b2 04be
00000010: 863d 223e ed17 1a3d 588b 54bd e9e3 2abd
00000020: cce9 073d 1c8d 9b3c 9eb3 ac3c 26b9 46bc
00000030: be13 9e3b c9ea 2fbc 2353 81bd 3556 173e
-0.094601445 -0.075414166 -0.082177065 -0.12958646 0.15843782 0.037620474 -0.0518907 -0.04172126
0.03318195 0.018988185 0.021081742 -0.012129104 0.004824131 -0.0107371295 -0.06314685 0.14778979

nee_decoder.0.norm.weight f4 [16]
00000000: 6159 9e3f 5b06 b63f 14e3 af3f 2cfc 823f
00000010: ede0 a83f 6e34 943f 20f2 8f3f b246 703f
00000020: 3612 8b3f 2d07 813f ab32 813f 6ed7 793f
00000030: c38e c03f ffd6 943f ee89 893f 7190 b03f
1.2371026 1.422069 1.3741174 1.0233207 1.3193642 1.15785 1.1245766 0.9385787
1.0864933 1.0080315 1.0093588 0.97594345 1.5043567 1.1628112 1.0745218 1.379408

nee_decoder.0.norm.bias f4 [16]
00000000: 732b 123e 781e 8abe e29e cfbe ecfc 8e3d
00000010: c29a 003e ec91 653e 1f8d 22bd ead6 563e
00000020: 9e94 073e bbf8 abbd 087a 7a3e bcab d9bc
00000030: 97c5 9a3d 5aa9 213e 1801 433d 3c26 be3d
0.14274387 -0.2697637 -0.40550905 0.06981835 0.12559035 0.22418946 -0.039685365 0.2098042
0.13240287 -0.08397051 0.24460614 -0.026571147 0.075572185 0.15787259 0.047608465 0.092846364

nee_decoder.0.norm.running_mean f4 [16]
00000000: 4f76 00be 56ad d2bd 954b 6ec0 bfec da3f
00000010: 6dc4 903f 0b02 603f d29b 333f 956b 69bf
00000020: cefa 74be 2de4 cabf 4a3b 663f 94f1 0440
00000030: 1b2a d6bf 836d 843f 1eba 733f f7dc fd3f
-0.12545131 -0.102869675 -3.7233632 1.7103499 1.1309944 0.8750312 0.7015964 -0.9117978
-0.239238 -1.5850884 0.8993422 2.0772448 -1.67316 1.034592 0.9520587 1.9833058

nee_decoder.0.norm.running_var f4 [16]
00000000: d33b 733f ffd5 9a3f 5de5 5b40 bcf6 cc3f
00000010: 8e3e ad3e 5e22 d33f 1537 d33f 8a01 e43f
00000020: dc5d 023f a579 423f 8bb0 de3f 70f2 543f
00000030: 2650 723f 6538 493f 0f97 883f 64a8 f33f
0.9501316 1.2096556 3.4358742 1.6012797 0.33836788 1.6494863 1.6501185 1.781297
0.5092447 0.75966865 1.7397627 0.8318243 0.94653547 0.78601676 1.06711 1.9035764

nee_decoder.0.projection.weight f4 [16, 32]
00000000: bbf3 ad3e eb2b ecbc 11d6 bcbc 5915 debd
00000010: 566d c6bd 5398 fcbd 622b 9dbe 63ff d7bd
00000020: 3f1f f6bb 1177 95be d397 68be 321d 73be
00000030: 6823 f7be 47a9 acbe 3de5 85be da11 5d3e
00000040: 1d37 0f3e 44c2 843e 36a0 ce3c 5a8f 18be
00000050: 0bad 623e 35e9 043e e189 9fbd c59f 8cbd
00000060: b3e4 01be 0075 053e 6fb9 313e f868 88be
00000070: 056f dd3d 6d4c b13d fe07 303d 40cb 89bc
00000080: 8bb0 aebd dbcd 633e 8cc0 b2be da78 0b3d
00000090: f75e d83e 5bb5 11be 4c4e 9a3e 2e8c c33d
000000a0: 6d4f e0bd 3cff b53e d7b6 833d 9da8 a6be
000000b0: 39fa f33e c6fb 9b3e 061f 59be 927f 52be
000000c0: 985d 783e 6d78 6bbe 80e7 9c3e 9b9d 843e
000000d0: bfb3 06be b37f b73e dfdc 4dbe aae4 b0bd
000000e0: 0136 4cbe a4ad a33e 5026 2aba f1eb 803e
000000f0: 1f9e d4bd 4df9 8b3e a187 75bc 977f b4be
00000100: 9512 03be f809 6dbd 415e 4ebe 2b94 f2bd
00000110: aa45 14bd 86a0 cdbd 70e2 653e da12 173e
00000120: 3dc5 973e 3189 833d 222f d3bd 0165 84bd
00000130: b3c9 47be 64d0 5d3e 25bf 833e d86f 0d3a
00000140: 1537 0ebe 29d3 903e 153c 7dbe 3c69 72be
00000150: c5fa 0ebe 394c 1e3d 2b64 803d c0d5 b63e
00000160: f1f2 81be 7850 23be 6791 d6bd 624f 00bd
00000170: 005a 383e 85b4 4ebd c6c5 45be 40a2 5ebe
00000180: dc7c 5f3e 3c23 00bd 0259 86be 9244 a1bd
00000190: ea90 cf3e 02e8 88be 86fb 28be 35b2 f03b
000001a0: e45b e9bc 588d 2b3e 2f5f 9dbe 5de2 ec3d
000001b0: 2ed0 0e3e d112 97be 7eea 9fbe 03b1 9abe
000001c0: cf05 a83e e339 b6be 7e72 8ebe fbd5 4f3e
000001d0: 03b2 e53d d296 92be 8394 173d 1ee8 683e
000001e0: 52de d43d 0505 4fbd d7a2 633e 5d27 493e
000001f0: 66ca 02be 6551 443e 72a0 88bd 8adf 2b3d
00000200: 999c a53e c0ec 243e cada d03e c7e8 c23d
00000210: 6594 dabe 597c 253d d519 84be b08f f6bd
00000220: 3935 473c 44f5 65be e87f 4fbe b3d3 0d3d
00000230: 78ee 56be f838 253e 9536 c43e 6de1 803e
00000240: 14fb d3bd 6425 7d3e 2c22 7fbd abbb b3bb
00000250: fdf6 57bd d5df b5bd fd93 6e3e 6064 363e
00000260: c62a 9f3d d7a7 6c3e 4cc3 dfbd aeb6 9d3e
00000270: d1e6 95bc 6099 f3bc a68a 7abe 739c c5bc
00000280: 52ad 573e dc26 8fbe c236 b8bb fab4 073e
00000290: 703a 143d 4d49 923e d441 03be 6b45 d33e
000002a0: 055b b53d 7670 313e 9f7f a5bd e4f0 0d3e
000002b0: 86ec 053f e951 01be 68d4 2abd 28c5 253e
000002c0: 0363 503e 8370 193e 4a26 943c a149 c4be
000002d0: 2397 86be bd28 353e 6de4 4ebe 778c 00be
000002e0: 3619 aebe 9afa dc3d 769b abbd 6fb5 943e
000002f0: 882e 89bd 1aa2 f9be ed85 fb3c ea2a 163e
00000300: 7fde 963e 37d0 a23e ed18 0fbe ce37 a43e
00000310: c2c5 83bc d8bc 41be daa4 453c 5938 973d
00000320: 048d 943e 17a1 233e 1924 bdbc f823 34be
00000330: 3501 853e a0f9 83be 69a1 4f3e cd14 14be
00000340: 55ff 0dbe 5354 f23d d4d9 8dbe 9f8c f73c
00000350: 4f9d a33d adf3 283e cda4 513e c7ac bb3d
00000360: c472 7a3e c077 b93e ae9e 84be ce42 89be
00000370: 0916 853e 0e5a b6bd 500c b0be 06a1 c3bd
00000380: c3e8 813e 1f77 abbe 653b 6b3e 4dd4 12bd
00000390: e213 c5bd ec08 09be 6671 3f3e dd53 a53e
000003a0: d08f a2be 608a 973e 3d5f b33e ccfd e1bd
000003b0: 5b68 523d 2953 a13e 382d d6be b465 8abd
000003c0: 6ecf 84be 44ab 903e f340 16be e3cf ab3b
000003d0: de67 5e3d 9eef 973e c09f 40be 10e8 9dbe
000003e0: 431c 81bd e35f 713e b69e ae3c f51a 993d
000003f0: 764a 053e 9e70 a4be 4339 5d3e 16ab a73e
0.33975014 -0.028829535 -0.023051294 -0.108439155 -0.09688823 -0.12333741 -0.3069716 -0.10546758
-0.007511049 -0.29192403 -0.22714166 -0.23741606 -0.482692 -0.33722898 -0.26151457 0.21588841
0.13985868 0.25929463 0.025222879 -0.14898434 0.22136323 0.12979586 -0.0778997 -0.06866411
-0.12684898 0.13032913 0.17355894 -0.26642585 0.10812191 0.08657155 0.042976372 -0.01682055
-0.08529767 0.22246496 -0.34912527 0.0340508 0.42259952 -0.14229338 0.3013786 0.095482215
-0.10952649 0.3554629 0.06431358 -0.32550517 0.47651842 0.30465525 -0.21203241 -0.20556477
0.24254453 -0.22995158 0.3064537 0.25901493 -0.13154505 0.35839614 -0.20103787 -0.08637364
-0.19942476 0.31968415 -0.00064906944 0.2518001 -0.10381722 0.2733864 -0.01498595 -0.35253593
-0.12800057 -0.057870835 -0.20153143 -0.11844667 -0.03619925 -0.10040383 0.2244966 0.14753285
0.29642668 0.064226516 -0.10311724 -0.064645775 -0.19510536 0.21661526 0.2573177 0.0005395389
-0.138882 0.28286102 -0.2472995 -0.23672956 -0.13962848 0.03864691 0.062691055 0.35709953
-0.25380662 -0.15948665 -0.10476952 -0.031325705 0.18003082 -0.050465126 -0.19313726 -0.21741581
0.21824974 -0.031283602 -0.26239783 -0.07874407 0.40540248 -0.26739508 -0.16502199 0.0073454627
-0.0284862 0.16753137 -0.30736682 0.11566613 0.13946602 -0.29506543 -0.3123359 -0.30213174
0.32816932 -0.3559104 -0.27821726 0.20296471 0.11215594 -0.28630692 0.037006866 0.22744796
0.10393967 -0.050541896 0.22230087 0.19643922 -0.12772521 0.19171675 -0.066712275 0.04196123
0.32346037 0.16105938 0.40791923 0.09517055 -0.4269134 0.04040179 -0.25800958 -0.12039125
0.012158685 -0.22456843 -0.20263636 0.03462572 -0.20989406 0.16135013 0.38322893 0.25171986
-0.10350624 0.24721295 -0.06228845 -0.0054850182 -0.05272578 -0.08880583 0.2329864 0.17811728
0.0777183 0.23110901 -0.10925922 0.30803436 -0.018298538 -0.02973622 -0.24466953 -0.024122452
0.2106221 -0.27959335 -0.005621762 0.13252631 0.036188543 0.2857155 -0.1281808 0.412639
0.08855251 0.17328057 -0.080809824 0.13861424 0.5231403 -0.12628902 -0.041706473 0.1618849
0.2035027 0.14984326 0.018084664 -0.38337424 -0.26287183 0.17691322 -0.20204325 -0.12553583
-0.3400361 0.10789986 -0.08379261 0.29044673 -0.06698328 -0.48756486 0.03070351 0.14664808
0.29466626 0.3179948 -0.13974352 0.32073826 -0.01608551 -0.18919694 0.012063229 0.07383794
0.29013836 0.1597942 -0.023088502 -0.17591846 0.25977483 -0.25776386 0.20276417 -0.1446106
-0.13866933 0.1183249 -0.27705252 0.03021842 0.079889886 0.16499205 0.20473023 0.09163814
0.24457842 0.36224174 -0.25902313 -0.2680878 0.25993374 -0.08903895 -0.34384394 -0.09552197
0.25372896 -0.3348932 0.22971876 -0.035846997 -0.09622933 -0.1338231 0.18695602 0.32290545
-0.31750345 0.2959776 0.350336 -0.11034736 0.051369052 0.3150876 -0.41831374 -0.067576796
-0.25939506 0.28255665 -0.14673214 0.005243288 0.054298274 0.29675 -0.1881094 -0.30841112
-0.063042186 0.23571734 0.021315914 0.07475845 0.13016686 -0.3211717 0.21603875 0.32747716

nee_decoder.0.projection.bias f4 [16]
00000000: 9809 05bd 0d24 24bc 855e a4bd edd1 1d3c
00000010: d890 bbbc 25e2 8dbd 065f 8cbb abaf 4f3c
00000020: f49b fabb 9d78 e9bc 536a 9ebb e550 7abb
00000030: c6ac 6dbd 4575 15bc 1f80 0d3c dd57 81bd
-0.032479852 -0.010018361 -0.08025841 0.00963257 -0.022896215 -0.06927899 -0.0042837886 0.01267616
-0.0076479856 -0.028499896 -0.004834452 -0.003819519 -0.058026098 -0.0091221975 0.0086365035 -0.06315587

nee_decoder.1.fc.weight f4 [16, 16]
00000000: ffeb 28be 428d 8bbd 2858 11bf 1ad5 a5bd
00000010: 3f3e abbd bd2f a8be 0d98 453e ea24 50be
00000020: 0387 29be 7ff1 7ebe 41e3 93be 5678 803e
00000030: 1210 a4be ceba 643e f6db 5f3e 6bfd 993e
00000040: 9405 2e3e c816 74be fc42 b7be b0da 0fbe
00000050: 063b a8bd a9aa ba3e 4306 1f3e ee00 1abd
00000060: 9bb7 89be 0d8f 8b3d ebd1 b03e f131 ab3e
00000070: 8266 0bbf 31b2 bfbe 2392 bf3d 0ae2 16be
00000080: 3dad e8be 2201 53be b3c5 29be be81 f9bd
00000090: 24b9 37bc 3c0c e2bc 7319 3f3c d0b9 22be
000000a0: d50c b53e cab7 503e 43b8 783e 4c8d 45be
000000b0: cc89 843d b302 b5bd e809 cebe be7a c53e
000000c0: 200f 63bc 4b84 373b bf2c ef3e 01fe 5cbe
000000d0: 1cc7 7c3e 2595 bdbe 6896 953d b888 aebe
000000e0: 6de2 92be eb28 29be a3ff 99be d334 0ebe
000000f0: d2a2 e9be 1aff 42bd 28c7 c2be 9504 96be
00000100: 0b2f 77be 4dbd 283e 156e c13e c334 ea3e
00000110: 7bd0 543e 4831 62bc c7cb 9b3c 2231 a03e
00000120: 5cb4 8bbe f8ba 90be a53c b13e 7233 38bd
00000130: 9700 b03e 91e5 d5bd c771 103f e13f 543e
00000140: c20b d93e 6011 303d 3a3e 283e 446c 31be
00000150: 2128 87bd 3b61 573d 22c6 4b3e 3d0f b73d
00000160: 6348 08bf b3aa 0cbc a1b6 52be 1521 423e
00000170: 697c 88be 4d9a 813e bdc5 423d 231d 293e
00000180: 487a ab3e f7b9 0cbe 602d 92bc 7640 b1bd
00000190: 70cf 003e 1789 9dbe a493 92be e642 bdbe
000001a0: 5f4f 6d3d 1242 de3d 0154 acbe 7bc3 cc3e
000001b0: 5c8b 3338 eea5 5a3e aaed 44be 0eb7 0c3f
000001c0: a13e e33e 7323 20be a4f6 80be 0795 803d
000001d0: 0750 2d3e 4ce5 b2be 1060 f3be b5a6 803d
000001e0: d943 463e 4a85 da3d b912 263f 802e db3d
000001f0: 2dd2 46bc 20ed f43e 1455 61be 9ad9 663e
00000200: 7c78 2dbe 6e9d 50be 2900 8dbd ecd3 503d
00000210: abb4 9fbd dfaf e7be 45a6 debd 359d dabe
00000220: d67a 93bd 4803 35be 312b e33e b9b4 4fbe
00000230: abd0 3abe 7ec2 983e c279 c33e 2dcd bd3e
00000240: 2213 bbbe d0f8 f5bc 3bd2 1abe c887 f0bc
00000250: d513 b2bd a390 213f 61e8 903e 2f46 e8bd
00000260: ce61 353e d934 2bbe 49b0 ddbd 3c63 efbe
00000270: c0bf 063e 90e7 b4bd 10f2 debd 0fd9 a9bd
00000280: 8979 c13d 7c84 c5bd 5e81 a3be df6e 0cbd
00000290: 4bf7 56be ca4f 95be c539 423e 0d62 5e3e
000002a0: 3b19 5cbd 317e 4f3e a0b9 e7bd 83e7 e2bd
000002b0: 2f6c fd3e 780c 7bbd a322 8cbe 9071 873e
000002c0: 31c2 b83e ede6 e6bc e376 033e 291f 103f
000002d0: 892b d9bd a3b8 afbe ea2e 5ebd 1d21 023d
000002e0: 0c6a ffbd 725c 2bbe 86a1 2ebe 556e 08be
000002f0: 134e 913e bbfc fdbd 0518 02bf 503c 183f
00000300: cbd3 1c3e 97a0 febe ab25 babd 6801 683e
00000310: 0b9e 35be 64c0 21be 827b 54be 7325 a1be
00000320: 8092 083e aa38 00be 896a 1d3e 9fb0 7abe
00000330: 712e c3bd 58a5 ab3e 12c4 fcbd 6753 fb3e
00000340: c999 d6be 702f d4bd b896 29bf 1639 52be
00000350: b333 aa3d 85e8 c5bc bcf2 11be 61c5 c1bc
00000360: 7cb3 76bd 5965 7e3e 4242 693d 831d ef3e
00000370: 6b38 81bc f162 44be 5ec5 11be 2b84 bb3e
00000380: 5210 fabd 49c3 2a3e 88a3 bd3e 4daf 98bd
00000390: 2463 f2be b326 8c3e 2361 c9be aa72 96bc
000003a0: f485 d93e cb7f e43c bd57 ba3e 8f4d 4ebe
000003b0: 254e d63e 57f6 0e3e c42b a63e 74f6 91be
000003c0: c744 9ebe 6c04 38be b032 ebbd 2229 9a3d
000003d0: 1b2b e1be 75f9 a33e 2726 933e 7460 643e
000003e0: 0630 473d 6ad6 af3d ec5e 9ebe ef21 0bbf
000003f0: e8e8 7dbe 042e a5be e36e 28be 4f1b 903e
-0.16496275 -0.06814052 -0.5677514 -0.080972865 -0.08361482 -0.3284892 0.19296284 -0.20326582
-0.16555409 -0.24896811 -0.28884318 0.2509181 -0.3204351 0.22336885 0.21861252 0.30076155
0.16994315 -0.23836815 -0.35793293 -0.14048266 -0.08214383 0.36458328 0.15529732 -0.037598543
-0.26897892 0.06814394 0.34535155 0.3343654 -0.5445329 -0.37440637 0.09354045 -0.14734665
-0.4544467 -0.20605901 -0.16579323 -0.121829495 -0.011213575 -0.027593724 0.011663782 -0.15891194
0.35361353 0.2038261 0.2428904 -0.19292182 0.06471595 -0.088384055 -0.40241933 0.38570207
-0.013858587 0.0028002437 0.46713826 -0.2158127 0.24685329 -0.3702785 0.07304078 -0.34088683
-0.28688374 -0.16519515 -0.30077848 -0.13887338 -0.45632035 -0.047606565 -0.3804257 -0.2930037
-0.24139039 0.16478463 0.37779298 0.4574338 0.20782654 -0.013805695 0.019018067 0.31287485
-0.2728604 -0.28267646 0.3461658 -0.044970937 0.3437545 -0.10444177 0.5642361 0.20727493
0.42391783 0.04298532 0.16429988 -0.17326456 -0.06599451 0.05258296 0.198998 0.08938453
-0.53235453 -0.00858562 -0.2057748 0.18957932 -0.26657417 0.25313035 0.04755186 0.16515021
0.3349173 -0.13742815 -0.017843902 -0.08654873 0.12579131 -0.30768654 -0.28628266 -0.36965102
0.057937022 0.10852446 -0.3365784 0.3999289 4.2806714e-05 0.2135236 -0.19231287 0.5496682
0.4438372 -0.15638523 -0.25188172 0.06278425 0.1692506 -0.34940565 -0.47534227 0.06281797
0.1936182 0.10669954 0.6487232 0.107022285 -0.012135071 0.47837162 -0.22005111 0.22543946
-0.16940492 -0.20372555 -0.06884796 0.050983354 -0.077981316 -0.45251366 -0.10871557 -0.42698064
-0.072011635 -0.17677033 0.4436889 -0.20283784 -0.18243663 0.29835886 0.3817883 0.370706
-0.36538035 -0.03002587 -0.15119259 -0.02936162 -0.08695189 0.63111323 0.2830229 -0.113415115
0.17713091 -0.16719379 -0.10824639 -0.46755397 0.13159084 -0.088332295 -0.108860135 -0.08293354
0.09447009 -0.0964441 -0.31934637 -0.034285422 -0.20992772 -0.29162437 0.1896735 0.21717091
-0.053735 0.20262982 -0.11314702 -0.110793136 0.494966 -0.061291188 -0.27370176 0.2645383
0.36085656 -0.028186286 0.1283832 0.56297547 -0.10604007 -0.34320554 -0.05424396 0.03176986
-0.12471399 -0.16734484 -0.17053804 -0.13323338 0.28379878 -0.1240172 -0.508179 0.5946703
0.15315168 -0.49731895 -0.09089216 0.22656786 -0.1773607 -0.15796047 -0.2075024 -0.31473884
0.13337135 -0.12521616 0.15372671 -0.24481438 -0.09530342 0.33524585 -0.12342085 0.49087068
-0.41914204 -0.103606105 -0.66245604 -0.20529589 0.08310642 -0.024158726 -0.14252752 -0.023653688
-0.060229763 0.24843349 0.056947954 0.46702203 -0.015773972 -0.19178368 -0.14235446 0.36624274
-0.12210144 0.16676058 0.37038827 -0.07455311 -0.47341263 0.27373275 -0.39331922 -0.018365223
0.4248501 0.027892968 0.36395064 -0.20146774 0.41856495 0.13961159 0.32455266 -0.2850834
-0.30911848 -0.17970437 -0.11484277 0.07527377 -0.439782 0.32026258 0.28740045 0.22302419
0.048629783 0.08585818 -0.30931795 -0.54348654 -0.24795878 -0.3226167 -0.1644855 0.28145835

nee_decoder.1.fc.bias f4 [16]
00000000: 7ac1 40bc bad3 e9bb 04e8 b3bb 6777 7cbd
00000010: 368c 393c a9da 4dbe 1069 5dbd 9dc5 55bd
00000020: 2021 68bd f21d 2d3d 4432 943c 9d54 a3bd
00000030: b00d d3bc cb57 593c 126c 1f3e e5b8 4c3c
-0.011764878 -0.0071358355 -0.005490305 -0.06163731 0.011324933 -0.20102943 -0.054055274 -0.05219041
-0.056672215 0.042264886 0.018090375 -0.07975123 -0.025763363 0.01326556 0.1556857 0.012495254

nee_decoder.1.norm.weight f4 [16]
00000000: 9f89 893f 1418 903f e8ef b33f b25d 843f
00000010: f83b 823f 8002 c53f b0dc c83f adab b03f
00000020: 1664 9c3f e5dc 623f 53d1 8d3f 52ea 843f
00000030: 8912 a73f 5adb 413f 7d0e 9f3f ad88 683f
1.0745124 1.1257348 1.4057589 1.0341094 1.0174551 1.5391388 1.5692348 1.3802391
1.2218044 0.8861831 1.1079506 1.0384009 1.3052531 0.7572533 1.2426296 0.9083355

nee_decoder.1.norm.bias f4 [16]
00000000: 72e6 0c3e 5584 693e 0dff 343e 6d13 b6bc
00000010: 2c61 c1bd 9baa b83d 47c1 1cbc 6a92 0ebc
00000020: 075d 283e a9b5 6bbb 4210 d63d 167b 933d
00000030: 9b3e 4c3d 449b 87ba a109 dc3c 0f13 0ebe
0.13759783 0.22804387 0.17675419 -0.02222606 -0.09442362 0.090169154 -0.009567565 -0.0087019
0.16441737 -0.0035966432 0.1045232 0.07201211 0.049864393 -0.0010345955 0.02686006 -0.13874458

nee_decoder.1.norm.running_mean f4 [16]
00000000: d584 f7bf 91c2 40bf f0b4 053f c71c 6cbe
00000010: 6ca7 0f40 f1f6 c2bf 91a2 8cc0 ffc6 75c0
00000020: fd36 74bf 0ab3 7040 f930 1e3f 70a5 813f
00000030: 132a 01c0 748a efbf f749 4d3f 7371 8e40
-1.9337412 -0.75296885 0.52229214 -0.23057853 2.2445936 -1.523161 -4.3948445 -3.8402708
-0.95396405 3.7609277 0.61793476 1.0128613 -2.018193 -1.8714128 0.80190986 4.451349

nee_decoder.1.norm.running_var f4 [16]
00000000: b064 153f 3d0b a63f 35c7 a93e 82eb 9c3f
00000010: 8c27 3940 319a 313f 462f 6640 08ff c040
00000020: 7b30 863f 6931 a240 06cf 703f 970d a33f
00000030: 1b32 633f cd97 b93f d3ef 213f 734c aa40
0.5835676 1.297218 0.33159795 1.2259371 2.8930387 0.693759 3.5966353 6.0311317
1.0483545 5.0685315 0.9406589 1.2738522 0.8874833 1.4499451 0.6325657 5.321832

nee_decoder.2.weight f4 [1, 16]
00000000: 0651 5fbe f6fc 263e 18e7 c9bc ae59 6a3e
00000010: 7eac 8cbd 965c 8d3d bace 1e3e b43e 173e
00000020: 698f 52be 3c98 9bbe 077b 0fbd 9422 89be
00000030: 9f45 63bc 8eb5 afbe 5705 4c3e f4a4 783b
-0.21808252 0.16307434 -0.024646327 0.22885773 -0.06868838 0.06902425 0.15508547 0.14770013
-0.20562519 -0.30389583 -0.035029437 -0.26784194 -0.013871579 -0.34318203 0.19923912 0.0037940117
