climate/PERNN_best/best_model.pth (torch, 62626 bytes, 83 tensors)

encoder.0.fc.weight f4 [16, 16]
-0.80881596 -0.39196903 -0.11096901 -0.4833523 -0.63349354 -1.2448906 0.096349195 -0.53032005
-2.3349168 1.4528308 -2.4843705 -0.12113505 -0.13548951 2.1417766 3.9359848 -0.43790352
0.26904768 -1.2936469 0.2650935 0.19440512 0.48292238 0.049420495 0.02575146 -0.8356725
0.80264145 0.7149399 -3.023487 -0.65414256 0.15205538 -1.0239054 0.3602809 -0.3082942
-1.5934505 0.82761055 -0.7968613 -1.9148026 -0.8119431 -0.36518964 0.03788437 0.65441734
0.14765315 -0.6243121 0.06485287 1.5000741 0.65618974 -1.1813104 0.47192287 0.03188318
1.8565829 -0.38478425 -0.08721615 -0.4289451 -0.8560454 -1.4162669 -0.018884605 0.8048451
-2.1792295 0.8545672 0.5162108 -0.6635421 -0.45776662 -0.76571393 -0.33198708 -0.9097039
-1.5566304 -0.7589001 -0.7860002 0.91275185 -1.3216377 -0.96948916 -0.23196736 0.068962224
0.3266378 0.07323779 1.2473657 0.14918353 0.19695672 -2.7750807 -1.8717781 -0.56373096
-0.03838543 -0.36212775 -0.1474448 0.18872403 0.122517265 -0.3171802 -0.44615653 0.5048937
0.8810655 0.28716108 -5.327379 -0.24751897 -0.31015974 0.030087724 -1.820353 -0.9500402
-1.4173063 -0.14648166 0.36939254 0.48220664 0.034621313 -2.6392999 -0.01750689 -0.45308042
2.7991753 2.2204335 -1.2873186 -0.3890544 0.47567755 -1.7556065 -2.400156 0.31080347
-0.123806685 1.8678854 0.21261078 -0.48315167 0.7468896 0.67930716 0.17873786 0.4353346
-1.3899034 -0.36016455 0.5034533 0.28628433 -0.94108456 -1.8690903 -1.8882422 0.26352262
-1.9510434 -0.7806926 0.07756496 -0.22852845 -0.18735512 -1.1597936 -1.8954332 -0.15523538
2.9315622 0.90362245 1.2804246 0.31318948 0.46055657 -0.17722313 0.24722786 -0.20243223
0.1287158 -0.670515 -1.0821811 0.27317324 0.080965854 1.1177044 0.18370023 0.826819
-2.6616905 -2.1053858 0.23378472 -1.1225362 0.3204129 0.42119005 -0.12777114 -0.6372682
-0.31502348 -0.539038 0.10814301 -3.0307212 -0.9243057 -1.669041 1.389251 -0.3166165
0.9705327 1.928537 0.72715753 0.59111965 0.11503421 -0.41278234 -0.5746444 -0.015735855
-0.91308224 1.2904431 0.6257278 0.27966124 1.7264266 1.4210083 0.34399822 0.39334264
-0.6956851 -0.042779636 -1.6024072 -1.363382 0.039857384 2.688927 1.0102289 -0.012441412
0.33182365 0.04269756 0.18860276 0.20422387 -0.42621046 -0.9397833 -0.26311776 0.41137215
0.24613328 0.81395006 3.6260667 -0.5713789 -0.564836 -2.1547399 -3.834974 -0.6499206
0.71325564 0.64889014 0.43715253 0.32026085 -0.8642335 -0.43374866 -0.0012362383 0.64509916
-1.5813581 -0.49387398 -1.7216113 0.43989807 1.3185881 -0.31358936 -2.6191223 -0.14275287
-1.2731905 0.2306649 -0.10470548 0.5929645 -0.7600064 -1.4072945 1.7043526 0.33484042
-0.15637821 1.0756656 -1.5321635 -0.3204949 -0.35323793 -2.5373964 0.51088625 -0.28456607
1.7192549 -0.8662594 -0.9821939 0.320694 0.12669702 -0.83461386 -0.0760816 -0.17470323
-0.5839968 1.787024 -0.394715 -0.017514948 0.25721034 -0.3148081 -0.118493706 -0.9342842
00000000: 900e 4fbf 2ab0 c8be b843 e3bd f479 f7be
00000010: a22c 22bf 9358 9fbf ba52 c53d 0ec3 07bf
00000020: 476f 15c0 5cf6 b93f edff 1ec0 a715 f8bd
00000030: c3bd 0abe de12 0940 2de7 7b40 e434 e0be
00000040: 9ec0 893e 3996 a5bf 56ba 873e 2312 473e
00000050: 9a41 f73e 256d 4a3d baf4 d23c a2ee 55bf
00000060: e979 4d3f 4d06 373f d080 41c0 e375 27bf
00000070: 68b4 1b3e 550f 83bf bd76 b83e bdd8 9dbe
00000080: 30f6 cbbf 49de 533f 1aff 4bbf 4018 f5bf
00000090: 81db 4fbf 23fa babe a42c 1b3d e587 273f
000000a0: 6332 173e ebd2 1fbf 95d1 843d 6e02 c03f
000000b0: 0dfc 273f 2e35 97bf e09f f13e f097 023d
000000c0: 82a4 ed3f 7102 c5be 619e b2bd b19e dbbe
000000d0: cb25 5bbf 3c48 b5bf e3b3 9abc 540a 4e3f
000000e0: 7f78 0bc0 ebc4 5a3f 6426 043f e5dd 29bf
000000f0: 6360 eabe d405 44bf 36fa a9be 5be2 68bf
00000100: aa3f c7bf 4747 42bf 4f37 49bf 1baa 693f
00000110: 6d2b a9bf 7130 78bf da88 6dbe 113c 8d3d
00000120: 123d a73e b2fd 953d aea9 9f3f 91c3 183e
00000130: 06af 493e ec9a 31c0 6d96 efbf ac50 10bf
00000140: 0a3a 1dbd cf68 b9be c5fb 16be df40 413e
00000150: 55ea fa3d 7165 a2be a16e e4be b740 013f
00000160: 828d 613f c706 933e e479 aac0 9d75 7dbe
00000170: 42cd 9ebe 887a f63c 5401 e9bf d635 73bf
00000180: 4b6a b5bf 4aff 15be 0521 bd3e cae3 f63e
00000190: 14cf 0d3d 4aea 28c0 9c6a 8fbc 28fa e7be
000001a0: b025 3340 951b 0e40 dbc6 a4bf 2332 c7be
000001b0: 028c f33e b7b7 e0bf 289c 19c0 a221 9f3e
000001c0: 5c8e fdbd de16 ef3f a4b6 593e a85f f7be
000001d0: 2834 3f3f 13e7 2d3f 0f07 373e 2de4 de3e
000001e0: 5be8 b1bf 7d67 b8be 51e2 003f dc93 923e
000001f0: ebea 70bf 5a3e efbf ecb1 f1bf 70ec 863e
00000200: cabb f9bf 78db 47bf 61da 9e3d 5d03 6abe
00000210: 05da 3fbe 1e74 94bf 8e9d f2bf 06f6 1ebe
00000220: b79e 3b40 cd53 673f f4e4 a33f 5f5a a03e
00000230: 12ce eb3e fb79 35be 4d29 7d3e 654a 4fbe
00000240: 13ce 033e dfa6 2bbf e984 8abf 5ddd 8b3e
00000250: 6dd1 a53d f010 8f3f ea1b 3c3e 69aa 533f
00000260: 2359 2ac0 a4be 06c0 4365 6f3e 44af 8fbf
00000270: 290d a43e 39a6 d73e 70d6 02be 0224 23bf
00000280: c24a a1be 65fe 09bf 157a dd3d 56f7 41c0
00000290: 4c9f 6cbf 23a3 d5bf fad2 b13f 8f1b a2be
000002a0: d574 783f 4dda f63f ff26 3a3f 9e53 173f
000002b0: 0e97 eb3d 3558 d3be e51b 13bf 7be8 80bc
000002c0: c2bf 69bf 3d2d a53f b22f 203f c22f 8f3e
000002d0: 8cfb dc3f 9ae3 b53f 8920 b03e 3564 c93e
000002e0: 6b18 32bf b339 2fbd ae1b cdbf 4d83 aebf
000002f0: 7f41 233d 6117 2c40 2e4f 813f 10d7 4bbc
00000300: cae4 a93e a3e3 2e3d 1521 413e 1020 513e
00000310: 4238 dabe a395 70bf 5fb7 86be 5f9f d23e
00000320: 5d0a 7c3e 085f 503f 7a11 6840 e345 12bf
00000330: 1899 10bf 42e7 09c0 3770 75c0 3261 26bf
00000340: ec97 363f aa1d 263f 75d2 df3e 3bf9 a33e
00000350: 683e 5dbf 4e14 debe 4609 a2ba 3825 253f
00000360: f169 cabf 0ddd fcbe c25d dcbf 523a e13e
00000370: 7fc7 a83f c98e a0be b39f 27c0 cf2d 12be
00000380: e8f7 a2bf 6b33 6c3e d46f d6bd 85cc 173f
00000390: c88f 42bf 3a22 b4bf 3a28 da3f 3470 ab3e
000003a0: 9c21 20be 69af 893f ef1d c4bf e817 a4be
000003b0: 9adb b4be b464 22c0 71c9 023f a5b2 91be
000003c0: 8b10 dc3f 2dc3 5dbf 0f71 7bbf 0132 a43e
000003d0: ddbc 013e 41a9 55bf abd0 9bbd 67e5 32be
000003e0: d080 15bf 34bd e43f 1618 cabe 827b 8fbc
000003f0: 13b1 833e 872e a1be d4ac f2bd 402d 6fbf

encoder.0.fc.bias f4 [16]
-1.5145537 -0.6760769 -1.5820861 0.42504114 -1.1477828 -0.38438758 -1.5258665 0.577993
0.34384298 -0.19216527 0.84395224 -0.9196489 0.61314124 0.18373917 0.5669379 -1.1226902
00000000: e5dc c1bf 6013 2dbf cc81 cabf fe9e d93e
00000010: 8cea 92bf 73ce c4be 984f c3bf 59f7 133f
00000020: 300c b03e f9c6 44be 410d 583f 1c6e 6bbf
00000030: d3f6 1c3f 1f26 3c3e d822 113f 50b4 8fbf

encoder.0.norm.weight f4 [16]
0.5076983 1.1339825 0.88929695 1.2237918 0.8216264 1.2535418 1.6374874 0.67069
0.5884045 0.7378901 1.2140046 1.1887233 0.8679903 0.7985407 0.73019683 1.4138399
00000000: 84f8 013f 5726 913f f7a8 633f 36a5 9c3f
00000010: 1c56 523f 0f74 a03f 3099 d13f 57b2 2b3f
00000020: ada1 163f 5ee6 3c3f 8164 9b3f 1628 983f
00000030: 9d34 5e3f 2a6d 4c3f 2eee 3a3f b5f8 b43f

encoder.0.norm.bias f4 [16]
-0.14157204 -0.3377593 -1.2565101 -0.5789934 -1.5423663 -1.1198786 -0.619839 -0.8744878
-0.0073484587 -0.0683895 0.054776657 -0.5828089 -1.3057462 -0.9661551 -0.18326764 -1.6097193
00000000: 43f8 10be c9ee acbe 53d5 a0bf e938 14bf
00000010: 426c c5bf 2f58 8fbf c5ad 1ebf 6fde 5fbf
00000020: 57cb f0bb cb0f 8cbd 7d5d 603d f732 15bf
00000030: b122 a7bf f155 77bf 83aa 3bbe 480b cebf

encoder.0.norm.running_mean f4 [16]
2.5408316 0.4027479 -0.8054544 0.623784 -2.039282 -2.9696116 0.23145552 1.7514015
-0.8957038 -0.07161049 -0.17684163 0.38986748 -1.6681521 0.24299876 -1.0186288 -3.1728146
00000000: fc9c 2240 f934 ce3e 4232 4ebf 4fb0 1f3f
00000010: 9983 02c0 1e0e 3ec0 ad02 6d3e ed2d e03f
00000020: d84c 65bf 85a8 92bd f915 35be b69c c73e
00000030: 0286 d5bf abd4 783e 6e62 82bf 650f 4bc0

encoder.0.norm.running_var f4 [16]
22.380404 4.6320195 5.248852 2.8013375 8.137443 7.8375335 7.575939 7.220149
6.0123696 3.3540983 7.1033916 6.2127075 13.001832 4.6571984 5.191909 2.2480357
00000000: 110b b341 8139 9440 98f6 a740 1d49 3340
00000010: f732 0241 13cd fa40 186e f240 760b e740
00000020: 5565 c040 8ca9 5640 fc4e e340 80ce c640
00000030: 8107 5041 c507 9540 1e24 a640 d1df 0f40

encoder.1.fc.weight f4 [16, 16]
1.4089595 -0.8647046 -0.15836427 -0.93750453 0.6275393 -2.4041958 -1.56939 -0.383022
-0.34660822 -1.193793 -2.0804763 -3.7672215 0.10584508 -0.8807418 -1.3533106 0.23761605
-0.77337307 -0.92368394 0.5865483 -0.6037244 -0.093135744 -0.23136294 -1.6702136 -0.75654566
1.1593938 -1.3123009 -0.61829245 -0.34583053 -0.75702155 -1.6082135 1.0455984 -0.21040344
2.3659697 1.1112127 -0.5253653 0.6965735 0.52373725 -0.14482252 -1.6454167 1.42199
-1.8636873 -1.351826 -0.9344046 0.0041084304 0.18272904 0.47261742 1.7531688 0.15690134
-1.0743753 -0.40408367 -0.8964942 0.56128675 -0.7520777 -1.6306828 -1.3809719 -1.4670923
-1.1488321 0.33071238 -0.739218 -1.0767336 -0.35046902 -1.3038502 -0.8606155 -0.38419703
-0.74902505 0.16346705 -0.54200876 -0.28255126 0.08390791 -0.63256466 -1.4946522 -0.23104714
0.72304815 -0.8388801 -1.0378938 -0.33123532 0.17964569 -0.10177033 -1.35572955e-05 -0.56703174
-0.4642026 -1.4715493 -1.5101697 0.1369558 0.4078602 0.51203555 -1.5644876 -0.85414606
-0.5986955 -0.6339951 0.90015674 -0.99316263 1.384279 0.082510084 0.78732896 -1.8791878
-0.1393491 -1.033174 -0.16637409 -0.57525915 -0.22860387 -0.036205586 -0.6066776 -0.72443265
-1.2493168 -1.1130401 -1.4767901 -1.0558474 -0.2234424 -0.76027185 -0.85169876 -0.29937574
-2.3878675 -0.035956983 -0.11502984 0.31159192 0.24858999 -0.71962535 -1.1426481 -0.2669854
-1.0635622 -0.8687212 -0.4548354 -0.43215215 0.16056998 -0.6285594 -1.3848544 -0.87372524
-1.4967971 -1.5357033 -0.18321797 -0.4485584 -0.35296944 -0.71352506 0.65463394 0.36333025
-0.40838453 -1.7102814 -2.321091 -0.32061768 -0.14868984 -1.6648641 -3.3560178 -0.055693593
-2.146646 -0.19921891 -0.025905766 0.22168416 -0.77309394 0.12860914 -0.6351814 0.014315927
0.07713649 0.3178578 -0.12949221 -0.08822079 -1.1043831 0.17467871 0.84926 -0.17402548
-0.38347197 0.22892368 1.0166705 -0.48151693 -0.04671985 -0.60776556 -0.8771041 -0.9473302
0.79228586 0.95773447 -1.9084842 -0.09590233 -0.3415933 -0.8630368 -1.3953152 -0.48173505
-0.6076414 -1.8213432 0.41192436 0.5967467 -0.79584986 -0.5528506 -0.5814881 0.52039367
2.021219 -0.10091299 0.20137164 -0.73499453 -1.1809767 -1.5718338 0.9317806 -1.3044779
-0.91683114 0.5234505 -0.2072951 1.435511 -1.2754154 -1.6690422 -1.192884 0.17847542
0.38448456 0.012293642 -1.2724004 -0.628761 -0.15531543 0.28334936 0.18950827 0.2597519
-0.7035582 -0.14981766 -0.6013268 -0.25936463 -0.6718262 -0.09963387 -0.3089319 -0.24859555
-0.0037994152 -0.6613329 -1.3471088 -0.5700021 -0.02595599 -0.8318273 -0.86881524 -0.9052666
-1.2177875 -0.4139546 -0.18690987 0.395393 -1.2806741 -0.95158446 0.10885883 0.04512912
0.29632887 -0.5029218 -1.3817065 -0.72282434 0.22674397 0.36286882 0.5117034 -0.8309098
0.50693214 1.5728279 -0.43929514 -0.28802973 0.042361803 -0.68194103 -1.11967 1.4511242
-0.87519085 -0.78973836 -1.8324957 -0.080147736 0.3382151 -1.3776183 0.42918184 0.10678864
00000000: c958 b43f 485d 5dbf 3e2a 22be 4c00 70bf
00000010: 6aa6 203f 58de 19c0 c6e1 c8bf 761b c4be
00000020: a276 b1be 36ce 98bf 8626 05c0 281a 71c0
00000030: 4ec5 d83d 4b78 61bf 4839 adbf 9f51 733e
00000040: c7fb 45bf 8d76 6cbf 0828 163f af8d 1abf
00000050: f4bd bebd 68ea 6cbe 8fc9 d5bf faac 41bf
00000060: 0467 943f 7af9 a7bf 6a48 1ebf b310 b1be
00000070: 2acc 41bf f1d9 cdbf 2bd6 853f 0074 57be
00000080: 0c6c 1740 383c 8e3f 577e 06bf a452 323f
00000090: a513 063f 5b4c 14be 049d d2bf c503 b63f
000000a0: 4e8d eebf a208 adbf 2435 6fbf 03a0 863b
000000b0: 521d 3b3e e9fa f13e d667 e03f bfaa 203e
000000c0: 2185 89bf 0ee4 cebe a580 65bf 7db0 0f3f
000000d0: 2a88 40bf 37ba d0bf b0c3 b0bf aec9 bbbf
000000e0: ee0c 93bf 2253 a93e 643d 3dbf 68d2 89bf
000000f0: ad70 b3be 90e4 a6bf 4c51 5cbf 79b5 c4be
00000100: 1bc0 3fbf e863 273e 16c1 0abf 8faa 90be
00000110: e9d7 ab3d c2ef 21bf c350 bfbf 9f97 6cbe
00000120: af19 393f d9c0 56bf b4d9 84bf ad97 a9be
00000130: 0af5 373e f66c d0bd 2474 63b7 fe28 11bf
00000140: f7ab edbe ba5b bcbf 3e4d c1bf 243e 0c3e
00000150: 0dd3 d03e c314 033f 2141 c8bf 51a9 5abf
00000160: 1c44 19bf 814d 22bf ac70 663f e83f 7ebf
00000170: 0e30 b13f 0cfb a83d 648e 493f 3a89 f0bf
00000180: 88b1 0ebe 0c3f 84bf f85d 2abe 2f44 13bf
00000190: 2217 6abe 4f4c 14bd 394f 1bbf 6b74 39bf
000001a0: 9de9 9fbf 1978 8ebf 7507 bdbf 0226 87bf
000001b0: 16ce 64be 2da1 42bf ee08 5abf c747 99be
000001c0: d2d2 18c0 a147 13bd c494 ebbd fa88 9f3e
000001d0: 608e 7e3e 5e39 38bf 4b42 92bf 4fb2 88be
000001e0: ce22 88bf 8364 5ebf 30e0 e8be 0c43 ddbe
000001f0: 756c 243e 45e9 20bf e942 b1bf 75ac 5fbf
00000200: 0c97 bfbf ed91 c4bf 7e9d 3bbe 72a9 e5be
00000210: 69b8 b4be 94a9 36bf 1796 273f 6c06 ba3e
00000220: c717 d1be 80ea dabf c18c 14c0 0028 a4be
00000230: 2642 18be 441a d5bf ffc8 56c0 f71e 64bd
00000240: a662 09c0 0b00 4cbe 5438 d4bc 2c01 633e
00000250: 7ce9 45bf 1db2 033e 409b 22bf 5a8d 6a3c
00000260: bcf9 9d3d 42be a23e 9b99 04be 1aad b4bd
00000270: 6d5c 8dbf fade 323e 1a69 593f bc33 32be
00000280: 7056 c4be f86a 6a3e 4222 823f 6389 f6be
00000290: 505d 3fbd 8696 1bbf e589 60bf 3b84 72bf
000002a0: 3fd3 4a3f 162e 753f 3649 f4bf 7168 c4bd
000002b0: 51e5 aebe fbef 5cbf b099 b2bf faa5 f6be
000002c0: 638e 1bbf c621 e9bf c0e7 d23e 64c4 183f
000002d0: d1bc 4bbf 9e87 0dbf 67dc 14bf 8538 053f
000002e0: a75b 0140 78ab cebd 5e34 4e3e 9a28 3cbf
000002f0: 3f2a 97bf da31 c9bf 2c89 6e3f 22f9 a6bf
00000300: 72b5 6abf da00 063f 2b45 54be d3be b73f
00000310: d040 a3bf 2da3 d5bf 6cb0 98bf 43c2 363e
00000320: 29db c43e 466b 493c 04de a2bf 7bf6 20bf
00000330: 020b 1fbe 2b13 913e 750e 423e 33fe 843e
00000340: 641c 34bf cd69 19be 8ef0 19bf 71cb 84be
00000350: cdfc 2bbf d80c ccbd 522c 9ebe d58f 7ebe
00000360: 9cff 78bb 1d4d 29bf 106e acbf a8eb 11bf
00000370: a8a1 d4bc a2f2 54bf ad6a 5ebf 8dbf 67bf
00000380: 76e0 9bbf dbf1 d3be 4d65 3fbe f470 ca3e
00000390: 21ed a3bf 0a9b 73bf 61f1 de3d 50d9 383d
000003a0: 6bb8 973e 7cbf 00bf c2db b0bf 040b 39bf
000003b0: 922f 683e f1c9 b93e fefe 023f 81b6 54bf
000003c0: 4ec6 013f 6d52 c93f 4beb e0be a278 93be
000003d0: 9283 2d3d b093 2ebf 5951 8fbf 70be b93f
000003e0: 820c 60bf 4b2c 4abf 388f eabf 7f24 a4bd
000003f0: 882a ad3e cc55 b0bf b9bd db3e 01b4 da3d

encoder.1.fc.bias f4 [16]
1.5447453 -0.983437 1.9093189 -0.21114932 -0.62534785 -1.3005414 0.051543284 0.8929493
-0.031023035 -1.2606316 -1.5970507 0.51570094 -2.3117075 -0.26832783 -0.16287267 2.6175814
00000000: 37ba c53f 87c2 7bbf 9064 f43f 8737 58be
00000010: cc16 20bf 2478 a6bf 0d1f 533d 5398 643f
00000020: 0524 febc 605c a1bf 286c ccbf fa04 043f
00000030: 04f3 13c0 4462 89be 18c8 26be 7486 2740

encoder.1.norm.weight f4 [16]
1.4138321 1.7800316 2.454273 1.8882487 0.902313 1.4676962 1.5142891 1.1449965
1.713466 0.76937586 1.514982 1.8966339 1.4165746 0.5413821 1.0483261 1.4114149
00000000: 73f8 b43f 13d8 e33f cf12 1d40 22b2 f13f
00000010: fcfd 663f 78dd bb3f 3ad4 c13f 3f8f 923f
00000020: db52 db3f d1f5 443f eeea c13f e6c4 f23f
00000030: 5152 b53f 0498 0a3f 8d2f 863f 3ea9 b43f

encoder.1.norm.bias f4 [16]
0.22426695 -0.28095877 -0.72106093 -0.4901549 -0.99954796 -0.8575116 -0.5186163 -0.6881248
-0.15385039 -1.3393537 -0.79159015 -0.077789366 -1.2442571 -1.2741005 -1.2311277 -1.5219947
00000000: 3ca6 653e d4d9 8fbe 7397 38bf 95f5 fabe
00000010: 60e2 7fbf e185 5bbf 0ac4 04bf f228 30bf
00000020: f58a 1dbe f16f abbf a7a5 4abf 0850 9fbd
00000030: d143 9fbf ba15 a3bf 9895 9dbf b9d0 c2bf

encoder.1.norm.running_mean f4 [16]
0.27750438 -0.13659392 3.029998 -2.3410482 0.49303696 -3.8587708 -1.4210606 -3.1795058
-1.9619391 0.9511415 -1.8432181 -2.6426647 -2.8105686 -1.573644 -0.9308646 2.8628933
00000000: 0e15 8e3e 47df 0bbe 7deb 4140 bcd3 15c0
00000010: 576f fc3e 1af6 76c0 50e5 b5bf 067d 4bc0
00000020: d220 fbbf 027e 733f 92ee ebbf 6b21 29c0
00000030: 5be0 33c0 2b6d c9bf 244d 6ebf a539 3740

encoder.1.norm.running_var f4 [16]
13.8106365 6.1610274 10.643798 14.624787 5.8089547 7.120773 9.292533 22.072304
7.9120045 4.6118755 3.0715451 5.815077 8.657277 3.0501845 3.2527177 8.175356
00000000: 5ef8 5c41 2327 c540 ff4c 2a41 21ff 6941
00000010: f5e2 b940 5fdd e340 37ae 1441 1494 b041
00000020: 242f fd40 7c94 9340 3294 4440 1c15 ba40
00000030: 3584 0a41 3936 4340 872c 5040 42ce 0241

encoder.2.weight f4 [32, 16]
-0.009168957 0.20064962 -0.41629678 -0.32728285 -0.02587721 0.15926552 -0.10028227 -0.41130614
-0.38552025 -0.11536276 -0.41345716 -0.27713075 -0.017672766 0.32109722 0.18869776 0.1657982
-0.3411426 -0.019427717 0.3503906 -0.17404668 -0.41724557 -0.21729442 -0.08701564 -0.33213636
0.34620377 0.11802869 0.022104861 -0.21749906 -0.31273308 0.47324485 0.13280609 0.07538581
-0.40924078 0.73203796 -0.3909843 -0.5647405 0.08852438 0.27603313 0.548719 0.116698
-0.25872362 0.3181328 -0.22974421 0.46793747 0.3518331 0.57293665 -0.30136082 -0.32066318
0.6941142 0.032365628 0.08873117 -0.522454 0.40464872 -0.1765938 -0.5517836 -0.23909838
0.39952037 -0.5478145 -0.3976844 0.12015056 -0.352588 0.43547812 0.5471327 -0.09068573
-0.6537248 -0.34648398 0.5204572 0.13135314 -0.52528775 0.015511203 0.66332006 -0.013189283
-0.12595826 0.43454772 0.3583003 -0.21936208 0.31019294 -0.58136153 0.08322448 0.008733618
-0.82462764 0.23816028 0.61248404 -0.18592803 -0.6324627 -0.3387135 0.118160404 -0.015983189
0.41812998 0.0046187877 -0.13803105 -0.26274434 -0.25581446 -0.02470747 0.2473524 0.19393605
-1.287226 -0.2641603 0.61483973 -0.5417706 0.026640598 -0.17090745 0.5019799 -0.6021623
0.23187727 0.5922722 -0.37212983 -0.24309973 -0.6976352 0.26906446 0.16160637 0.35945874
2.520727 0.51915807 -1.6497859 0.9333504 0.10339683 -0.31442818 0.08215153 0.31870952
-0.53724754 0.15572992 0.7618987 0.6426296 0.36723232 -0.5326009 0.05503384 -0.27977946
-1.7051158 0.1602 0.2918653 0.024089223 -0.11736157 0.3326683 -0.049567603 -0.13522348
0.1242711 0.103019014 -0.102365926 -0.98597956 -0.7404866 -0.3349944 -0.5382485 0.5121133
-2.0728257 -0.256417 1.1382289 -0.5763243 -0.21883526 0.25381488 -0.49999955 -0.31757405
0.2787036 0.022901287 -0.3916813 -0.8409206 -0.3111198 -0.14816362 -0.054164756 0.15772621
0.26263943 -0.3698841 -0.7324552 0.36230925 0.6795132 0.13536833 -0.1730582 0.6439527
-0.1954392 0.28607038 -0.16889149 -0.29147574 -0.43874702 -0.30871367 -0.17992517 -0.25946793
2.8352017 -0.34195748 -1.0828379 0.5355125 -0.4330105 -0.7191617 -0.79680735 -0.16073138
-0.30599973 -0.43931186 1.0252411 0.35563302 0.53749985 -0.5010657 -0.110851385 -0.63864976
-0.91633385 0.10692985 -0.045125686 -0.29435268 -0.5056646 -0.10714811 0.34745437 0.84370613
-0.2774583 0.3747942 0.3821075 -0.40388155 0.18879686 -0.4478385 -0.4226484 0.08187254
0.87863207 0.12083389 -0.4752504 -0.1991658 -0.3119792 0.29771864 -0.16877086 0.5165254
-0.68816906 -0.16342916 0.5701377 0.5325688 0.9012313 0.14931211 -0.2922314 -0.33854032
-0.3057645 -0.3216061 0.10254005 0.07914395 0.29793876 0.025591368 -0.49243224 -0.73078775
0.448539 -0.37948394 -0.491988 -0.095958225 -0.50199354 0.032679718 0.21183655 0.23059839
-2.4699242 -0.052377053 0.86405736 -0.87746507 0.37711108 0.6273773 0.5697499 -0.15840031
0.30123004 0.37692475 -1.0319926 -0.13038258 -0.5676258 0.6641915 0.22042823 0.77887136
00000000: 6539 16bc 1877 4d3e da24 d5be 9e91 a7be
00000010: 71fc d3bc 8016 233e ca60 cdbd b896 d2be
00000020: e962 c5be 5043 ecbd a8b0 d3be 15e4 8dbe
00000030: 7ac6 90bc db66 a43e fc39 413e 01c7 293e
00000040: 3eaa aebe e026 9fbc 6666 b33e 4b39 32be
00000050: 36a1 d5be 6e82 5ebe 4235 b2bd c70d aabe
00000060: 9f41 b13e 07b9 f13d 4115 b53c 13b8 5ebe
00000070: 8d1e a0be 264d f23e 52fe 073e e063 9a3d
00000080: 0288 d1be d766 3b3f 182f c8be d592 10bf
00000090: 454c b53d 3754 8d3e d978 0c3f 5cff ee3d
000000a0: 6c77 84be 4de2 a23e 1142 6bbe 8095 ef3e
000000b0: 7823 b43e faab 123f f74b 9abe f72d a4be
000000c0: 78b1 313f d291 043d b0b8 b53d 8cbf 05bf
000000d0: 1e2e cf3e 01d5 34be b141 0dbf 35d6 74be
000000e0: ef8d cc3e 923d 0cbf 4a9d cbbe 7f11 f63d
000000f0: 6a86 b4be fdf6 de3e e310 0c3f 71b9 b9bd
00000100: 825a 27bf 5966 b1be af3c 053f 7081 063e
00000110: 4279 06bf b322 7e3c 58cf 293f dd17 58bc
00000120: 34fb 00be 0a7d de3e 2373 b73e 74a0 60be
00000130: 9cd1 9e3e 1cd4 14bf 9971 aa3d 7317 0f3c
00000140: cc1a 53bf 4ae0 733e c1cb 1c3f eb63 3ebe
00000150: 13e9 21bf db6b adbe 15fe f13d 2def 82bc
00000160: 2215 d63e 3359 973b 0358 0dbe 6d86 86be
00000170: 1dfa 82be 5267 cabc f349 7d3e 2c97 463e
00000180: d2c3 a4bf 0540 87be 2366 1d3f 7ab1 0abf
00000190: 623d da3c 5d02 2fbe c181 003f 4f27 1abf
000001a0: 3c71 6d3e 279f 173f cd87 bebe 23ef 78be
000001b0: 3898 32bf d1c2 893e 247c 253e fa0a b83e
000001c0: 9753 2140 8be7 043f 2f2c d3bf 0df0 6e3f
000001d0: b8c1 d33d bbfc a0be 103f a83d e52d a33e
000001e0: 0e89 09bf aa77 1f3e cb0b 433f 6083 243f
000001f0: e005 bc3e 8858 08bf 2a6b 613d 413f 8fbe
00000200: 3c41 dabf 780b 243e 5e6f 953e c356 c53c
00000210: 435b f0bd 8053 aa3e 6607 4bbd 0678 0abe
00000220: d981 fe3d a2fb d23d 3aa5 d1bd 2869 7cbf
00000230: 8890 3dbf 6384 abbe a7ca 09bf db19 033f
00000240: 2da9 04c0 1749 83be 7cb1 913f fd89 13bf
00000250: 5a16 60be 06f4 813e f1ff ffbe 1199 a2be
00000260: 3db2 8e3e 7b9b bb3c 748a c8be 9346 57bf
00000270: 184b 9fbe 34b8 17be dddb 5dbd fb82 213e
00000280: ad78 863e 7361 bdbe 2f82 3bbf 9980 b93e
00000290: 94f4 2d3f ff9d 0a3e 2b36 31be 16da 243f
000002a0: 3721 48be d177 923e e4f1 2cbe 4f3c 95be
000002b0: 73a3 e0be b80f 9ebe 4e3e 38be fbd8 84be
000002c0: f273 3540 0d15 afbe 6f9a 8abf 5917 093f
000002d0: 8db3 ddbe fb1a 38bf 91fb 4bbf c496 24be
000002e0: ffab 9cbe 7ced e0be 1a3b 833f 8815 b63e
000002f0: 9799 093f d745 00bf 0d06 e3bd 8d7e 23bf
00000300: db94 6abf 0afe da3d b6d5 38bd 65b5 96be
00000310: 3c73 01bf 7870 dbbd 8ae5 b13e 20fd 573f
00000320: 040f 8ebe 06e5 bf3e 98a3 c33e 90c9 cebe
00000330: f753 413e 164b e5be 5f65 d8be caac a73d
00000340: 08ee 603f c277 f73d 0554 f3be 1ff2 4bbe
00000350: bdbb 9fbe 946e 983e 45d2 2cbe 023b 043f
00000360: d92b 30bf f959 27be 8bf4 113f 6e56 083f
00000370: 18b7 663f 46e5 183e 5b9f 95be 2855 adbe
00000380: 2a8d 9cbe 8ea9 a4be 8500 d23d 3916 a23d
00000390: 6e8b 983e fda4 d13c 1420 fcbe e814 3bbf
000003a0: e7a6 e53e b84b c2be dae5 fbbe bf85 c4bd
000003b0: a682 00bf 2bdb 053d aeeb 583e fc21 6c3e
000003c0: 3d13 1ec0 5289 56bd dd32 5d3f 8da1 60bf
000003d0: b414 c13e cc9b 203f 21db 113f b133 22be
000003e0: d33a 9a3e 48fc c03e 5518 84bf 0383 05be
000003f0: ed4f 11bf 7408 2a3f f0b7 613e 1d64 473f

encoder.2.bias f4 [32]
-0.5515667 -0.44612303 -0.49502847 -0.33445472 -0.7092993 -1.1068661 -1.3050013 1.3128326
-1.3929276 -1.252122 0.38507962 1.4545336 -0.71315473 1.0471835 -0.5733069 -1.3314788
0.017046163 0.95268685 0.04640044 0.26319006 1.05505 -1.257858 -1.1644261 -0.8904772
-1.4196421 -0.2842371 -0.18678087 0.52338254 0.17779113 -1.0846872 1.1751162 -0.18092057
00000000: 7a33 0dbf 3d6a e4be 5f74 fdbe a63d abbe
00000010: a494 35bf caad 8dbf 480a a7bf e60a a83f
00000020: 744b b2bf 8945 a0bf 2829 c53e 282e ba3f
00000030: 4f91 36bf 1c0a 863f 3ec4 12bf e66d aabf
00000040: 65a4 8b3c 49e3 733f 630e 3e3d d9c0 863e
00000050: e10b 873f 7e01 a1bf ea0b 95bf 50f6 63bf
00000060: d5b6 b5bf 8687 91be 7c43 3fbe 66fc 053f
00000070: e10e 363e 08d7 8abf 356a 963f 3e43 39be

residual.0.fc.weight f4 [16, 32]
-0.19118395 0.030068876 0.5661796 -0.28017247 -0.6470569 0.5708128 0.15174907 -0.27684918
-0.023830442 0.25736007 0.70490694 -0.5805616 0.066707544 0.18310031 -0.042849053 0.57890975
0.2746677 0.21383563 0.40541402 -0.69859856 0.0937842 -0.50493145 -0.041808065 -0.50969356
-0.50815535 -0.023951504 0.35283655 -0.048794176 -0.11283343 -0.24580808 0.7244926 -0.4398568
0.9370894 -0.6040072 -0.31089023 1.4385216 -0.26060414 0.08006121 -0.27080464 -0.08032577
0.19335908 -0.5730555 0.120771706 0.5367277 -0.45337254 -0.7673789 0.3330616 0.124176726
0.59464437 0.47486472 -0.14357813 -1.36986 0.3719802 0.06461464 0.19410053 -0.07443022
-0.23516233 -0.01772357 -0.86123276 0.7653541 0.312191 0.50486857 0.11400951 1.0079029
-0.02601351 0.05535622 -0.08278174 -0.6004238 0.24083202 -0.026179768 0.77993053 -0.3528465
0.93940353 0.5245226 -0.23611978 0.030882113 0.22580722 -0.19117866 0.46587884 0.39110613
-0.32068944 0.025140548 0.027949603 0.14637624 -0.11372043 0.3048338 0.79759026 0.53335947
0.25723332 -0.03739937 0.048792243 0.22081569 -0.6434698 -0.064938724 0.0016892835 -0.012674528
0.66304606 -0.28188097 0.32915708 0.5026728 -0.5254865 -0.17274635 -0.24112304 0.096605256
0.18086636 0.19932653 -0.06509852 -0.09231321 -0.23237169 -0.33105686 0.3977574 0.15221974
-0.2335896 -0.022924954 -0.2533888 -1.1172078 0.839191 0.045467164 0.48352164 -0.52290523
-0.37651703 -0.71305656 -0.6153168 0.620897 0.23226263 0.338155 0.47460744 0.11627319
-0.25897324 0.08901491 -0.40177304 0.15118942 -0.44098517 -0.0049414868 -0.0947304 0.03032665
-0.2644853 0.46573082 0.42045465 -0.005297661 -0.6043623 0.22164176 0.56177944 -0.4307913
-0.021357983 -0.25594038 -0.059815437 0.04965207 -0.122261174 0.34878466 -0.43454817 -0.4703952
-0.04692802 0.012555798 -0.038793623 0.16244772 -0.56026775 -0.6074421 -0.0641708 0.0017911455
0.32658827 -0.23661545 0.06259769 0.70797133 0.050081644 -0.050273478 -0.9165414 -0.050724708
0.031006781 0.5727812 0.4032846 0.19184035 0.1984893 0.5904446 0.08199616 -0.6530973
-0.04233295 0.08382696 0.117885284 -0.86952305 -0.05449447 0.4559959 -0.1648063 -0.14427009
0.6092841 0.022440096 -0.10074416 0.23387311 -0.54962516 0.42143375 0.7225228 0.019109452
-0.24206585 0.13459869 0.2848126 1.0175728 0.04003637 -0.11577956 -0.26417753 -0.15614872
-0.08256301 0.6132797 -0.033980653 -0.08325657 -0.31859735 0.056878015 0.22016893 -0.5448166
-0.6146899 0.036897276 0.20858611 -0.65058327 0.050025973 -0.40947834 -0.28011367 0.047894165
0.04975301 0.10019498 0.03319015 0.29891667 -0.29832345 0.09347358 -0.65711665 0.40154147
0.17817788 0.107962504 0.16728683 0.19802801 -0.69150084 -0.39971894 -0.63018703 0.1442015
0.008454963 0.752728 0.3358794 -0.18438525 -0.54467374 0.14188616 0.32093805 -1.3687278
0.12436146 0.33335117 -0.32681647 -0.09426785 -0.32987157 0.939558 -0.030776087 -0.20295402
0.15515314 -1.0273834 0.5449299 -0.22555007 -0.4931714 0.15796155 0.005846714 -0.056331262
00000000: bac5 43be 0153 f63c 25f1 103f c472 8fbe
00000010: 85a5 25bf ca20 123f 1c64 1b3e 2dbf 8dbe
00000020: 0f38 c3bc b3c4 833e c874 343f af9f 14bf
00000030: f79d 883d a67e 3b3e 7d82 2fbd 6e33 143f
00000040: 3fa1 8c3e baf7 5a3e 6d92 cf3e 5bd7 32bf
00000050: ee11 c03d 3043 01bf ef3e 2bbd 477b 02bf
00000060: 7816 02bf f235 c4bc fea6 b43e 67dc 47bd
00000070: 3715 e7bd 1db5 7bbe 5978 393f e934 e1be
00000080: 17e5 6f3f 37a0 1abf 012d 9fbe 7a21 b83f
00000090: e86d 85be 22f7 a33d e8a6 8abe d681 a4bd
000000a0: ecff 453e c4b3 12bf 2857 f73d fd66 093f
000000b0: 7220 e8be f272 44bf 0d87 aa3e 5e50 fe3d
000000c0: 9d3a 183f 7821 f33e 2506 13be 9357 afbf
000000d0: 3074 be3e ae54 843d 4ac2 463e df6e 98bd
000000e0: 65ce 70be 0531 91bc c079 5cbf 3fee 433f
000000f0: 80d7 9f3e 113f 013f d17d e93d f602 813f
00000100: 491a d5bc 34bd 623d 7989 a9bd 60b5 19bf
00000110: ab9c 763e f476 d6bc 87a9 473f 4ca8 b4be
00000120: c07c 703f 1d47 063f 62c9 71be 7cfc fc3c
00000130: 023a 673e 57c4 43be ac87 ee3e 103f c83e
00000140: 6831 a4be 8df3 cd3c 91f6 e43c a7e3 153e
00000150: 42e6 e8bd 2d13 9c3e e02e 4c3f 3f8a 083f
00000160: 16b4 833e 1530 19bd 60da 473d 821d 623e
00000170: 70ba 24bf 98fe 84bd f36a dd3a d3a8 4fbc
00000180: 63bd 293f b452 90be 4787 a83e 2aaf 003f
00000190: 4986 06bf 6be4 30be f5e8 76be fad8 c53d
000001a0: 0835 393e 411c 4c3e 5f52 85bd b50e bdbd
000001b0: d8f2 6dbe 4980 a9be dca6 cb3e 7edf 1b3e
000001c0: 1d32 6fbe 1dcd bbbc 2dbc 81be aa00 8fbf
000001d0: 39d5 563f c73b 3a3d 2690 f73e 1edd 05bf
000001e0: d7c6 c0be e08a 36bf 6785 1dbf 1bf3 1e3f
000001f0: 41d6 6d3e a722 ad3e bfff f23e a320 ee3d
00000200: 2498 84be 734d b63d 32b5 cdbe 66d1 1a3e
00000210: cfc8 e1be 32ec a1bb 0302 c2bd 986f f83c
00000220: 9e6a 87be 4574 ee3e d545 d73e 0098 adbb
00000230: 7db7 1abf 0ff6 623e c7d0 0f3f ad90 dcbe
00000240: f0f6 aebc 9e0a 83be 0801 75bd f85f 4b3d
00000250: 1164 fabd e793 b23e 197d debe a4d7 f0be
00000260: 9837 40bd d5b6 4d3c 10e6 1ebd b258 263e
00000270: b56d 0fbf 5381 1bbf fb6b 83bd dfc4 ea3a
00000280: 9436 a73e 524b 72be 3833 803d 9c3d 353f
00000290: 6922 4d3d 90eb 4dbd 75a2 6abf b6c4 4fbd
000002a0: ef01 fe3c caa1 123f 527b ce3e cc71 443e
000002b0: c740 4b3e 6127 173f 9aed a73d 6231 27bf
000002c0: 5165 2dbd 78ad ab3d d76d f13d 1099 5ebf
000002d0: 9835 5fbd 4b78 e93e fcc2 28be 8abb 13be
000002e0: 0bfa 1b3f 4bd4 b73c f452 cebd 6f7c 6f3e
000002f0: 3cb4 0cbf 2ac6 d73e 41f7 383f 6d8b 9c3c
00000300: 1ce0 77be 3dd4 093e f5d2 913e d33f 823f
00000310: 2dfd 233d d51d edbd 4742 87be 73e5 1fbe
00000320: cc16 a9bd e6ff 1c3f 4c2f 0bbd 6c82 aabd
00000330: 311f a3be ecf8 683d f773 613e 1a79 0bbf
00000340: 515c 1dbf 9921 173d 9997 553e a08c 26bf
00000350: 09e8 4c3d 25a7 d1be 0f6b 8fbe ac2c 443d
00000360: d0c9 4b3d 0733 cd3d 65f2 073d 9b0b 993e
00000370: dabd 98be 146f bf3d cc38 28bf d896 cd3e
00000380: 4374 363e 721b dd3d 3d4d 2b3e dbc7 4a3e
00000390: 3306 31bf f6a7 ccbe f053 21bf 8fa9 133e
000003a0: af86 0a3c c8b2 403f 62f8 ab3e 7dcf 3cbe
000003b0: bd6f 0bbf 9b4a 113e fe51 a43e 7932 afbf
000003c0: 39b1 fe3d 01ad aa3e 7d54 a7be 810f c1bd
000003d0: ede4 a8be e086 703f 221e fcbc 2ed3 4fbe
000003e0: 77e0 1e3e 4d81 83bf 8780 0b3f 99f6 66be
000003f0: f680 fcbe acc0 213e cb95 bf3b 9cbb 66bd

residual.0.fc.bias f4 [16]
-0.6739517 -0.47732806 -0.02419126 -0.05001765 -1.0535223 -1.4251562 -0.7512568 -1.4096934
-0.19765295 -1.0729576 -0.69758123 -0.40834555 -0.13806501 -0.7630991 -1.4887637 -2.4463637
00000000: 1988 2cbf 5864 f4be c02c c6bc 4fdf 4cbd
00000010: d2d9 86bf 856b b6bf 5e52 40bf d570 b4bf
00000020: 8965 4abe ad56 89bf af94 32bf ab12 d1be
00000030: ea60 0dbe 765a 43bf cf8f bebf 3991 1cc0

residual.0.norm.weight f4 [16]
0.8653184 0.62493956 0.64304894 0.16222002 -0.030765124 0.1720916 0.17420313 0.31624308
0.45372736 0.08908488 0.391943 1.0954376 0.0042477082 0.29312837 0.13281481 0.5651508
00000000: 8285 5d3f 0afc 1f3f db9e 243f 011d 263e
00000010: 2407 fcbc c838 303e 4e62 323e 9dea a13e
00000020: f44e e83e 2272 b63d c1ac c83e 4d37 8c3f
00000030: 5c30 8b3b ec14 963e 9b00 083e b9ad 103f

residual.0.norm.bias f4 [16]
-0.5385176 -0.5823653 -0.08032955 -0.14268234 -0.83397686 -0.50533134 -0.27793616 -0.48297498
-0.33839318 -0.6695079 -0.40348864 -0.19515762 -0.39239126 -0.29419357 -0.46018583 -0.36292592
00000000: 4adc 09bf e415 15bf d283 a4bd 521b 12be
00000010: 827f 55bf 655d 01bf a64d 8ebe 7f48 f7be
00000020: df41 adbe df64 2bbf 1096 cebe 66d7 47be
00000030: 82e7 c8be 8aa0 96be 7a9d ebbe 6dd1 b9be

residual.0.norm.running_mean f4 [16]
1.8834362 5.538132 -4.554075 0.093841985 1.47458 -2.9387782 0.11369002 -1.0581
1.6693633 2.4236934 -1.38486 2.275727 -6.2145767 -1.1586992 -8.101369 -2.1671882
00000000: 7014 f13f 6138 b140 fbba 91c0 3a30 c03d
00000010: 0abf bc3f f114 3cc0 50d6 e83d d26f 87bf
00000020: b2ad d53f cb1d 1b40 1843 b1bf 83a5 1140
00000030: d0dd c6c0 4150 94bf 359f 01c1 36b3 0ac0

residual.0.norm.running_var f4 [16]
12.022069 5.716614 21.266203 3.4666054 4.937894 4.908334 2.7034912 4.296262
8.224002 2.580879 8.044958 13.25754 4.886242 3.444135 17.385664 3.2450986
00000000: 655a 4041 80ee b640 2f21 aa41 dddc 5d40
00000010: 3a03 9e40 1211 9d40 0006 2d40 fa7a 8940
00000020: 8395 0341 1f2d 2540 26b8 0041 e21e 5441
00000030: 185c 9c40 b56c 5c40 d715 8b41 b2af 4f40

residual.0.projection.weight f4 [16, 32]
-0.119335815 -0.34349534 -0.064237796 -0.39162198 0.12555525 -0.63903576 0.07922542 0.005988444
0.23520884 0.06569041 -0.39113355 0.05908999 0.38607574 -0.42702827 -0.2606919 -0.00375244
0.29589474 -0.01798365 -0.57484657 -0.36564007 -0.14497685 0.016989 0.073667265 0.03972343
0.10072344 -0.11694663 -0.47452897 0.28949195 0.6363445 0.1135209 0.33661878 -0.13047105
-0.5315236 -0.7054202 -0.29945305 -0.65876395 -0.10881039 -0.25921497 0.037479475 -0.022107888
0.028146185 0.257699 -0.601134 0.061159562 0.36144668 -0.41351297 -0.23569928 0.31648806
0.04507883 -0.52133137 -0.56979614 -0.2420559 -0.13423768 0.102394335 -0.19939023 -0.20001763
0.1020956 0.33740988 0.30612147 0.29456753 0.018107146 -0.10810202 -0.039573565 -0.46802646
-0.15102874 -0.41102338 -0.6796374 -0.24073435 -0.4521024 -0.61731124 0.3758512 -0.22142987
0.11445372 -0.04187781 -0.056911252 0.12145816 0.12303932 0.40649554 -0.17154574 0.11918495
0.45307583 -0.6908058 -0.5152091 0.3569556 -0.10593075 0.016540643 -0.32354155 0.057693932
-0.05233921 -0.40337315 -0.022186618 0.7657104 -0.16241957 0.010419836 0.4289812 0.31302452
0.12902932 -0.26917735 -0.11959248 -0.3949269 0.11504481 -0.5447493 0.18683119 -0.100359865
0.07650966 -0.25155544 0.13038754 -0.01267337 0.3195758 0.025802413 0.015632693 0.4178354
0.034887925 -0.0030181638 0.00980681 0.3439128 -0.052414384 -0.030807627 -0.14684199 -0.14726518
0.017824747 0.059316665 -0.114980325 -0.06378275 0.3306302 -0.030010534 -0.12867668 0.02881436
-0.44396326 0.27586254 0.26689988 -0.36820653 -0.46163148 -0.16338892 0.31596506 -0.32437652
0.08655773 -0.057602145 -0.34687334 0.26125023 0.06401745 0.084474385 0.39706245 -0.18700127
-0.13845849 0.17127341 -0.20721006 0.34232 -0.3146237 0.067777805 0.19830807 0.2959812
0.14711757 -0.18998179 -0.43538132 0.20949969 0.1684165 0.48273575 0.2509684 -0.25614938
-0.34097838 -0.3441231 -0.062694535 0.39033675 -0.078820355 -0.40908328 -0.031159183 0.17275344
0.10956108 0.03452239 0.01042544 -0.24389172 -0.0063054753 0.033463 -0.31669533 0.24039152
-0.19298069 -0.20603245 -0.45559153 -0.04408174 -0.017979315 0.36853117 -0.1876053 -0.33775505
-0.24300542 -0.014498939 -0.27388322 0.07293918 -0.16421957 -0.43259126 0.5255393 0.15428688
-0.06566793 0.2160484 0.316835 -0.01622966 0.18125707 -0.0395065 0.07372987 0.06904575
0.031106245 0.29745355 -0.19191338 -0.12585069 -0.10155207 0.15743685 0.27620965 -0.0832697
-0.30834916 -0.40015426 -0.20590393 0.03940166 0.22275363 -0.14297333 -0.13561572 0.01652833
-0.006757087 -0.15190007 -0.104926854 -0.13689087 -0.33794573 0.009399232 -0.048042174 -0.22262737
0.20645551 -0.28766093 0.22869858 -0.20262457 -0.15977375 -0.24507679 -0.14739586 -0.06997517
0.19069889 -0.08911106 0.043033082 0.32854724 -0.18582614 -0.14302902 0.03068342 -0.60968786
0.31217796 0.054450464 -0.36776164 0.42742097 0.44819462 -0.06855249 0.16943598 0.096357256
0.33182782 0.18982966 0.27789408 -0.46251908 0.18999562 -0.32556877 -0.18401809 0.39173397
00000000: 5666 f4bd 9fde afbe 1b8f 83bd ad82 c8be
00000010: 8e91 003e d997 23bf f040 a23d b63a c43b
00000020: 96da 703e b288 863d a842 c8be 5808 723d
00000030: b8ab c53e 73a3 dabe 6979 85be 7feb 75bb
00000040: 847f 973e 7352 93bc 2529 13bf 2d35 bbbe
00000050: d074 14be 842c 8b3c ddde 963d 09b5 223d
00000060: 1748 ce3d b781 efbd 76f5 f2be 4a38 943e
00000070: 79e7 223f a57d e83d 4c59 ac3e 349a 05be
00000080: ee11 08bf 6b96 34bf e951 99be c1a4 28bf
00000090: fbd7 debd d3b7 84be 1484 193d 9a1b b5bc
000000a0: d492 e63c 20f1 833e ebe3 19bf 7382 7a3d
000000b0: 8a0f b93e f9b7 d3be 275b 71be b90a a23e
000000c0: 94a4 383d f975 05bf 29de 11bf 80dd 77be
000000d0: 9a75 09be 1fb4 d13d f42c 4cbe 6cd1 4cbe
000000e0: 7f17 d13d fdc0 ac3e f4bb 9c3e 8ed1 963e
000000f0: 7055 943c 9864 ddbd e417 22bd 2aa1 efbe
00000100: 47a7 1abe a871 d2be b7fc 2dbf 1183 76be
00000110: f779 e7be 1c08 1ebf 926f c03e 83be 62be
00000120: b666 ea3d 1188 2bbd c61b 69bd 0ebf f83d
00000130: 0afc fb3d 2f20 d03e b0a9 2fbe 3d17 f43d
00000140: 8ef9 e73e a6d8 30bf bee4 03bf e2c2 b63e
00000150: 39f2 d8bd 3e80 873c 3da7 a5be 7950 6c3d
00000160: a461 56bd ed86 cebe b6c0 b5bc 9905 443f
00000170: 5151 26be f6b7 2a3c 6da3 db3e c044 a03e
00000180: 4320 043e 9dd1 89be e7ec f4bd dc33 cabe
00000190: 9d9c eb3d b174 0bbf ad50 3f3e 7989 cdbd
000001a0: 19b1 9c3d e0cb 80be 5084 053e f7a3 4fbc
000001b0: 709f a33e 955f d33c 2210 803c 86ee d53e
000001c0: a4e6 0e3d 63cc 45bb beac 203c 5715 b03e
000001d0: 77b0 56bd 4760 fcbc bf5d 16be afcc 16be
000001e0: 3405 923c 08f6 723d ce7a ebbd 88a0 82bd
000001f0: 5d48 a93e a7d8 f5bc d2c3 03be 180c ec3c
00000200: 274f e3be db3d 8d3e 1aa7 883e 9185 bcbe
00000210: f65a ecbe 6d4f 27be 2cc6 a13e ae14 a6be
00000220: 2e45 b13d 3af0 6bbd 6299 b1be 97c2 853e
00000230: 951b 833d e800 ad3d c54b cb3e 437d 3fbe
00000240: 10c8 0dbe 4c62 2f3e e02e 54be 9144 af3e
00000250: 5c16 a1be 17cf 8a3d 4511 4b3e d98a 973e
00000260: fda5 163e 968a 42be 4dea debe 1687 563e
00000270: 6075 2c3e 2429 f73e ee7e 803e 0326 83be
00000280: b894 aebe e730 b0be fe65 80bd 38da c73e
00000290: 916c a1bd 5d73 d1be 8b41 ffbc 47e6 303e
000002a0: 8f61 e03d 5a67 0d3d 77cf 2a3c c0be 79be
000002b0: 299e cebb 8010 093d e425 a2be 3229 763e
000002c0: bb9c 45be 2cfa 52be 4b43 e9be 0e8f 34bd
000002d0: 5b49 93bc 1eb0 bc3e 9b1b 40be 3bee acbe
000002e0: 6ad6 78be f58c 6dbc 6c3a 8cbe 2361 953d
000002f0: 2d29 28be 9a7c ddbe be89 063f 61fd 1d3e
00000300: e87c 86bd cb3b 5d3e 3238 a23e 10f4 84bc
00000310: 749b 393e 91d1 21bd b0ff 963d dc67 8d3d
00000320: 86d2 fe3c d54b 983e f184 44be 01df 00be
00000330: 88fa cfbd 2037 213e 5a6b 8d3e 4e89 aabd
00000340: f1df 9dbe 05e1 ccbe 7bd8 52be a363 213d
00000350: 8719 643e 9a67 12be d9de 0abe 6c66 873c
00000360: 8e6a ddbb b18b 1bbe e4e3 d6bd 1f2d 0cbe
00000370: 3907 adbe 3dff 193c dfc7 44bd 6ef8 63be
00000380: 1369 533e 4b48 93be f62f 6a3e d17c 4fbe
00000390: bb9b 23be 69f5 7abe f1ee 16be 244f 8fbd
000003a0: 9246 433e dc7f b6bd 7543 303d 5837 a83e
000003b0: 3549 3ebe 3376 12be cc5b fb3c 8114 1cbf
000003c0: cad5 9f3e 7307 5f3d 414b bcbe ecd6 da3e
000003d0: c479 e53e 3f65 8cbd a080 2d3e f456 c53d
000003e0: 56e5 a93e b562 423e 2248 8e3e 4dcf ecbe
000003f0: 368e 423e f3b0 a6be 3d6f 3cbe 5b91 c83e

residual.0.projection.bias f4 [16]
-0.25925454 0.112635866 0.18815994 0.22387597 -0.67307186 -0.13268413 -0.08517674 0.075864404
0.26254937 -0.38306603 -0.36219558 -0.17836276 -0.025614511 -0.07851448 -0.10098045 -0.3712395
00000000: 03bd 84be a2ad e63d 00ad 403e be3f 653e
00000010: 704e 2cbf 59de 07be 2571 aebd cc5e 9b3d
00000020: df6c 863e 3b21 c4be b371 b9be baa4 36be
00000030: 86d5 d1bc 33cc a0bd d7ce cebd 1b13 bebe

residual.1.fc.weight f4 [16, 16]
-1.4357774 -0.7157738 -0.81428045 -0.42017072 -0.49435326 0.17585532 -0.37116313 -0.24895707
-0.48166624 1.621163 -0.6433802 -0.18875317 -1.0613644 0.055501558 0.2725656 -0.848687
-0.058185518 -1.660375 -0.085828476 -0.23617867 -0.40131372 -0.16613938 -0.57343453 0.1652217
-0.031679086 -1.0187281 0.042861354 0.835646 0.19813907 -0.21217032 -0.27293456 0.7617481
1.201716 -0.16088149 -1.7461935 -0.36950248 0.8031765 -0.8500246 -0.5571862 0.040165037
0.18484178 -0.014062641 0.61510247 0.09363461 0.51195854 -0.14452541 -0.19425012 -0.14652856
0.2065758 -0.61213267 -0.50854754 -1.2777152 0.5709665 -0.18155128 0.025350878 -0.014484671
0.52295816 0.7101864 -0.09135962 0.106399156 -0.42683744 -0.04788797 0.06101356 0.18796109
-0.6140868 -0.59040344 -1.0377266 0.41977286 -1.5874503 -0.06370163 -0.66440666 0.23275897
0.20627776 0.58501863 0.1331229 1.0635232 -0.25860354 -0.079455934 0.33238193 -0.319599
-0.22011602 -0.6124332 -0.44286972 0.059924707 0.7764508 -0.8241177 -0.39572135 0.7469427
-0.023274476 -0.024963668 0.16945256 -0.5298131 0.0011699381 -0.3567348 -0.5637222 -0.07220485
-0.202392 0.13578166 -0.32271385 -0.8003772 -0.12376131 -0.21069263 -1.1041734 0.10333777
-0.3459831 1.1570817 -0.10378663 0.3394085 0.29576424 -0.18597487 0.5680486 0.01769619
-0.31978077 -0.10525291 -0.85793483 -0.16617337 0.022168133 -1.4166923 0.17238544 -1.3441848
-0.7144453 0.5601695 -0.0392109 -0.5518653 0.43968767 0.19497326 -0.6537036 -0.11507192
0.21849862 0.03873465 -0.48441848 -0.10462457 0.5400809 0.5028408 0.08083378 -0.20771147
-0.9236055 -0.1561854 -0.07209735 0.03655856 -0.12334146 0.06786146 -0.40750265 0.3635174
0.753464 0.29567906 0.053960606 -0.07970146 1.1599762 -1.0466228 1.0461892 -0.6243715
0.33543542 -1.380121 0.6183823 -0.011045975 1.0343349 -0.104634844 -0.36436927 0.24593931
0.57694703 0.19130105 0.4886168 0.462146 0.33757654 0.45461696 -0.1518824 -0.580831
0.14020424 0.21163455 -1.7518713 -0.3470209 0.7340792 0.082774065 -0.20268421 0.07453507
0.14965893 0.7568911 0.79324716 0.9913865 -0.3482312 0.228403 0.64349526 -0.015230981
-0.98012424 -0.0028025846 0.5701783 -2.260475 0.08106039 -0.38113883 -0.15446751 0.44002822
-0.57073396 -0.69248056 -0.10922132 -0.9099228 -0.47236168 -0.33656108 -0.34876528 0.21227789
-0.6703935 0.5324036 0.6885169 -0.108867094 -0.975192 -1.1194543 0.25730765 0.97035587
0.24032266 -0.3557764 -0.19055586 -0.5416191 0.358506 -0.47158882 0.3333128 0.07897548
-0.5430291 -0.15347442 0.2642035 0.10112268 -0.15367514 -0.39634013 0.3827614 0.3570373
-0.24053518 -0.38570982 -0.5363227 -0.031207534 0.035148934 0.1887582 -0.05113026 0.536831
-0.40778407 0.62930137 0.31830823 -0.27083558 -0.20312926 -0.9945 -0.52396363 -0.14328311
-0.21977852 0.2401939 -1.0458574 -0.5318769 0.32871288 -0.30604434 -0.17578457 0.18793432
-0.95800954 -0.4309189 0.7186905 0.49064595 0.30848348 -0.32124946 -0.06396885 -1.0692693
00000000: 8ec7 b7bf f43c 37bf af74 50bf 9e20 d7be
00000010: df1b fdbe 6b13 343e 1809 bebe 9aee 7ebe
00000020: f59c f6be 4582 cf3f 91b4 24bf 8348 41be
00000030: cada 87bf 9a55 633d b88d 8b3e 8d43 59bf
00000040: f053 6ebd 2b87 d4bf d7c6 afbd d2d8 71be
00000050: fe78 cdbe 7120 2abe 9bcc 12bf e12f 293e
00000060: eec1 01bd af65 82bf 638f 2f3d e5ec 553f
00000070: f8e4 4a3e 2d43 59be 14be 8bbe ec01 433f
00000080: d4d1 993f 1ebe 24be 4583 dfbf 6e2f bdbe
00000090: fa9c 4d3f 369b 59bf c1a3 0ebf 1884 243d
000000a0: 2a47 3d3e fe66 66bc 5b77 1d3f 81c3 bf3d
000000b0: b70f 033f 78fe 13be 81e9 46be 950b 16be
000000c0: 9b88 533e bab4 1cbf 2c30 02bf 2c8c a3bf
000000d0: dc2a 123f 94e8 39be a5ac cf3c 1d51 6dbc
000000e0: 96e0 053f c7ce 353f c11a bbbd cde7 d93d
000000f0: 708a dabe 2d26 44bd 5be9 793d df78 403e
00000100: cb34 1dbf ae24 17bf 3ad4 84bf 78ec d63e
00000110: 9231 cbbf 0076 82bd 8e16 2abf 5e58 6e3e
00000120: 7a3a 533e c8c3 153f 5f51 083e 8721 883f
00000130: af67 84be cbb9 a2bd f72d aa3e 7ba2 a3be
00000140: 1866 61be 6cc8 1cbf d2bf e2be 9c73 753d
00000150: 7bc5 463f 61f9 52bf fd9b cabe a337 3f3f
00000160: 1daa bebc 9b80 ccbc f984 2d3e d5a1 07bf
00000170: 9c58 993a f2a5 b6be 1950 10bf 23e0 93bd
00000180: d93f 4fbe 590a 0b3e c03a a5be 85e5 4cbf
00000190: 9276 fdbd cfbf 57be 8e55 8dbf c1a2 d33d
000001a0: b224 b1be 411b 943f 168e d4bd f3c6 ad3e
000001b0: 696e 973e 3270 3ebe a26b 113f 9af7 903c
000001c0: 4eba a3be d68e d7bd 9ea1 5bbf 5a29 2abe
000001d0: f299 b53c 2c56 b5bf cf85 303e 3f0e acbf
000001e0: e3e5 36bf 4567 0f3f 9c9b 20bd 0b47 0dbf
000001f0: be1e e13e 12a7 473e 1e59 27bf d4aa ebbd
00000200: 1abe 5f3e 39a8 1e3d b305 f8be 6845 d6bd
00000210: be42 0a3f 2dba 003f 2e8c a53d 51b2 54be
00000220: 6971 6cbf 11ef 1fbe c7a7 93bd 6ebe 153d
00000230: 739a fcbd f3fa 8a3d 30a4 d0be f41e ba3e
00000240: 04e3 403f 3f63 973e cc05 5d3d 853a a3bd
00000250: 1a7a 943f bcf7 85bf 87e9 853f d0d6 1fbf
00000260: 31be ab3e cea7 b0bf 4d4e 1e3f 2dfa 34bc
00000270: 1665 843f cb4a d6bd 9c8e babe 84d7 7b3e
00000280: cdb2 133f 6ce4 433e fb2b fa3e 679e ec3e
00000290: d5d6 ac3e 8ec3 e83e 0f87 1bbe 57b1 14bf
000002a0: b391 0f3e bab6 583e 523d e0bf b9ac b1be
000002b0: 9dec 3b3f 7385 a93d 738c 4fbe d8a5 983d
000002c0: 3140 193e 9dc3 413f 3f12 4b3f 81cb 7d3f
000002d0: 5c4b b2be 7ae2 693e 1bbc 243f 5d8b 79bc
000002e0: 6ce9 7abf 91ab 37bb 34f7 113f 9fab 10c0
000002f0: fd02 a63d a124 c3be bb2c 1ebe 614b e13e
00000300: 9f1b 12bf 6846 31bf 6daf dfbd b3f0 68bf
00000310: 64d9 f1be bc51 acbe 5d91 b2be 605f 593e
00000320: e99e 2bbf 9a4b 083f a542 303f b6f5 debd
00000330: 2fa6 79bf 474a 8fbf d4bd 833e 3e69 783f
00000340: 2517 763e 5328 b6be 1321 43be 8da7 0abf
00000350: 198e b73e 1774 f1be faa7 aa3e e5bd a13d
00000360: f503 0bbf 6628 1dbe ae45 873e 6819 cf3d
00000370: 045d 1dbe 18ed cabe 4df9 c33e 98cd b63e
00000380: db4e 76be c27b c5be 724c 09bf f1a6 ffbc
00000390: 54f8 0f3d d449 413e f76d 51bd c26d 093f
000003a0: 13c9 d0be e519 213f 4cf9 a23e f6aa 8abe
000003b0: 1e01 50be 8d97 7ebf 7b22 06bf cfb8 12be
000003c0: 9f0d 61be 64f5 753e a8de 85bf 1629 08bf
000003d0: 0e4d a83e d8b1 9cbe df00 34be db71 403e
000003e0: 1d40 75bf 67a1 dcbe 1afc 373f f235 fb3e
000003f0: 8cf1 9d3e cf7a a4be 1a02 83bd d1dd 88bf

residual.1.fc.bias f4 [16]
-0.13390903 -0.80617803 -0.8431084 0.052887786 -0.14170596 -2.0583704 -0.3073709 -0.54789585
-1.063933 0.41950214 -1.0641404 -0.56983864 -0.80385447 -1.5184803 -2.993769 -0.07080742
00000000: 731f 09be af61 4ebf f4d5 57bf dda0 583d
00000010: 5e1b 11be 57bc 03c0 b85f 9dbe e742 0cbf
00000020: f52e 88bf fcc8 d63e c135 88bf f2e0 11bf
00000030: 68c9 4dbf 905d c2bf e999 3fc0 7b03 91bd

residual.1.norm.weight f4 [16]
0.7968554 0.72088194 0.39176372 0.7439972 0.80652916 0.49405634 0.39469752 0.68832254
-0.049197577 0.8013117 0.89128894 0.65989196 0.5826555 0.14738017 0.27213365 0.47124252
00000000: b7fe 4b3f b88b 383f 4195 c83e 9a76 3e3f
00000010: b278 4e3f f4f4 fc3e cb15 ca3e e835 303f
00000020: 6683 49bd c322 4d3f 832b 643f aeee 283f
00000030: e928 153f d4ea 163e 1a55 8b3e b346 f13e

residual.1.norm.bias f4 [16]
-0.3096723 -0.58710223 -0.81446815 0.13185039 -0.6687279 -0.9408375 -0.2027061 -0.048833996
-0.7791993 0.35660362 -0.4170776 -0.15396293 -0.08426877 -0.5472298 -0.6420548 -0.050986458
00000000: 5e8d 9ebe 554c 16bf fc80 50bf ca03 073e
00000010: c031 2bbf bada 70bf 3092 4fbe 2806 48bd
00000020: 9b79 47bf c094 b63e 328b d5be 75a8 1dbe
00000030: 1b95 acbd 4117 0cbf b45d 24bf 2dd7 50bd

residual.1.norm.running_mean f4 [16]
-1.2206595 -1.5638144 0.04394716 0.10496487 -0.43019447 -0.111639105 0.65088606 0.20552088
1.1494515 -0.534023 1.7734194 -0.06681661 -1.2352018 -0.0010098708 -1.4908144 0.35764146
00000000: 923e 9cbf 122b c8bf f001 343d d2f7 d63d
00000010: 7342 dcbe 0ba3 e4bd 78a0 263f 1174 523e
00000020: 3a21 933f bbb5 08bf 68ff e23f 26d7 88bd
00000030: 181b 9ebf a45d 84ba 02d3 bebf c81c b73e

residual.1.norm.running_var f4 [16]
2.7313664 6.203054 5.6427984 1.1844952 3.940411 2.8954608 1.4352168 1.8697346
1.4332227 3.2427428 2.8663108 3.48164 1.6236393 0.80437434 3.335307 3.1339278
00000000: b5ce 2e40 6b7f c640 ce91 b440 8a9d 973f
00000010: b22f 7c40 3b4f 3940 2fb5 b73f 7753 ef3f
00000020: d773 b73f 1989 4f40 a371 3740 31d3 5e40
00000030: 6ad3 cf3f 7aeb 4d3f ab75 5540 4692 4840

residual.2.fc.weight f4 [8, 16]
-0.65442526 -0.28824338 -0.8230795 -0.88299793 -1.5009674 0.55886245 -0.20039488 0.9777895
0.18384126 0.62055373 -0.17180496 0.7071092 -0.6581833 0.39775115 0.03635985 1.4132829
-0.7729386 -0.41718048 -0.06170093 0.074780226 -0.35785052 0.74932754 -0.420907 -0.23723601
0.05127403 -0.36605173 -0.41522175 -0.87640417 0.5892937 -0.30187428 0.20411907 -0.3339226
0.36413994 -0.7132521 -0.13763589 -0.33188987 0.042161435 0.76162827 -0.4402251 0.35930037
0.34341484 0.5084507 0.12760991 0.33748686 0.72289103 -0.78711647 -0.6316785 0.20643108
-0.36249685 0.6086461 -0.5315284 -0.33688098 0.31324688 0.72628623 0.25584266 -0.83841604
-0.34627977 -0.02252437 -0.11366072 0.11906481 -0.45819 -0.44707453 0.30495492 0.42966917
-0.44907305 -0.81683475 0.017395796 0.3939668 -0.28997937 -0.403551 0.35935593 -0.117708005
-0.28839642 -0.14450589 -0.22950622 -0.6340819 -0.040797856 0.67412233 -0.0959339 -0.15238108
-0.51026857 0.13868202 0.33027974 1.6528254 -0.7625973 0.5622392 0.2909009 0.84711045
0.4728778 1.16322 -0.19872253 0.42164266 -0.241913 -0.4488085 -0.038471647 0.07230073
0.68820906 -0.26710942 -0.2133227 -0.8925005 0.35706353 0.4417276 -0.24580096 -1.0630164
-0.330352 -0.5888244 -0.07617243 -1.0131699 -0.27390242 -0.79879975 -0.04496441 -0.016553337
0.030742118 -0.38251033 -0.80318046 0.18985364 -0.44965965 -0.113603026 0.8612675 0.23165506
-0.22702162 -0.22694945 0.69383377 -0.22809891 -0.28881398 0.38330916 -0.5576807 0.025651269
00000000: 6a88 27bf a394 93be 57b5 52bf 270c 62bf
00000010: b31f c0bf 9c11 0f3f 5134 4dbe 6a50 7a3f
00000020: e240 3c3e 9cdc 1e3f a4ed 2fbe 1c05 353f
00000030: b37e 28bf 0aa6 cb3e 11ee 143d 74e6 b43f
00000040: 4edf 45bf ae98 d5be 1dba 7cbd 6026 993d
00000050: 2f38 b7be eed3 3f3f 1f81 d7be ffed 72be
00000060: b804 523d 226b bbbe f297 d4be 065c 60bf
00000070: f4db 163f 448f 9abe 9704 513e e7f7 aabe
00000080: 8d70 ba3e b197 36bf 6cf0 0cbe 78ed a9be
00000090: 78b1 2c3d 12fa 423f 2f65 e1be 38f6 b73e
000000a0: 12d4 af3e d329 023f 2cac 023e 14cb ac3e
000000b0: 630f 393f 7780 49bf afb5 21bf ab62 533e
000000c0: 3099 b9be 3bd0 1b3f 3f12 08bf aa7b acbe
000000d0: e561 a03e e5ed 393f cffd 823e 6fa2 56bf
000000e0: 954b b1be 0785 b8bc f4c6 e8bd 40d8 f33d
000000f0: e197 eabe f4e6 e4be 0d23 9c3e 99fd db3e
00000100: e7ec e5be 151c 51bf a181 8e3c 04b6 c93e
00000110: 2d78 94be 3d9e cebe 80fd b73e e510 f1bd
00000120: b2a8 93be 5af9 13be ae03 6bbe 3153 22bf
00000130: a71b 27bd 4893 2c3f fe78 c4bd c909 1cbe
00000140: f6a0 02bf a902 0e3e 6d1a a93e c88f d33f
00000150: 9439 43bf e9ee 0f3f f6f0 943e 3bdc 583f
00000160: 0a1d f23e 65e4 943f eb7d 4bbe 8ce1 d73e
00000170: 0bb8 77be 3aca e5be 7294 1dbd 6812 943d
00000180: 782e 303f 91c2 88be 4471 5abe ea7a 64bf
00000190: 08d1 b63e 1f2a e23e 3fb3 7bbe ec10 88bf
000001a0: e623 a9be 32bd 16bf 4a00 9cbd 8daf 81bf
000001b0: f03c 8cbe 247e 4cbf 9a2c 38bd dd9a 87bc
000001c0: e5d6 fb3c 65d8 c3be 3c9d 4dbf fe68 423e
000001d0: ca39 e6be b4a8 e8bd 077c 5c3f fc36 6d3e
000001e0: 5b78 68be 7065 68be 179f 313f c392 69be
000001f0: 6ddf 93be 1941 c43e 2ac4 0ebf 9c22 d23c

residual.2.fc.bias f4 [8]
-0.16833046 -1.6473539 -1.0793302 -0.75448173 0.17410366 -1.267994 -2.2799187 -0.55893713
00000000: d25e 2cbe 7edc d2bf 7e27 8abf b725 41bf
00000010: 3b48 323e a14d a2bf 30ea 11c0 8116 0fbf

residual.2.norm.weight f4 [8]
1.6843604 -0.12475765 0.13139687 0.75167626 -0.03659476 0.46031407 0.43396807 0.008160914
00000000: 1f99 d73f f080 ffbd e78c 063e db6d 403f
00000010: 63e4 15bd 49ae eb3e 1031 de3e 5bb5 053c

residual.2.norm.bias f4 [8]
-0.88106143 -1.1294671 -0.39666378 -0.81929755 -0.522619 -0.21334562 -0.54623204 -0.43178576
00000000: 3e8d 61bf 6192 90bf 8417 cbbe 7cbd 51bf
00000010: 5cca 05bf 4677 5abe ddd5 0bbf 0613 ddbe

residual.2.norm.running_mean f4 [8]
4.4798408 -0.06286507 -0.695376 1.8001939 -0.2177542 -0.060478356 -1.95699 1.4373953
00000000: db5a 8f40 67bf 80bd 2904 32bf c16c e63f
00000010: f5fa 5ebe 27b8 77bd a67e fabf 92fc b73f

residual.2.norm.running_var f4 [8]
24.456953 7.2824006 7.8770757 10.709592 7.030066 10.0291 5.308504 7.4640026
00000000: d7a7 c341 6d09 e940 0111 fc40 7d5a 2b41
00000010: 4df6 e040 3277 2041 44df a940 1cd9 ee40
