climate/Final Experiments/PERNN999/best_model.pth (torch, 29282 bytes, 29 tensors)

encoder.0.weight f4 [16, 16]
0.018115945 -0.44650802 -0.057038385 -0.29804048 -0.31540757 -0.3669389 -0.13170487 -0.18960992
-0.4130784 0.0015904689 0.10622801 0.31754756 -0.2729122 -0.0022391428 0.055109542 0.26337782
-0.19506799 0.05461454 -0.10765955 0.09934701 0.041474152 -0.33646104 0.32495004 -0.03824518
0.36847055 -0.17997123 0.46616274 0.70329934 -0.36997598 0.37708408 -0.36445183 -0.04214947
0.2628817 -0.18421748 -0.20811954 -0.12351851 -0.067638576 0.5494694 -0.14146897 -0.24770586
-0.18875474 0.6086573 -0.15425675 -0.09924023 0.12682435 0.031006891 -0.01648414 -0.19828919
0.02031098 -0.0005922187 -0.030247642 -0.19322704 0.1747333 0.07740815 -0.56527877 -0.17149368
0.13048363 0.33850765 -0.026090026 -0.3567674 0.589054 -0.111893356 -0.4200798 0.12774076
-0.16118197 -0.06638929 0.018547928 -0.009102005 -0.39217314 -0.3560807 -0.61787426 -0.112191305
-0.27405372 -0.0616338 0.17919458 -0.5138054 0.23815054 0.35917968 -0.019385152 0.12089853
-0.21659853 -0.17606045 0.028791498 -0.09598453 -0.023652252 0.12874731 0.19970582 -0.42747888
0.22152859 -0.08922182 0.05332924 0.06705471 0.028059542 0.6695081 0.29784125 0.3181954
-0.19709659 -0.07953064 -0.04381129 0.11028256 0.13284989 -0.05783842 -0.2916006 -0.3352117
-0.120698206 -0.17978299 0.22196531 -0.3944646 -0.40668675 -0.0012024326 -0.48853317 -0.008722135
0.5296197 0.28429872 -0.13521332 0.011088078 -0.25906068 0.22786605 -0.057682123 -0.26600844
-0.18765758 -0.36318502 0.23295824 0.3493097 0.54426587 -0.13776517 0.11075456 -0.04365399
0.41962668 0.18036476 0.11369887 0.06737396 0.21863839 0.09823422 -0.68509847 -0.020409638
-0.45281443 -0.2345397 0.3179166 -0.5433401 -0.10702229 0.13418648 0.28930685 0.05964506
-0.3111346 -0.2125799 0.17955226 0.16863035 -0.05872438 -0.18354182 -0.27220896 -0.16076735
-0.15776265 -0.18495962 -0.308833 0.046487186 0.011829396 0.3929776 0.36955437 -0.20724241
0.2269027 0.3868213 0.2306305 -0.2014625 -0.2441415 -0.37374604 0.13174078 0.16952255
-0.24734586 0.43720654 -0.28747198 -0.26467615 0.10185081 0.09958851 -0.3966318 0.3337373
0.093583375 0.54486126 0.39651254 0.16361064 0.033839412 0.09973643 -0.24656092 -0.07225475
-0.4585839 -0.58161503 0.21625918 -0.02535316 0.114664786 -0.26168126 0.20765136 -0.04707821
0.37788102 -0.36107746 -0.12878428 0.020687992 0.20833012 -0.06795536 -0.2401058 0.23900886
0.20045356 0.06775708 -0.048463553 0.9770378 -0.036146432 -0.11084328 0.2656243 -0.14615263
0.4049259 -0.25951877 -0.2076817 0.029819628 -0.18346722 -0.42556646 0.08964603 0.14875008
-0.29066613 0.22145718 0.45374048 0.4778771 -0.18947062 -0.35107246 -0.025226066 0.153422
0.049961414 -0.16006407 -0.2011687 -0.007886953 -0.11080289 0.32989857 -0.8491827 -0.21233442
0.21831438 0.24211517 0.42973426 -0.22596972 -0.30625015 -0.33161846 -0.12326033 -0.059883997
0.25490057 -0.18649583 -0.033734106 -0.059288193 0.39895636 -0.2923353 0.36974114 0.14205623
0.0882225 0.07958105 0.11439527 -0.53521085 0.32952765 0.41422263 -0.27069503 -0.046681184
00000000: e467 943c b39c e4be 15a1 69bd c398 98be
00000010: 1a7d a1be 6adf bbbe a4dd 06be 1a29 42be
00000020: 037f d3be 4877 d03a 128e d93d 9895 a23e
00000030: 26bb 8bbe 95be 12bb 8bba 613d 75d9 863e
00000040: e7bf 47be 7fb3 5f3d 9c7c dcbd 7276 cb3d
00000050: cde0 293d 9f44 acbe da5f a63e faa6 1cbd
00000060: 2ca8 bc3e 614a 38be e2ac ee3e 6d0b 343f
00000070: 7e6d bdbe 2a11 c13e 6e99 babe eca4 2cbd
00000080: 6e98 863e 82a3 3cbe 4a1d 55be 46f7 fcbd
00000090: 1886 8abd 07aa 0c3f 3edd 10be 9ba6 7dbe
000000a0: ec48 41be f7d0 1b3f 7bf5 1dbe 763e cbbd
000000b0: 3ede 013e 2a02 fe3c bf09 87bc 520c 4bbe
000000c0: 3663 a63c 203f 1bba e7c9 f7bc 4fdd 45be
000000d0: 49ed 323e 2a88 9e3d 1cb6 10bf 0a9c 2fbe
000000e0: 809d 053e e050 ad3e c0ba d5bc 37aa b6be
000000f0: 3ecc 163f 5828 e5bd b314 d7be 79ce 023e
00000100: e30c 25be 1cf7 87bd d3f1 973c 9320 15bc
00000110: ebca c8be 3650 b6be 022d 1ebf 8ec4 e5bd
00000120: c550 8cbe b973 7cbd c97e 373e c088 03bf
00000130: bcdd 733e 66e6 b73e 9ccd 9ebc a699 f73d
00000140: 01cc 5dbe 3149 34be 26dc eb3c 8a93 c4bd
00000150: 5ec2 c1bc 56d6 033e af7f 4c3e 83de dabe
00000160: 64d8 623e eeb9 b6bd c36f 5a3d fb53 893d
00000170: 20dd e53c e264 2b3f a67e 983e 82ea a23e
00000180: b0d3 49be f6e0 a2bd 7873 33bd d3db e13d
00000190: cd09 083e fbe7 6cbd ad4c 95be dea0 abbe
000001a0: 9f30 f7bd 0819 38be e04a 633e 44f7 c9be
000001b0: 3f39 d0be f19a 9dba 0521 fabe 49e7 0ebc
000001c0: 2895 073f 9a8f 913e 5c75 0abe c5aa 353c
000001d0: 9aa3 84be b855 693e 1744 6cbd 4232 88be
000001e0: 4f29 40be 63f3 b9be 9b8c 6e3e b9d8 b23e
000001f0: 0255 0b3f 5012 0dbe 49d3 e23d 87ce 32bd
00000200: 4fd9 d63e 8ab1 383e f4da e83d 5cfb 893d
00000210: bee2 5f3e 062f c93d 9d62 2fbf 1d32 a7bc
00000220: 4bd7 e7be 2d2b 70be f7c5 a23e 5618 0bbf
00000230: 812e dbbd 2e68 093e 0720 943e 614e 743d
00000240: 094d 9fbe 8cae 59be 8cdc 373e 6fad 2c3e
00000250: fa88 70bd 63f2 3bbe f95e 8bbe 32a0 24be
00000260: 888c 21be 0e66 3dbe 5c1f 9ebe 5969 3e3d
00000270: 15d0 413c 5c34 c93e 3b36 bd3e 5b37 54be
00000280: 2e59 683e 710d c63e 672a 6c3e 304c 4ebe
00000290: 3b00 7abe a45b bfbe 0ee7 063e 5297 2d3e
000002a0: 3c48 7dbe 89d9 df3e 872f 93be a283 87be
000002b0: 2897 d03d 10f5 cb3d 5313 cbbe 9edf aa3e
000002c0: a4a8 bf3d 077c 0b3f b103 cb3e 8c89 273e
000002d0: 329b 0a3d 9d42 cc3d 777a 7cbe 4cfa 93bd
000002e0: 82cb eabe b9e4 14bf 0c73 5d3e 6eb1 cfbc
000002f0: 5fd5 ea3d 16fb 85be 8fa2 543e 15d5 40bd
00000300: 9f79 c13e 25df b8be 07e0 03be dd79 a93c
00000310: 7e54 553e 2e2c 8bbd 4bde 75be bdbe 743e
00000320: b343 4d3e 39c4 8a3d b881 46bd 261f 7a3f
00000330: 480e 14bd cd01 e3bd e9ff 873e 09a9 15be
00000340: 7352 cf3e a5df 84be 83aa 54be 4b48 f43c
00000350: d5de 3bbe d9e3 d9be 5698 b73d f151 183e
00000360: 31d2 94be acc5 623e ac50 e83e 4fac f43e
00000370: 9604 42be c5bf b3be e5a6 cebc a81a 1d3e
00000380: 57a4 4c3d d6e7 23be 2bff 4dbe 4738 01bc
00000390: a0ec e2bd 77e8 a83e 0a64 59bf 326e 59be
000003a0: ce8d 5f3e 0aed 773e 2106 dc3e 9b64 67be
000003b0: d2cc 9cbe e5c9 a9be e96f fcbd ec48 75bd
000003c0: 5482 823e c3f8 3ebe c62c 0abd 2dd8 72bd
000003d0: 0244 cc3e f9ac 95be b64e bd3e 3077 113e
000003e0: 00ae b43d 64fb a23d 1148 ea3d 9403 09bf
000003f0: d9b7 a83e fd14 d43e 8a98 8abe c534 3fbd

encoder.0.bias f4 [16]
-0.10590675 0.3067294 -0.29784793 0.25810742 0.2876108 -0.43202072 0.22732934 0.38250095
0.35022992 0.1306166 0.16933809 -0.09214451 0.36504948 0.38193473 0.51970685 0.34335294
00000000: a3e5 d8bd a30b 9d3e 867f 98be a826 843e
00000010: b941 933e d231 ddbe 06c9 683e 2ad7 c33e
00000020: 5651 b33e 5cc0 053e f766 2d3e 43b6 bcbd
00000030: c4e7 ba3e f38c c33e 820b 053f f5cb af3e

encoder.2.weight f4 [16, 16]
-0.47634998 0.22401248 -0.19469328 -0.14540747 0.1348605 0.005413535 0.16684636 0.43670893
-0.014845661 0.234462 0.30253652 -0.2708405 0.20951216 0.31058595 -0.1938632 0.066424325
-0.070472345 -0.2313269 0.44170225 -0.25533685 -0.3261269 0.19653419 -0.012150042 -0.20012268
-0.38616714 0.13232864 -0.059804343 0.113454506 0.026187869 -0.3287328 -0.46423125 0.072642796
0.046726186 -0.013800103 -0.27910835 0.41005504 0.32802168 0.12324619 0.34178016 -0.068404876
0.43637967 -0.27678978 0.058644738 -0.22143662 0.2504251 -0.388676 -0.1876842 0.14227434
0.19911471 0.11116978 -0.06112487 0.3384874 -0.09973293 -0.44317442 0.3686405 0.36300075
0.31118134 0.12627941 -0.1448529 -0.17575355 0.3237714 0.33138758 0.42593676 -0.025306547
0.118922874 0.37188044 0.027659064 -0.3940885 0.35773024 0.16243936 -0.2724878 0.1306647
0.02136763 0.04431841 -0.345428 -0.37333047 0.25486228 0.26020947 0.05020437 0.360176
0.34739065 0.3870756 -0.49087483 0.313201 0.20884152 -0.425683 0.1711135 0.04339416
0.29768443 0.15136202 -0.34241685 -0.5817366 0.47155672 -0.14979652 0.52461296 0.39942268
-0.08592392 0.30637696 -0.24568449 -0.0057029454 0.28794163 0.29574186 0.14116627 0.15890554
0.2875469 0.11757046 -0.2978596 -0.2650696 0.16488679 -0.2793878 0.46728402 0.22397079
-0.4627612 0.3991153 -0.14387514 0.3756544 -0.34286678 -0.05398955 0.09437143 0.24659902
-0.09146247 0.028790189 0.093148515 -0.45699137 0.6307294 -0.30283287 0.09861952 -0.15962026
-0.120238036 -0.27824998 -0.5082103 -0.2578525 0.38777253 0.10596112 -0.027940579 0.5411015
0.4856769 -0.22633748 0.054585133 -0.07077054 0.21622989 0.52149403 0.39254063 0.23906997
-0.04467327 0.034778904 -0.523761 0.2078265 -0.15371266 -0.42124215 0.35675523 0.45273092
0.027725084 -0.7793958 -0.03921787 -0.17565124 0.08139438 0.334331 0.3842473 0.5545789
0.17558202 0.3378624 0.22769399 -0.071124546 0.23761307 -0.17327896 -0.12710959 0.23173346
0.25476068 0.24444984 0.35110712 -0.18646756 0.3091492 -0.09308117 0.18107821 0.27357203
-0.31783652 -0.32817984 -0.36860543 -0.03738422 0.19737074 -0.4835953 0.46556038 0.35694924
0.28896078 -0.39866844 0.3443394 -0.035930596 0.022076258 -0.30624852 0.26058343 -0.21106604
0.0297948 0.019908937 0.07245371 -0.114408776 0.28865066 0.25800407 0.028704666 0.45235202
0.396908 0.057985652 -0.30288926 -0.30129182 0.29286876 -0.22486782 0.56276464 -0.2081982
-0.38201362 0.19518505 0.18403165 0.18709335 0.08290083 -0.17171234 -0.43649983 -0.33705696
-0.23241647 -0.2880768 -0.40957403 0.21395443 -0.43624836 -0.37853986 -0.24901277 -0.4250433
-0.36750484 -0.060916632 -0.3880053 0.18480879 -0.13608964 -0.35791385 -0.28174084 0.10731352
0.099236324 0.3462761 -0.30326372 0.117944196 -0.3698719 0.043185838 0.0055073923 -0.33024627
-0.052872837 0.36540017 -0.31807432 0.28318498 0.03427759 -0.2573749 -0.29728693 0.049289268
0.18380097 0.24834627 0.4045491 -0.16933613 -0.0321649 0.42578185 0.08816576 -0.20859216
00000000: 25e4 f3be 8763 653e ad5d 47be b2e5 14be
00000010: df18 0a3e 0664 b13b c6d9 2a3e 5098 df3e
00000020: 373b 73bc ce16 703e 11e6 9a3e 9bab 8abe
00000030: 5b8a 563e 1f05 9f3e 1384 46be 7a09 883d
00000040: ce53 90bd f5e0 6cbe cc26 e23e 83bb 82be
00000050: 1bfa a6be 4240 493e f810 47bc f6ec 4cbe
00000060: b3b7 c5be 2981 073e 66f5 74bd d65a e83d
00000070: f187 d63c aa4f a8be b8af edbe bfc5 943d
00000080: f563 3f3d d419 62bc 4ae7 8ebe bcf2 d13e
00000090: 75f2 a73e 8068 fc3d cffd ae3e db17 8cbd
000000a0: 286d df3e 64b7 8dbe 7735 703d 48c0 62be
000000b0: b837 803e 8a00 c7be 4930 40be 5db0 113e
000000c0: bae4 4b3e fbac e33d 125e 7abd 384e ad3e
000000d0: c740 ccbd c2e7 e2be 73be bc3e 3cdb b93e
000000e0: 2953 9f3e 644f 013e 5254 14be bdf8 33be
000000f0: 5dc5 a53e a2ab a93e 6214 da3e ad4f cfbc
00000100: d68d f33d 1d67 be3e 4395 e23c f8c5 c9be
00000110: 6b28 b73e 8156 263e 8583 8bbe f8cc 053e
00000120: 2b0b af3c 3987 353d f0db b0be 2c25 bfbe
00000130: 4f7d 823e 2d3a 853e 19a3 4d3d fd68 b83e
00000140: 30dd b13e c62e c63e f253 fbbe e25b a03e
00000150: 8dda 553e 1ff3 d9be 6138 2f3e 13be 313d
00000160: 186a 983e a5fe 1a3e 4351 afbe b1ec 14bf
00000170: e26f f13e 4264 19be 094d 063f 2181 cc3e
00000180: e1f8 afbd 71dd 9c3e b794 7bbe c6df babb
00000190: 166d 933e 7a6b 973e e48d 103e 22b8 223e
000001a0: 5939 933e c8c8 f03d 0e81 98be 34b7 87be
000001b0: 15d8 283e eb0b 8fbe da3f ef3e 9958 653e
000001c0: 09ef ecbe d758 cc3e 0154 13be c655 c03e
000001d0: 3c8c afbe 2524 5dbd cf45 c13d 7484 7c3e
000001e0: ad50 bbbd 67d9 eb3c a6c4 be3d c6fa e9be
000001f0: 7b77 213f e90c 9bbe 08f9 c93d 7e73 23be
00000200: 5c3f f6bd c876 8ebe 121a 02bf 3e05 84be
00000210: 1f8a c63e 2502 d93d a4e3 e4bc a185 0a3f
00000220: a5aa f83e 03c5 67be a994 5f3d 25f0 90bd
00000230: 5e6b 5d3e a280 053f 16fb c83e c2ce 743e
00000240: 52fb 36bd 5374 0e3d 3315 06bf 78d0 543e
00000250: da66 1dbe 0dad d7be 9fa8 b63e 59cc e73e
00000260: b71f e33c 7c86 47bf eba2 20bd ebdd 33be
00000270: 19b2 a63d 6f2d ab3e 10bc c43e e2f8 0d3f
00000280: c6cb 333e 4dfc ac3e 9d28 693e bfa9 91bd
00000290: d750 733e 0a70 31be 0429 02be 894b 6d3e
000002a0: fe6f 823e 0f51 7a3e 50c4 b33e 5af1 3ebe
000002b0: ce48 9e3e 57a1 bebd 916c 393e a211 8c3e
000002c0: 78bb a2be 3007 a8be dab9 bcbe 3220 19bd
000002d0: 8e1b 4a3e ce99 f7be ee5d ee3e 0dc2 b63e
000002e0: abf2 933e 451e ccbe 414d b03e f62b 13bd
000002f0: 45d9 b43c 9bcc 9cbe 316b 853e b221 58be
00000300: 3914 f43c 1118 a33c 9c62 943d 264f eabd
00000310: 05ca 933e 1c19 843e 0c26 eb3c af9a e73e
00000320: 8637 cb3e 5d82 6d3d 4d14 9bbe ec42 9abe
00000330: e5f2 953e c043 66be 5811 103f e931 55be
00000340: 4a97 c3be 97de 473e cb72 3c3e 6695 3f3e
00000350: e9c7 a93d 5cd5 2fbe e87c dfbe bb92 acbe
00000360: 95fe 6dbe cd7e 93be b0b3 d1be df16 5b3e
00000370: f25b dfbe facf c1be 34fd 7ebe 479f d9be
00000380: 9829 bcbe b883 79bd a1a8 c6be 843e 3d3e
00000390: 155b 0bbe 7c40 b7be 5640 90be 31c7 db3d
000003a0: 6a3c cb3d 1a4b b13e 6245 9bbe ba8c f13d
000003b0: da5f bdbe a2e3 303d 5b77 b43b 0a16 a9be
000003c0: 3091 58bd bb15 bb3e a3da a2be 9ffd 903e
000003d0: a966 0c3d a5c6 83be fe35 98be 8be3 493d
000003e0: 5236 3c3e 7c4e 7e3e 0f21 cf3e 7366 2dbe
000003f0: 58bf 03bd 1400 da3e 4090 b43d 2f99 55be

encoder.2.bias f4 [16]
0.25489196 -0.32017827 0.2629915 0.379425 0.33195058 0.34084 0.37051058 0.34652603
0.3664331 0.4219575 0.3535805 0.31640655 0.36368614 -0.3211134 -0.22813572 0.35833946
00000000: 3381 823e 68ee a3be d2a6 863e fe43 c23e
00000010: 6df5 a93e 9582 ae3e 90b3 bd3e dc6b b13e
00000020: 1f9d bb3e d00a d83e 8108 b53e 0a00 a23e
00000030: 1235 ba3e fa68 a4be 699c 69be 4578 b73e

encoder.4.weight f4 [32, 16]
-0.15649314 -0.37118024 0.1393709 0.12271776 0.23951475 0.24233907 -0.22015522 0.23316942
-0.099038504 0.17604026 0.32912883 0.10543871 0.013613883 -0.01472908 -0.34350026 -0.006994829
-0.018848194 -0.019853847 -0.07232378 -0.0045174235 -0.07606805 0.354111 -0.09579824 -0.2090819
0.15081717 0.33200628 0.0128374705 0.20952913 0.098961085 0.35216707 0.3257035 -0.2489955
0.007542466 -0.019179493 -0.14034635 -0.04201042 0.07553319 0.25640097 0.15662509 0.3211133
0.24714749 0.2365485 0.45094094 -0.01934416 0.21728118 -0.36368638 -0.062009063 0.10664136
0.13057669 -0.10512889 -0.17648774 -0.1830424 -0.21288879 0.011123422 0.02238216 -0.0659156
-0.34263754 -0.17110585 -0.38341025 -0.18365966 0.06137037 0.3433854 0.09148162 -0.13512304
-0.027896956 0.14150707 -0.36182082 -0.07733446 -0.24579908 -0.279485 -0.45335582 -0.118611194
-0.06874216 -0.2430973 -0.3279512 -0.41372624 -0.26268798 0.012470032 -0.20096551 -0.045326583
-0.09255336 -0.16842258 0.2027304 -0.11709119 0.3940927 -0.05432118 -0.16785793 -0.09957156
0.30669767 0.13492537 -0.20663364 0.006819404 0.30717358 0.086382106 -0.27378842 0.30144224
-0.37288982 0.25943854 -0.07463641 0.08303643 -0.42087898 -0.18160832 -0.087067775 0.17017457
-0.4318183 -0.46052504 0.04612072 -0.44765314 -0.2305221 0.08468358 -0.06157505 -0.062343687
-0.324422 0.30049866 -0.024934947 -0.41330132 -0.33112442 -0.046680413 -0.3598905 -0.37370434
0.06245092 -0.32523432 -0.3138634 -0.09931308 0.1449426 -0.25322914 -0.23606744 -0.318756
-0.052852992 -0.031413905 -0.20391358 -0.074468374 -0.10659221 -0.19908328 -0.3902547 -0.32005543
-0.31925106 -0.49797595 -0.11749632 -0.31521982 0.19133931 0.29002786 0.32842982 -0.34893507
-0.10353047 0.28687543 -0.1418246 0.012345962 -0.3167341 -0.39262393 -0.09694976 -0.08688947
-0.31704715 -0.15284213 -0.32289204 -0.28804284 -0.43034652 -0.124599695 0.30572408 -0.15276097
0.10672851 -0.1378835 -0.16401197 0.50924957 0.12762925 0.48694345 0.16932133 0.19455716
0.47087747 0.20588253 0.15473151 0.11770014 0.335069 0.042235434 0.27536988 0.16646136
0.28155562 -0.1318278 -0.33749104 0.19185947 -0.0260114 0.18492502 0.08401507 0.2652901
0.054157045 0.24971469 -0.3096996 -0.24763267 0.3064072 0.3120675 0.008438318 -0.099728204
-0.13375153 0.30991498 0.08423892 -0.3881783 -0.13209914 0.023220269 -0.30661485 -0.2073022
-0.21285751 -0.15378238 0.16857842 -0.24536669 0.033881277 0.046663187 0.27981046 -0.07482411
0.006294859 0.038769025 0.19864368 0.15274753 0.073794916 -0.17000148 0.43546546 -0.12956561
0.20921151 0.567686 0.25854388 0.35318708 0.2566994 0.00654607 -0.32564655 -0.019576106
-0.06786108 0.20662832 0.08976172 -0.13348654 0.44445732 -0.08904427 0.28515807 0.49583697
0.34057093 0.47069424 0.1581877 0.08371165 0.4236184 0.19539763 -0.053095803 0.1848326
-0.26751667 -0.13012783 0.16091172 -0.019571468 0.10155228 -0.30277243 -0.20633936 -0.40205768
-0.018919643 0.0092343725 -0.010849871 -0.04057505 -0.22032183 -0.14124265 -0.14899398 -0.12230427
00000000: bd3f 20be 560b bebe 3fb7 0e3e 7353 fb3d
00000010: 5b43 753e bc27 783e 5f70 61be f7c3 6e3e
00000020: b3d4 cabd e643 343e 9383 a83e 40f0 d73d
00000030: c40c 5f3c 3d52 71bc 44df afbe e134 e5bb
00000040: 8767 9abc 89a4 a2bc 7d1e 94bd e506 94bb
00000050: 91c9 9bbd 094e b53e de31 c4bd 9119 56be
00000060: d16f 1a3e bafc a93e 4154 523c ce8e 563e
00000070: 1cac ca3d 3e4f b43e 9cc2 a63e adf8 7ebe
00000080: ca26 f73b 501e 9dbc f4b6 0fbe 1e13 2cbd
00000090: 25b1 9a3d fd46 833e 5462 203e f668 a43e
000000a0: 3b14 7d3e c539 723e bbe1 e63e a577 9ebc
000000b0: f57e 5e3e 1a35 babe 37fd 7dbd c966 da3d
000000c0: e5b5 053e d14d d7bd 34b9 34be 786f 3bbe
000000d0: 85ff 59be 033f 363c cb5a b73c c2fe 86bd
000000e0: 306e afbe 5f36 2fbe 594e c4be 4711 3cbe
000000f0: 7f5f 7b3d 36d0 af3e b75a bb3d b25d 0abe
00000100: 2888 e4bc 3be7 103e 9440 b9be 8861 9ebd
00000110: c1b2 7bbe a818 8fbe 411e e8be 6dea f2bd
00000120: b1c8 8cbd 80ee 78be 38e9 a7be edd3 d3be
00000130: 0a7f 86be 1b4f 4c3c e7c9 4dbe 5ea8 39bd
00000140: 9e8c bdbd f876 2cbe 8f98 4f3e 81cd efbd
00000150: 85c6 c93e e37f 5ebd f3e2 2bbe 2dec cbbd
00000160: 7a07 9d3e e029 0a3e c597 53be 4f75 df3b
00000170: db45 9d3e 1ae9 b03d ff2d 8cbe a356 9a3e
00000180: 6aeb bebe 21d5 843e f9da 98bd 010f aa3d
00000190: 737d d7be 88f7 39be 9750 b2bd 3e42 2e3e
000001a0: 4a17 ddbe f0c9 ebbe 15e9 3c3d cb32 e5be
000001b0: fc0d 6cbe 966e ad3d 1f36 7cbd 185c 7fbd
000001c0: a41a a6be f6da 993e 6044 ccbc 3b9c d3be
000001d0: 2489 a9be f633 3fbd 9143 b8be 2d56 bfbe
000001e0: 89cc 7f3d 1d85 a6be b4b2 a0be a864 cbbd
000001f0: d56b 143e 40a7 81be aabb 71be fd33 a3be
00000200: 617c 58bd deab 00bd b9ce 50be e082 98bd
00000210: 044d dabd 7ddc 4bbe 77cf c7be 4ede a3be
00000220: e074 a3be b4f6 febe e9a1 f0bd 7e64 a1be
00000230: 74ee 433e 887e 943e f427 a83e 9ea7 b2be
00000240: c807 d4bd 56e1 923e 783a 11be b846 4a3c
00000250: f92a a2be 0106 c9be 998d c6bd 1bf3 b1bd
00000260: 0154 a2be a682 1cbe 1b52 a5be 5a7a 93be
00000270: 6156 dcbe 202e ffbd de87 9c3e 5f6d 1cbe
00000280: 7a94 da3d 5531 0dbe c1f2 27be 2e5e 023f
00000290: 3eb1 023e a750 f93e 9262 2d3e fe39 473e
000002a0: da16 f13e dfd2 523e f071 1e3e c50c f13d
000002b0: 2a8e ab3e 10ff 2c3d 48fd 8c3e d974 2a3e
000002c0: 0f28 903e defd 06be a0cb acbe cf76 443e
000002d0: dc15 d5bc fc5c 3d3e 1810 ac3d 1bd4 873e
000002e0: c7d3 5d3d 35b5 7f3e f290 9ebe 6b93 7dbe
000002f0: 68e1 9c3e 50c7 9f3e df40 0a3c 4d3e ccbd
00000300: 29f6 08be 2dad 9e3e 7485 ac3d 4ebf c6be
00000310: ff44 07be 6f38 be3c 9ffc 9cbe 0747 54be
00000320: 52f7 59be 2179 1dbe d29f 2c3e 6841 7bbe
00000330: 18c7 0a3d e621 3f3d 5143 8f3e 623d 99bd
00000340: 1b45 ce3b 45cc 1e3d 4069 4b3e d969 1c3e
00000350: ca21 973d de14 2ebe 54f5 de3e d9ac 04be
00000360: 8b3b 563e df53 113f dd5f 843e f0d4 b43e
00000370: 1b6e 833e 6a80 d63b 25bb a6be 125e a0bc
00000380: c0fa 8abd 6096 533e fed4 b73d b2b0 08be
00000390: e98f e33e d85c b6bd 3d00 923e 58de fd3e
000003a0: 505f ae3e d6fe f03e f5fb 213e 0371 ab3d
000003b0: 83e4 d83e 5116 483e fc7a 59bd c244 3d3e
000003c0: f2f7 88be 3b40 05be 0bc6 243e 5854 a0bc
000003d0: a4fa cf3d fd04 9bbe a04a 53be 81da cdbe
000003e0: 5efd 9abc c44b 173c a8c3 31bc 0632 26bd
000003f0: 0c9c 61be eaa1 10be e191 18be a97a fabd

encoder.4.bias f4 [32]
0.36566606 0.1552924 0.35132822 -0.3531969 -0.35608077 0.33108273 -0.36196622 -0.36284602
-0.36274022 -0.36728773 0.37233067 0.35416627 -0.36649248 0.35642695 0.37447166 -0.29834273
-0.33453375 0.36776552 -0.3508874 0.3668712 0.36832678 0.36986876 -0.3514265 0.3106498
-0.34573528 -0.3720819 -0.3514632 -0.36189646 -0.35960385 -0.37283105 -0.35051826 -0.33608174
00000000: 9538 bb3e f904 1f3e 4be1 b33e 39d6 b4be
00000010: 3850 b6be ad83 a93e a353 b9be f4c6 b9be
00000020: 16b9 b9be 230d bcbe 20a2 be3e 4855 b53e
00000030: e7a4 bbbe 987d b63e c0ba bf3e 61c0 98be
00000040: 0248 abbe c34b bc3e 83a7 b3be 8bd6 bb3e
00000050: 5495 bc3e 705f bd3e 2dee b3be 7e0d 9f3e
00000060: 3704 b1be 8581 bebe fcf2 b3be 7e4a b9be
00000070: ff1d b8be b6e3 bebe 2177 b3be e812 acbe

residual.0.weight f4 [16, 32]
-0.0058434224 0.22700231 0.0845135 0.3130754 0.2843933 0.14456113 0.19206451 0.3468855
-0.31031457 0.21641366 0.34135696 -0.28046852 0.2841297 -0.31981546 0.19929914 0.33183357
-0.21639085 -0.099759445 0.05980827 -0.025834732 0.17880465 -0.20094863 0.2608558 0.06385124
-0.19605935 -0.17055131 0.26481938 -0.013716552 0.33439708 0.1448577 -0.15967804 -0.2792977
-0.0676141 0.28133163 0.16466883 0.044549923 -0.0028181123 0.25120205 -0.18425758 -0.314614
0.025575474 -0.07497053 0.12599267 -0.1293731 0.13432984 -0.28845808 0.19930935 0.06236137
-0.13383281 -0.07170895 -0.1510742 -0.16887432 0.056790885 -0.25953078 -0.2446722 -0.30023548
-0.15576038 0.28095755 -0.15251811 -0.29443598 0.04864031 -0.1653876 -0.07721855 -0.19840106
0.1553688 -0.15093066 0.09421094 0.055847067 -0.3439163 -0.14473128 0.16121757 0.15329091
0.14272268 -0.33982602 0.033035457 0.31036693 0.09636937 0.25424287 -0.079358116 -0.07509723
-0.27227873 -0.27121863 0.23026052 0.26555395 -0.08267836 0.2863302 -0.13704643 -0.2405415
-0.29376435 -0.03920672 -0.1768604 0.21172768 -0.18329258 -0.3188061 -0.031352382 0.14719008
0.02721643 0.10039454 -0.041629273 0.18589896 0.28193432 0.16089231 0.10691646 0.13618538
0.25453758 -0.17831242 0.17272997 -0.018309167 -0.28536808 0.017327007 -0.15248187 0.11208472
0.19504473 -0.27516195 -0.10031065 0.26106277 -0.09704414 0.23679198 0.17810231 0.10262631
-0.05491188 -0.020302925 0.30349067 0.19424166 -0.07731848 -0.09221675 0.34287894 0.24517895
-0.0656909 0.11339315 0.108693756 0.27437648 0.09300504 -0.066443756 -0.13304509 -0.24336988
0.0023066131 0.25668013 0.095922135 0.13680556 0.28543067 -0.008016152 -0.20739184 0.08612659
0.32290453 -0.3353372 -0.2526522 -0.23069975 -0.18189058 0.11180596 0.21408325 0.32998154
-0.19745697 0.05692695 -0.036813274 0.32339904 -0.1778806 -0.2922035 0.21284069 0.14088944
-0.108483665 -0.3344717 -0.16798821 -0.15764779 -0.08077635 0.25903347 -0.046507787 0.30349377
-0.08501043 0.33557028 0.008375909 -0.2686147 0.004206047 0.096835546 0.23378196 0.08067674
-0.15390088 -0.25623712 -0.11488713 -0.23527582 0.25914547 -0.17833488 0.044873565 -0.01012441
-0.14091045 0.12851936 0.018092694 0.18105742 0.34743738 -0.32191393 0.26118758 -0.07529876
-0.3081164 0.08698647 0.03831771 -0.020557228 0.07756466 -0.25986272 -0.3228032 0.28750128
-0.1684863 0.30344674 0.13152696 0.22681035 0.017580204 -0.110179976 0.23155779 -0.16396381
-0.15857896 0.055813648 -0.2973507 0.20312314 0.055198003 -0.10581806 0.21076705 -0.113278314
-0.27083406 -0.28158668 0.23223221 0.15603866 -0.325716 -0.19439583 -0.14103182 -0.3260691
0.084195934 0.011174779 0.33822224 0.24236703 0.15231243 0.070979446 0.13418168 -0.1516737
-0.09814758 0.24833241 -0.1567016 -0.046234436 -0.09125798 0.05696276 0.23095623 0.30663532
0.19277927 0.01266716 0.30474958 0.2815438 -0.130809 0.3461891 -0.09090377 0.22868071
-0.07881981 0.041846685 0.057531144 -0.23351003 0.1965033 0.09932308 -0.31084442 0.32764181
00000000: 2e7a bfbb 4b73 683e 6a15 ad3d 6b4b a03e
00000010: 009c 913e d507 143e 8fac 443e fa9a b13e
00000020: 8de1 9ebe 8b9b 5d3e 57c6 ae3e 9299 8fbe
00000030: 7379 913e dabe a3be 1315 4c3e 17e6 a93e
00000040: 9095 5dbe ae4e ccbd 84f9 743d 5ca3 d3bc
00000050: 9118 373e 7ac5 4dbe e48e 853e 70c4 823d
00000060: c8c3 48be 01a5 2ebe 6896 873e 64bb 60bc
00000070: 1836 ab3e 9455 143e a482 23be 1c00 8fbe
00000080: 4379 8abd b30a 903e f29e 283e fb79 363d
00000090: 14b0 38bb 8e9d 803e 05ae 3cbe 1615 a1be
000000a0: a883 d13c 268a 99bd 3904 013e 627a 04be
000000b0: c38d 093e c7b0 93be c017 4c3e a36e 7f3d
000000c0: 780b 09be 24dc 92bd 32b3 1abe 64ed 2cbe
000000d0: 8f9d 683d 38e1 84be 598b 7abe 77b8 99be
000000e0: a67f 1fbe abd9 8f3e b52d 1cbe 50c0 96be
000000f0: 103b 473d 5e5b 29be c224 9ebd a629 4bbe
00000100: 0019 1f3e 918d 1abe aaf1 c03d e5bf 643d
00000110: cc15 b0be 7034 14be 3816 253e 4bf8 1c3e
00000120: e525 123e adfd adbe 3050 073d 6ae8 9e3e
00000130: 4e5d c53d 1f2c 823e 8286 a2bd 94cc 99bd
00000140: 1e68 8bbe 2bdd 8abe 6ac9 6b3e b0f6 873e
00000150: 4653 a9bd df99 923e e655 0cbe 8350 76be
00000160: 4868 96be 3a97 20bd e51a 35be 24cf 583e
00000170: 0db1 3bbe 8e3a a3be 5b6b 00bd ffb8 163e
00000180: fef4 de3c a79b cd3d 7583 2abd 4c5c 3e3e
00000190: b259 903e f4c0 243e 04f7 da3d 2e74 0b3e
000001a0: c052 823e 8897 36be 20e0 303e 1bfd 95bc
000001b0: c41b 92be 5ef1 8d3c 3524 1cbe ac8c e53d
000001c0: ceb9 473e 07e2 8cbe ac6f cdbd 05aa 853e
000001d0: 14bf c6bd 9979 723e 7460 363e be2d d23d
000001e0: 48eb 60bd 5252 a6bc 2163 9b3e 49e7 463e
000001f0: 2759 9ebd 23dc bcbd d48d af3e 3110 7b3e
00000200: f388 86bd ab3a e83d d59a de3d 137b 8c3e
00000210: 6d79 be3d aa13 88bd f93c 08be f435 79be
00000220: 8c2a 173b 946b 833e d372 c43d c216 0c3e
00000230: f823 923e 2e56 03bc 875e 54be 2363 b03d
00000240: be53 a53e 51b1 abbe a15b 81be 8e3c 6cbe
00000250: 8641 3abe 86fa e43d a438 5b3e 57f3 a83e
00000260: 2932 4abe 3c2c 693d 84c9 16bd 8f94 a53e
00000270: 5526 36be b29b 95be e9f2 593e 5245 103e
00000280: af2c debd e03f abbe 1a05 2cbe 6c6e 21be
00000290: 126e a5bd 09a0 843e f37e 3ebd 8963 9b3e
000002a0: f319 aebd decf ab3e 1c3b 093c de87 89be
000002b0: e1d2 893b b751 c63d 8a64 6f3e d939 a53d
000002c0: 3198 1dbe 8331 83be f249 ebbd 25ec 70be
000002d0: b7ae 843e 6b9d 36be 58cd 373d dae0 25bc
000002e0: d44a 10be 949a 033e 2137 943c 1e67 393e
000002f0: 50e3 b13e e7d1 a4be 61ba 853e 3c36 9abd
00000300: 6fc1 9dbe f625 b23d 08f3 1c3d a267 a8bc
00000310: 38da 9e3d ba0c 85be 7646 a5be 5e33 933e
00000320: ac87 2cbe 5f5d 9b3e 01af 063e f940 683e
00000330: 5c04 903c 0aa6 e1bd 7c1d 6d3e 21e6 27be
00000340: 8662 22be da9c 643d 5a3e 98be 83ff 4f3e
00000350: 4d17 623d 24b7 d8bd 51d3 573e 76fe e7bd
00000360: c3aa 8abe 212c 90be 48ce 6d3e 99c8 1f3e
00000370: 3fc4 a6be b30f 47be a56a 10be 87f2 a6be
00000380: eb6e ac3d 6c16 373c 772b ad3e 102f 783e
00000390: caf7 1b3e ac5d 913d ec66 093e 5a50 1bbe
000003a0: 9901 c9bd da4a 7e3e 6276 20be 5260 3dbd
000003b0: 77e5 babd c851 693d ca7f 6c3e 4eff 9c3e
000003c0: ee67 453e eb89 4f3c 2308 9c3e 8226 903e
000003d0: cbf2 05be b33f b13e c12b babd 472b 6a3e
000003e0: 486c a1bd 6e67 2b3d c7a5 6b3d 411d 6fbe
000003f0: 2938 493e e669 cb3d 0027 9fbe abc0 a73e

residual.0.bias f4 [16]
-0.002180157 -0.0041090613 -0.005385097 0.0053455587 -0.0063062552 0.004879622 -0.0050522606 -0.006186237
0.0041263252 -0.0044209063 0.005149483 -0.0024136067 0.0053893593 0.0057953196 0.0054777157 0.005604011
00000000: f7e0 0ebb 4ea5 86bb 7875 b0bb cc29 af3b
00000010: b4a4 cebb 3ce5 9f3b 6f8d a5bb ebb5 cabb
00000020: 2036 873b 40dd 90bb ffbc a83b 9a2d 1ebb
00000030: 3999 b03b aae6 bd3b 697e b33b daa1 b73b

residual.2.weight f4 [16, 16]
-0.21707049 0.27428475 0.044772994 -0.0935216 0.24543898 0.012780843 -0.19343731 0.3537066
-0.022967312 -0.08822631 -0.18806775 -0.11945098 -0.12843852 0.08833826 0.21484204 0.39013985
0.4038697 -0.22952612 0.29141012 0.21051206 -0.019039966 0.31823117 0.3047799 -0.038204074
0.052302696 0.3861521 -0.42609352 0.19110276 -0.42790863 0.03510979 -0.3944014 0.4376875
0.2088828 0.24612954 -0.33970234 0.101795465 -0.17555507 -0.35359132 0.018293448 -0.3691699
0.18350667 -0.18945123 0.43645757 0.3626604 0.27866197 0.42315358 0.34823796 0.27127758
0.2652243 0.15862277 0.19597626 0.30177397 0.416194 -0.3978388 -0.13049231 0.1123693
0.3495371 0.20988141 0.27817053 -0.3850055 0.2848935 0.01468875 0.1341723 0.3426579
0.39916423 0.3900551 -0.39961383 -0.088146545 -0.14919057 -0.19289806 0.060509272 -0.014235758
-0.42742506 0.32295817 0.39047852 -0.28478968 -0.30591288 -0.4145847 0.3846759 -0.1318243
0.068350546 0.37498277 0.17185394 0.1487833 -0.03658665 0.33251378 0.41858932 0.11928387
0.13962545 -0.10006473 0.3066292 -0.22776325 -0.43043888 0.3702038 -0.1615517 0.40391204
-0.080891885 0.015348492 -0.2601059 -0.021839611 -0.24803184 -0.19758478 0.09217264 -0.33361694
0.2464517 -0.3092752 -0.37159234 -0.3499243 0.23893055 -0.11180502 0.34491202 -0.16983245
-0.21943757 -0.21360248 0.27006742 -0.36111856 -0.15265124 -0.38512453 0.36697564 0.1659605
0.04672686 0.4038415 -0.39627263 0.2137808 -0.2659926 -0.2151032 -0.39961588 -0.39461493
0.023959255 0.24583742 -0.1279473 0.2939317 0.2322829 -0.24699648 0.2877959 0.19653279
0.21460143 -0.20483558 0.01673711 -0.17773679 -0.3877572 -0.1682676 -0.29693165 0.25404066
-0.2875976 -0.2878865 0.34045985 -0.35151228 -0.2873439 0.02084275 0.25092262 -0.23914732
-0.3537378 0.06214565 0.28826666 -0.014235261 0.30748242 0.3744991 0.42451972 -0.22882627
-0.16210262 0.28650573 0.06821658 0.3163316 0.21371381 0.15968913 0.18654539 -0.30543858
-0.09935152 0.03144706 -0.19258228 -0.21495257 0.05826687 0.21105324 -0.13848697 0.19549796
0.28272784 0.17062658 -0.25397438 0.30012232 -0.37098032 0.011097692 0.28104898 -0.23523071
0.16921891 -0.24677995 0.18777649 0.011687852 -0.35316983 -0.16639939 -0.16073218 0.25580752
0.097881235 0.01701968 -0.0978692 0.2725695 0.122368954 0.1349066 -0.060313217 -0.41730812
0.40957606 -0.08870842 -0.17169136 0.14615366 -0.0110913385 0.39618218 -0.28347644 0.24107133
0.33708948 -0.0020733383 -0.38267183 0.25462034 0.035495505 0.118242264 -0.2996411 -0.1098349
0.2761109 -0.28518155 0.19029358 0.2489959 0.22794983 0.11687804 -0.003227018 -0.18374503
0.23721834 -0.08728597 -0.36452425 -0.30653936 -0.3792195 -0.39154643 -0.04655764 0.1173231
-0.25911957 -0.29653153 -0.23830073 -0.14267333 0.078888245 0.42715168 0.32006907 -0.27786672
-0.17662476 0.31137094 0.10086996 -0.14521374 -0.2219239 0.36629674 0.13622293 -0.15290351
0.09813825 -0.270146 -0.2235838 0.17112437 0.22686842 0.1627003 -0.09544984 -0.064012304
00000000: ba47 5ebe 0d6f 8c3e e363 373d 4188 bfbd
00000010: 5b54 7b3e be66 513c 6e14 46be 0819 b53e
00000020: f225 bcbc ffaf b4bd d594 40be b7a2 f4bd
00000030: 6385 03be b1ea b43d 8dff 5b3e 69c0 c73e
00000040: 02c8 ce3e e508 6bbe b533 953e 7990 573e
00000050: b4f9 9bbc 32ef a23e 1c0c 9c3e e07b 1cbd
00000060: 5a3b 563d bab5 c53e ee28 dabe 71b0 433e
00000070: d716 dbbe 48cf 0f3d fbee c9be 9318 e03e
00000080: 5fe5 553e 6209 7c3e 77ed adbe 247a d03d
00000090: b5c4 33be ec09 b5be 24dc 953c d603 bdbe
000000a0: 2ce9 3b3e 81ff 41be 5e77 df3e a0ae b93e
000000b0: c8ac 8e3e 96a7 d83e 3f4c b23e e5e4 8a3e
000000c0: 7bcb 873e 026e 223e 00ae 483e 1e82 9a3e
000000d0: 6117 d53e 87b1 cbbe c79f 05be e021 e63d
000000e0: 87f6 b23e 27eb 563e 5e6c 8e3e 711f c5be
000000f0: 90dd 913e 15a9 703c 7764 093e db70 af3e
00000100: 415f cc3e 4db5 c73e 2f9a ccbe 2d86 b4bd
00000110: 6ac5 18be 1287 45be 92d8 773d 193d 69bc
00000120: 75d7 dabe c65a a53e cdec c73e f4cf 91be
00000130: 9da0 9cbe 7244 d4be 3df4 c43e f3fc 06be
00000140: 5ffb 8b3d befd bf3e 7bfa 2f3e a65a 183e
00000150: e2db 15bd 3f3f aa3e 5751 d63e 1a4b f43d
00000160: f9f9 0e3e bdee ccbd 81fe 9c3e c53a 69be
00000170: 7c62 dcbe 5a8b bd3e cf6d 25be 8fcd ce3e
00000180: a5aa a5bd 3e78 7b3c 9a2c 85be fce8 b2bc
00000190: 0ffc 7dbe aa53 4abe 02c5 bc3d d7cf aabe
000001a0: d65d 7c3e 5259 9ebe 5a41 bebe 4729 b3be
000001b0: 36aa 743e 08fa e4bd 4f98 b03e 8fe8 2dbe
000001c0: 3eb4 60be 9cba 5abe 4746 8a3e 88e4 b8be
000001d0: 9b50 1cbe 0b2f c5be 3be4 bb3e 8df1 293e
000001e0: aa64 3f3d 50c4 ce3e 3fe4 cabe 5be9 5a3e
000001f0: 2f30 88be 0344 5cbe 749a ccbe f80a cabe
00000200: 3346 c43c cebc 7b3e 9e04 03be 377e 963e
00000210: 92db 6d3e a5ec 7cbe fc59 933e e43f 493e
00000220: 7ac0 5b3e 6bc0 51be 441c 893c a200 36be
00000230: 1d88 c6be 574e 2cbe 6d07 98be 9e11 823e
00000240: fe3f 93be dc65 93be c150 ae3e 6bf9 b3be
00000250: bd1e 93be 6abe aa3c ee78 803e 09e3 74be
00000260: 1f1d b5be 708c 7e3d b097 933e 033b 69bc
00000270: 566e 9d3e 59be bf3e a65a d93e 6f51 6abe
00000280: 3bfe 25be e1b0 923e 22b5 8b3d 37f6 a13e
00000290: cbd7 5a3e 8c85 233e c105 3f3e 7262 9cbe
000002a0: cf78 cbbd a2ce 003d 4a34 45be 871c 5cbe
000002b0: 3ea9 6e3d 571e 583e 87cf 0dbe 9e30 483e
000002c0: b4c1 903e bcb8 2e3e ee08 82be a2a9 993e
000002d0: 22f1 bdbe 18d3 353c a7e5 8f3e 52e0 70be
000002e0: b947 2d3e e2b3 7cbe 7b48 403e 687e 3f3c
000002f0: add2 b4be 9a64 2abe fa96 24be 34f9 823e
00000300: f575 c83d db6c 8b3c a66f c8bd 3b8e 8b3e
00000310: 939c fa3d f524 0a3e fe0a 77bd 69a9 d5be
00000320: f4b3 d13e c3ac b5bd dccf 2fbe 4ea9 153e
00000330: 72b8 35bc 64d8 ca3e d323 91be 67db 763e
00000340: fe96 ac3e d8e0 07bb 90ed c3be 995d 823e
00000350: bc63 113d 0029 f23d 8f6a 99be 1ff1 e0bd
00000360: 685e 8d3e 5103 92be 52dc 423e c8f8 7e3e
00000370: ae6b 693e c15d ef3d 617c 53bb a827 3cbe
00000380: 5de9 723e fdc2 b2bd eca2 babe baf2 9cbe
00000390: 0f29 c2be c678 c8be 39b3 3ebd 1847 f03d
000003a0: 52ab 84be fbd2 97be 1b05 74be f518 12be
000003b0: 2990 a13d a0b3 da3e 18e0 a33e 8c44 8ebe
000003c0: 1fdd 34be 036c 9f3e e994 ce3d e9b2 14be
000003d0: 0540 63be 3f8b bb3e 067e 0b3e bd92 1cbe
000003e0: b5fc c83d 9450 8abe 27f3 64be 3a3b 2f3e
000003f0: 3250 683e e89a 263e 357b c3bd e218 83bd

residual.2.bias f4 [16]
0.0013051215 -0.0051120142 0.007645454 -0.005194795 -0.0052086785 0.0052986876 0.0063000186 -0.0052369884
0.0051392303 0.0052778367 -0.0052061584 0.005345073 -0.0053600343 -0.0057682255 0.004750709 -0.005098503
00000000: 9c10 ab3a af82 a7bb b786 fa3b 1939 aabb
00000010: 90ad aabb 9da0 ad3b 6370 ce3b 0b9b abbb
00000020: fd66 a83b b4f1 ac3b 6c98 aabb b925 af3b
00000030: 3aa3 afbb 6203 bdbb d6ab 9b3b 5811 a7bb

residual.4.weight f4 [8, 16]
-0.32891217 0.49327117 0.06249945 -0.49111536 0.32515535 0.05689496 -0.10016683 -0.042046838
-0.47932833 -0.3207697 0.37320027 -0.04113954 0.035474584 -0.39093935 -0.094079554 0.2301218
0.30476293 -0.4220684 -0.19968471 -0.4130612 -0.47117257 -0.281714 0.13647227 -0.42064217
0.49266768 -0.074411124 0.18419455 0.4123886 -0.1240899 -0.4117155 0.39854243 0.19490224
0.40765065 -0.4204251 -0.43024325 0.092552386 -0.2613179 -0.02102899 0.50196093 0.34205616
-0.09257516 0.11141917 -0.49979988 0.40917033 -0.24515633 0.45757827 0.08684571 0.47200534
-0.10954025 0.4508792 -0.44247052 0.3347423 0.24509807 0.08902981 -0.35713884 0.25713903
-0.3298283 0.2680427 0.1642371 -0.20725004 -0.17804645 0.23534979 0.12977958 -0.16391012
0.2610473 0.094691485 -0.0036923282 0.18313567 -0.31946436 -0.3002393 0.20332757 0.2408899
0.43066862 0.031476993 -0.35984176 -0.26861075 0.48995006 -0.16867712 -0.08340202 -0.4395667
0.4523913 0.08236041 0.04965811 0.45842206 -0.49195302 -0.04422422 -0.04212001 -0.45141387
0.27802536 0.297683 -0.47929192 0.4960439 -0.20982757 -0.07559904 -0.15303443 0.25672567
0.12589163 0.35977456 0.30432257 0.25128374 0.10256844 -0.3260661 -0.21640268 0.35158324
0.36864674 -0.24642892 0.4836002 -0.23935094 0.44475508 -0.29934868 -0.36285883 0.39295805
0.03695793 0.47172078 -0.42058426 -0.14025022 -0.30283198 0.17184253 0.19281839 -0.1197461
-0.02123384 0.49403697 0.29366207 -0.37845495 0.19977048 0.19506449 -0.48576593 -0.1288736
00000000: 2d67 a8be 0a8e fc3e 6cff 7f3d 7973 fbbe
00000010: c37a a63e b10a 693d 4424 cdbd 4e39 2cbd
00000020: 866a f5be ed3b a4be 1b14 bf3e ef81 28bd
00000030: cc4d 113d 3429 c8be c8ac c0bd 0da5 6b3e
00000040: e309 9c3e 5919 d8be 267a 4cbe c27c d3be
00000050: 883d f1be d13c 90be 63bf 0b3e 695e d7be
00000060: f03e fc3e dc64 98bd 7f9d 3c3e 9924 d33e
00000070: d822 febd 60cc d2be c10d cc3e 7494 473e
00000080: 96b7 d03e f541 d7be d848 dcbe 1b8c bd3d
00000090: 76cb 85be fd44 acbc 8380 003f fc21 af3e
000000a0: 0c98 bdbd bc2f e43d c5e5 ffbe c67e d13e
000000b0: 430a 7bbe b347 ea3e 2adc b13d afaa f13e
000000c0: a356 e0bd a3d9 e63e 7f8b e2be 5863 ab3e
000000d0: fdfa 7a3e 4355 b63d e7da b6be baa7 833e
000000e0: 41df a8be e53c 893e c52d 283e 5b39 54be
000000f0: cf51 36be 89ff 703e f0e4 043e 0ed8 27be
00000100: fea7 853e 9ced c13d fdfa 71bb eb87 3b3e
00000110: d590 a3be f7b8 99be 1a35 503e d8ab 763e
00000120: 9980 dc3e 05ee 003d 2e3d b8be 5987 89be
00000130: bcda fa3e b2b9 2cbe aece aabd e30e e1be
00000140: d59f e73e 93ac a83d 4d66 4b3d 4cb6 ea3e
00000150: 44e1 fbbe 7524 35bd 0886 2cbd b81f e7be
00000160: 5759 8e3e e869 983e c065 f5be 77f9 fd3e
00000170: 0add 56be abd3 9abd 0fb5 1cbe 8c71 833e
00000180: bce9 003e 5f34 b83e 2bd0 9b3e 43a8 803e
00000190: 670f d23d 23f2 a6be aa98 5dbe b802 b43e
000001a0: 44bf bc3e dd57 7cbe 729a f73e 6a18 75be
000001b0: f0b6 e33e 3b44 99be a2c8 b9be cc31 c93e
000001c0: 3361 173d 6385 f13e d256 d7be c19d 0fbe
000001d0: cb0c 9bbe 7df7 2f3e 2f72 453e 713d f5bd
000001e0: 97f2 adbc 6af2 fc3e e05a 963e d9c4 c1be
000001f0: a290 4c3e fcbe 473e 50b6 f8be 71f7 03be

residual.4.bias f4 [8]
-0.0047262115 -0.0052413624 -0.0051925327 -0.0052243974 0.005214095 0.0053400644 -0.0052254573 0.0052664997
00000000: 56de 9abb bcbf abbb 1f26 aabb 6c31 abbb
00000010: 00db aa3b b5fb ae3b 503a abbb 9a92 ac3b

residual.6.weight f4 [1, 8]
-0.17371131 -0.47739688 -0.4358141 -0.707862 0.28572774 0.37649915 -0.807321 0.14002912
00000000: 61e1 31be 5d6d f4be 0723 dfbe 7236 35bf
00000010: e84a 923e 7fc4 c03e 97ac 4ebf cb63 0f3e

nee_decoder.0.weight f4 [16, 32]
0.13694987 0.25036022 0.27923763 -0.03524259 0.11235479 0.26116785 0.057334967 0.039439645
0.28425312 -0.20881869 0.18651836 -0.021558313 -0.17690025 -0.14426625 0.021660862 -0.03658702
-0.06405001 -0.24996802 -0.06840329 -0.11125671 -0.22474378 -0.40841234 -0.042959288 0.27325338
0.08952561 0.3950431 -0.287595 0.091637656 -0.028509215 -0.22922356 0.13723297 -0.14679503
-0.41562325 0.2785885 0.38093528 -0.0113538895 -0.049945362 -0.058932357 -0.33723617 -0.017911222
-0.035962224 -0.20508464 -0.13660848 0.19039916 -0.07001091 0.24377044 -0.16119568 -0.13542339
0.16886988 -0.26113448 0.24823736 0.1671724 -0.33596715 -0.26701593 -0.22061983 -0.007108395
-0.026623143 -0.07280574 -0.1357911 0.14860262 -0.14597744 0.4081964 0.18238255 -0.15548825
-0.019332977 -0.026828984 0.2071685 -0.44100174 0.30707642 0.53434557 -0.09262928 -0.38910076
0.08057331 0.13657367 0.1960198 0.10540126 0.31350884 0.24388722 0.19977525 -0.16794248
-0.41570127 0.19282463 0.08107 0.053602446 0.3102203 0.32975784 0.21697034 0.02650583
0.3423485 0.3347697 -0.171528 -0.07105291 -0.2952576 0.03577799 0.13562883 -0.36084992
-0.067511536 -0.61862904 -0.17273404 -0.19825211 -0.15315428 -0.058707505 -0.16913395 0.32042336
0.08177274 -0.13185018 -0.31356245 -0.21057527 0.09282195 0.29803857 0.20150162 -0.15177196
-0.15128405 -0.2928186 -0.070342936 0.0816295 -0.32501394 0.19228655 0.077635884 0.105630524
0.0015118251 -0.14100762 0.068486415 -0.24689297 0.053572025 0.2686668 -0.049097482 0.0925166
-0.30086723 -0.034689855 -0.13546023 0.13203736 0.24190189 0.1707075 -0.26222232 -0.2806676
0.1840053 0.1251317 0.20080721 0.2035026 0.3042476 -0.3061402 0.011534759 0.07208708
0.20180206 -0.31116572 0.0028700426 -0.04127656 0.05979486 0.04392125 0.18577 0.24124046
-0.12973529 -0.3103531 -0.024350876 0.19540706 -0.21978672 0.032338347 0.19473751 -0.32029808
0.25756022 0.17308643 -0.27806368 0.3211318 -0.14598861 0.016289653 -0.08835139 0.30816683
-0.080299005 -0.111664236 -0.2529522 0.0814942 0.14762405 -0.22848627 -0.26301384 0.45050302
-0.057890102 0.13161193 0.49306515 -0.44574183 -0.22113442 -0.38484192 0.07550016 0.24250078
-0.07307275 0.11343758 -0.043742258 0.29707247 0.11189432 -0.08875615 0.22416387 0.51115924
0.027973125 -0.38495904 0.14079024 0.10961652 0.07652517 0.19499113 -0.10024549 -0.32049778
0.26468208 -0.044938955 -0.060370084 -0.025890952 0.14481136 -0.23580989 -0.22925127 0.017352939
-0.04055909 0.2699506 -0.29080716 -0.23525703 -0.34813032 -0.03271476 -0.14188005 0.15163018
0.2997771 0.26823154 0.085883066 0.24649848 -0.36364302 0.28833428 0.05381753 0.28412122
-0.27224037 -0.058043163 -0.23096563 0.25523573 0.012285949 -0.04579908 -0.024994561 -0.2939359
0.2056251 -0.117546014 -0.19358835 0.12413511 0.19025761 -0.07050149 0.26472768 -0.28593802
-0.2803185 0.037664063 0.05286621 -0.16144107 0.032753937 -0.0020773266 -0.20708689 -0.06096584
0.20739268 -0.14639573 -0.00904329 0.068147734 -0.123078875 0.29229617 0.022846725 0.08716776
00000000: 963c 0c3e 372f 803e 3cf8 8e3e 895a 10bd
00000010: 451a e63d cbb7 853e 12d8 6a3d 778b 213d
00000020: a089 913e 91d4 55be abfe 3e3e 0f9b b0bc
00000030: 5725 35be 88ba 13be 1f72 b13c 45dc 15bd
00000040: a72c 83bd 9ef7 7fbe 0617 8cbd 8fda e3bd
00000050: 3c23 66be 6c1b d1be 14f6 2fbd dee7 8b3e
00000060: 3459 b73d 1743 ca3e a73f 93be 86ac bb3d
00000070: 288c e9bc 95b9 6abe cd86 0c3e 7051 16be
00000080: 92cc d4be 27a3 8e3e f309 c33e aa05 3abc
00000090: 8293 4cbd 0e63 71bd 38aa acbe 8eba 92bc
000000a0: 204d 13bd b501 52be 18e3 0bbe fff7 423e
000000b0: e161 8fbd f59e 793e 7b10 25be 6eac 0abe
000000c0: 3aec 2c3e 6bb3 85be ef31 7e3e 3e2f 2b3e
000000d0: e303 acbe 50b6 88be 2aea 61be 8aed e8bb
000000e0: c718 dabc 2d1b 95bd d20c 0bbe 492b 183e
000000f0: 1c7b 15be 1eff d03e 7ec2 3a3e 5038 1fbe
00000100: 3160 9ebc 75c8 dbbc fb23 543e fbca e1be
00000110: 1f39 9d3e dfca 083f 6cb4 bdbd 3738 c7be
00000120: 9f03 a53d f8d9 0b3e 6ab9 483e 9edc d73d
00000130: 3b84 a03e 92bd 793e e291 4c3e 1df9 2bbe
00000140: ccd6 d4be d273 453e 0708 a63d 3d8e 5b3d
00000150: 32d5 9e3e 05d6 a83e 792d 5e3e c122 d93c
00000160: 4d48 af3e ef66 ab3e 09a5 2fbe 3084 91bd
00000170: 012c 97be f18b 123d 49e2 0a3e 52c1 b8be
00000180: 7d43 8abd 795e 1ebf 31e1 30be 9a02 4bbe
00000190: 7ad4 1cbe 4877 70bd 7331 2dbe 880e a43e
000001a0: 7778 a73d bc03 07be 428b a0be 0ba1 57be
000001b0: 6f19 be3d 8398 983e 7156 4e3e 1c6a 1bbe
000001c0: 35ea 1abe 52ec 95be f50f 90bd 5e2d a73d
000001d0: 3a68 a6be c4e6 443e 90ff 9e3d d154 d83d
000001e0: 6f28 c63a 4d64 10be 9b42 8c3d 83d1 7cbe
000001f0: 576e 5b3d b28e 893e 711a 49bd 5879 bd3d
00000200: 450b 9abe f316 0ebd 16b6 0abe cd34 073e
00000210: 21b5 773e f2cd 2e3e 0142 86be aab3 8fbe
00000220: e36b 3c3e 8622 003e 68a0 4d3e fc62 503e
00000230: 57c6 9b3e 69be 9cbe 49fc 3c3c 64a2 933d
00000240: 33a5 4e3e 1d51 9fbe 5317 3c3b 9c11 29bd
00000250: 75eb 743d c5e6 333d 7e3a 3e3e bd07 773e
00000260: 54d9 04be 9ae6 9ebe 7d7b c7bc ca18 483e
00000270: c50f 61be 3775 043d 4569 473e 1cfe a3be
00000280: efde 833e 923d 313e 5d5e 8ebe 636b a43e
00000290: 0a7e 15be e171 853c 93f1 b4bd 0bc8 9d3e
000002a0: ce73 a4bd 38b0 e4bd f382 81be 6ee6 a63d
000002b0: c22a 173e 4ef8 69be c0a9 86be 55a8 e63e
000002c0: 2c1e 6dbd 47c5 063e 0973 fc3e 4638 e4be
000002d0: 1071 62be 000a c5be d49f 9a3d 2052 783e
000002e0: 2aa7 95bd f651 e83d 152b 33bd e219 983e
000002f0: d928 e53d c9c5 b5bd 378b 653e 55db 023f
00000300: e527 e53c 5a19 c5be 512b 103e a07e e03d
00000310: 3ab9 9c3d c1ab 473e 824d cdbd 4918 a4be
00000320: 6984 873e e911 38bd 9f46 77bd 4319 d4bc
00000330: 6e49 143e 2678 71be d8c0 6abe c027 8e3c
00000340: 4a21 26bd f736 8a3e ade4 94be 38e7 70be
00000350: 233e b2be eaff 05bd 0149 11be f144 1b3e
00000360: 627c 993e a555 893e 76e3 af3d 196a 7c3e
00000370: 6b2f babe 8da0 933e c56f 5c3d 5678 913e
00000380: 1763 8bbe abbe 6dbd 4182 6cbe 42ae 823e
00000390: 014b 493c d197 3bbd 65c1 ccbc c47e 96be
000003a0: 638f 523e f7bb f0bd 063c 46be 8c3a fe3d
000003b0: e4d2 423e 1663 90bd 638a 873e 7866 92be
000003c0: e885 8fbe a245 1a3d 3d8a 583d cf50 25be
000003d0: fe28 063d c223 08bb 960e 54be 51b7 79bd
000003e0: bf5e 543e c3e8 15be 4f2a 14bc 0a91 8b3d
000003f0: c710 fcbd d8a7 953e 0e29 bb3c 0385 b23d

nee_decoder.0.bias f4 [16]
-0.054024193 0.027244002 -0.14313374 -0.08293392 -0.011131061 0.14339967 -0.02581274 -0.033592273
-0.19431846 -0.13971086 -0.19543603 -0.036600154 -0.14866628 -0.016267505 -0.045840275 0.2556544
00000000: 7948 5dbd d02e df3c a791 12be 42d9 a9bd
00000010: 0e5f 36bc 5dd7 123e 3d75 d3bc 0d98 09bd
00000020: 6bfb 46be 5d10 0fbe 6220 48be 0bea 15bd
00000030: f93b 18be 6e43 85bc 03c3 3bbd 22e5 823e

nee_decoder.2.weight f4 [16, 16]
0.28112558 0.13277222 -0.26100975 0.23098126 -0.32534888 0.35874268 0.27623716 -0.34375912
-0.17675598 -0.06664473 -0.04269403 -0.36471578 0.42214662 0.43162948 -0.0152355125 -0.4694325
-0.21793921 -0.11473808 -0.34845525 0.013642862 0.34622362 -0.33245242 -0.3177143 0.14321876
-0.15696572 0.12456967 0.34392092 -0.2335391 -0.15123579 0.3466764 0.1350236 -0.04637409
-0.24290702 0.2902243 0.30114993 0.30011556 0.17583041 0.283835 -0.053081494 -0.13011424
0.16216587 0.134629 0.0207583 0.37975827 -0.2281898 0.057250414 0.1415547 -0.67363745
0.09653565 -0.021717321 -0.21026519 -0.33903545 -0.16927095 0.46001327 0.07688114 0.3950907
-0.35500976 -0.43076608 -0.12276025 -0.09230115 -0.04356895 0.050236393 0.35422453 0.20617823
-0.39719173 0.17854953 -0.23059282 0.3080101 -0.25663552 0.13308765 0.000305077 -0.087466486
0.3684629 -0.4010144 0.2826788 -0.22758146 0.22561237 0.123795584 -0.10691308 0.35567808
0.040941887 -0.2944812 0.38284832 0.13430369 -0.19549718 0.2959843 -0.043077867 0.17203422
0.01912655 -0.11412349 -0.21827886 0.061216816 -0.061579615 0.47384092 0.17711759 -0.09616404
0.1761532 0.27233824 0.27005616 0.17581849 0.14484194 0.46821958 -0.32359394 0.1196957
-0.32024878 0.18370856 -0.5478654 0.14646249 -0.049975812 -0.35328427 -0.3300358 0.28717184
0.14456771 -0.34321618 0.15195169 -0.10825289 0.052152477 0.04650445 -0.12391703 0.34454793
0.19113159 -0.59932303 0.29764566 -0.09071914 -0.26187643 0.030671688 -0.07984736 -0.3294343
0.016296279 -0.07808128 0.41822234 -0.06314149 -0.29569668 -0.24981213 -0.12619545 0.32079127
0.3438811 0.2287 0.042595014 -0.060542177 0.23546433 0.31077552 -0.3490103 -0.29379025
-0.21807763 -0.13149075 0.47667 0.14635596 0.040183425 -0.5075701 0.036282867 0.08742295
-0.059540838 0.06456475 0.54137975 -0.33559352 -0.31841668 0.26828378 -0.12900405 -0.16130117
0.2112127 -0.26455313 -0.46715865 -0.048103236 -0.011461619 -0.13291402 -0.20742299 0.20851359
0.1063752 0.0032291433 -0.2528418 0.35465997 -0.46311668 0.3888564 0.40382025 0.40949303
-0.31774774 0.30970806 0.32263252 0.29245934 -0.32183656 -0.19696473 0.1902191 -0.0909371
-0.013618616 0.18689783 0.37096807 0.016896874 0.22929816 0.6208125 -0.06684928 -0.4584294
-0.1885959 0.3318772 0.060732402 -0.06237366 0.24916482 -0.18055853 -0.11159447 -0.33039242
0.23061463 0.44666922 0.09864274 -0.13632242 0.41303727 0.20157446 -0.3443947 -0.49452075
0.27530584 -0.032555282 0.37655103 -0.41462213 0.13443278 0.18550986 -0.12945962 0.35154554
0.40686125 -0.32288718 -0.22497143 0.19170347 0.08805211 0.18764485 0.2910359 -0.16580871
0.08604229 -0.17694518 -0.26457292 0.20232685 -0.06579973 0.20522031 0.32398352 -0.01661968
-0.27579853 0.34870017 0.033349182 -0.41472533 0.03369552 0.21208258 0.25687006 -0.04933432
-0.4290151 -0.3485898 -0.15680832 0.07018159 -0.16934612 0.26598927 -0.2924948 0.21211003
-0.46634966 -0.33146128 0.17533673 -0.20072967 -0.53083795 -0.44182727 0.27810672 0.183008
00000000: b1ef 8f3e 71f5 073e 12a3 85be 5a86 6c3e
00000010: 2194 a6be 1fad b73e f56e 8d3e 3201 b0be
00000020: 85ff 34be 087d 88bd efdf 2ebd 07bc babe
00000030: 9a23 d83e 8afe dc3e 5f9e 79bc 7559 f0be
00000040: 752b 5fbe ccfb eabd ba68 b2be 5086 5f3c
00000050: 3944 b13e 3437 aabe 73ab a2be f0a7 123e
00000060: 9fbb 20be 621e ff3d 6716 b03e e024 6fbe
00000070: 8edd 1abe 927f b13e a043 0a3e c2f2 3dbd
00000080: 9ebc 78be 4898 943e 5330 9a3e bfa8 993e
00000090: e30c 343e d252 913e fb6b 59bd ab3c 05be
000000a0: cf0e 263e 2fdc 093e 4f0d aa3c ad6f c23e
000000b0: 96aa 69be 697f 6a3d b7f3 103e 8173 2cbf
000000c0: 7cb4 c53d 86e8 b1bc c24f 57be 0e96 adbe
000000d0: 5d55 2dbe dc86 eb3e dc73 9d3d 5449 ca3e
000000e0: d7c3 b5be 5f8d dcbe ba69 fbbd 6308 bdbd
000000f0: 5b75 32bd adc4 4d3d eb5c b53e 6320 533e
00000100: b75c cbbe b0d5 363e 8620 6cbe 80b3 9d3e
00000110: bb65 83be 2148 083e bef2 9f39 a121 b3bd
00000120: 2ba7 bc3e c251 cdbe 47bb 903e 1d0b 69be
00000130: ee06 673e 8a88 fd3d 3ff5 dabd 701b b63e
00000140: aeb2 273d 3dc6 96be b204 c43e e886 093e
00000150: 6a30 48be 418b 973e 6b72 30bd bd29 303e
00000160: 48af 9c3c 94b9 e9bd 7e84 5fbe 7cbe 7a3d
00000170: e83a 7cbd 479b f23e 505e 353e a7f1 c4bd
00000180: 8161 343e eb6f 8b3e cd44 8a3e c309 343e
00000190: 7251 143e 7aba ef3e 1bae a5be 0523 f53d
000001a0: a6f7 a3be 191e 3c3e e840 0cbf 43fa 153e
000001b0: 70b3 4cbd ade1 b4be 74fa a8be 3008 933e
000001c0: 8f09 143e 08ba afbe 3999 1b3e b1b3 ddbd
000001d0: d69d 553d 737b 3e3d 36c8 fdbd 9668 b03e
000001e0: 00b8 433e 3c6d 19bf 0365 983e f5ca b9bd
000001f0: ab14 86be 3143 fb3c 0387 a3bd 9dab a8be
00000200: c67f 853c 14e9 9fbd 3d21 d63e 5350 81bd
00000210: 8e65 97be c0ce 7fbe 6139 01be c13e a43e
00000220: 2f11 b03e 5530 6a3e 1c78 2e3d 13fb 77bd
00000230: 901d 713e f81d 9f3e 7ab1 b2be ad6b 96be
00000240: be4f 5fbe 83a5 06be 170e f43e 56de 153e
00000250: 6097 243d 1df0 01bf 589d 143d ce0a b33d
00000260: 18e1 73bd 863a 843d dd97 0a3f ead2 abbe
00000270: 8307 a3be 7e5c 893e a319 04be 222c 25be
00000280: 2448 583e 8273 87be 6b2f efbe e607 45bd
00000290: 84c9 3bbc 9d1a 08be b166 54be 9684 553e
000002a0: 3edb d93d 09a0 533b 7b74 81be fe95 b53e
000002b0: a11d edbe 3018 c73e 87c1 ce3e 12a9 d13e
000002c0: d5af a2be 0e92 9e3e 1730 a53e 3bbd 953e
000002d0: c3c7 a4be 1fb1 49be ccc8 423e 3b3d babd
000002e0: 9e20 5fbc 2562 3f3e 87ef bd3e 506b 8a3c
000002f0: 23cd 6a3e 91ed 1e3f 46e8 88bd 42b7 eabe
00000300: 491f 41be cfeb a93e 8ac2 783d 867b 7fbd
00000310: 1025 7f3e 56e4 38be a48b e4bd 3229 a9be
00000320: 3e26 6c3e d4b1 e43e 3405 ca3d 1b98 0bbe
00000330: 9f79 d33e 8969 4e3e 8154 b0be d331 fdbe
00000340: e3f4 8c3e b058 05bd 4ccb c03e 5a49 d4be
00000350: bfa8 093e 4cf6 3d3e 1091 04be c7fd b33e
00000360: 1e50 d03e 7851 a5be e95e 66be ea4d 443e
00000370: aa54 b43d f925 403e a802 953e c2c9 29be
00000380: f136 b03d 1e31 35be 1a76 87be c52e 4f3e
00000390: 02c2 86bd 4625 523e 2be1 a53e ff25 88bc
000003a0: 7735 8dbe d488 b23e 2799 083d e156 d4be
000003b0: 5004 0a3d 2d2c 593e 7984 833e c912 4abd
000003c0: dea7 dbbe 5d7a b2be 5c92 20be 5ebb 8f3d
000003d0: 1269 2dbe bf2f 883e e1c1 95be 5f33 593e
000003e0: 62c5 eebe 4bb5 a9be 798b 333e 148c 4dbe
000003f0: ffe4 07bf 2f37 e2be 0164 8e3e 7366 3b3e

nee_decoder.2.bias f4 [16]
0.018532692 -0.012600116 -0.07956723 -0.02734367 0.15351507 -0.13699211 0.03998375 -0.054652262
-0.097413614 -0.104410365 -0.01907496 -0.11289865 -0.12395684 -0.20697951 0.013222246 -0.026184369
00000000: dfd1 973c b870 4ebc 25f4 a2bd d5ff dfbc
00000010: 0e33 1d3e a947 0cbe 00c6 233d 0ddb 5fbd
00000020: ca80 c7bd 1ad5 d5bd 1743 9cbc 6837 e7bd
00000030: 15dd fdbd 70f2 53be 1fa2 583c 9a80 d6bc

nee_decoder.4.weight f4 [1, 16]
0.08325349 -0.5181719 0.72051346 -0.3598109 -0.4223065 0.108305246 -0.05152535 -0.09295171
0.5646998 0.43124616 -0.26061967 0.33075774 0.62236774 0.11202514 -0.028166542 -0.13702117
00000000: ce80 aa3d eaa6 04bf 9273 383f 2239 b8be
00000010: 8f38 d8be 24cf dd3d 3f0c 53bd 775d bebd
00000020: 2b90 103f 4ccc dc3e f16f 85be 1459 a93e
00000030: 7e53 1f3f 706d e53d 85bd e6bc 474f 0cbe
