climate/Final Experiments/PERNN_res0/best_model.pth (torch, 62626 bytes, 83 tensors)

encoder.0.fc.weight f4 [16, 16]
000000 7f 7a f3 3e 42 d2 85 3d 0a 9c 8a be aa 1f 9f bc
       0.47554395 0.06534244 -0.27072173 -0.019424278
000010 22 4f 9a bd 18 31 85 3e 31 af 9e bc af 6a 11 3e
       -0.07534625 0.26014018 -0.019370647 0.14200853
000020 43 63 c1 be 96 87 3e 3e 09 19 9b bb b8 85 f0 3e
       -0.37771043 0.1860641 -0.004733209 0.4697702
000030 f7 f0 02 3d be e0 f5 3e 71 fa 16 3e 4f a5 0b bd
       0.031968083 0.48023027 0.14743973 -0.034093197
000040 0a 32 9d bd 6f 58 83 3e d7 f1 d7 3c 34 bc 36 3d
       -0.0767556 0.25653407 0.026360435 0.04461308
000050 e5 4d d1 3d bf 85 3d be 1d eb a0 3d e8 dd d7 be
       0.10219935 -0.18508051 0.07857344 -0.4216149
000060 05 38 37 be c6 12 61 bd b1 56 d5 3c 17 da 1e bf
       -0.17892464 -0.054949544 0.026042314 -0.6205153
000070 14 bd 24 be cf 97 9c 3e 28 f4 93 3e fd d5 ce be
       -0.16087753 0.3058457 0.28897214 -0.40397635
000080 f2 bf 57 3e 31 f5 05 bf c2 ee 41 be bc 71 a6 3b
       0.21069315 -0.5232726 -0.18938735 0.005079476
000090 31 d2 99 3e 0f c4 ad bd bf 42 45 be a9 37 03 be
       0.30043176 -0.08484661 -0.19263743 -0.12814201
0000a0 25 c7 28 3d 0a 6e 66 be 7a 79 85 3e 54 20 76 3e
       0.041205544 -0.22502914 0.26069242 0.2403577
0000b0 1b 0f d0 3e 0c 90 d4 3e c6 f0 2c bd 20 bf c7 3d
       0.40636525 0.4151615 -0.042221807 0.09753251
0000c0 f3 d7 2a 3e e8 9a 57 3e 47 ec b3 be b0 c3 a6 3d
       0.1668394 0.21055186 -0.35141203 0.08142793
0000d0 ac b4 a7 3d 75 8d 62 3e 22 ae 5b 3c 50 ab 5f be
       0.08188757 0.22124274 0.013408216 -0.21842694
0000e0 2c 08 08 3f 7e b4 2e 3d a4 d7 f2 3e 36 5d 59 be
       0.5313747 0.0426526 0.47430146 -0.21226963
0000f0 68 a9 08 bf 8b 92 06 bc c3 a5 9d 3e 8e 4f d1 3e
       -0.53383493 -0.0082136495 0.3079053 0.40881008
000100 7b ab a6 be 48 2b 52 be b8 70 8d 3e fb 76 a7 be
       -0.32552704 -0.20524323 0.2762506 -0.32707962
000110 e6 9c 16 be fa 17 d6 bd ce 0d e4 bc 0a fe 8e be
       -0.1470829 -0.10453792 -0.027838614 -0.2792819
000120 5d 03 d3 bd 3e 3a ce 3c e8 88 1c 3d 0d 95 26 be
       -0.10303376 0.025174256 0.0382165 -0.16267796
000130 34 03 01 3f ed 2e 76 3e ce c5 f2 be ec 8b 86 3e
       0.5039551 0.24041338 -0.47416538 0.26278627
000140 e7 96 9c be 46 d2 b3 3d 1f 56 9a 3b 37 4a 6d 3c
       -0.3058388 0.08780341 0.0047099735 0.014483026
000150 62 eb bc bd d4 f7 2d 3e c6 09 ac bd e4 7f 83 3d
       -0.09224583 0.1698907 -0.08400302 0.064208776
000160 9e af 5d bc a8 01 a7 3e 39 53 04 3f 16 2f 9f be
       -0.01353064 0.3261845 0.5168949 -0.3109061
000170 9c 8c 33 bf eb 74 b4 be 56 1d 87 be d6 3d 2e be
       -0.7013643 -0.3524545 -0.2638957 -0.17015776
000180 00 9f bd bc a1 b1 91 be 74 88 f9 bd 8c 47 ac bd
       -0.023147106 -0.28455833 -0.121842295 -0.08412084
000190 ad f7 b4 3e 0e 7c 79 be e4 ac 1b be 23 cc 29 be
       0.35345212 -0.2436373 -0.15202671 -0.16581778
0001a0 cd 51 9f be 15 9d ab 3c d1 d4 ef be 9b 6c 34 be
       -0.31117097 0.020948926 -0.46842054 -0.17619555
0001b0 3d 92 85 be e4 3c 7a be 5a 22 32 be 24 64 6a bc
       -0.26088133 -0.2443729 -0.17395917 -0.014306102
0001c0 16 f1 67 be 79 ae d2 be 42 25 98 3e b5 7c 98 bd
       -0.2265056 -0.41148737 0.29715925 -0.07445661
0001d0 5d 87 98 be a3 45 09 3f ba ae b2 3c b1 0d d6 be
       -0.29790774 0.5362188 0.021811832 -0.4180732
0001e0 73 b5 17 3e 20 ec 96 be 73 fc 25 be c3 e0 b2 3e
       0.14815311 -0.29477024 -0.16209583 0.34937105
0001f0 13 52 3b 3e 17 53 b0 3e f2 bf 31 be 3a f0 2b 3d
       0.18293028 0.34438393 -0.17358378 0.041977145
000200 25 e0 00 3e a0 16 b0 be dc 7e 24 be 5e 62 0b 3e
       0.12585504 -0.34392262 -0.16064018 0.13611743
000210 5b bd c0 be f7 8b 00 bf 18 d2 fd 3e bb cf d4 3d
       -0.37644467 -0.5021357 0.4957435 0.10391184
000220 e2 06 3e 3e 81 97 d1 3e 8c 88 5d 3e 43 06 27 3f
       0.18557313 0.409359 0.2163412 0.6524393
000230 c2 b3 26 bd 4f e5 6b be c9 c9 49 3d 02 40 33 3e
       -0.040698774 -0.23036693 0.049264703 0.17504886
000240 80 c5 00 bf 4a c4 85 3d ff 4b 82 3c bb d6 04 bc
       -0.5030136 0.0653158 0.015905378 -0.008107836
000250 43 67 7e be c2 fb 57 bc 5f 3b c3 bd 1d 10 6d bc
       -0.24844079 -0.013182582 -0.095328085 -0.014469174
000260 b9 06 3d 3e 58 64 42 3e 93 27 a2 be 0c de 0a bf
       0.18459596 0.1898359 -0.31670818 -0.54245067
000270 f2 bc 14 be c6 e4 2f bd dd f7 21 be ba f8 fb bc
       -0.14525202 -0.042942785 -0.15817209 -0.03075825
000280 21 f9 db be f5 4f 8c 3e 29 a4 48 be 51 a0 18 bd
       -0.42963508 0.27404752 -0.19593872 -0.037262265
000290 af a4 f0 3d c7 32 28 bf fe e1 8a be 4d c0 49 3e
       0.11750161 -0.6570248 -0.27125543 0.19702263
0002a0 ea fd 73 be c6 27 ab be 6a 5e 9d 3e b7 49 61 3e
       -0.2382733 -0.33428782 0.30736095 0.22000776
0002b0 01 96 f8 3d 8d 7d be bd ec 37 ba 3e 56 11 ae bd
       0.12137986 -0.09301291 0.3637079 -0.084994
0002c0 90 3e c9 be a1 42 4c bd 3d 04 70 be 8d 49 af 3d
       -0.39305544 -0.04986823 -0.23439117 0.085589506
0002d0 22 07 bd bd 79 ca 8a be 4c 23 42 be 52 de 94 3d
       -0.09229876 -0.271076 -0.18958777 0.07268967
0002e0 4c 50 5e bd 6e 62 ea be e0 88 09 bf 40 1d 79 be
       -0.054275796 -0.4577822 -0.5372448 -0.24327564
0002f0 57 f8 1f bc 95 9b b2 be 21 54 1c 3e e0 c4 8b be
       -0.009763799 -0.34884325 0.15266468 -0.2729864
000300 82 1a c6 3e 0f 78 00 3d a2 2f 5e be a1 89 dd ba
       0.386921 0.031364497 -0.21697858 -0.0016901979
000310 8b 69 19 bc 42 81 c8 bd d6 08 81 bd 9f 37 31 3e
       -0.009363542 -0.09790279 -0.063005134 0.17306374
000320 6b 38 b5 be e4 0e 79 bd dd f8 f2 3d f9 39 9a be
       -0.35394606 -0.060805216 0.11863873 -0.30122355
000330 6a 11 4d bc ed 51 b9 3e 02 f5 fe 3d a0 56 e5 bc
       -0.012516359 0.36195317 0.12449075 -0.027995408
000340 01 eb 29 3e 5a 3b 54 be f2 ee 79 be b5 f5 91 3d
       0.16593553 -0.20725766 -0.24407557 0.07126943
000350 89 b6 ca 3e c3 f2 0c 3e ac 2e b3 be d2 3e 14 3f
       0.39592388 0.13764481 -0.34996545 0.57908356
000360 d5 3c 2b be cb 6a a7 be d9 b4 18 3f 1b 83 c0 be
       -0.16722424 -0.32698664 0.5965095 -0.37600026
000370 f6 76 e9 3e ff c6 05 3f 5f b5 3d be 2d 2d b6 3c
       0.45598572 0.5225677 -0.18526219 0.022238338
000380 87 c1 6c bc ee 25 0a be 9d 4d 88 3d e0 43 7f 3c
       -0.014450437 -0.13491032 0.066554286 0.0155801475
000390 aa 74 8c be dc 56 cd 3e a9 9f 02 3e 51 70 ac be
       -0.27432758 0.4010533 0.12756218 -0.3367944
0003a0 68 bc 7d 3e f8 bd 87 3d 0d 76 49 3e f7 c1 96 3d
       0.24778903 0.066280305 0.19673939 0.073612146
0003b0 6f 14 ac 3e ea 5b f6 bd 0b ab 40 3e 5a 60 4e 3e
       0.3360934 -0.1202925 0.18815248 0.20153943
0003c0 a2 59 9c 3e 9c 56 9e bd 5c de 56 3e a5 e7 29 bd
       0.30537134 -0.07731363 0.20983261 -0.04148068
0003d0 c0 c7 6e 3d 71 cb d2 be bb dd 2a 3e 6b 41 1e be
       0.058295965 -0.41170838 0.16686146 -0.15454642
0003e0 a2 23 1b 3d a4 ef a7 bd 8d dd 2a 3e 0f 1c 25 bf
       0.03787578 -0.08200005 0.16686077 -0.6449594
0003f0 6b c5 34 bd 6c 84 f0 be ba c8 b7 be d6 e2 bb bd
       -0.044133585 -0.4697603 -0.3589533 -0.09174125

encoder.0.fc.bias f4 [16]
000000 d5 23 40 3d 86 7e 88 3d 5d f4 85 3d 5f db 7d 3c
       0.046909172 0.066647574 0.06540749 0.015494197
000010 e3 1d 93 bc 67 69 a5 3d 78 f7 9b 3d 99 3e c8 3b
       -0.017958587 0.080767445 0.0761556 0.006110978
000020 d8 53 66 3d 86 9b e7 3c 33 59 c8 3d d1 bf d0 3d
       0.056232303 0.028272402 0.097826384 0.10192836
000030 24 d8 7f 3d 51 36 0c 3e 75 dc e3 3b 3d 55 6c 3d
       0.062461987 0.13692595 0.0069537708 0.057698477

encoder.0.norm.weight f4 [16]
000000 4d e6 9d 3f be 6a 8d 3f 3a 70 94 3f 0e 54 74 3f
       1.2335907 1.10482 1.1596749 0.9544076
000010 cf b4 a3 3f 20 9e a7 3f 31 d7 a3 3f f4 45 94 3f
       1.2789553 1.3095131 1.2800046 1.1583848
000020 72 39 9d 3f dd a2 a1 3f be ce 9a 3f 68 36 9e 3f
       1.2283156 1.2627827 1.2094343 1.2360353
000030 d4 e7 ad 3f 43 b7 9a 3f a7 70 86 3f 9f 51 9c 3f
       1.3586373 1.2087177 1.0503129 1.2212409

encoder.0.norm.bias f4 [16]
000000 2e 25 87 3e 78 75 79 3e 79 d8 04 3e f1 1b 18 3e
       0.26395553 0.24361217 0.12973203 0.14854409
000010 71 c9 2f 3e 2c 64 8f 3e 14 fa 8f 3e 03 5d 31 3e
       0.17166688 0.28006113 0.28120482 0.17320637
000020 be 63 7f 3e 33 9f 84 3e 73 d3 9b 3e 5e 57 99 3e
       0.24940392 0.2590271 0.3043476 0.29949468
000030 d4 f5 99 3e bc f5 84 3e 21 e0 ab bd 2c 6a 82 3e
       0.30070364 0.2596873 -0.083923586 0.25471628

encoder.0.norm.running_mean f4 [16]
000000 0e 72 25 3e fe f3 ba bf 79 a0 0d 3f d3 22 f3 3f
       0.1615679 -1.460571 0.55322987 1.8995003
000010 13 82 77 3f 5b 4e 46 bf 5b a5 30 be 16 4c ad 3e
       0.9668285 -0.7746331 -0.17250578 0.3384711
000020 e3 a2 2d 3f 28 a7 e9 bd 5b 04 b3 be d4 58 95 bf
       0.6782667 -0.11408836 -0.3496426 -1.1667733
000030 66 8f 40 3d dd b1 91 3e 45 95 79 3f 98 9f 34 bf
       0.047011755 0.2845601 0.9749339 -0.7055602

encoder.0.norm.running_var f4 [16]
000000 02 e5 0d 3f a9 fc 15 40 9f ae d5 3e 97 fa d0 3f
       0.55427563 2.3435462 0.41734788 1.6326474
000010 41 a2 2d 3f 85 4b 61 3f de 54 18 3f f3 cf 85 3f
       0.67825705 0.8800586 0.595045 1.0454086
000020 46 e1 88 3f a1 97 c7 3e 1e d8 a5 3f 84 8d 91 3f
       1.0693748 0.3898287 1.2956579 1.1371312
000030 b7 67 1d 3e c3 a3 3a 3f ac 65 5a 3f 5c b1 50 3f
       0.15371595 0.7290613 0.8531139 0.8152063

encoder.1.fc.weight f4 [16, 16]
000000 9d 29 ac be 98 c7 00 be ba b8 8e 3e 23 e5 85 bd
       -0.33625498 -0.12576139 0.2787531 -0.06537845
000010 0a 32 96 be 2f 27 70 3e f4 a9 c7 3d 68 5e 78 bd
       -0.29335052 0.23452447 0.09749213 -0.060636908
000020 b2 19 16 bf 44 83 4f 3d 24 62 95 be 40 32 0a bf
       -0.5863296 0.050662294 -0.29176438 -0.53982925
000030 00 94 de 3d 33 cb f5 3d a0 de 0a be 75 66 5e 3e
       0.108680725 0.12001648 -0.13561487 0.21718772
000040 24 02 fd 3b ef e2 a5 bc 4d 83 84 bd 2f 08 7e bb
       0.0077212024 -0.020249812 -0.06470356 -0.0038762202
000050 f9 bf 94 3d cb 29 03 bf 4c ce 41 3d a6 45 50 be
       0.072631784 -0.51235646 0.04731588 -0.20339069
000060 7d 65 3e bf 65 4c 9f be b6 75 57 3c a4 dc 02 3d
       -0.7437361 -0.31112972 0.013150623 0.0319487
000070 27 28 dc 3e 58 6f 59 be 87 0f 71 be 31 09 e2 3d
       0.42999384 -0.2123388 -0.2354108 0.11036909
000080 1f e4 ea bd 20 f7 a7 be 8d f7 24 bf 3d 81 5b 3d
       -0.11469292 -0.3280573 -0.6444023 0.053590048
000090 bf 06 a4 bd ea d7 88 3e fb af 41 3d 14 36 fe 3d
       -0.08009099 0.2672723 0.04728697 0.12412658
0000a0 f2 08 9f be 72 01 ff 3e 59 f1 0c 3e 77 8c 21 be
       -0.31061512 0.4980579 0.13763942 -0.1577624
0000b0 66 27 fd be 81 c6 be 3d ab e2 f3 be 09 78 da 3b
       -0.4944412 0.09315205 -0.4763387 0.0066671413
0000c0 9c a6 bc be 0a 3a 98 be 22 ee 41 be 8b 68 75 bd
       -0.36845863 -0.2973178 -0.18938497 -0.059914153
0000d0 a6 47 7f be 0c ff 53 3e 91 92 56 bb 5f 10 fa 3a
       -0.24929675 0.20702761 -0.003274117 0.0019078365
0000e0 f9 56 68 be 7a 9f 0e be 83 09 99 3d 43 53 e9 be
       -0.22689427 -0.13928023 0.07472517 -0.45571336
0000f0 47 bf 48 be 99 a5 4e 3c 80 27 bd be ae 1a c7 bd
       -0.19604217 0.012612724 -0.369442 -0.097218856
000100 c3 14 3a 3e 44 66 70 be a7 45 ac 3e 29 1e b2 be
       0.18171982 -0.23476511 0.3364689 -0.34788635
000110 e2 ac bc be 58 8d 6c bd d8 bc cf bd c0 49 a1 be
       -0.3685065 -0.057751983 -0.10143441 -0.3150158
000120 e8 38 57 3e b9 cd cb be b7 3f dc be c1 56 83 3e
       0.21017802 -0.3980539 -0.4301736 0.25652125
000130 bb 2a 87 be 38 e2 db be ba 51 02 be 48 5c 78 3e
       -0.26399788 -0.4294603 -0.12726489 0.24253953
000140 6e e3 b1 bd 8e 16 00 be a8 c7 0f bd 85 67 8d 3c
       -0.08685957 -0.12508604 -0.035102516 0.017261276
000150 68 78 56 3e ad cf 95 bd a5 e9 6a be b4 08 06 bb
       0.20944369 -0.07315002 -0.22940691 -0.0020451965
000160 ae 77 8b 3e dc 2a 42 bd d7 07 6e be 91 bf dc be
       0.27239746 -0.047404155 -0.23245178 -0.43114904
000170 71 49 fb bd 55 78 5d be 87 b6 84 bd d9 fb 8c be
       -0.12269867 -0.21627934 -0.06480127 -0.27535895
000180 e2 15 c8 ba 33 a3 c2 be ac b0 33 be 47 ee e3 bd
       -0.0015265311 -0.38015136 -0.17547864 -0.11129432
000190 96 97 b2 be 13 0e 64 be 3b 60 d8 be cf 7c b5 be
       -0.34881276 -0.22270994 -0.42260918 -0.35446784
0001a0 ac 5e 10 3e e6 7e 04 3e d7 55 8b be 8c 9b c6 3d
       0.14098614 0.12939033 -0.27213928 0.09697637
0001b0 7f a0 f9 3d b8 74 82 3e 4b e6 77 bd 70 9e 86 3d
       0.12188815 0.25479674 -0.06052236 0.06573188
0001c0 18 bd 0e bf da 55 21 be 49 43 e2 be 4e b5 8e 3d
       -0.55757284 -0.15755406 -0.4419196 0.06968175
0001d0 1f 61 9a be 87 7d 55 3c 74 f3 a8 3c c2 3a 8a 3e
       -0.30152223 0.013030416 0.0206239 0.26997954
0001e0 59 2b 8f be 88 98 15 be 07 cb 21 3e 63 b9 e7 be
       -0.2796276 -0.14608967 0.15800105 -0.45258626
0001f0 bf f0 81 be 41 78 f8 bd c7 b6 4e 3e 88 2a e1 bd
       -0.25378987 -0.121323116 0.20186912 -0.1099444
000200 8d ae f1 3c 01 bb de be e4 a5 51 3e 5b c6 3b be
       0.029502178 -0.43502048 0.20473439 -0.18337385
000210 c7 34 58 be a6 ca 32 be 5c 0a b6 bc 78 01 e4 bd
       -0.21113883 -0.17460117 -0.022221737 -0.11133093
000220 3b 95 53 3e 4a 77 2a 3e 7e 81 cf 3d db c7 c3 3e
       0.20662396 0.16647068 0.101321205 0.38238415
000230 f9 f6 a0 be 58 62 5b 3e 2a 92 9a bc fd 59 c3 bd
       -0.31438425 0.21424234 -0.018868525 -0.09538648
000240 bb 46 fc bd cb f8 da 3d b1 f3 5f bd 1c 9d 90 3d
       -0.12318178 0.10691985 -0.05467576 0.07061216
000250 11 f4 26 be 0a d0 4a be bc 71 9b 3d 62 01 59 be
       -0.16304041 -0.19805923 0.075900525 -0.21191934
000260 f6 0e cf be a1 43 38 3e 0a 95 7e bc 3d 1d a9 be
       -0.40441102 0.17994548 -0.015538463 -0.3303012
000270 f2 4e b4 3e 7d 85 ee 3e 03 5a 9c bc 51 b3 8e bd
       0.3521648 0.46586218 -0.01908589 -0.06967796
000280 9d 0e 05 bf 84 0d 3b 3e 91 e4 50 3c a1 17 1d be
       -0.51975423 0.18266875 0.012749807 -0.15341045
000290 14 46 cb bd f4 6d b0 bd 8d 16 36 bd e6 fd a9 3e
       -0.09925476 -0.08614722 -0.0444551 0.33201522
0002a0 fe 0b 7b be 30 78 aa be 89 df 3f 3d e0 0e a5 3b
       -0.24516293 -0.3329482 0.04684404 0.0050371736
0002b0 8b c6 6a bd c7 32 6f be f0 af f7 be b0 11 e2 be
       -0.05731825 -0.23359214 -0.48376417 -0.4415412
0002c0 54 7b 12 be 3f ec a8 be 69 23 86 3e cd ac b4 bd
       -0.14304858 -0.3299274 0.2619889 -0.08822022
0002d0 1d 91 09 be 62 56 47 be 0a 22 2d be f5 86 b0 be
       -0.13434263 -0.19466546 -0.16907516 -0.34477964
0002e0 32 07 d3 3e 0a b3 c2 bc 00 e3 c4 3d 3a 1e 73 3d
       0.41216427 -0.023767013 0.09613609 0.059355
0002f0 d4 fd 90 be 07 3a bb bd 09 ff a1 3e f4 d6 39 be
       -0.28318655 -0.09141927 0.3163989 -0.18148404
000300 0a 34 d2 3c 84 9c d1 bd e2 79 78 be 98 1e 55 3d
       0.02565958 -0.10234931 -0.24265245 0.05203113
000310 a0 7b b3 3c ba e2 74 be ff f8 52 be 97 4d 1f be
       0.021909535 -0.23914614 -0.20602797 -0.15556942
000320 05 d2 20 be 31 1d 7c bd 3b c2 94 bc 6b f3 02 bf
       -0.15705116 -0.061551277 -0.018159023 -0.51152676
000330 b1 34 da be bf 2c e5 be 9e 71 a0 3e c2 87 40 bd
       -0.42618325 -0.447607 0.31336683 -0.04700447
000340 07 eb b5 bd 79 e0 01 bf ae 38 14 be ff f9 3c be
       -0.088827185 -0.50733143 -0.14474747 -0.18454741
000350 d0 e5 11 be 3a 20 c3 3e 70 f9 14 3e d7 65 b2 be
       -0.14247823 0.38110524 0.14548278 -0.34843323
000360 84 84 a0 be e6 1f b8 be 6f 12 a9 be 5d b8 17 bb
       -0.313511 -0.35961837 -0.33021876 -0.002315066
000370 21 b2 ef be 33 28 02 3e 32 d0 d2 be 51 b8 8b 3e
       -0.4681559 0.12710647 -0.41174465 0.2728906
000380 c8 3d 23 bd 30 36 b3 bc 28 06 3c 3e 3a 40 de 3e
       -0.03985384 -0.021876425 0.18361723 0.43408376
000390 33 bd 44 3e 40 bf ab 3e 43 17 d4 be 2c 76 1a 3e
       0.19212799 0.3354435 -0.41423997 0.15084141
0003a0 d5 c4 8c be 6b 06 02 3e 8a 85 c7 3e be 2a dd 3d
       -0.2749392 0.12697761 0.3896907 0.10799168
0003b0 28 b2 fb 3d 7b 97 be 3d bb ea 8b 3e 5c a4 35 3e
       0.1228984 0.09306236 0.27327523 0.1773848
0003c0 61 a2 00 bd 07 dd 42 be 47 ab 06 be b1 7f e5 3c
       -0.031404857 -0.19029628 -0.13151275 0.02801499
0003d0 53 49 c1 be 91 66 8a bd f7 24 9f be 62 fa 33 3e
       -0.37751254 -0.06757844 -0.3108289 0.17575982
0003e0 50 12 e3 3e b2 be d9 3c e4 ff b3 3e 5b b5 3f be
       0.4434991 0.026580188 0.35156167 -0.18721525
0003f0 f7 cb 3c 3e 74 c3 50 3e b9 3b c8 be bd 50 ad be
       0.18437181 0.2038706 -0.39108065 -0.3385066

encoder.1.fc.bias f4 [16]
000000 ee b1 35 bd 6e 52 b7 3d 35 5c 49 bc 18 47 b3 3c
       -0.04435914 0.08951269 -0.01229005 0.021884486
000010 99 b2 9c 3c 32 71 e7 3d f8 68 82 bd b2 e9 16 3e
       0.01912813 0.11300887 -0.063676775 0.14737585
000020 18 8b 39 3d 82 af cc 3b eb 1a e8 bd 36 44 25 3e
       0.045298666 0.006246508 -0.11333259 0.16139302
000030 45 3f 48 3e 49 0b 85 3d de a3 f2 bd a1 48 f9 3d
       0.19555385 0.06496293 -0.118476614 0.12172056

encoder.1.norm.weight f4 [16]
000000 aa 59 a4 3f af 58 93 3f 8f cd 83 3f 59 36 9a 3f
       1.2839863 1.1511439 1.0297107 1.2047836
000010 96 a9 8e 3f 56 33 a9 3f cd 40 a3 3f 11 4a 97 3f
       1.1145504 1.3218791 1.2754151 1.1819478
000020 43 42 9c 3f 54 46 a0 3f 3f e8 9d 3f 6f 22 aa 3f
       1.2207721 1.2521462 1.2336501 1.3291758
000030 84 85 a5 3f 07 81 a2 3f 10 5e 5d 3f 54 a4 a0 3f
       1.2931371 1.2695626 0.86471653 1.2550149

encoder.1.norm.bias f4 [16]
000000 72 60 95 3e 5e 9c 50 3e 78 0d e1 3d 7b de 38 3e
       0.29175144 0.2037215 0.10988897 0.1805362
000010 5d 6c eb 3d 93 fb a0 3e 9a cc 94 3e 23 7e 3c 3e
       0.11495278 0.31441936 0.2906235 0.18407492
000020 16 50 62 3e 12 f2 87 3e a5 ec 8c 3e 87 73 8c 3e
       0.22100863 0.26551872 0.27524295 0.2743189
000030 c4 ed a1 3e bd 4a 86 3e 4c e4 4a be 62 7f 85 3e
       0.31626713 0.26228896 -0.19813651 0.26073748

encoder.1.norm.running_mean f4 [16]
000000 fc 65 85 3d 83 b2 33 bf f2 34 3a bf 01 dc ef bf
       0.065135926 -0.7019426 -0.7273704 -1.8739015
000010 4e 65 85 be e3 cb 04 c0 4e 00 11 bf 0b 4b dc bf
       -0.26053852 -2.0749443 -0.5664109 -1.7210401
000020 4a af db be 0a 66 b6 be 56 3d 63 c0 d0 c6 93 bf
       -0.42907172 -0.35624725 -3.5506186 -1.1545048
000030 ff e4 d0 bf 47 dd 46 be 55 19 e4 3f 1d 92 cb bf
       -1.6319884 -0.19420348 1.7820231 -1.5903965

encoder.1.norm.running_var f4 [16]
000000 db 6b cf 3f 68 4e 26 40 2d 13 0b 40 20 d8 76 3f
       1.620479 2.5985355 2.1730454 0.9642353
000010 5a b7 07 40 b4 18 9f 3e b3 1b 10 3f ed 32 81 3f
       2.120566 0.31073534 0.56292266 1.0093666
000020 ae 88 8f 3f b3 ff 0c 40 ea 05 24 40 88 93 5b 3f
       1.1213586 2.2031066 2.562861 0.8577199
000030 17 a1 0a 3f d7 9c b4 3f c0 c6 9d 3f 78 fa a3 3f
       0.54152054 1.4110364 1.2326279 1.2810812

encoder.2.weight f4 [32, 16]
000000 8b e0 83 be 5f ca 9b bd 63 09 3c be 2d 2a 85 be
       -0.2575725 -0.076069586 -0.18362956 -0.2600874
000010 dd 84 cc 3d b1 a2 31 3e 1a 2c f6 bc cc ba dc bc
       0.09986279 0.17347218 -0.030050326 -0.02694454
000020 a6 37 25 3e d4 4b a7 bc 2d 7d 06 bf ae 2a 19 bf
       0.1613451 -0.0204219 -0.52534753 -0.5983075
000030 9c 47 21 bf e1 db d7 be 0d ea 8b 3e d8 34 18 bd
       -0.6299989 -0.42159942 0.27327004 -0.03715977
000040 17 9c cf bd 0d ef 7b 3e 7b d0 86 3d 40 6f bc bd
       -0.10137194 0.2460291 0.06582733 -0.09200907
000050 40 ba 88 be b4 1c 30 3e 50 cf 17 3e 6a c9 e9 bc
       -0.26704597 0.1719845 0.14825177 -0.028538425
000060 15 3c 4e be 7a 03 91 bd f0 83 eb 3e 48 52 41 bd
       -0.20140107 -0.07080741 0.45999098 -0.04719761
000070 a0 fe c0 3d 67 4d 46 bd d2 5d 9a 3e 53 d3 c0 ba
       0.09423566 -0.04841366 0.30149704 -0.0014711417
000080 b3 4c cb 3e 28 20 38 3e 21 9b 5d 3d e5 37 c7 3e
       0.39706954 0.17981017 0.05410302 0.38909832
000090 b3 b4 f5 bc e0 84 af 3e 10 e6 f3 3e 2e 29 7b 3e
       -0.02999339 0.34281063 0.4763646 0.24527428
0000a0 ab 95 6c 3e 07 a4 43 be 0f e3 07 3f b5 86 91 3c
       0.23103969 -0.1910554 0.5308084 0.017764429
0000b0 1a 7c fe 3e af 2f 5b 3e 43 9b 65 3c c7 07 dd 3d
       0.49704057 0.21404909 0.014014068 0.10792499
0000c0 9b 18 d1 be 36 c5 64 3e d8 9b 66 ba 95 40 68 3e
       -0.40839085 0.22340855 -0.0008797026 0.22680886
0000d0 ec ba 7a 3d f4 ce 41 be 92 7d 27 3e 8f 44 b4 bb
       0.06121342 -0.18926603 0.16356495 -0.005501337
0000e0 22 25 0b be 51 64 6d 3d c4 f4 f0 be 0f cf b6 be
       -0.13588384 0.057956997 -0.4706174 -0.35704848
0000f0 cc ae 04 bf 94 43 86 3c 47 9c 5b bd d0 39 cc 3d
       -0.5182922 0.016389646 -0.053615835 0.09971964
000100 46 b2 d3 be 3c 98 ff be 60 7b 13 be fa 16 04 be
       -0.4134695 -0.49920833 -0.14402533 -0.1289939
000110 81 81 1e 3e 0c af 7c be cb 5d 35 3e 94 1f bd be
       0.1547909 -0.2467615 0.1771156 -0.36938155
000120 28 cc cd 3d 4c 3c bf be 3c 16 04 3e 1a 31 b9 be
       0.10048705 -0.3735069 0.12899107 -0.36170274
000130 11 b5 96 bd e7 58 9d bd a1 da 0e be 1d 9f c2 bd
       -0.073587544 -0.076829724 -0.13950588 -0.09503005
000140 29 4a 91 be 18 a5 5a 3c 0f b7 1b 3e f1 2a 19 3e
       -0.28376892 0.0133450255 0.1520655 0.14957787
000150 65 d2 3a be ac 8a 73 be 21 b3 b0 be 6d 94 23 be
       -0.18244322 -0.23783368 -0.34511665 -0.15974589
000160 f2 6b 85 3d c8 46 9e bd ee 6e d8 be b8 86 5b be
       0.065147296 -0.07728344 -0.42272133 -0.2143811
000170 f5 b2 91 be 4a 44 c4 be 9a 88 b0 bd 9c 03 c4 bc
       -0.28456846 -0.3833335 -0.08619805 -0.023927502
000180 8e 21 e0 be b1 f9 bc bd 1f 6a db 3d 81 3b 9d bd
       -0.437756 -0.09227312 0.107136 -0.07677365
000190 d4 39 52 bd 45 48 87 bd 57 bb e1 3c 70 59 3b be
       -0.05132468 -0.06605581 0.02755515 -0.18295836
0001a0 1a 0a a6 3c e8 d3 56 3e 1a f1 73 be 1e 07 1e be
       0.020268489 0.20979273 -0.23822442 -0.15432402
0001b0 5b b5 07 bf ad 18 8e be 48 09 96 3d 00 e2 f1 bc
       -0.530111 -0.277532 0.07325989 -0.02952671
0001c0 03 34 52 3e fb 96 7a be 63 03 b7 be d9 ac 2d 3e
       0.20527653 -0.24471657 -0.3574477 0.16960467
0001d0 8e 2c 87 be 49 bf 46 3e 0f 75 26 be 18 bb da 39
       -0.2640118 0.19408907 -0.16255592 0.00041719596
0001e0 b1 a2 ac be 9c 6b 97 3e dd 16 2e be 05 99 b3 be
       -0.33717874 0.29574287 -0.17000909 -0.35077682
0001f0 c8 0c fe be ef bf 1d 3c 0c e0 9a be 24 12 a3 3e
       -0.49619126 0.00962828 -0.3024906 0.31849778
000200 3e 75 b4 3e ea 6b 03 3f 84 fa d7 3e f2 d5 11 bd
       0.352457 0.5133654 0.42183316 -0.035604425
000210 76 04 76 3b 12 e9 a8 3e c4 54 c2 3e ee 4b f2 3e
       0.003753928 0.3299032 0.37955296 0.47323555
000220 00 ff 13 be 33 1b de 3d 28 cd 30 3e 9c d7 da 3e
       -0.14452744 0.108450316 0.17265761 0.42742622
000230 29 63 e7 3d 0f ed cd 3e f4 2f 09 be 51 7d 31 3e
       0.1129821 0.40219924 -0.13397199 0.1733296
000240 30 ef df 3e b2 e7 07 be bc da 3d 3e f4 42 3b bd
       0.43737173 -0.13271978 0.18540472 -0.04571815
000250 40 73 8d 3e b0 48 e6 3e 6e ee 6b 3d 4c 86 d5 bd
       0.2762699 0.4497733 0.05760043 -0.10426006
000260 59 8a 17 be e2 b0 b1 3e 3d fc 18 3e f7 02 a4 bb
       -0.14798869 0.34705263 0.14939971 -0.0050052362
000270 01 d8 16 3f 21 d1 ae 3e 7c d3 14 bd 5d 6a 85 3d
       0.58923346 0.34143928 -0.0363345 0.06514428
000280 58 8a e1 bd 75 27 06 3e 0e d9 b5 3d 3b a4 09 be
       -0.11012715 0.13100989 0.088792905 -0.13441555
000290 fb 8a bf bd 7a 16 c0 bc 4c 96 da be 79 ba 7c 3d
       -0.0935268 -0.023448218 -0.42692792 0.06170127
0002a0 c1 9a 04 3e ca 34 d4 bc 15 2e 86 39 0b b8 9e be
       0.12949659 -0.025904078 0.00025592805 -0.3099979
0002b0 86 43 1d bf dc 6a c9 be f4 c9 aa 3e 44 54 04 be
       -0.6143116 -0.3933934 0.33357203 -0.1292277
0002c0 29 0a cb be 34 67 1a 3e bf 73 b6 be fb 66 e3 3d
       -0.3965619 0.15078431 -0.35635182 0.11103626
0002d0 5a 7c 5d 3e af b4 29 be 3b ca 34 3d a3 b8 10 3e
       0.21629468 -0.16572832 0.044138175 0.14132933
0002e0 35 eb b4 be 38 86 74 be 22 da 14 be 7f fb 01 be
       -0.353357 -0.23879325 -0.14536336 -0.12693594
0002f0 99 2c 00 bf a6 07 c5 be 4a 69 b1 3e e4 dd 35 be
       -0.5006805 -0.38482398 0.34650642 -0.17760426
000300 7b 30 f4 be 88 79 21 bd 30 35 8c be ff 40 8b be
       -0.47693238 -0.03942254 -0.2738433 -0.27198026
000310 60 10 43 be 65 57 63 3e 42 f4 d1 bc 3d ee 64 3e
       -0.19049215 0.22201307 -0.025629167 0.22356506
000320 ab 3e ec bd 5e 4f 72 3e 7d 7f ed be 40 48 3b bb
       -0.115353905 0.23663089 -0.46386328 -0.0028577
000330 2a 7c 6e be 7d a3 66 bd b1 d4 b2 3e 77 a4 79 3d
       -0.23289552 -0.05630826 0.34927896 0.06094786
000340 99 39 8d be dc 41 ba be cd 0b 82 bc 94 2e 56 be
       -0.27583006 -0.36378372 -0.015874768 -0.20916206
000350 90 cb c6 3d 50 2a c8 be fa 28 b6 be 55 f5 47 3e
       0.09706795 -0.39094782 -0.35578138 0.1952718
000360 bd 26 03 be b9 08 c4 be e1 0c aa 3d 5c 61 a5 be
       -0.12807746 -0.38287905 0.08303238 -0.32300842
000370 07 d9 77 be ff 2f 18 3e fc 9d 18 3e 77 e0 a8 be
       -0.24203883 0.14862059 0.14904016 -0.32983753
000380 dc 36 b9 bd 37 0c 0f 3e 5a 0d f4 bd b4 60 e5 3d
       -0.09043667 0.13969503 -0.11916609 0.11200085
000390 fa 72 5c 3e 71 07 18 ba 76 d8 ee be 20 09 3f 3e
       0.21528235 -0.00057994487 -0.46649522 0.18655825
0003a0 be fe 8c 3e b5 e3 0f 3d ad 53 60 be ab 43 ec be
       0.27538103 0.035129268 -0.2190692 -0.46145377
0003b0 ec 33 58 be e3 fc 54 be 35 12 a9 3e 11 b4 b5 be
       -0.21113557 -0.20799594 0.33021703 -0.35488942
0003c0 00 67 5a 3e d6 58 5f 3e 27 8c a9 3d 26 d2 fd 3d
       0.21328354 0.21811232 0.08278685 0.12393598
0003d0 b2 7b 72 3e 2a 8a 4a be df cb 79 3e 56 dd 03 be
       0.23679999 -0.19779268 0.24394177 -0.12877402
0003e0 75 ad f1 3d f9 04 af 3c 58 fb 6f 3e e1 86 e3 3e
       0.118006624 0.021364676 0.23435724 0.44438842
0003f0 d1 49 18 3e cb 50 53 be ea 7a 3b be ac 6b 99 3e
       0.14871909 -0.20636289 -0.18308607 0.2996496

encoder.2.bias f4 [32]
000000 c3 ad 87 be 5a 62 55 3e 4d 51 84 3e 4a cf 2d be
       -0.26499757 0.208383 0.25843278 -0.16973606
000010 f8 47 6c be 8c aa 77 be 8c 64 25 be 71 cc 43 be
       -0.23074329 -0.24186152 -0.16151637 -0.19120957
000020 b7 ae 79 3e 24 55 8b 3e 60 c8 80 be 15 f4 6b be
       0.24383055 0.27213395 -0.25152874 -0.23042329
000030 17 19 5c be e1 70 63 be 30 8d 76 be f3 76 80 3e
       -0.21493946 -0.22211029 -0.24077296 0.2509075
000040 b7 e4 1c be e5 e2 92 3e 10 b2 80 3e 01 10 80 3e
       -0.15321623 0.28688732 0.2513585 0.2501221
000050 75 da 2d 3e 0b 8b 6b be 40 17 71 be 4d 27 75 be
       0.16977866 -0.2300226 -0.23544025 -0.23940773
000060 91 04 83 be 17 f0 7f be bc 16 75 be d2 14 82 be
       -0.2558942 -0.24993931 -0.23934454 -0.2540651
000070 ba ae 84 3e 57 8d 00 be 92 86 3d be 09 93 84 3e
       0.25914556 -0.12553917 -0.18508366 0.2589343

residual.0.fc.weight f4 [16, 32]
000000 b1 4a 2c 3e a6 17 a1 be 2f c6 8c bc 7f 54 ab be
       0.16825368 -0.31463355 -0.017184345 -0.33462903
000010 26 db 5f be 7d b6 77 3d 3d 3f 09 3e c3 45 0a be
       -0.21860942 0.06047677 0.1340303 -0.13503174
000020 fd d4 b9 bd cf 9b a8 be 50 3d 46 be 0d 60 80 bd
       -0.090738274 -0.32931373 -0.19359326 -0.0626832
000030 03 7b 96 3d d1 fa 4b 3e f2 d8 6e 3e c2 6a 8c 3e
       0.073476814 0.19919898 0.23324946 0.274252
000040 f7 d4 98 3d f9 ad 97 be 8c 40 8d bd 55 95 86 be
       0.07462495 -0.29624918 -0.06897077 -0.26285806
000050 85 ee a3 bd cf ea 51 3e eb 21 9e 3d ab ba 23 3e
       -0.08004478 0.20499729 0.07721313 0.15989177
000060 95 82 8f 3e 7b 47 0d 3e 2f d9 f0 bd 53 78 8c 3e
       0.28029314 0.13796799 -0.117601745 0.2743555
000070 01 6e 11 3e c9 92 9c be e6 8c 92 3c 21 84 ee 3d
       0.1420212 -0.30580738 0.017889451 0.11646295
000080 6f 81 1d 3e 32 7a a5 3e 47 1c 69 be ff 54 84 3c
       0.15381406 0.3231979 -0.22764693 0.01615381
000090 0c c8 bd 3e 5b 57 70 be 63 27 5e be 68 2a 60 3e
       0.37066686 -0.23470823 -0.21694712 0.21891177
0000a0 18 68 06 3e d8 97 94 3e 2d 0a 50 bd 62 42 3f 3e
       0.13125646 0.29022098 -0.050790954 0.18677667
0000b0 0d 36 9d be 05 bd 51 be f6 c2 b5 3d ff 58 81 be
       -0.307053 -0.20482261 0.088750765 -0.2526321
0000c0 c4 61 99 bc 8a 76 2a be ed 2b ad 3e 2c a8 f3 bd
       -0.018723376 -0.16646782 0.33822575 -0.118973106
0000d0 ab dc b2 3d a3 ac 79 3d fb a3 be 3e 2d 0a 31 3d
       0.08733495 0.060955655 0.37234482 0.043222595
0000e0 bd 1f 4a 3e 35 25 70 be d9 60 90 be 7a e0 4c 3e
       0.1973867 -0.23451693 -0.2819889 0.20007506
0000f0 33 75 63 3e af 6c 11 be d0 0c 7d 3e fa bd c4 3d
       0.22212677 -0.14201616 0.24711919 0.09606548
000100 0b a1 69 be b8 1d 23 3e 29 36 b8 3e d8 91 87 bd
       -0.2281534 0.15929306 0.3597882 -0.06619614
000110 fc 5d 96 3e ff 46 dc bd 41 ca 9d be a4 d0 93 be
       0.2936858 -0.10755729 -0.3081837 -0.28870118
000120 86 af af bd 0b 55 9c 3e 67 1d eb 3d f4 ef a3 3e
       -0.085784 0.30533633 0.114802174 0.32019007
000130 d0 36 37 3e 94 06 2a 3c 3a 0e 91 be 65 b2 9c be
       0.17892003 0.010377545 -0.28331167 -0.30604854
000140 3b 11 c0 bd a5 ef 12 be b6 c5 b1 3e d3 bc 85 bd
       -0.093782865 -0.1434923 0.34721154 -0.06530156
000150 66 0f dc bc 04 90 a1 3d b6 3e 8b 3e 34 04 8d bd
       -0.026862811 0.07888797 0.27196282 -0.06885567
000160 c4 83 52 3e ed 9b 88 be aa 40 b6 be f4 cf 70 bd
       0.20558077 -0.26681462 -0.3559621 -0.05879207
000170 c5 32 1d 3e 23 7f 34 3e d8 96 14 3e b6 95 87 3e
       0.15351398 0.17626624 0.14510667 0.26481408
000180 f2 65 68 be 3a a8 ab 3d ba 89 9a 3e b4 21 5c be
       -0.22695139 0.08381696 0.30183202 -0.21497232
000190 db 37 86 3e 93 38 94 be 4e 57 81 3e ed d5 16 3e
       0.2621449 -0.28949413 0.2526192 0.14730044
0001a0 b9 77 ad 3e 9a ba 9b bd ff fe fb bc be 51 48 be
       0.33880404 -0.07603951 -0.03076124 -0.19562432
0001b0 aa fb ad 3e 8a f5 df 3c 2e 6c 05 be 30 33 05 3d
       0.33981067 0.027338762 -0.13029549 0.03251952
0001c0 7f ea 4f 3e 68 6a 1c be 17 34 80 be 91 73 5e bd
       0.20304297 -0.15274966 -0.2503974 -0.05430943
0001d0 13 81 de 3d 88 e1 3f 3d 0f c7 dd bd 93 3d 41 3d
       0.10864463 0.046845943 -0.10828983 0.047177862
0001e0 50 bc a2 bc 93 bc 87 3e 17 d6 69 be 7f b5 a7 3e
       -0.019865185 0.26511058 -0.22835575 0.32755658
0001f0 8d a1 5f bb bf cd 50 3e 2c 38 16 3e 99 cf 8a be
       -0.0034123391 0.20390986 0.14669865 -0.2711151
000200 49 a1 77 3e da 99 23 be 09 77 62 be 03 9d 2c 3e
       0.24182619 -0.15976658 -0.22115721 0.1685677
000210 4e 0e bf 3d 5f a4 3a be b1 dd 22 be 77 0e 97 3e
       0.093289 -0.18226765 -0.15904881 0.29503223
000220 0b 60 ae be 45 35 3c 3d b6 09 1a bd bd 1a a1 be
       -0.3405765 0.04594924 -0.037606917 -0.31465712
000230 94 d6 1a 3e 20 f7 ad be 9f 33 87 bd cd 7b 13 bd
       0.15120918 -0.33977604 -0.06601643 -0.036006738
000240 be 03 77 3e 54 a7 95 bd 5d 1c a9 be 62 b5 67 bc
       0.24122521 -0.07307306 -0.33029452 -0.014142366
000250 23 7f 87 3e 7d 7a 6b be 04 94 8e 3e 4a 0b 31 3e
       0.26464185 -0.22995944 0.27847302 0.17289463
000260 25 5a 58 bc 7c 5b e2 bc 6d a6 89 3e 13 f0 96 bc
       -0.013205086 -0.027631514 0.26884785 -0.018425023
000270 b7 82 3f 3d 8c cf c6 bb 5d dd 13 3d d7 d2 99 be
       0.04675552 -0.006067222 0.03609978 -0.3004367
000280 f8 94 39 be 2c 28 a6 3e 84 d0 5e 3e 23 77 f7 3c
       -0.18123233 0.32452524 0.2175923 0.030208176
000290 e0 b5 ad 3e 7e c6 c7 bd b1 4b 11 3e 12 16 42 be
       0.33927822 -0.09754656 0.1418903 -0.18953732
0002a0 bf 4d 5e 3e 1b 0f 42 3e ed 3c e9 3d 32 a4 e1 bb
       0.21709345 0.18951075 0.11388574 -0.0068860287
0002b0 20 c6 59 3e 65 29 1c 3e c3 14 61 3e a0 ae bc bd
       0.21266985 0.15250166 0.21980576 -0.092129946
0002c0 a1 94 10 3b 07 01 a8 bd bb ae 64 be 5c 06 59 3d
       0.0022061246 -0.08203321 -0.2233228 0.05298458
0002d0 b9 84 a2 3e d0 1a 60 3e 41 10 07 be 30 22 40 3e
       0.31741884 0.21885228 -0.13189794 0.18763041
0002e0 81 ec 5f bd 88 23 ad 3e 46 a6 b7 be da 2e bf 3d
       -0.054668907 0.3381617 -0.35869044 0.09335108
0002f0 13 0a 95 be 82 f6 4a 3e b0 d6 81 3e d9 9a 9a 3e
       -0.2910925 0.19820598 0.25359106 0.30196264
000300 0a b0 e2 bd 8f da 5c 3d 3a f0 ea 3d 26 8a 14 be
       -0.11068733 0.05391937 0.11471601 -0.14505824
000310 ed b2 a1 3e 76 b1 8b 3e 46 c4 25 3e 49 7b 2c be
       0.31581822 0.2728383 0.16188154 -0.16843905
000320 c3 97 55 3e b5 e8 54 be 67 68 7f be 06 06 b8 bd
       0.20858674 -0.20791896 -0.2494217 -0.08985524
000330 46 b8 68 bd ff 33 3e 3e d4 00 41 3e 08 b1 1f 3e
       -0.05681636 0.18574522 0.18847972 0.15594876
000340 35 6b 12 be bf db 87 3e 27 6e b5 3e 79 58 9c be
       -0.14298709 0.2653484 0.35435602 -0.3053625
000350 37 a6 a1 3e ca 68 ad 3d b1 79 c3 3d 3d 77 0c 3e
       0.31572124 0.084672526 0.09544695 0.13717361
000360 cb 4f 1c 3e e4 03 a9 bb 44 6e e5 bd ec ab 05 be
       0.15264814 -0.0051579345 -0.11202672 -0.13053864
000370 cb 09 64 be 01 84 3d bb fd 01 68 be 68 bf 56 3e
       -0.2226936 -0.0028917792 -0.22657008 0.20971453
000380 5c b2 91 be 87 fa a7 3e 98 4e 99 be 27 5a 99 3e
       -0.2845639 0.32808325 -0.29942775 0.29951593
000390 01 10 41 3d e9 58 b9 be b1 f1 0a 3e e2 79 63 be
       0.047134403 -0.36200646 0.1356876 -0.22214463
0003a0 d3 30 66 be e1 3a 1b bb 6b 09 da bd 81 a3 c2 3d
       -0.22479562 -0.0023686218 -0.106463276 0.09503842
0003b0 51 a8 95 3e 5e c2 99 be 07 6f 98 3e 6c 7b 4b be
       0.29229978 -0.30031103 0.29772207 -0.198713
0003c0 e2 bb 97 bd 18 65 73 3e 83 8e 05 be 38 9d 18 be
       -0.07408883 0.23769033 -0.13042645 -0.14903724
0003d0 d9 38 83 bd 0a 16 0d 3e 03 d5 d8 bc 18 99 9a 3e
       -0.06407327 0.13777938 -0.02646876 0.30194926
0003e0 ee 03 36 3e 23 61 ad be cd 89 89 be 6a 77 62 3c
       0.17774937 -0.33863172 -0.26862946 0.013822416
0003f0 e8 ff 82 bc 86 95 18 be c7 d8 06 3e 56 cc 09 3e
       -0.015991166 -0.14900789 0.13168631 0.13456854

residual.0.fc.bias f4 [16]
000000 2d 5b 73 bb bd e4 9d 3b 14 19 3f 3a 17 6d 0f 3a
       -0.0037133202 0.0048185275 0.0007289809 0.0005471273
000010 e0 55 4a 3c f6 77 f6 3b 2a c8 36 3b b5 de 7f 39
       0.012349576 0.0075216247 0.0027890303 0.0002440166
000020 76 30 9d 39 63 ea 5c 3b 32 26 04 ba bf a1 42 3c
       0.0002998148 0.0033709041 -0.0005041092 0.011879384
000030 0c 6b 25 bb 59 c5 3c 3b 06 0c e1 3b 47 78 7c bb
       -0.0025240807 0.0028804152 0.0068678884 -0.003852384

residual.0.norm.weight f4 [16]
000000 f5 f9 82 3f 6f cb 81 3f 61 f2 7a 3f 60 4e 82 3f
       1.0232531 1.0140208 0.9802609 1.0180168
000010 2c de 73 3f 05 4d 80 3f 7c d6 80 3f fa 6d 7d 3f
       0.9526088 1.0023504 1.0065455 0.98995936
000020 9e 5e 80 3f 46 4b 82 3f 81 6c 80 3f c6 4a 72 3f
       1.0028875 1.0179222 1.0033113 0.94645345
000030 3b 0a 7a 3f 10 0f 7e 3f 47 48 83 3f 87 94 7c 3f
       0.9767186 0.99241734 1.0256432 0.98664135

residual.0.norm.bias f4 [16]
000000 bf 77 92 3c 66 92 30 3c 11 b0 5d 3c 99 e7 c6 3c
       0.017879365 0.010777092 0.013530747 0.024280356
000010 5a 16 f9 bc 31 fa 64 3b 71 bb c1 bb 5a 5e a7 bb
       -0.030406166 0.0034939165 -0.0059122373 -0.005107683
000020 d2 ca 97 3b 5b 27 d4 3c 04 2c dc 38 48 56 af bc
       0.0046323324 0.025897672 0.00010498616 -0.021403447
000030 d8 4c 74 bc a0 38 3d ba 7c 58 85 3c e5 83 5c bb
       -0.014910899 -0.00072182156 0.016277544 -0.0033647951

residual.0.norm.running_mean f4 [16]
000000 13 c0 fd c0 21 68 b8 bf 25 01 5f 40 4a 38 04 bf
       -7.9296966 -1.4406778 3.4844449 -0.5164839
000010 9a ee 69 c0 ae ed 1b c0 b2 f4 42 bf a0 2a e3 bf
       -3.655188 -2.4363818 -0.76154625 -1.7747383
000020 9c 04 13 c0 4e ef 40 40 26 72 e1 c0 96 72 2d c0
       -2.2971563 3.014606 -7.045184 -2.7101188
000030 b0 d6 32 40 ed 1a 78 3e 41 08 74 40 f8 8b b1 3f
       2.7943535 0.24229021 3.8130038 1.387084

residual.0.norm.running_var f4 [16]
000000 ec cb 19 40 b4 f6 3a 3f 22 5f 79 3f 2d d1 d2 3e
       2.4030714 0.7303269 0.97410786 0.41175213
000010 d1 a8 fe 3f 19 0c 24 40 5e 32 d8 3f a0 64 99 3f
       1.9895269 2.5632384 1.6890371 1.1983833
000020 cf f9 09 40 93 91 c3 3f 4f 27 e1 40 b6 ed ba 3f
       2.155872 1.5278801 7.0360484 1.4603794
000030 81 21 d5 3f 68 ad 62 40 62 46 33 40 c0 95 25 40
       1.665085 3.5418339 2.8011708 2.587265

residual.0.projection.weight f4 [16, 32]
000000 c9 33 71 be 5f 35 a1 be 1b 49 e3 bd f5 07 6f bd
       -0.2355491 -0.3148603 -0.11097928 -0.058357198
000010 fe 0f ee bd 60 f8 a8 3e 04 21 64 be 5f 3e 27 3e
       -0.11624144 0.33001995 -0.2227822 0.16332386
000020 cf e5 12 3e 8c 81 a6 3e 3d b4 ad be 9f 66 80 3e
       0.14345478 0.3252071 -0.33926573 0.25078294
000030 d5 9b e2 bd 6e 3c e1 bd f8 35 2c 3c e7 7c 72 3e
       -0.11064879 -0.10997854 0.010510914 0.23680459
000040 09 f3 37 3e f5 32 60 be d8 dc e3 3d 69 e2 8e bb
       0.17963804 -0.21894439 0.11126107 -0.0043604863
000050 7f a2 a4 3d 84 8c bd bb 0d 15 9f bd 7f fc 34 3e
       0.08038806 -0.005784573 -0.07767687 0.17674445
000060 1e 95 9b 3e 9c 9f 3d 3e e6 3d 0f be 4d 12 9f 3b
       0.30387205 0.18517917 -0.13988456 0.0048544765
000070 9c 87 7f 3d 9d 32 6e be 69 49 86 3e 5d d6 24 3e
       0.062385187 -0.23261495 0.26227883 0.16097398
000080 c0 d2 17 3e 3d a1 b2 3e f2 2c 30 bd 59 ce 80 3e
       0.14826488 0.3488864 -0.043011613 0.2515743
000090 23 f0 23 bd 62 2a 8b 3e 19 f6 6a be 3a 48 c0 be
       -0.040023934 0.27180773 -0.22945441 -0.37555104
0000a0 5b f6 38 3e e4 49 0c 3e 19 d2 ac be 03 d0 1c 3e
       0.18062727 0.13700062 -0.33754042 0.15313725
0000b0 40 9f be bd 3d b5 1c 3e 00 27 a9 3e 60 92 8e 3e
       -0.09307718 0.15303512 0.33037567 0.2784605
0000c0 44 31 9a bc 51 b2 2e 3e f6 77 a5 be 41 7c a8 3c
       -0.01882232 0.1706021 -0.32318085 0.020567061
0000d0 48 04 07 3e ab 9a 34 3e df da 05 3e 76 5b 80 3e
       0.13185227 0.17637126 0.13071774 0.2506978
0000e0 4c b4 b1 3c 81 1e 07 3e 0c af b0 be 29 7c 29 be
       0.021692418 0.1319523 -0.3450855 -0.1655127
0000f0 eb 7a 30 3e 1e 49 1e 3e 67 44 13 3e 25 e0 19 3e
       0.1723439 0.1545758 0.14381562 0.1502691
000100 b8 0c a5 be 44 6f 0e 3e 19 d2 ca bd 63 5f 87 bd
       -0.32236266 0.13909632 -0.09903354 -0.066099904
000110 dd d3 c1 bc 88 52 91 3e 13 e0 9e 3e e0 44 f4 3d
       -0.023660595 0.2838328 0.3103033 0.11927199
000120 e5 57 03 be 7d 7f c6 3d 15 6c ec 3d e0 8d 8d 3e
       -0.12826498 0.09692285 0.115440525 0.27647305
000130 5d 2f 8e 3c 01 21 a4 be 4c 73 06 3e 31 7a 8b be
       0.017356569 -0.3205643 0.1312992 -0.27241662
000140 24 f0 67 3d ab 65 6c 3e 92 9a 35 3e 69 56 b1 3e
       0.0566255 0.23085658 0.17734745 0.34636238
000150 9e 6c bb 3e 7e 35 a9 be a4 80 c6 bb 0b 1e d2 3d
       0.36606306 -0.33048624 -0.0060578156 0.102596365
000160 8d 04 89 bd f7 e5 40 be 97 4a a5 3e 6c e9 5a be
       -0.06690321 -0.18837725 0.3228347 -0.21378106
000170 49 38 a4 be 11 00 bc be 34 fa 44 be 59 f2 07 3d
       -0.32074192 -0.367188 -0.1923607 0.033190105
000180 54 30 63 3e b4 12 c8 bc 18 b5 8d be ee 05 7a 3e
       0.22186404 -0.02442298 -0.27677226 0.24416324
000190 92 62 f4 bb 26 68 1d be f5 bc 4a bc 4e 22 cb 3d
       -0.0074580396 -0.1537176 -0.012374152 0.099186525
0001a0 a3 20 c6 bc 89 50 ff 3d aa a6 15 3e 53 be 72 be
       -0.024185484 0.12466533 0.14614359 -0.23705415
0001b0 2d 2a ac 3e 93 a2 8a 3e 3f 57 47 bd e9 fd 74 3e
       0.33625928 0.2707716 -0.04866719 0.23924984
0001c0 d9 e9 8c bd 26 b0 bc bd 1d 1d 36 3e 0b db 74 be
       -0.068805404 -0.09213285 0.17784543 -0.23911683
0001d0 c4 36 d7 bd 1d be 81 be 6c 51 8a bc 64 a5 e7 bd
       -0.105084926 -0.25340357 -0.016884528 -0.11310843
0001e0 db ea b0 bd 12 aa b2 bd cc 98 79 3e d3 8d ad 3d
       -0.08638545 -0.087238446 0.24374694 0.084743164
0001f0 bf c4 aa be e7 db 95 be ec ea 1e bd e4 b1 aa 3d
       -0.3335323 -0.29269335 -0.038798258 0.08334711
000200 b7 0f 69 3e 70 6f 9a 3e 7b 90 78 be fe a3 b0 3e
       0.22759901 0.30163145 -0.24273865 0.34500116
000210 f8 c9 77 3e c3 32 8b be 98 af 8d be fe 87 82 be
       0.24198139 -0.27187166 -0.2767303 -0.2549438
000220 47 51 e5 3b 8a 43 b9 bd 18 83 b0 be d6 cf d0 bd
       0.0069982144 -0.09046085 -0.34475017 -0.101958916
000230 29 fe 73 3e ea 3c 04 bd ea a3 95 be 97 e9 66 be
       0.23827423 -0.032284655 -0.2922662 -0.22550045
000240 b1 71 30 3e 62 f1 e3 3d 6c df 25 be b4 67 92 be
       0.1723087 0.111300245 -0.1619851 -0.28594744
000250 7c 9a f6 3d d2 1c 3e be e0 39 9e be 73 0b a2 3e
       0.12041184 -0.18565682 -0.3090353 0.3164936
000260 1b 01 1a 3e b8 dc 90 bd ea 3b 45 3d ba 7b 91 3e
       0.15039484 -0.07073349 0.04815284 0.28414708
000270 fe 47 a3 be 03 83 c4 bd 5d b4 02 be aa 9b b3 be
       -0.31890863 -0.09595301 -0.12764116 -0.350797
000280 29 4d 94 3e 55 3a a0 be d1 c5 0b be 9e da 2a 3e
       0.2896512 -0.31294504 -0.1364968 0.16684958
000290 86 c3 a3 3e 71 2f d5 bd 76 da 8f 3e 61 33 3f bd
       0.3198511 -0.10409439 0.2809636 -0.046679858
0002a0 86 57 a6 be 51 e4 a5 be b3 32 2a be 91 6b ab 38
       -0.3248865 -0.32400754 -0.16620903 8.173951e-05
0002b0 0f 9d 8a 3e 48 76 12 be 5c 93 4e bd f1 29 76 3e
       0.2707295 -0.14302933 -0.0504335 0.24039437
0002c0 3a 59 f7 bd e6 3b 1a 3e f8 ba 4f bc 76 b5 0b be
       -0.120775655 0.15061912 -0.012678854 -0.1364344
0002d0 ab 30 46 be 7c b4 af 3e 2a bb 46 be d9 3c 2e 3d
       -0.19354503 0.34317386 -0.19407335 0.042538498
0002e0 ab ad f1 3d 7c af 90 3d 98 42 12 bd 84 c6 88 bd
       0.11800703 0.07064721 -0.03570804 -0.06678489
0002f0 18 a1 12 be 0e 6f fc 3d f2 06 e4 bd 98 f2 0a 3e
       -0.14319265 0.123258695 -0.11134137 0.13569105
000300 83 b1 2e 3e 02 35 14 3e 9e 2f 22 be fc da 84 be
       0.17059903 0.14473346 -0.15838477 -0.25948322
000310 a6 32 c6 bd 20 3d d7 3d 9f c6 df 3c 43 7a 9f 3e
       -0.09677629 0.105097055 0.02731639 0.31147966
000320 c7 aa 75 3e df 05 2b be eb 2d 82 3e a8 0e 4c be
       0.23990928 -0.16701458 0.25425658 -0.19927466
000330 d2 ad 0b be 04 90 89 3e d6 df 82 be 92 82 c9 bd
       -0.13640526 0.26867688 -0.25561398 -0.098393574
000340 ed 4e a6 be cf ec 23 3e 1b 2b 8d 3e 62 cd a0 3e
       -0.3248209 0.16008304 0.2757195 0.31406695
000350 4f c5 cf bd 18 54 86 be 33 a8 37 3e 9a ce 66 be
       -0.101450555 -0.26236033 0.17935257 -0.2253975
000360 9f 02 02 be 44 c6 93 be 52 f1 85 3e 20 e1 0d bd
       -0.12696312 -0.28862202 0.26160675 -0.034638524
000370 d6 c9 46 3d f5 4f bb 3b a2 8f f2 3c 46 2c 20 be
       0.04853233 0.0057163187 0.029609505 -0.15641889
000380 06 35 b5 3e 7a 28 ae be 57 5f 50 bd 1c 3b 4a be
       0.35392016 -0.34015256 -0.050872173 -0.19749111
000390 62 31 74 be f0 e1 4b 3e e1 f7 8b 3e 29 52 45 3e
       -0.23846963 0.19910407 0.27337554 0.19269623
0003a0 53 ac da 3d 54 a1 64 3e f2 26 44 3e 5c 58 d6 bd
       0.106773995 0.22327167 0.19155481 -0.10466072
0003b0 6d c6 05 be 33 66 c9 3d c7 0d 5a 3e c6 1d 76 3e
       -0.13063975 0.09833946 0.21294318 0.24034795
0003c0 77 6f 1d 3d 46 ba b5 3e e3 3b 86 be 34 2d 1a 3e
       0.03843638 0.35493678 -0.26217565 0.15056306
0003d0 22 14 8c 3e 60 45 d0 3c 84 db 5c 3e 22 5b 9b 3e
       0.2735911 0.025423706 0.21568114 0.30342966
0003e0 44 bc 88 be 9c 72 60 3e 0f 37 26 3e 96 29 3b 3e
       -0.26706135 0.2191872 0.1623194 0.18277583
0003f0 11 a0 2f 3e 26 39 3f 3e b3 82 df 3d 7f 09 40 3e
       0.17150904 0.18674144 0.10913601 0.18753622

residual.0.projection.bias f4 [16]
000000 2d db 69 3b 0b d7 7c 3b b9 c7 64 3b 9c 38 60 3b
       0.0035683617 0.0038580324 0.0034909083 0.003421343
000010 9b 23 61 bb 68 08 61 3b 1b b8 59 3b ca 5a 5c bb
       -0.0034353498 0.0034337286 0.0033221308 -0.003362345
000020 42 00 5f bb 0b fa 57 bb b2 12 62 3b e5 17 63 bb
       -0.0034027253 -0.0032955434 0.0034496007 -0.0034651693
000030 d8 0b 68 3b 86 67 61 bb a1 f4 62 3b 67 4f 5f bb
       0.003540745 -0.003439398 0.0034630673 -0.0034074427

residual.1.fc.weight f4 [16, 16]
000000 56 28 a9 be 7a ef e5 be 23 83 61 3d 5d 6f b6 3e
       -0.33038586 -0.4490927 0.055056702 0.35631838
000010 0b ba 79 be 3e a2 a8 bd 05 6c 9f 3e 35 57 93 3e
       -0.24387376 -0.0823407 0.311371 0.2877747
000020 47 8f 44 3e 8b 06 ec 3d 93 55 e0 3d bd cb 0f 3b
       0.19195281 0.115246855 0.10953822 0.0021941506
000030 1b 61 c4 3e fa 36 90 3d dd 94 60 3e 7f 5f 95 bd
       0.38355336 0.07041736 0.21931787 -0.07293605
000040 ea d3 b1 3e 29 7a e1 be ac 29 f0 bd eb 24 cf be
       0.3473199 -0.44038513 -0.11726698 -0.40457854
000050 57 45 cc 3d ff c8 b1 bd bc 86 b3 be 26 ad bb be
       0.09974163 -0.08680915 -0.35063732 -0.3665554
000060 ca bc ec 3d c3 89 a2 3e 51 32 c4 3e e1 8b 8b 3e
       0.11559446 0.3174573 0.38319638 0.27255157
000070 42 88 bc be a8 3e b5 3e c1 be c8 3e 81 46 c2 3c
       -0.36822706 0.35399365 0.39208034 0.02371526
000080 05 29 d4 be f0 44 9a be d5 d0 c5 be ea 97 3d 3d
       -0.41437545 -0.3013072 -0.3863589 0.046287455
000090 b2 f7 b1 3e e3 f0 91 3e 56 56 59 be f4 0e 39 be
       0.3475929 0.28504094 -0.21224341 -0.1807211
0000a0 1c 20 ca 3d 77 12 80 be 08 fa 1e bd dc 0e 00 3e
       0.098694056 -0.25014088 -0.038812667 0.12505668
0000b0 4e 03 18 be d7 6d 37 3e 99 eb 38 bd 8a b5 c8 3e
       -0.1484501 0.17912994 -0.04514656 0.39201003
0000c0 be 8e b2 be fa 4e c2 3e 7d 06 ac 3e 90 14 d0 be
       -0.3487453 0.3795088 0.335987 -0.40640688
0000d0 03 bc b5 3d 66 4a 8e bd fe 8c 66 3e fb ab 8f 3e
       0.08873751 -0.06947784 0.22514722 0.28060898
0000e0 28 55 91 be 81 3c 8e be 69 47 9a be 0d 99 85 3e
       -0.28385282 -0.27780536 -0.30132607 0.2609333
0000f0 42 bb bc be 2e 2e 82 be c8 15 c0 3e 98 f9 4b 3e
       -0.36861616 -0.25425857 0.37516618 0.19919431
000100 f4 cf 94 3e 27 bd bb 3e 7d 25 d8 be ee 70 6d bd
       0.29064906 0.3666775 -0.422161 -0.057969026
000110 6e 97 17 3c ad af c9 3e 07 1b cb bd e3 51 1e bd
       0.009252412 0.39391842 -0.099172644 -0.038652312
000120 de c1 56 3e d7 7f 84 3e 49 c1 89 be 0e 6b bc be
       0.20972392 0.25878784 -0.26905277 -0.36800426
000130 59 f6 0d be 42 aa 0c 3e f0 a4 dd 3e f7 5e 17 3e
       -0.13863505 0.13736823 0.432899 0.1478232
000140 51 c2 60 3e 27 22 de 3d 9f 8d b8 bd 00 f8 af bd
       0.21949126 0.10846358 -0.09011387 -0.08592224
000150 27 87 ad 3e 52 b9 df 3d 98 e8 aa 3d f9 d7 75 3e
       0.33892176 0.10924019 0.08345145 0.24008168
000160 90 53 ad 3e 94 6b dd 3d 71 ba 5a bd 76 a6 2e be
       0.33852816 0.108115345 -0.05340046 -0.17055687
000170 37 7c 9b be 85 3b 3b be 8d b0 b7 3e c1 f6 c3 3e
       -0.30368206 -0.18284424 0.35876885 0.38274196
000180 05 ac 78 be f0 19 c4 3e a5 50 b0 bd f3 ec 03 be
       -0.2428437 0.3830104 -0.08609132 -0.12883358
000190 b1 ce 1b 3e 63 ae b4 be b1 2f 7c be b5 b5 f2 bc
       0.15215565 -0.35289297 -0.24627568 -0.02962766
0001a0 f9 53 1d be 02 d9 58 3e df b1 0d be 31 9b ae be
       -0.15364064 0.21176532 -0.13837384 -0.34102777
0001b0 09 9b b8 be e7 fc d1 3e f5 f3 65 3e 19 b6 d6 be
       -0.36055782 0.41013262 0.22456343 -0.41935804
0001c0 96 a0 b0 be ca 54 85 be 57 37 dd 3e 73 b0 57 3e
       -0.34497517 -0.2604125 0.43206283 0.21063404
0001d0 29 a7 ef 3d d6 bf 84 3e f6 2d 8b 3d f9 2d 8f 3e
       0.11701805 0.2592761 0.06795876 0.27964762
0001e0 04 57 c1 be e2 ab ae 3e 40 91 63 3e 89 91 aa 3d
       -0.377617 0.3411551 0.22223377 0.0832854
0001f0 e3 2f 88 3e d7 d5 9a bd 31 e3 6f be ff 77 e9 bd
       0.26599035 -0.07560318 -0.2342651 -0.113998406
000200 ed 43 99 be a8 74 08 3d 65 c6 62 3e 9a f7 b7 3d
       -0.29934636 0.033314377 0.22145994 0.08982773
000210 c6 c1 86 3b 93 72 27 3e f0 80 c4 be e5 ca 9a be
       0.004112455 0.163523 -0.38379622 -0.3023292
000220 78 ca d3 be f4 da da 3e e8 bf bd be d1 33 2b 3e
       -0.4136541 0.42745173 -0.37060475 0.16718985
000230 b3 39 a8 3e 2d e0 f0 bd a5 b5 c3 bd 33 64 ac 3e
       0.3285652 -0.11761508 -0.0955613 0.33670196
000240 9d 46 b2 be 7f ea df be c8 b7 28 bd d8 04 57 bd
       -0.348195 -0.43733594 -0.041190892 -0.052494854
000250 9f 9f 38 be b0 37 48 3d b5 20 65 3e a6 48 60 3e
       -0.1802964 0.048881233 0.22375758 0.21902713
000260 c7 3e 13 3e 30 03 97 3e 0d 6a 47 be 52 5d 47 bb
       0.14379416 0.2949462 -0.19474049 -0.0030420613
000270 bb e1 0a 3e cc 23 ef 3d ef 30 40 be 2f 38 be 3e
       0.13562672 0.116767496 -0.18768667 0.3715224
000280 a5 a2 ab be d0 72 49 be 66 1e cf be 53 6e 99 3d
       -0.33522525 -0.19672704 -0.4045288 0.07491746
000290 51 bb b0 be 4c bd 95 3e 1c a5 92 be e8 32 23 3e
       -0.3451791 0.29245985 -0.28641593 0.15937388
0002a0 40 91 d0 3e 3a 5c c4 3e 58 c1 cf 3d cf e9 57 3e
       0.40735817 0.38351613 0.10144299 0.21085285
0002b0 73 54 d2 3d 41 f0 63 3e f5 cb b9 bc 21 9b 9c be
       0.10270014 0.22259618 -0.022680262 -0.30587104
0002c0 64 b9 c5 3e 0a 19 b6 be 4e 10 d2 3e 8d 01 1b 3d
       0.38618004 -0.35565978 0.41028064 0.037843276
0002d0 1b d0 2e 3e bf dd 0f 3d d5 ba 47 3e c1 9d 73 3e
       0.17071573 0.035123583 0.19504865 0.23790647
0002e0 8e 0d d1 be 7a f2 66 3e 0c 68 d9 bd 75 a3 e1 be
       -0.40830654 0.22553435 -0.106155485 -0.4407002
0002f0 56 7d c2 be 74 38 91 3d 0b 0a a1 3e 45 75 da be
       -0.3798625 0.07090846 0.31452975 -0.42667595
000300 e0 5d bf 3d eb 7c 15 3e dd 63 d6 be e5 c0 f2 3d
       0.09344077 0.14598434 -0.41873065 0.11853198
000310 85 ee 46 be 9a e8 8e 3d 96 ac 14 be 73 d9 ae 3e
       -0.19426925 0.06977959 -0.14518961 0.34150276
000320 13 7b cc be 14 7e 59 3e ef 56 4f be c0 c3 1e 3e
       -0.39937648 0.21239501 -0.20248006 0.1550436
000330 8f d5 12 3d 67 6a d1 be 90 37 4c be 8e 35 4d 3c
       0.035848197 -0.4090149 -0.1994307 0.012524975
000340 2b 00 eb bc 47 f9 89 be ba d2 82 3e 62 bc 42 be
       -0.028686604 -0.26947996 0.25551397 -0.19017175
000350 0a b9 73 be fd d5 26 3e 5d f3 ac bb 7a be a0 3d
       -0.23801056 0.16292568 -0.0052780346 0.078488305
000360 19 ea 7c 3e 5c a3 53 be 50 7a 28 3e 60 07 92 3e
       0.24698676 -0.20667785 0.16452909 0.28521252
000370 21 0e 26 3c 02 9f d3 3e d6 26 58 3e 08 6f 8a 3e
       0.0101352045 0.4133225 0.21108565 0.27037835
000380 7d 05 a4 3e b6 fe 8e 3e 0d ac fd 3d 47 15 63 3e
       0.32035437 0.27928704 0.12386332 0.22176085
000390 d4 6b 8d 3e eb 15 df 3c 96 98 7a 3d f9 c5 fb bd
       0.2762133 0.027232131 0.061180674 -0.1229362
0003a0 b5 f5 82 bb 7d 15 7f 3e d4 a5 73 bd 9f 51 f5 bd
       -0.0039965757 0.24910541 -0.059484318 -0.119784586
0003b0 5b 95 fe 3d 9e 7d 30 bd ec 78 02 3d 61 e1 a5 bd
       0.12430831 -0.043088548 0.0318536 -0.08099628
0003c0 a5 a5 72 bc cb 32 e9 bd e3 5e c8 3e 41 e6 85 be
       -0.014810001 -0.11386641 0.39134893 -0.26152232
0003d0 0e 39 a6 be ac 6c d2 bd 66 c6 87 3d a0 04 80 3e
       -0.32465404 -0.10274634 0.066296384 0.2500353
0003e0 33 a5 b4 3d c8 3a 1d bd a4 11 cb be 9a 65 80 be
       0.08820572 -0.038386136 -0.39661896 -0.25077516
0003f0 e1 ec e2 3d f3 c5 19 be 12 78 94 be 56 26 85 3d
       0.11080337 -0.15016918 -0.28997856 0.065014526

residual.1.fc.bias f4 [16]
000000 d2 76 34 3a 11 46 1a 3b 7a 9b 8e ba 7e 6d 07 3c
       0.00068841607 0.0023540298 -0.0010880076 0.008265851
000010 2d e7 3a bb 05 dd 82 3b f6 6e 3c 3b 67 29 63 3b
       -0.002851914 0.0039936327 0.0028752661 0.003466213
000020 0d 26 cc 3b 5e cd 33 3b ec 12 fe ba 7f 0b 95 3b
       0.006230122 0.002743564 -0.0019384301 0.0045484896
000030 25 cd 34 3b e2 3f 83 3a e2 8e 89 3a 99 fc de 38
       0.0027588096 0.0010013545 0.0010494853 0.00010632835
