climate/PERNN_old/best_model.pth (torch, 29282 bytes, 29 tensors)

encoder.0.weight f4 [16, 16]
00000000: 86df 873e fd0b 67be e80b e03b 7e52 05bd
00000010: 2973 d5bd 75aa 8fbe 8fa1 cdbe 6619 f0bc
00000020: 6639 c9be 2796 1fbe 9f85 813e 6ff4 43bf
00000030: 1c42 ccbd 9fc7 6b3e 1e8d 7fbe 77e5 1b3d
00000040: b64a e6bb dce4 86bd 1151 203e 2832 b43b
00000050: fc6c d4be fb6b a0be df33 e93e a544 19be
00000060: 5c4b 45be ee13 263b 72b6 f83e a94b aa3e
00000070: d4e9 24be 2d2c 11bf 7a9b 5f3e 41b4 393c
00000080: 8985 f43e b407 0dbc c336 b4be 4d1d d7bd
00000090: 1c0c 29be 102f aa3e 232a c63c ee82 8ebe
000000a0: bece c7be 9f0f 54be a2b1 5ebe 2694 cdbc
000000b0: c56e af3d 9b01 843e 0f0c 35be 0a08 813d
000000c0: 862e 10be 4d0d 6d3e ed96 183f 3c9a 5ebc
000000d0: 2d15 5abe 3f88 573b 3c62 493d 93d1 2cbe
000000e0: b826 b63d 8d49 6e3e 3e9b dfbe 0a41 8ebc
000000f0: 5566 9ebd d33e b93c fdda 72be 932a d53e
00000100: 90c7 453e b13b fdbc 1a3a a23e 7a25 8b3d
00000110: 3bf1 a33c 9010 203e 6dbc eabd a367 6ebe
00000120: 2103 99be 4acc d8be 0423 67be b1b5 623d
00000130: 96b4 103e 0344 0dbe 3648 31bf db5b 06be
00000140: ccd0 173f da8a 11be 606b 07be 418b cd3c
00000150: 788b a33d 340a 29be b130 08bc 9fce 9abe
00000160: 8baf abbe 1aab 48be dc62 b23e 7334 b33e
00000170: 3dec a1be 7b35 7a3e 7f60 c1be ecf2 673c
00000180: 3c36 073f b4dd 3d3e a764 603d a180 1dbd
00000190: c4da 76be 82f5 3fbd fc90 3fbf 665e 333e
000001a0: f952 07bf 86e3 723e 6a41 69be 5273 723d
000001b0: 16d0 883d f87c d9be d92d d33e d04a 3d3e
000001c0: 86f8 2ebf 6821 e23e 1ae6 1b3e 4648 aebe
000001d0: f694 d4bc c447 8d3e 8920 6b3e d5d7 d03d
000001e0: a8cb 6a3d 3a86 1d3c 1b7b d03e 672a f63b
000001f0: afd2 843e 1675 743e 17d1 583d aef7 0bbc
00000200: 5d0b abbd 7b14 d6be b308 d83e 0272 40be
00000210: c6e4 3a3e cb16 b93e ec05 4dbe cd69 76be
00000220: dea2 53be 6466 65bd 3480 bf3c 333b 6bbe
00000230: 7bd3 dfbe ef3f 783e 3c93 a7be 202a e7bd
00000240: 39ae 13be ff90 7bbe 4fee f1be b81c bb3d
00000250: 97e6 31bc 7b3b a83d 8f71 19bf 699c 15bf
00000260: f776 3ebe 30de 8ebd 2ac2 a3be 38e3 ef3d
00000270: da41 87bd 13d7 d03c 19e4 22be f0b2 2e3d
00000280: 8733 2a3e 8c87 963d 2a73 943d f715 a13b
00000290: 94f4 adbc 821f 693e 6c21 37bf 95fe d43e
000002a0: 46eb 183e bba7 413e f41f 893e 8457 383e
000002b0: 513c 10be 47ea fcbd 2d7a a4be 7011 ecbd
000002c0: 4b82 023d 4d69 b93e 26d2 c8be 7e34 c3bc
000002d0: 5783 0bbe 5fa2 c93d 8088 733e 7d38 973d
000002e0: d235 c2be f624 443e 5b25 213e 7abb c13e
000002f0: a015 db3e 5b95 a03e b732 d5be 3b25 12be
00000300: 5e73 fcbd 0baa 153e 45f7 06be d554 6abe
00000310: 21bb 08be d871 903c 8b4b e7be f383 383d
00000320: 513d 04bc 41c0 563d 62c8 df3e f218 5bbf
00000330: fdd8 083e 1483 06bf 6c6f 77bc 2f8d fabd
00000340: 03ba 44bb faa6 c2be 1d58 a53e d35f aebd
00000350: b426 d6be 6e9b 18be b459 b0bd 39cf 203f
00000360: 2a80 243d a400 7dbe 4f8a 55bd a2fd 883e
00000370: 828c 4bba f50c 163e d8a0 9dbe 7978 26bd
00000380: 1281 39be 2a76 44be 3376 efbe 3fa0 2fbd
00000390: 9e03 c8bd 9c69 933d 3b98 39bf e73c 7ebe
000003a0: 8b25 6b3e 8a7c 703e 87e6 d3bc 9982 21be
000003b0: effe 64bf 7612 e23c 6460 91be 17ed 66be
000003c0: c68e 903d 0594 50bd 6d63 67be b7c0 5c3d
000003d0: 36aa 213e 28f4 dcbc b780 823d 8fc6 653e
000003e0: 1acd 163d d3f2 d73e a2e9 b03e 6642 d53d
000003f0: d45b 263e 4e4a e1be 2a2d 8ebe 681b 8c3e
0.26537722 -0.22563167 0.006837357 -0.032549374 -0.10422356 -0.28059736 -0.40162322 -0.029308986
-0.39301604 -0.15584622 0.25297257 -0.7654485 -0.09973547 0.23025368 -0.24956176 0.03806063
-0.007027949 -0.0658662 0.15655924 0.005499143 -0.41489398 -0.31332383 0.45547387 -0.14967592
-0.19267029 0.002534147 0.48576695 0.3326085 -0.16104823 -0.5670803 0.21836653 0.01133448
0.4775813 -0.008607794 -0.3519803 -0.105036356 -0.16508526 0.3323903 0.024190014 -0.27834266
-0.3902492 -0.20709084 -0.21747449 -0.025095057 0.085660495 0.25782475 -0.17680381 0.063003615
-0.14080247 0.23149605 0.59605294 -0.013586577 -0.2129714 0.0032887605 0.04916595 -0.16876821
0.08894104 0.23270245 -0.43673128 -0.017364997 -0.07734362 0.022612965 -0.2371635 0.41634044
0.19314408 -0.030912252 0.31684953 0.067942575 0.020012489 0.15631318 -0.114617206 -0.23281722
-0.298852 -0.4234336 -0.22571951 0.055349056 0.14131388 -0.13795476 -0.6925081 -0.13120978
0.59302974 -0.14213124 -0.13224554 0.025090815 0.07985586 -0.16507798 -0.00831239 -0.30235764
-0.33532366 -0.1959652 0.3484105 0.35000953 -0.31625548 0.24434464 -0.37768933 0.014157038
0.5281713 0.18541604 0.05478349 -0.03845275 -0.2410689 -0.046864994 -0.74830604 0.17516479
-0.5286098 0.23719606 -0.2277886 0.05919201 0.06680314 -0.42478156 0.41245916 0.1848557
-0.68347967 0.44166112 0.15224496 -0.34039515 -0.025949936 0.27593815 0.2296163 0.10197417
0.057323128 0.009614522 0.40718922 0.007512379 0.2594199 0.2387279 0.05293378 -0.008542938
-0.08351777 -0.418125 0.42194137 -0.1879349 0.18251333 0.36150202 -0.2002179 -0.24063797
-0.20667598 -0.05600585 0.023376562 -0.22971801 -0.43716034 0.24243139 -0.32729518 -0.112873316
-0.1442193 -0.2456703 -0.47252128 0.09136337 -0.0108582 0.0821447 -0.599389 -0.5844179
-0.18600069 -0.06975973 -0.31984073 0.117132604 -0.06604357 0.02549318 -0.15907325 0.042651117
0.16621219 0.07350072 0.07248528 0.0049159485 -0.021234788 0.22765926 -0.7153537 0.4160048
0.149335 0.1891164 0.2678219 0.18002135 -0.14085509 -0.12349372 -0.32124463 -0.115267634
0.03186254 0.3621315 -0.3922283 -0.023828741 -0.13624321 0.09845423 0.2378254 0.07383821
-0.37931687 0.19154724 0.15736906 0.37838346 0.42789936 0.3136395 -0.41640255 -0.14272015
-0.12326692 0.14615647 -0.13180263 -0.22883923 -0.13352634 0.01763241 -0.45174822 0.04504771
-0.00807126 0.05242944 0.43707567 -0.8558494 0.13364024 -0.5254376 -0.015102249 -0.1223396
-0.0030018098 -0.38018018 0.32293788 -0.08514371 -0.41826403 -0.14903042 -0.086108595 0.62816197
0.04016129 -0.24707276 -0.052133854 0.26756006 -0.0007764773 0.1465338 -0.30786777 -0.040642235
-0.18115643 -0.19185701 -0.46769866 -0.042877432 -0.09766315 0.07197878 -0.7249791 -0.2482792
0.2296354 0.23485008 -0.02586676 -0.15772475 -0.894515 0.027596693 -0.28393853 -0.2255138
0.07058482 -0.050922412 -0.22596522 0.053894725 0.15787587 -0.026971892 0.06372207 0.22439025
0.036816694 0.42177448 0.34553248 0.10413055 0.16245967 -0.44002002 -0.27768832 0.2736466

encoder.0.bias f4 [16]
00000000: 9a22 a63e 2cd2 9e3e 944f b73e c162 1cbf
00000010: 11da 4fbe 665e f43e a058 e93e 3ba8 2fbe
00000020: 4f95 72be 7c01 513e 16cf f13e a31c 013f
00000030: d638 d43e f958 d23e 5e96 043f 7bc1 e53e
0.32448274 0.31019723 0.358029 -0.61088187 -0.2029803 0.4772827 0.45575428 -0.17154019
-0.23689769 0.20410722 0.47228307 0.5043432 0.41449612 0.41083506 0.5179194 0.44874176

encoder.2.weight f4 [16, 16]
00000000: 657d 853e c074 8fbd 8357 4c3e df9a d6bd
00000010: 0837 4ebf 1c40 f13e 8eb7 413c 7a7d 1cbf
00000020: acde 00bf 44e5 0abe 0937 713e 1dca 043f
00000030: 0dc8 a73e b05b ac3e 167f b33d 9c9b 1cbd
00000040: 4caf 703e 53ec 243e 3790 02be 7720 70bc
00000050: ce11 8dbe c4c6 13be 973e c9bd e722 d03b
00000060: 6274 713e ee66 c03e 27ff be3e 5d70 9c3e
00000070: e933 a5be fcbd a8be 7482 8abe c833 1a3e
00000080: cf71 6cbe baf3 973e 0dd4 c13e e3ed 813d
00000090: 82b5 68be 7bae 74be b3dd 8c3e 5d24 92be
000000a0: 1a70 193e 4d09 10be 1d37 ac3e 8b62 2d3e
000000b0: 0319 abbd 6cfd 57bd 6e40 f13e eba2 933e
000000c0: b8ae 8fbe 16e5 dcb8 ca9f 8cbe 4f46 a4be
000000d0: 7439 3cbe 38c6 903e 18a7 06be 213b 303d
000000e0: 5379 33be be0c 053c 3975 003f 3822 613e
000000f0: 4fdc 94bd bf92 d73e 3c79 023e da14 4f3d
00000100: a215 c63e 5cc5 303e e9d9 a1be b23a b9be
00000110: a3fa a3be 3280 87be ffd2 d33e 1c6c 5cbe
00000120: 84ea bbbe 8b79 29bb c126 783e a2c8 12bc
00000130: d212 51be 3add 833e f07e 8c3e c8ea 453c
00000140: bfea 293e 6e6a 46bd 1804 2a3d 9397 8abe
00000150: 715a 41bf de7e 06be 1afb ea3e 51dd 09bf
00000160: 166a f43e 093f a13e 66ba 4bbe 1759 69bc
00000170: 4c99 9f3e 13a4 bcbe 6728 cebd 59e5 cd3e
00000180: f7c8 353d 247a 913e d286 afbe b1f8 133d
00000190: b55f 1b3d 4f30 aebe c069 9cbe 5a77 acbe
000001a0: c5f7 35bf 310c f2be d6cf c33e b7f9 38be
000001b0: 9072 293d a5be 063e 2eca a03d 01f7 a3bd
000001c0: 59aa c43e 3507 8b3e ea28 53be 32b1 fcbd
000001d0: 3a56 38bf 3e6d e43e bb37 a03e 0b9b cc3d
000001e0: 9d81 04bf 36d9 00bc 7c13 9dbe a4bd a03e
000001f0: aa04 c93e 89a0 aa3e da73 55be c6f0 5f3e
00000200: 82f5 003e a211 853e faae 31bd a263 ffbe
00000210: f3ad aabd e2f5 48be 7704 583e 1610 9dbe
00000220: 954c d9bd 69ef bebd 763f 27be 6ab1 cd3d
00000230: c659 e03d 65fb e63e 0406 05be 38a8 4b3e
00000240: 591a ab3e b6f7 db3e 52f8 5c3d f528 08bf
00000250: 1a50 ffbd f3fb f53e 3372 a43e 4680 573d
00000260: 1336 16bf 6484 1abe 2d96 ff3e 4e8e 6c3e
00000270: 9098 33bd fcfa 53be 8dc3 dd3d 82ba e43e
00000280: 4145 4a3e 4eb6 e33d 7b21 0b3e 4382 d3be
00000290: a2f8 1abf eba4 f73d d5e1 203e b1ea 6eb9
000002a0: dc0a 08be e4e9 d63e fefd 5e3e 3e6d d93e
000002b0: bfba ec3e f449 703e 9fef 123f 19ba 923e
000002c0: 34c1 c93e 2a84 25be b548 8cbc f808 6cbe
000002d0: c7a5 70be e963 d53e 8225 033f fd2f 493e
000002e0: 89f3 673c 5171 4cbe 5aa0 abbe e6a3 82bc
000002f0: f8ab c73e 7459 2ebe 11b7 b43d f00c 2d3e
00000300: b09b b2bd 6e21 1fbd c1f2 853e 0255 edbe
00000310: 5afd 04bf 67a9 1d3e 3724 67be c390 98be
00000320: a76b b73e 49b2 353e afea b8bd b706 ea3e
00000330: 2740 cb3c f07f 8cbd 93ed 71be e4b2 153f
00000340: 8e21 413e 7c67 c1bc 989d bfbc 0b01 06be
00000350: 704d 04bf 6fbe 803e 5ef9 333e 143e 0abf
00000360: c8e0 08bf 74d1 263e 9f61 57bd ac9f 99bd
00000370: ac17 943e 3057 553e 9ee2 13bd c4ba 89bd
00000380: b0c2 66be bb1e 143d 9b0d 953d e582 d63d
00000390: 3f11 c1bd 14b8 8dbe 0b0f 34bf 9fdf 853e
000003a0: ba6a 87bd 001b 9cbc 8afa cabe fa3f 81bf
000003b0: b0e7 8ebe 391e 1abe d2d9 ccbb 03af aa3e
000003c0: 434c 643e 3bac ca3e d54e 573e a51f bfbe
000003d0: 05bd 06bf a94e b53d 7855 1fbd 3aa7 0bbf
000003e0: 98f8 fabe 10c6 ddbc 0c58 0ebe c899 583d
000003f0: 4acb f63e 8992 73be 0fdf a5bd 56f0 963e
0.2607223 -0.0700469 0.19955258 -0.10478758 -0.8055272 0.47119224 0.011823548 -0.6112896
-0.5033977 -0.1356402 0.2355615 0.518709 0.32769814 0.33663702 0.08764474 -0.03823434
0.2350437 0.16105776 -0.12750326 -0.014656178 -0.27552646 -0.14431292 -0.09826391 0.006351817
0.23579553 0.3757853 0.3730404 0.30554476 -0.32266167 -0.32957447 -0.27052653 0.15058815
-0.2309029 0.29678136 0.37857094 0.063442014 -0.2272549 -0.23894684 0.27512893 -0.28543368
0.1498417 -0.14066048 0.33635798 0.16932122 -0.0835438 -0.052731916 0.47119468 0.28835234
-0.28062987 -0.00010533088 -0.2746566 -0.3208489 -0.18381292 0.2827623 -0.13149679 0.04302514
-0.1752675 0.008120714 0.5017887 0.2198571 -0.07268583 0.42104146 0.1274156 0.050556995
0.3868838 0.17262787 -0.31611565 -0.36177593 -0.32027158 -0.26464993 0.41371915 -0.21525615
-0.3670236 -0.0025859799 0.24233533 -0.008958967 -0.20417336 0.2575472 0.27440596 0.012079902
0.16593455 -0.048441343 0.04150781 -0.27068767 -0.7552863 -0.13134333 0.458947 -0.5385333
0.47737187 0.31493405 -0.19895324 -0.014242432 0.31171644 -0.3684393 -0.100663 0.4021404
0.044381108 0.28413498 -0.34282547 0.036125842 0.03793307 -0.34021232 -0.3054943 -0.33684808
-0.7108119 -0.47274926 0.38244504 -0.18064009 0.04136902 0.13158663 0.07851063 -0.08006097
0.38411215 0.27153936 -0.20621076 -0.12338485 -0.7200657 0.44614595 0.3129252 0.099905096
-0.51760274 -0.007864287 -0.30678928 0.31394684 0.3926137 0.33325604 -0.20844975 0.21869192
0.12593654 0.25990015 -0.04337976 -0.498807 -0.083339594 -0.19625047 0.21095453 -0.30676335
-0.1061031 -0.093230076 -0.16332802 0.10043605 0.10954623 0.45113674 -0.12990576 0.19888389
0.3341854 0.42962426 0.053947754 -0.53187495 -0.1246645 0.48043784 0.32118377 0.052612565
-0.5867626 -0.15089566 0.49919263 0.2310116 -0.043846667 -0.20701212 0.10828314 0.44673544
0.19752981 0.11118756 0.1358699 -0.4131032 -0.60535634 0.120920025 0.15711148 -0.00022784878
-0.13285393 0.4197532 0.21776578 0.42466158 0.46236226 0.23465711 0.5739688 0.28657606
0.39405215 -0.16163698 -0.017124513 -0.23050296 -0.23500739 0.41677788 0.5122911 0.19647212
0.014157184 -0.19965102 -0.33520776 -0.015947293 0.3899839 -0.17026311 0.0882398 0.16899467
-0.08721101 -0.03885024 0.2616177 -0.46353918 -0.51949084 0.15396653 -0.22572409 -0.29797944
0.3582432 0.17743792 -0.09029137 0.45708248 0.024810864 -0.0686034 -0.23625784 0.5847609
0.18860456 -0.023608916 -0.023390576 -0.13086335 -0.5168066 0.2514529 0.17575595 -0.54000974
-0.5346799 0.16290838 -0.052583333 -0.07501158 0.2892431 0.2083404 -0.03610479 -0.06725076
-0.22535205 0.03616212 0.07277986 0.10474185 -0.094271176 -0.27679503 -0.70335454 0.26147172
-0.06612153 -0.019055843 -0.3964427 -1.0097649 -0.2791114 -0.15050592 -0.006251552 0.33336648
0.22294717 0.39584526 0.21026166 -0.3732883 -0.5263217 0.08852894 -0.03889987 -0.5455204
-0.49017787 -0.027071983 -0.13900775 0.052881032 0.48201972 -0.23786367 -0.08099186 0.29480237

encoder.2.bias f4 [16]
00000000: 6489 f23e 2340 9b3e 2bac e03e f0bf 033f
00000010: 5003 013f 1c0c f83e 6bdd 053f 745c dc3e
00000020: 72dc 003f 5415 fe3e 9627 023f 72b1 083f
00000030: 2688 173f 1777 d83e 597d c9bd e3ec f33e
0.47370446 0.3032237 0.43881354 0.5146475 0.5039568 0.4844674 0.5229098 0.43039286
0.5033637 0.49625647 0.50841653 0.5339576 0.5919212 0.42278358 -0.09838361 0.47641668

encoder.4.weight f4 [32, 16]
00000000: 1b39 cf3e 8781 c03c f8ed 773e 9791 5f3e
00000010: 1916 173e 78c5 083f 365f 1d3f bef5 32be
00000020: d2da 283e dc9e f13e b5a3 533e 3c8a 793e
00000030: 2d7c 31bd 6f15 6fbc 87a3 db3e 92bf 61bd
00000040: b8a2 01be f4cf 9cbe 6872 c5be b489 22be
00000050: f1ee 063e 260e 4bbe a8ef f3be 8224 e2be
00000060: 8aaf 41be d924 c13d a567 fcbe 5075 e3be
00000070: 0c3f f5be 37fa d9bd ceed 7ebe d9a0 f5be
00000080: 21c0 a93e 7fc4 803e 1307 3c3e 7c78 c3bd
00000090: 2fff 3f3e 8597 4b3e d880 8e3e 4acf f23e
000000a0: 2ef5 9c3e 3bf3 023d b3b0 ad3e fd0f 913e
000000b0: 4d28 9d3e fe47 873e 54c6 e03e d138 0f3f
000000c0: f079 bfbe f06e e5be a137 dbbe 23ff cdbe
000000d0: 3c54 d8be f307 23bd 8eae adbe 8702 363d
000000e0: 32f7 2bbd b554 24be 464e 67be 73b0 c3be
000000f0: 0e8b 91be 657f 653d 5a0f 30bf aebf 89bd
00000100: 10d7 b63e 2485 d83d 704e 48be c68c 913d
00000110: 10f4 dc3e f3fb bfbd 6013 b73d d5de c43e
00000120: 6372 99bd ead2 b63e 3d31 8e3e 0dde debd
00000130: 692e 203d 7560 c83e 9975 353e 89a2 8e3e
00000140: 3f0e 303e cb92 5f3e 9054 173e 0276 efbe
00000150: 9b6c f63c 8c1e 2d3e c51b 3bbf 0c87 423d
00000160: 3a8f 72be 9860 17be 1d26 aabe 412f dcbe
00000170: 2c67 9ebd 6cbd 50be af75 f0be aaf5 debe
00000180: bd51 a33e b02e bb3e a0cb c43e d5af 663e
00000190: 6a12 813d 120a b23e 74cc 3c3e 6782 dd3e
000001a0: e5c0 f83d bf34 2e3e dedc 5d3e 3a13 873e
000001b0: db7f ab3e ce69 83be 75d2 103f f773 743e
000001c0: c4bf 693e 06d0 17be b8a1 e2bd 9fff c03c
000001d0: a298 ac3e ff18 043f 9e72 013f a6e4 233e
000001e0: fc39 8ebd d88c d7bb 8a39 f03e 59c5 013f
000001f0: fc27 da3c 4b34 cf3e 7e97 5e3e bf74 da3e
00000200: a123 a93c 8117 1d3e 0e40 423e 73f7 063e
00000210: f07d bc3d 0016 363e 4ce6 2a3f 2689 7b3d
00000220: 6d48 c03c 8c9a 1e3e 7b8d e63c 7931 6fbd
00000230: 9e3b f93e d72d 783e a222 5e3e 63d3 b53e
00000240: 66b5 08bf bb82 1e3e a373 52bd 94ce f0be
00000250: a7e2 b5be 77e1 97be 29ec 15bf a664 523e
00000260: db7e 70be da01 0e3e fec0 78be 8d4e 9ebe
00000270: fcdd 8d3c 9be7 3a3e 6f39 cfbc a218 0dbf
00000280: 03a3 82bc 3d47 b23d bd84 9bbe 728a 363c
00000290: 2a39 dfbd b66c 48be 1cba 0bbf 1fd9 9cbd
000002a0: 8f26 f73d 1ac6 06bf ed89 ca3c cbf1 cbbe
000002b0: a146 63be 8bdf 253d 8471 d6be 2e23 aabe
000002c0: 35f0 8bbd 6e5f 4c3c 2048 5a3e 7245 523c
000002d0: 5b3b 9cbe d7d3 86bd cd31 35bf 483d 28bd
000002e0: cb56 06bf b763 f2be 4e9e a5be ec5d fdbe
000002f0: 8136 c7be e947 82be 7b45 a6be e6dd dbbe
00000300: 3039 653d 7de9 c33c ec8c 1e3d 47b7 5abe
00000310: 3184 d9be f391 1bbd de12 9bbe 87c7 d6be
00000320: 183f cebd 2d07 babe b199 f3be 998c 203e
00000330: a80d 3fbd 4c61 0d3b ee14 44be f605 07bf
00000340: 0391 7d3d d1b3 d6bd 9703 0bbe ed0a a13d
00000350: 7fca 87be e276 59bc 179b a2be e0d1 1f3d
00000360: 2a2f 07bf 2d61 8abe 9eaa eabe e0cb bebe
00000370: ce0c 1cbf c3e9 c1be f800 02be c24e 023e
00000380: 1c02 e9bd 8ba9 803e a0ca 2abe 1a3e d73e
00000390: e290 013f 3021 ffbc 613b a63e 9c37 55be
000003a0: facd e73e 340c 7c3e 8b85 e23e c33c 10bd
000003b0: 86e7 f33e ca33 94be d50f 4c3e ca0b cdbc
000003c0: 9265 a43c 8c6e 2bbe 04b5 c93e 2800 b53d
000003d0: 3377 b43d 07f6 da3e 6383 743e acea 89bd
000003e0: c936 163e 081c 22be 6690 823e d3b0 35bb
000003f0: e901 fb3e 6aea 7e3e 47df 5d3e 778f fa3d
0.40473256 0.023499263 0.24211872 0.21832882 0.14754523 0.53426313 0.61473405 -0.17476556
0.16489723 0.47191513 0.20667918 0.24369138 -0.043331314 -0.0145925125 0.428982 -0.055114336
-0.12659729 -0.30627406 -0.38563848 -0.15872842 0.13177086 -0.19829616 -0.4764378 -0.44168478
-0.18914619 0.09430856 -0.49297825 -0.4442544 -0.47899663 -0.10643428 -0.24895403 -0.4797428
0.33154395 0.25149915 0.18362074 -0.09544465 0.18749689 0.19882019 0.27832675 0.47423774
0.30655807 0.031970244 0.33923873 0.2833251 0.3069481 0.26422113 0.43901312 0.5594607
-0.37397718 -0.448112 -0.4281588 -0.40233716 -0.42251766 -0.039802503 -0.33922237 0.044436004
-0.04198379 -0.16047938 -0.22588453 -0.38220558 -0.28426403 0.056029696 -0.68773425 -0.06726013
0.35710955 0.105722696 -0.19561172 0.071069285 0.43154955 -0.093742274 0.08939242 0.38451257
-0.07492521 0.3570779 0.2777194 -0.108821966 0.03910676 0.3913609 0.17720641 0.2785838
0.17192934 0.21833341 0.14778352 -0.4676972 0.030081084 0.16906184 -0.7308925 0.047492072
-0.23687449 -0.14782941 -0.33232203 -0.43004802 -0.07734522 -0.20384759 -0.46964785 -0.43546802
0.318983 0.36559057 0.38436604 0.22528012 0.0630234 0.34773308 0.18437368 0.43263552
0.12146167 0.17012309 0.21666285 0.26381856 0.33495983 -0.2566666 0.5657113 0.23872362
0.22827059 -0.14825448 -0.11066002 0.02355939 0.337102 0.5160064 0.50565517 0.16005191
-0.069446534 -0.006578069 0.469189 0.50691754 0.026630394 0.40469584 0.21737477 0.42667195
0.020646872 0.15340997 0.18969747 0.13180332 0.09203708 0.1778183 0.66757655 0.06141009
0.023472035 0.15488642 0.028143635 -0.05839679 0.48678297 0.24236237 0.21692899 0.35512838
-0.5340179 0.15479557 -0.05137981 -0.47032607 -0.35524485 -0.29664204 -0.58563477 0.20546207
-0.23485892 0.13867894 -0.2429237 -0.30919304 0.017317764 0.18252413 -0.025295941 -0.5511571
-0.01594687 0.08704994 -0.3037471 0.011141406 -0.10899575 -0.1957272 -0.54580855 -0.076586
0.12067901 -0.5264603 0.024723971 -0.3983291 -0.22194912 0.04049639 -0.4188348 -0.33229965
-0.06832925 0.012473924 0.21316576 0.01283394 -0.30514035 -0.06583374 -0.70779115 -0.041074067
-0.52476186 -0.473417 -0.3234734 -0.4948572 -0.3890877 -0.25445488 -0.32474884 -0.42942733
0.05596274 0.023915047 0.038708612 -0.21358977 -0.42483667 -0.037980985 -0.30287832 -0.41949102
-0.10070628 -0.363336 -0.47578195 0.15678634 -0.046643883 0.0021572886 -0.19148609 -0.5274347
0.061905872 -0.10483516 -0.13575588 0.07863412 -0.2652168 -0.013272973 -0.3175895 0.03901851
-0.5280634 -0.27027264 -0.45833296 -0.3726492 -0.6095704 -0.3787366 -0.12695682 0.12725356
-0.113773555 0.2512935 -0.16678858 0.42039567 0.506117 -0.031143755 0.32467178 -0.20821995
0.45274335 0.2461403 0.4424251 -0.035214197 0.47637576 -0.28945762 0.19927914 -0.025030036
0.020067964 -0.16741389 0.39395916 0.088379204 0.08811798 0.4276583 0.23878245 -0.06734213
0.14669336 -0.15831006 0.25500792 -0.0027723804 0.49024895 0.2489411 0.21667205 0.12234395

encoder.4.bias f4 [32]
00000000: f1a4 ff3e 1966 04bf 10d8 023f 8161 febe
00000010: a296 023f 5ea3 f8be 0dd0 f13e b771 073f
00000020: 3ec7 013f ccd8 06bf e1f0 05bf 22d2 0abf
00000030: 2e2f 05bf eab6 fbbe b7a7 ff3e f067 023f
00000040: fcf5 063f 6b36 6c3e d2d8 053f 1788 e6be
00000050: a0d8 fd3e 360d f73e 80c9 d7be 4ed6 02bf
00000060: 47fb fc3e 8f40 d73e 3169 03bf 3da2 d3be
00000070: c383 06bf b964 08bf 06da fe3e 97c8 febe
0.49930528 -0.5171829 0.51110935 -0.49683765 0.510111 -0.4856214 0.47229043 0.5290789
0.50694644 -0.52674556 -0.5232068 -0.5422689 -0.52025115 -0.4916299 0.49932644 0.50939846
0.5271909 0.23067634 0.52283967 -0.45025703 0.49579334 0.48252267 -0.4214592 -0.51108253
0.4941046 0.42041442 -0.51332384 -0.41334715 -0.525448 -0.5327869 0.49775714 -0.49762413

residual.0.weight f4 [16, 32]
00000000: ae02 63bd ee63 c23d f309 443e 759b 62bd
00000010: 6c3e 94be 6d37 9cbe 6f0d eabd 21c6 bc3d
00000020: 3eb9 73be 7ab1 a63e 4908 a9bd ed9e 96be
00000030: b653 163e 669f 9abe 253c 46bc 3d12 713e
00000040: 238b 2fbe 376d 3dbe 7fe8 373e a7d8 f33d
00000050: c830 133e bd96 2cbd 0e67 78be ca08 a93e
00000060: 658f 53bd 5c76 03be d14f 10be 6186 8b3e
00000070: 8ed5 963e 6ab4 893e 688b 31bd 46de 863e
00000080: c13d 143d 6ba8 39be 04d6 1a3e 37de 8e3d
00000090: 7397 933e e56e 68be da83 c6be fb4d a6bd
000000a0: 2bff 9a3e a1ec 773e f53e 3ebe 731e 96be
000000b0: cc69 a5be b788 773e 64a0 68be 33e5 593e
000000c0: 37b4 5c3e b8ed 79be 286a 8dbe 9edb 133e
000000d0: 598a d5be 31ec 8c3e abf1 8dbe c360 dcbd
000000e0: de05 85bc 373a edbd 6a4d 9a3e 3ce6 45be
000000f0: ddda 0d3e ba1c 8cbc 6f72 823e 2574 a7be
00000100: 282e 863e 288a 61bd b9a3 66be 3745 12be
00000110: 7750 cebd d121 9d3e 4369 0ebe 0c47 b0be
00000120: 7e85 d53d 270b c53c 3277 78bd 40bc 5fbd
00000130: 40d9 3e3e ba43 413e b07e 79be 6313 a5be
00000140: ce4d 49bd 9f76 ca3e 8443 98be b936 683e
00000150: bdfd 60bd e4d5 1dbe 1bff 73bc 91f0 01be
00000160: f3a5 663c 1c84 5b3c 8d7c fd3d 9617 a8be
00000170: 302a f4bd ef68 53be a4c3 8fbe 6ea4 3f3e
00000180: d884 76be 9430 05bc 6add 1cbd cc68 4d3c
00000190: 5b86 a4be 3c8b 1c3e ce5b de3d 6880 e03d
000001a0: ca82 aa3e e1d0 0e3e c94c 5e3e b09c 713e
000001b0: 5802 41be 2176 9d3e ec9d c93d a404 8eba
000001c0: c3a8 733e f5c4 47be 6286 b83e 19ef 82bd
000001d0: ca92 b4be 44da 3ebe 7a3b a43e 47ae a83d
000001e0: 9b7a 263e 3522 9f3e 30b6 883e efe1 773a
000001f0: 3d01 78bd 7ed3 213e 2006 893e 2b42 c2be
00000200: 1cd0 543d bcdb 4e3e b684 353e d841 923d
00000210: 6270 af3e 8876 4b3d f8ae 213d c1dc b63e
00000220: 5cbc 6cbe e6ba ffbd c9cf 0c3e 3d37 f9bd
00000230: ff72 89be 643d 3f3e 1aef bcba c09d 7a3e
00000240: 9722 51ba 2f46 063d 51f5 8d3e b2ac 813b
00000250: b5bb 88be 2bf5 58bc a806 1f3e 962b 043e
00000260: b826 833e 03eb 893d 838f da3d 82af 2d3e
00000270: eefd 8ebd 2710 0e3e a9b8 253e 7b53 803e
00000280: 0a37 72be 9deb 0cbe 5870 a5be 31c6 683e
00000290: a11e 51be 01d9 27be d7f0 b63e c403 f83d
000002a0: a592 8c3e a1f2 013e 1b47 67be f23a 43be
000002b0: 6632 843e 6bc8 883e 9383 053e fa7b 8fbb
000002c0: 93bd 4ebe d8a4 c03e 43a1 403e 8754 e139
000002d0: 6f90 8bbe 34b4 4e3e 7623 d73c be91 863e
000002e0: 515d 97be 4070 9d3e 19dc 5d3e 272b 93bd
000002f0: f85f 90be 9f25 8d3e fd46 88be 76be acbe
00000300: b8e5 8b3e ef67 aa3e 1c09 4f3e c3c5 9cbe
00000310: 6b11 9e3d b971 42be d349 acbb 4d21 89be
00000320: 3cb7 173e 3c9e 80bd fc34 f3bd 3b7a 773b
00000330: 10b9 efbd 7182 f8bd 9aee 7fbd 095e d63c
00000340: 15d1 a03e 366b 95bd 39a8 b33d 7372 94be
00000350: d88c 51be 7ba1 ab3e 7005 c33e b0c3 7d3e
00000360: ae7b 18be 72f8 8a3e ffff 323e 53bb 80be
00000370: ad31 dcbd a168 f03c 4804 84be 8722 543e
00000380: ffc6 c7bc cf64 4cbe f7e3 a4be 4d88 843d
00000390: 822a eebd 3734 8e3d 8e6f 7bbe 04cf 24be
000003a0: 3488 6d3e 3226 adbe abc8 05be 1776 193a
000003b0: b8ed 38bd 9a4b 3abd b295 2e3e 63ec b9bd
000003c0: 5150 773e 52af 95be ffc6 f9bd 0b13 813b
000003d0: ac82 ce3d 661f 0b3e f9d4 7fbd 67fb 533e
000003e0: 849d 5fbe 556d c7bd c542 44be 661a 8fbe
000003f0: 4cda 7e3e 0abc 8fbd aa22 853e 8764 8bbe
-0.055422477 0.09491716 0.1914442 -0.055324037 -0.28953874 -0.30511037 -0.114283435 0.092174776
-0.23801133 0.3255728 -0.082535334 -0.29418126 0.1468037 -0.30199736 -0.0120993005 0.23542114
-0.1714292 -0.18498693 0.17959784 0.119065575 0.14374077 -0.042135943 -0.24258062 0.33014518
-0.051650424 -0.1283812 -0.14092948 0.2725096 0.29459804 0.26895458 -0.04334584 0.26341456
0.036191706 -0.18130653 0.15120703 0.06975978 0.28826484 -0.22698553 -0.3877247 -0.08120342
0.30272803 0.2421136 -0.18578704 -0.29320106 -0.3230728 0.24173246 -0.22717434 0.21278839
0.21553122 -0.24407089 -0.27620053 0.14439246 -0.41707113 0.2752395 -0.2772344 -0.10760643
-0.01623815 -0.11583369 0.30137187 -0.19326109 0.13853021 -0.017103542 0.2547793 -0.327058
0.2620709 -0.055063397 -0.22523393 -0.14284216 -0.10073941 0.30689862 -0.13907342 -0.34429204
0.10425852 0.02405317 -0.06066055 -0.05462289 0.18637562 0.18873492 -0.24364734 -0.32241353
-0.049146466 0.39543626 -0.2973901 0.22677125 -0.054929484 -0.15413624 -0.014892365 -0.12689425
0.014077651 0.013398197 0.12377272 -0.32830495 -0.11922109 -0.20645498 -0.2807895 0.18715069
-0.24074113 -0.008129258 -0.038297094 0.012537193 -0.32133755 0.15287489 0.10857354 0.109619915
0.3330291 0.13946868 0.21708979 0.23594928 -0.1884855 0.30754188 0.09844574 -0.0010835123
0.23794846 -0.19508727 0.36040026 -0.063932605 -0.3526824 -0.18637949 0.32076627 0.08236366
0.16257708 0.31080785 0.26701498 0.0009455969 -0.060548056 0.15803334 0.26762486 -0.37941107
0.05195628 0.2020101 0.17726406 0.07141465 0.3426543 0.049673587 0.039473504 0.35715297
-0.23118728 -0.1248682 0.13751139 -0.12168739 -0.26845548 0.18675762 -0.001441452 0.2447424
-0.00079778716 0.032781776 0.27726224 0.0039573545 -0.2670571 -0.013242046 0.15529883 0.12907252
0.25615478 0.06734278 0.10671904 0.16961482 -0.06982027 0.13873349 0.16183724 0.2506369
-0.23653808 -0.13761754 -0.32312274 0.22731854 -0.2042184 -0.16391374 0.3573062 0.12110093
0.2745563 0.12690212 -0.22585718 -0.19065455 0.258197 0.26715407 0.13038473 -0.004378793
-0.20189504 0.37625766 0.18811516 0.00042978322 -0.27258632 0.2018593 0.026262026 0.26283067
-0.29563382 0.30749702 0.21665992 -0.07185965 -0.28198218 0.27567765 -0.2661666 -0.3373906
0.273237 0.3328242 0.20218319 -0.3061963 0.07718166 -0.18988694 -0.005257824 -0.2678322
0.14815992 -0.06280181 -0.1187534 0.0037762064 -0.1170522 -0.12134255 -0.062483408 0.026167886
0.31409517 -0.072958395 0.0877232 -0.28993568 -0.20463884 0.33521637 0.38090086 0.2478168
-0.1489093 0.27142674 0.17480467 -0.25142917 -0.107516624 0.029346766 -0.25784516 0.20716296
-0.02438688 -0.1996033 -0.32205173 0.0647131 -0.116292015 0.06943553 -0.24554273 -0.16094595
0.23196489 -0.33818203 -0.1306483 0.00058540836 -0.04514858 -0.045482256 0.17049292 -0.0907829
0.24151732 -0.2923532 -0.121961586 0.0039390377 0.100835174 0.13586196 -0.062458966 0.20701371
-0.21837431 -0.0973765 -0.19166096 -0.27949828 0.24887961 -0.070182875 0.2600301 -0.27225134

residual.0.bias f4 [16]
00000000: b18c 4ebc 0191 cabc 7066 973c 4d63 593d
00000010: aae0 b2bc a002 8f3b 6961 fbbc c3aa 153d
00000020: e207 48bc 0f3a d1bc df09 303d fa0c 20bd
00000030: 1b84 db3d 7374 3bbd 3e28 1c3c fa71 ffbc
-0.012606786 -0.024727346 0.018481463 0.053073216 -0.021835644 0.0043643266 -0.030686097 0.036539804
-0.012208911 -0.02554038 0.042978164 -0.039074875 0.107185565 -0.04576535 0.009531079 -0.031182278

residual.2.weight f4 [16, 16]
00000000: a988 34be 05c5 6f3e a37f 8dbe f6f9 c5be
00000010: 1251 a83e bfe1 22be 1840 dabe 215b c53e
00000020: d4e5 833e cd29 c43e 385e 583d fce1 9cbe
00000030: 809d d2be 02e2 7bbe cd1b 983e 4a82 5ebe
00000040: dcff 873e 09c2 09be 9c13 8cbd 83f3 cdbe
00000050: 2c4d 873e a737 a23e e405 b03e 2f8c 6fbd
00000060: b088 d9bc 49ba a23e 9a2d cfbe 768b e13d
00000070: a2e5 54be f7bb b63e 0d2f 003e 8499 31bc
00000080: 61db 7b3e bf9c 893e 2168 ca3e 671b f3bd
00000090: cd09 b4bd 631c 773e 8849 383e 50f7 a63e
000000a0: aa0e b9bd 77ee eb3d 9a56 943e 509b 21be
000000b0: f417 3e3e 80d8 813e 0480 72bd 152a bfbe
000000c0: 5dba a13e 3ff7 5e3e 37a2 2f3d bdf2 87bd
000000d0: 3223 b53e 4811 20be 5fb0 493e ee5c aebc
000000e0: 8091 9dbe 3335 d83e 30d3 c5be ffc8 b7be
000000f0: ec26 68be 74d1 193e f220 29bd 59a3 a6be
00000100: 504d d43e 9227 93bd cd73 60be 045e ac3e
00000110: f2d0 de3e 40c1 e83c de00 0fbe b588 5d3c
00000120: 790c 9a3e 75f4 b13e 83ab 47be 866f 14be
00000130: 5a22 24be 09eb 9dbe 4477 b7be 19a7 7e3d
00000140: 4930 3ebd e135 543e b3cf a8be e1ae cc3e
00000150: eae6 423e d64d 06bd 9824 893c 14fc 33bd
00000160: 923d 97be e94c db3c 6a93 b2be 5505 473c
00000170: e6a3 1d3d 8595 95be dac7 063c b502 67be
00000180: 8ab3 f5bd f658 83be cce3 56be 1a45 cc3e
00000190: bda7 523e f586 913e c8e5 c7be 493c b1be
000001a0: 84d8 963e 7485 1dbd 4502 0c3e d960 9fbd
000001b0: 9b3d 80be a793 ccbe 8268 b9be aa05 1c3e
000001c0: 8cd6 6f3c d9a5 57be e755 c7bd 5d11 1cbe
000001d0: 82a2 e53e ad7e 7abd b159 eebd ea86 db3b
000001e0: e826 18bd da4d b53e 8a04 e43e 2016 853e
000001f0: 29fb a1bc 44b9 5bbe d27c c2be f1d7 983e
00000200: f885 43bd 94d4 4dbe fd0d dcbd 6b30 8d3e
00000210: fe23 d53d e57a 9dbd 2717 e13e 1e4a 47be
00000220: 7ba4 a0be e4e3 1a3e f516 053d 9b23 ffbd
00000230: 3f98 d4be 52c5 8e3e dc08 dcbe 7286 7e3e
00000240: ea53 22bc 23cf 2dbe d285 893e 0c39 88be
00000250: 92fc a1bd 6bd8 2fbd d28f 3bbd 4f32 75bd
00000260: 0f7b 17be eb0c b3bd aff8 6e3e 32d2 aebd
00000270: bfdd de3e 8039 cebe 8f30 3b3d 85d5 4cbe
00000280: ee83 3c3c 3b1e 0d3e 0262 24be 2fc3 b33e
00000290: 9c23 d7be 5b71 793d f66a 75be 3418 e8bb
000002a0: 2b0e a3be ae14 a73e f765 d93e 9d38 433d
000002b0: 26cd 003e be2f 14bd 6196 a2be 1798 c3be
000002c0: 9b36 8cbd 2a66 50be 2281 a73e 2a21 86be
000002d0: 7fc3 94be 398a ae3e 8323 723e 65fc b6be
000002e0: b0e3 58bd 83a9 683e 5af4 ad3e 5cbe a73d
000002f0: 2de3 113e df67 dbbd bd8d 9c3e 39f1 a2be
00000300: 5bec 44be 89d3 ad3e 9eef 82be e3a7 34bc
00000310: 8602 8cbe b8b1 b0be e621 0bbd 5d01 63be
00000320: 7a06 71be 9e5c 883e 0922 7ebe 2899 b83e
00000330: 27ea a3be 3789 803e d407 43bd c9b7 c13d
00000340: 8f0a 6f3e ad68 c1be f04c a73b cc44 2b3e
00000350: 6438 783e 544e 61be dec1 80be 5743 b0bd
00000360: 9456 b1be 2bcf c1be fd66 a53e 70df e93e
00000370: f3e4 56be 162f 813e 5148 12bd f2dc 88be
00000380: b9eb 883e dc60 473d 3725 ca3e 13e5 12bc
00000390: 486e 673c 4b87 683d 4bbb 773e be2b 8abe
000003a0: f00d 303d fb76 b1be b779 003d 1356 c8be
000003b0: fc92 3c3e 48f3 793e 3e4f bbbe 6402 d4bd
000003c0: 322d 65be 8471 d23e 50ce 313d cd97 ab3e
000003d0: c283 703e 0e34 c43e 5b11 d53e 2075 eebd
000003e0: e91b c33b 56c7 cebe 0a33 2a3e edad a23d
000003f0: 7341 bbbb f1cf 9f3e ddb7 403e ce1c b93e
-0.17630257 0.23415 -0.27636442 -0.38667268 0.32874352 -0.15906428 -0.42627025 0.38546088
0.25761282 0.3831314 0.05282423 -0.30641162 -0.41135788 -0.24597934 0.2970871 -0.21729389
0.26562393 -0.13452925 -0.06839678 -0.40224847 0.26426065 0.31683084 0.34379494 -0.0584833
-0.026554435 0.3178275 -0.4046448 0.11012928 -0.20790723 0.3569028 0.12517948 -0.010839824
0.24595405 0.268774 0.3953257 -0.11870461 -0.08790932 0.24131922 0.179968 0.3261056
-0.09036 0.11520093 0.28972322 -0.15781903 0.18563825 0.2536049 -0.059204116 -0.37336794
0.31587496 0.21774004 0.04287931 -0.066380955 0.35378414 -0.15631592 0.19696186 -0.021284547
-0.3077507 0.42228088 -0.38637686 -0.35895535 -0.22671098 0.15021306 -0.041291185 -0.325465
0.41465235 -0.07185282 -0.21919174 0.33665478 0.43518788 0.028412461 -0.13965175 0.013521363
0.3008764 0.34756818 -0.1949902 -0.14495668 -0.16028729 -0.3084338 -0.3583318 0.062171075
-0.046432767 0.20723678 -0.32970962 0.39977172 0.19033399 -0.032789074 0.016741082 -0.043941572
-0.29539162 0.026770072 -0.34878093 0.012147267 0.038486384 -0.29215637 0.008226359 -0.22559626
-0.11997135 -0.2565381 -0.20985335 0.3989647 0.205718 0.28423277 -0.39042497 -0.34616306
0.29462063 -0.03845735 0.13672741 -0.07782144 -0.25047 -0.399564 -0.36212546 0.15236536
0.014638554 -0.2105936 -0.097331814 -0.15240999 0.44850546 -0.061155964 -0.11638201 0.0066994326
-0.03714648 0.3541096 0.44534713 0.25993443 -0.019773083 -0.21457392 -0.37985855 0.2985225
-0.047735184 -0.20100623 -0.107448556 0.27576002 0.104072556 -0.07689456 0.43962976 -0.19461867
-0.3137549 0.15125996 0.032492597 -0.12457963 -0.41522405 0.27884918 -0.4297551 0.24855974
-0.009907702 -0.16973548 0.2685991 -0.26606023 -0.07909502 -0.042931 -0.045791455 -0.05986243
-0.14793037 -0.08742698 0.23337053 -0.08536185 0.43528554 -0.40278244 0.045700606 -0.20003326
0.011506064 0.13781063 -0.16053012 0.3510985 -0.42019355 0.06089912 -0.23966584 -0.0070829634
-0.31846747 0.32632965 0.42460606 0.047661413 0.12578258 -0.036178343 -0.31755355 -0.38201973
-0.06846353 -0.20351472 0.32715708 -0.26197177 -0.29055402 0.3408983 0.23646359 -0.35739437
-0.052951515 0.22720914 0.33975488 0.08190605 0.14246817 -0.10713171 0.30576888 -0.31824663
-0.19230787 0.3395045 -0.25573438 -0.011026355 -0.27345675 -0.3451059 -0.033967875 -0.22168489
-0.23537627 0.2663316 -0.24817671 0.3605435 -0.32014582 0.25104687 -0.047614887 0.09458882
0.23343872 -0.37775174 0.005105607 0.16725463 0.24240261 -0.22002536 -0.2514791 -0.08606594
-0.34636366 -0.3785337 0.32305136 0.45678282 -0.20985775 0.25231236 -0.035713498 -0.26731068
0.26742342 0.048676357 0.39481518 -0.008965748 0.014125414 0.05676965 0.2419254 -0.26986498
0.04298204 -0.34661087 0.031366076 -0.3912817 0.18415445 0.2440921 -0.36583894 -0.103520185
-0.22380522 0.4110223 0.043409646 0.33514252 0.23487762 0.38320965 0.41614804 -0.116434336
0.005954255 -0.40386456 0.16621032 0.0794333 -0.0057145893 0.31213334 0.18820138 0.3615479

residual.2.bias f4 [16]
00000000: 05e3 3fbc 6393 e0bd 5d18 6fbd bfee 223c
00000010: bccb 1dbc 94ef 6f3d 8ddf a0bc 5e63 3d3d
00000020: e342 3f3d f787 ec3c a3b6 0e3e 655b f4bc
00000030: 92a5 60bd f16f 423d e62b 14bc c4ff 053c
-0.0117118405 -0.10965612 -0.058372844 0.009944617 -0.009631094 0.05857809 -0.019637847 0.046237342
0.046694648 0.028873427 0.13936858 -0.029828737 -0.0548454 0.047470037 -0.009043669 0.008178655

residual.4.weight f4 [8, 16]
00000000: b2af 9dbe dcf4 78be a2ad febd 03cf cb3e
00000010: b243 263e 6da6 873e 0d49 acbd 8cc2 0d3f
00000020: 6f08 f83e 6d4a 3dbf ed96 2fbf 90f8 ec3e
00000030: 5549 d3bd 3974 5c3d 06dc 0e3f 2683 703c
00000040: b63a 543e 8741 ce3e 7406 e6be 528f dcbe
00000050: 8de1 b73e 676d 68bd d75f 223e 4945 bbbe
00000060: 76e9 863e fa3b bf3d 965a 373e 92f2 803e
00000070: 743b 4e3e ce02 ed3e f5bb 8f3e 49ef 0bbe
00000080: 128f b53d 203e eb3e 263d 933d 9b1a 013f
00000090: cef6 8c3e 7abf a43e 4f29 493d cf18 e9be
000000a0: 0eb9 3c3e 0451 9bbe c5dd b5be 5253 abbe
000000b0: 1ef5 4a3e a42a dfbe f0bc a23e 4445 923c
000000c0: dde1 27bd 7c35 30bd 09d5 9fbe 8714 9b3e
000000d0: 61a3 d6be c7b9 c33e eae0 d03e 8342 73be
000000e0: 4a56 04be 0500 853d c857 f3be 6525 fc3b
000000f0: 5362 133e 138a 3bbe 3a88 33be fbe7 dcbe
00000100: a6e9 1d3e ae58 6c3e b72e 933e bced 6b3d
00000110: 2d1d 78be e332 fbbd 3c3c 84be 672a 3bbe
00000120: 4c2d c73e c4dc 8abe 7e25 823e 5ba0 253f
00000130: 2cbe cf3c 352b a43e a2ec 1a3f 76e8 8f3d
00000140: 62e0 8bbe 4b6c e9be a786 803c 52dc 7dbe
00000150: 5061 743e 7cfa b8bd d8d9 bb3e 736f 9bbe
00000160: ed29 d9be 2276 963e 6a77 923e bb03 e0bd
00000170: 4914 3fbe f46f 0b3e c1c6 91bd 2cb9 f23e
00000180: 8190 9b3d 63a9 413d 404c 44be 0823 79be
00000190: 3888 4b3e 85ae c63e de2e afbe c045 94be
000001a0: 6573 09bf 609d 9dbe b349 83be 2dcc a63c
000001b0: 6d99 333e bbcf c43e da1b 103e 9fb5 5f3e
000001c0: 25fd 7f3e 8e2a ba3e 26b4 b2be 5544 6d3e
000001d0: eb99 a0bd 496f bfbe 78ee 84be a1e0 a4be
000001e0: 085e f9bd 6224 723e c84c fcbe bc92 5e3e
000001f0: dca5 c83e 5f8c bf3b 9e15 1fbe 70ff c93e
-0.30798107 -0.24312156 -0.124354616 0.39806375 0.16236761 0.2649416 -0.08412371 0.5537498
0.48443934 -0.7394169 -0.6858967 0.46283388 -0.10316721 0.053821776 0.5580448 0.014679706
0.20725521 0.40284368 -0.44926798 -0.43078095 0.3591427 -0.05674496 0.15856872 -0.36576298
0.26349992 0.093376115 0.1790565 0.25185066 0.20139867 0.46291202 0.28073087 -0.13665499
0.08865179 0.45945835 0.071893975 0.5043122 0.27532047 0.32177335 0.04911166 -0.4552674
0.18429968 -0.30335248 -0.3552076 -0.33462006 0.19820067 -0.4358722 0.31784773 0.017855294
-0.040986884 -0.043019757 -0.3121722 0.302891 -0.41921523 0.38227674 0.40796596 -0.23755841
-0.12923542 0.06494144 -0.4752791 0.0076948875 0.14392976 -0.1831439 -0.17532435 -0.43145737
0.15421161 0.23080704 0.28746578 0.057599768 -0.2422988 -0.12265565 -0.25827205 -0.18277894
0.38901746 -0.27121556 0.2541923 0.6469781 0.025359236 0.32064214 0.60517323 0.0702676
-0.27319628 -0.45590433 0.015689207 -0.24791077 0.23865247 -0.09032151 0.3668964 -0.30358467
-0.424148 0.29387003 0.2860673 -0.109382115 -0.18660082 0.13616925 -0.071179874 0.474069
0.07595921 0.04728068 -0.19169712 -0.2432977 0.19876182 0.38805023 -0.34215444 -0.28959465
-0.53691703 -0.3078413 -0.25642166 0.02036103 0.17538996 0.38439736 0.14073125 0.21846627
0.2499891 0.36360592 -0.34903067 0.23170598 -0.078418575 -0.3738959 -0.25963187 -0.32202628
-0.12176138 0.23646691 -0.4927733 0.21735662 0.3918904 0.005845591 -0.1553559 0.39452696

residual.4.bias f4 [8]
00000000: db5a d23d 3ca0 92ba f9a5 a4bd 0868 88ba
00000010: 3248 92bb d559 8c3b 1e3a b03c c47d e93b
0.102712356 -0.001118667 -0.08039469 -0.001040698 -0.0044641728 0.0042831698 0.021512087 0.007125588

residual.6.weight f4 [1, 8]
00000000: 8300 d7be aa16 a0be 1e00 64be fa2c 18bf
00000010: 2179 9bbe d52d 263f 11d0 793e 4177 d9be
-0.41992578 -0.3126729 -0.2226567 -0.5944363 -0.30365852 0.64913684 0.24395777 -0.42473796

nee_decoder.0.weight f4 [16, 32]
00000000: f6a9 04be ad65 91be 980d 953e eba4 a1be
00000010: cf3e 9abe 29a8 193f 5294 8bbe 7457 3cbc
00000020: 3a53 a53e 26f7 bd3e 81c3 a8be 2c15 043e
00000030: 0d9e 6fbe 78fa b13e 7695 11be b5b7 723c
00000040: 5cd9 cabe 19eb a0be 2407 c93e 771f 14bf
00000050: 2d60 9d3e baed f33d b520 febd 5833 b2be
00000060: e6a0 f73e e08d 47be a91b 5f3c 6405 b8be
00000070: a2bd d1bd 36b6 8fbe cfc6 eabc 6751 c03e
00000080: bffa fbbe 90a1 4bbe fb02 03be 7b79 bbbc
00000090: dede 5e3e ff77 55be db14 e43c c547 8e3e
000000a0: 58c8 3bbe 57da 1bbe 17b1 b73e 499b e93d
000000b0: 0872 4d3d b72e b4be 8c9d 30bc 14bd 2d3e
000000c0: 63ed 563d 6ca7 343d e6bb 38be 5676 f7bc
000000d0: 5587 793d 4b05 febd 60fc 7cbe a558 a0bd
000000e0: 7a83 3cbe 3cca 123c 390d 3bbc fca8 b83e
000000f0: 804d ca3e 5386 123e 2da7 c23e d614 7abe
00000100: 3610 b3be 0f97 4d3e b53e e4bd 5dbb 32be
00000110: b797 64bd 9a1c d4bd d3c4 80bd e855 c33d
00000120: 1c27 403e 695c 373d a8d2 6dbe ff7d cabd
00000130: 05fc a53e 7b10 8c3e fc26 903e 7ee0 55be
00000140: 44fe 3a3e 3f36 793e bd0f a7be cb89 703e
00000150: 2d52 19ba 4738 f4bd 5b58 90be bea6 38bc
00000160: ca7a 6f3e 7db3 0dbe 7462 b23d ae7a a53e
00000170: 66d0 a93e 4c19 82be 4ea3 a73d ee4a c0bd
00000180: cd41 f23e 1506 5cbd c4a9 643e 43af 9bbe
00000190: 309c 79be a6e8 c83d ccee 8c3d 0bde 9f3e
000001a0: 4692 75be 3bca 873d 3456 d4be de7f 703e
000001b0: 7c30 82be b4f4 303e f406 55bf 91cc c3bd
000001c0: a38e c6bd fa7f 91bd 5f96 e53c e1fc afbe
000001d0: d33d cb3d d1e0 d8be 961c c43d ab89 92be
000001e0: 87cd 653e e019 5fbe 1afe 3a3e 22dc 3fbe
000001f0: cb3b 55be c330 82be 0384 acbe 3302 b43e
00000200: 64f9 973d 244e 283d a037 0d3e 2560 d2be
00000210: c113 1e3e f46b 093f 16bb a53e 3af7 cd3c
00000220: 95b1 9cbd bcc5 1e3f 9d9e 4a3d c2d2 b63e
00000230: 1e95 06be 068c 513e ecbc 24bf 4cd7 f33d
00000240: e6c3 293e 1ace f63d 1b4e 933e 5ab3 8d3d
00000250: 19cd f8bd c215 95be f84b 09be be2f 5fbe
00000260: b8f1 053f a4e8 58be 566d 793d e195 3dbe
00000270: 4c39 61bd 2a6f 9ebe 5253 37bd 082b 943e
00000280: 18cf c73c f410 533e dfba 8a3e d515 663e
00000290: 80c6 ffbd 9593 ca3e 929b 843d 86bc 1e3e
000002a0: 2a3e 203e 97ef 89be 6cc2 e3bc ca37 ffbd
000002b0: 6e79 d63e a01c 5ebe d9c2 52be 753c 85be
000002c0: ed24 1f3e 08b1 abbe c2e3 513e bc99 a13e
000002d0: 0e0b 163e 3cc2 afbe 3b89 923c b0e0 69be
000002e0: fad6 5bbd 9f5d 4d3c f6ab 12be f693 f0bd
000002f0: aa87 bf3c d48e 87bd 026c 833d fc3a 3f3e
00000300: 6a82 33be ed82 e03d efe1 63be d4b8 d7bd
00000310: f536 5b3e c991 97be b995 173e 4a69 66be
00000320: 6bc8 a4be 6cc2 b7be 0983 d93e 4f09 a93e
00000330: 3ac1 cbbe 6706 a73e 99cd 253e 3d36 693e
00000340: 9a69 613e 4fc0 0fbe e328 f5bd bf69 00be
00000350: c629 693e c298 bc3d 6674 e2be 6f10 4b3e
00000360: 30b9 12be 2a18 363e 8795 343d b89e d6be
00000370: 6d56 bdbe 2fcb 803e 57d9 bcbd 4816 6d3e
00000380: fed6 8fbe b45a b0be 92d8 4fbe db10 88be
00000390: b01c 993c 409f 663e 7870 b53e 201c e0bc
000003a0: d8b2 c0bd 6c3e 9e3e e3f4 42be 87ab 303e
000003b0: 96fc 783e 0e49 be3d bf9f 72be f991 d53d
000003c0: 60d0 ab3e 7578 8c3e 5ff7 68be 8ca8 3d3e
000003d0: f274 8dbe cb11 89be f6cc c9bd 1522 f1bd
000003e0: 832d 023e 63e3 d9be d71e a8bd 9be8 893e
000003f0: 5882 c33e 585f 27bd ba13 c93e b418 253e
-0.1295546 -0.28397885 0.29111934 -0.31571135 -0.30126044 0.6002222 -0.27261597 -0.01149546
0.3229006 0.37102622 -0.32961658 0.12898701 -0.23400135 0.34761405 -0.14217171 0.014814307
-0.39618957 -0.31429365 0.3926326 -0.5786051 0.3073744 0.11910577 -0.12408582 -0.34804797
0.48364943 -0.19487715 0.013617435 -0.35941613 -0.10241248 -0.28068703 -0.028659252 0.37562105
-0.49214742 -0.1988585 -0.12794106 -0.022885075 0.21764705 -0.20846556 0.027841976 0.2778913
-0.18338144 -0.15220009 0.35877296 0.114065714 0.050157577 -0.3519189 -0.01077975 0.16966659
0.052472483 0.04410498 -0.18040428 -0.030207794 0.06092008 -0.12403353 -0.24705648 -0.078294076
-0.1840953 0.008959349 -0.011416727 0.36066425 0.39512253 0.14309053 0.3801817 -0.24422011
-0.34973305 0.20077156 -0.11144773 -0.17454286 -0.05580875 -0.10357018 -0.06287541 0.0953787
0.18764919 0.044765864 -0.2322489 -0.09887313 0.32418838 0.27356324 0.28154743 -0.20886418
0.18261057 0.243371 -0.32629195 0.23490064 -0.0005848732 -0.119247966 -0.2819241 -0.011270223
0.23386684 -0.13838 0.08710185 0.3232016 0.33166808 -0.25409925 0.08185445 -0.09389292
0.47315827 -0.053716738 0.22330385 -0.30407152 -0.24375987 0.09809999 0.068814844 0.31224093
-0.2398158 0.06630369 -0.41472018 0.23486277 -0.25427616 0.17280847 -0.83213735 -0.09560502
-0.096951745 -0.07104488 0.028025804 -0.3437262 0.099239014 -0.4235902 0.09575765 -0.28620657
0.22441684 -0.21787214 0.18260995 -0.18736318 -0.2082359 -0.25427827 -0.33694467 0.35157928
0.07420614 0.041090146 0.1379075 -0.41088977 0.15437223 0.5368035 0.32369298 0.0251423
-0.076510586 0.6202047 0.04946767 0.3570767 -0.13142821 0.20463571 -0.6435077 0.11906299
0.16578636 0.120510295 0.28770527 0.06918974 -0.12148494 -0.29118162 -0.13407886 -0.21795556
0.5232196 -0.21182495 0.060895287 -0.18514206 -0.054986283 -0.30944186 -0.044757195 0.2893908
0.024390742 0.20611936 0.27095696 0.22469266 -0.12489033 0.3956572 0.06474985 0.15501603
0.15648714 -0.26940605 -0.027802669 -0.12461813 0.41889518 -0.21690607 -0.20582141 -0.26022688
0.1554143 -0.33533502 0.20497039 0.31562603 0.14652655 -0.34327877 0.017887702 -0.22839618
-0.053671815 0.012534528 -0.1432341 -0.11746971 0.02338012 -0.06619039 0.06417085 0.18674845
-0.17530218 0.10962472 -0.22254156 -0.105333 0.21407683 -0.29603413 0.14803208 -0.22501102
-0.32184157 -0.3589052 0.42482784 0.33014914 -0.39795858 0.32622072 0.1619171 0.22774597
0.2201294 -0.14038204 -0.11970689 -0.12540339 0.22769842 0.09208824 -0.4422943 0.19830488
-0.14328456 0.17782655 0.044087913 -0.41917968 -0.3698 0.25155017 -0.09221142 0.23153031
-0.28093714 -0.344442 -0.20297459 -0.2657536 0.018690437 0.22521687 0.3543737 -0.027357161
-0.09409112 0.30907 -0.1903873 0.17252932 0.24315104 0.09291278 -0.23693751 0.10428233
0.33557415 0.2743565 -0.22750615 0.18521327 -0.27628285 -0.26771387 -0.09853546 -0.11774079
0.12712674 -0.42556295 -0.08209007 0.26935276 0.38185382 -0.04086241 0.39272863 0.16122705

nee_decoder.0.bias f4 [16]
00000000: 23cc 92ba 3d7f 533d 9a14 c63b f5aa 46bd
00000010: a544 d8bb 9478 25bd b30b 533e fd63 4bbd
00000020: 05db a13c d86d 3d3d cafc 4a3d ecc1 83bd
00000030: 8c6c 86bd 972b 633c a5cf 88bd 9cb9 673d
-0.0011199753 0.051635016 0.0060449364 -0.04850288 -0.00659998 -0.040398195 0.20609932 -0.049655903
0.019757757 0.046247333 0.049557485 -0.06433472 -0.065636724 0.013865373 -0.0668023 0.056573495

nee_decoder.2.weight f4 [16, 16]
00000000: 694b d03e f8b7 cdbe d31b 8bbe 2991 e53e
00000010: 06ad fc3e 4bec 3fbe bb28 143d 8721 c13d
00000020: c121 cbbd 3174 043c 713e 173e 7ca2 46be
00000030: 0d1f a13c e700 953e aebf 89be da80 423e
00000040: a11a 513e cd23 1ebd 070a 9dbe bfb1 32be
00000050: e8aa 39bc b066 97bd 328b 41bf ecb1 6c3e
00000060: 20fb 1d3e 1a79 b03e ba47 adbd 72b9 b73e
00000070: 647d 24be b16e 5e3e 8b64 71bd aff2 c4be
00000080: ea7c e1bd 30fc 88be 1366 4b3e 39a5 2fbf
00000090: a85e 97be 81a4 d3be 3c93 d3be af93 273e
000000a0: ae32 67be d531 65be 208d 9d3e 5cd4 c23e
000000b0: a692 80be de8e cbbe f739 9e3e 0e62 423e
000000c0: 04d6 abbe d827 b0be 3273 853e cf00 d7be
000000d0: c457 38bd ad33 40be ad18 92be 61fb 12be
000000e0: 2edc 5f3e f9fb 393e e181 333c 229f 0dbe
000000f0: fdc3 8c3e c68d d6be de03 a13e ccb8 d1be
00000100: 690d 603d 37c8 e5be 58e9 8cbe 057f fbbd
00000110: 18c3 7fbe 891a 92bc 1c23 a03e d635 c1be
00000120: 2453 70bd c81b 9b3e 2eea 41be 7307 b03e
00000130: d7e7 b43e e0e7 16be 19cb 51be a399 f6be
00000140: 5d4e e83d 7023 1dbf 49fd ad3c 3b18 5a3e
00000150: aa47 443e 2f3d 1ebe 7c02 283e a6ad 9b3d
00000160: fdf0 17bf 4675 433e 0d50 08bf e60a 933e
00000170: 29d0 06bf 0861 c0be 9766 a5bb fc96 b43e
00000180: cea3 86be b6ee 963e 2192 58be c123 0bbf
00000190: 2913 343e 0308 9d3e 37e0 89be f875 db3e
000001a0: 350d 04be 4555 d23e bb82 91be 6382 fe3d
000001b0: 301d 283f bfde 263c c818 a53e 6b7c b6bd
000001c0: aaa3 3b3d 8510 b8be 5cce 9ebe ee36 223f
000001d0: bfbc 053f 476f 053d 699e 38be 727b 9c3e
000001e0: 95cf 87be 00bc c3be 01ee 03be 1a6f 93bd
000001f0: 4e1d 273e 8e73 8e3e 1c51 45be ff25 b5bd
00000200: 3da2 3ebe ac00 93be 4c0d 43be e542 a9be
00000210: afbf 38be 3660 21be 8544 3fbe c743 0d3e
00000220: aacc 993d 67c8 a13d 7f0a 0d3d 9d4b 3cbe
00000230: 7e80 363d 6c63 f4be 9331 033e 95a3 d3be
00000240: babd 10bd 60a9 933e eabd 833e 4c55 073f
00000250: 926c d43d f0c7 72be 0102 3c3f 2af7 b5be
00000260: fc1b b6be e27c 653f e3c3 44bd 64dc edbd
00000270: 0b19 59be 02c7 fa3e 3fbe 943e 376d 623e
00000280: 8ade e7be 8973 db3e 5e31 fc3d e1e6 bcbd
00000290: 7c0d abbb a573 ce3d 64d0 163f 1667 2f3e
000002a0: 3911 b03d 5a99 883e beee a13e 0453 6cbd
000002b0: 04ff 343d 82bf c8be 0719 72be bbef 10bf
000002c0: 4105 f6be 984f 833e b5da a6be cd27 98be
000002d0: 05bf 863e e979 b2be 3099 c1bd 2cb2 033e
000002e0: dbd5 2dbe 65e5 7e3e 0822 373e afd1 ce3e
000002f0: 80de 6f3e 2b33 203e 8dab 8f3e 4600 80be
00000300: 0dca 1cbd 2841 59be b153 98be 69f8 553e
00000310: e2a5 363e 9b66 07bf 4300 41be ba05 babe
00000320: 1d85 d8be 9c51 64bb 7f6d a13e be35 773e
00000330: 952d f93d 4ebb 953d ff8b 123e 3668 47bf
00000340: 4100 cdbe dbf4 7f3e ae52 b2be af8a 2fbf
00000350: 6d14 f53d 6472 b8be 1bbd 1dbf b983 87bd
00000360: ece3 e23d 534c ce3e 1bbc 41bd ba0c 12be
00000370: 29c4 4fbe 6b7c ee3d cc54 093e a668 5bbe
00000380: 280e 0c3d a7bc 383e 4f7c 173c ed87 efbe
00000390: 0ab8 03bf 4b0d 473e 3ba8 e5be aff9 18be
000003a0: 373a 76be cc6c 3a3e b304 873c 42b0 573e
000003b0: d27e 42be 1715 893c 31ad af3e f54a 003e
000003c0: f7ec d73e 1b98 b4be 02a7 9b3e 2eef edbd
000003d0: 96e4 4d3e 4f1b e43c f05a a83e cf10 1ebe
000003e0: 382d 0b3e 0615 b93e 3174 48be 5c9e 02bf
000003f0: c606 8e3e 7be2 843d 3409 9bbe d086 03bd
0.40682533 -0.4017942 -0.27169666 0.4483731 0.49350756 -0.18742482 0.036171656 0.09430223
-0.099185474 0.008084343 0.14769913 -0.1939792 0.019668126 0.2910225 -0.26904052 0.18994465
0.20420314 -0.03860836 -0.30671713 -0.17450617 -0.011332251 -0.07392633 -0.7560302 0.23114747
0.15427828 0.34467393 -0.084609464 0.3588367 -0.16063458 0.21721913 -0.058933776 -0.38466403
-0.110101536 -0.26754904 0.19863157 -0.68611485 -0.29564404 -0.41336444 -0.41323268 0.1636493
-0.22577927 -0.2238229 0.30771732 0.38052642 -0.25111884 -0.39757437 0.309036 0.18982717
-0.33561718 -0.34405398 0.2606445 -0.41992804 -0.045005575 -0.18769713 -0.2853445 -0.14353706
0.21861336 0.18162526 0.0109562585 -0.13830236 0.27493277 -0.4190504 0.31448263 -0.409613
0.05470029 -0.44879314 -0.27521777 -0.122800864 -0.24976766 -0.017834919 0.31276786 -0.37736386
-0.05867304 0.30294633 -0.18936989 0.34380683 0.3533313 -0.14736891 -0.20487632 -0.4816409
0.113430716 -0.613822 0.02123894 0.21298306 0.19167963 -0.15453027 0.16407198 0.0760148
-0.59352094 0.19087705 -0.5324715 0.28719252 -0.5266138 -0.3757403 -0.00504763 0.35271442
-0.26296848 0.29478997 -0.21149494 -0.5435143 0.17585434 0.30670175 -0.26928875 0.4286344
-0.12895663 0.4108068 -0.28420052 0.12427213 0.65669537 0.010184943 0.3224547 -0.089104496
0.04581038 -0.35950103 -0.31016815 0.63365066 0.5224113 0.032576825 -0.18029179 0.3056293
-0.2652556 -0.3822937 -0.1288376 -0.07198925 0.16319773 0.27822536 -0.19269222 -0.08845138
-0.18616576 -0.2871145 -0.19048041 -0.3305885 -0.18041871 -0.15759358 -0.18678482 0.13795386
0.0750974 0.07899552 0.034433838 -0.18388219 0.044556133 -0.47732103 0.1281188 -0.4133574
-0.035337187 0.2884016 0.2573083 0.5286453 0.10372271 -0.23709083 0.7344056 -0.35540134
-0.35568225 0.8964368 -0.048038375 -0.11614302 -0.2120096 0.48979956 0.29051396 0.22111975
-0.4528697 0.42861584 0.123141035 -0.09223724 -0.0052201133 0.10080651 0.5891173 0.17129168
0.08597035 0.26679498 0.31627458 -0.057696357 0.044188514 -0.3920861 -0.2364236 -0.566158
-0.48050883 0.25646663 -0.32588735 -0.29717866 0.2631761 -0.34858635 -0.09453046 0.12860936
-0.1697611 0.24892195 0.17884076 0.4039435 0.23424721 0.15644519 0.2806057 -0.2500021
-0.03827863 -0.21216261 -0.2975135 0.20895542 0.17836717 -0.5289094 -0.18847756 -0.36332494
-0.42289057 -0.0034838682 0.3152885 0.24141595 0.12166897 0.07311116 0.14311217 -0.7789339
-0.40039256 0.24995749 -0.34828705 -0.6857099 0.119667865 -0.36024773 -0.6161668 -0.06616921
0.11078629 0.40292606 -0.047298532 -0.14262667 -0.20289673 0.116448246 0.13411254 -0.21426639
0.034193188 0.18040715 0.009245946 -0.4678339 -0.51452696 0.19438665 -0.44854912 -0.14938997
-0.24045645 0.18205565 0.016481733 0.21063331 -0.1899369 0.01673369 0.34311822 0.12528594
0.42172977 -0.35272297 0.30400854 -0.116178855 0.2010673 0.027845053 0.3288188 -0.154361
0.13591468 0.36148852 -0.19575574 -0.5102289 0.27739543 0.0648851 -0.3028046 -0.03211099

nee_decoder.2.bias f4 [16]
00000000: 3698 4e3d 1022 47bd c1ca c8bd cd8e 82bd
00000010: 573d cebd 6865 29be 2b6d e3bb 570e c33c
00000020: 9445 b8bd 7c09 ef3d 8428 163e eff6 74bd
00000030: f44a 03be 9f9d eabd c7ae 7ebd 4cfb 4c3d
0.05043813 -0.04861647 -0.09804297 -0.06374893 -0.100702934 -0.1654259 -0.006940504 0.023810549
-0.08997646 0.11671731 0.14663893 -0.059805807 -0.12821561 -0.11455845 -0.0621784 0.050044343

nee_decoder.4.weight f4 [1, 16]
00000000: 52e9 e33e 2366 32be 5b41 22bf 8b51 23bf
00000010: 6152 96be 80aa 003f 2133 60bf f0fa 263f
00000020: 25b0 d0be fd87 f83e 77c9 f73d 93a7 efbe
00000030: 1407 7dbe 4cbe 1bbf c0c0 143c 6d17 053f
0.44513947 -0.17421775 -0.63380975 -0.637963 -0.29359725 0.5026016 -0.87578017 0.6522665
-0.40759388 0.4854125 0.12098973 -0.46807536 -0.24709731 -0.60837245 0.009079158 0.5198887
