climate/Final Experiments/PERNN_res123/best_model.pth (torch, 62626 bytes, 83 tensors)

encoder.0.fc.weight f4 [16, 16]
000000 b9 d1 64 bd 53 9d 12 3e 73 fb 00 3e df 9c cb bc
       -0.05586407 0.14317827 0.1259592 -0.024855075
000010 69 73 2d 3d 7b 8d f1 be 51 0b 38 be 2d c5 70 bd
       0.04234639 -0.47178254 -0.17973067 -0.05878179
000020 d1 3b b6 be 1d 2d df be 1c 12 91 3e 3b 3c 59 3e
       -0.3559251 -0.43589106 0.2833413 0.21214382
000030 f5 19 5d 3e a5 cd da 3d e8 c1 e5 3e 82 15 8a bc
       0.21591933 0.10683755 0.448745 -0.016855959
000040 6f ac 03 3f 9c 70 af be 73 f9 27 be d2 d1 3a bc
       0.5143499 -0.34265602 -0.16403751 -0.011402564
000050 ee 7b 09 be 2c fe 4c be 9d b8 82 bd 8e 89 d6 3e
       -0.13426182 -0.20018834 -0.063828684 0.4190182
000060 21 64 e1 3e 23 da e4 bb ba e8 89 be 6f 03 fb 3e
       0.44021705 -0.0069840117 -0.2693537 0.49026057
000070 8c a0 47 be 8c 84 b2 3e e6 11 6b bc 44 71 9f 3e
       -0.19494838 0.3486675 -0.014347529 0.31141102
000080 d1 30 5f 3e eb cb 85 3d ad 4b 7c bc c5 39 1a bd
       0.21795966 0.06533035 -0.015398902 -0.03765275
000090 fb 5b b1 3c ab cd 44 be 10 3e 0f be 7e 4e 9a be
       0.021650305 -0.19219081 -0.13988519 -0.3013801
0000a0 1e 88 1e be ca 65 cc 3c 11 b2 25 3f 17 c6 1c 3f
       -0.15481612 0.02495088 0.6472483 0.6123976
0000b0 b7 39 c9 be be 00 60 be 0c f1 0e 3e 71 7c 8e bc
       -0.39301845 -0.21875283 0.1395914 -0.017393323
0000c0 e1 ed a8 bc 3f 09 c8 be f6 93 ea be cd fa 2d bd
       -0.020621242 -0.39069554 -0.4581601 -0.04247551
0000d0 bc a2 36 bd 54 a6 2d be 84 c0 97 bd 6a 41 88 bd
       -0.04458879 -0.1695798 -0.07409766 -0.06653102
0000e0 e0 85 ed bd 76 a2 a4 3e 91 25 c3 bd 0a 08 0d bf
       -0.115978 0.32155198 -0.095286496 -0.5509039
0000f0 e1 0d 31 bd 59 52 a0 3e 09 16 3d 3e da 7e ac bd
       -0.043226127 0.31312826 0.18465437 -0.084226325
000100 a6 b1 0b 3e f1 d7 65 bd 44 c2 d4 3d 78 a8 52 be
       0.13641986 -0.05611414 0.10388616 -0.20572078
000110 fd e2 48 3d 62 db 70 3e 26 eb a9 3d 3e 18 46 3e
       0.049044598 0.23521188 0.08296804 0.19345185
000120 61 7b 91 3e ae b1 a7 3e 1b 7f be be 6d 77 58 3e
       0.28414443 0.32752746 -0.3720635 0.21139307
000130 05 2a 18 3f 84 92 12 3e 59 8b 1d be 28 e7 71 3d
       0.59439117 0.14313704 -0.15385188 0.05905834
000140 47 17 03 3e 3a 41 06 3f 4b d8 87 be 89 6a 57 3d
       0.12801848 0.5244328 -0.26532206 0.052591834
000150 ea d5 e9 3d 26 87 42 be 7e 38 6f be 8f fc d1 be
       0.11417754 -0.18996868 -0.23361394 -0.41013
000160 d3 5b cb bd 0d c4 0b 3e b5 22 be be fa c7 a2 be
       -0.099296235 0.13649006 -0.37135854 -0.31793195
000170 ac 5c d5 3e af 40 7a 3c 36 97 05 be fb bb 0c bf
       0.41672266 0.015274211 -0.13045964 -0.54974335
000180 15 8b 8b 3e 9d 70 b8 3d 2c 1c 30 bd 29 3c 8e 3c
       0.2725455 0.09005854 -0.042995617 0.017362671
000190 cf ac 2d be bc b9 59 bd a9 ab fc bd 9b 5c c3 be
       -0.16960452 -0.053155646 -0.12337429 -0.3815659
0001a0 6a e1 c7 3e d2 75 e3 be 9c 95 d3 3e 74 4b 53 3c
       0.39039165 -0.44425827 0.4132508 0.012896407
0001b0 fe 4f 29 3f c3 a0 9e 3e c8 2e 10 be f4 d8 1c be
       0.66137683 0.30982026 -0.14080346 -0.15317136
0001c0 2d ac 37 3e 03 9c 20 be 21 b6 aa be 56 c5 ae 3d
       0.17936774 -0.15684514 -0.33342078 0.085337326
0001d0 88 13 ae be 84 53 c2 bd 02 0f b6 bd 6a f7 c2 be
       -0.33999276 -0.094885856 -0.08889581 -0.38079387
0001e0 15 b2 20 bf 4f be f6 bd 54 07 19 bf f7 14 0d 3e
       -0.6277173 -0.12048017 -0.59776807 0.13777529
0001f0 e6 9f 16 3f ac 82 31 be 93 60 c8 be 51 04 b2 be
       0.58837736 -0.17335004 -0.3913618 -0.34768918
000200 6d 18 af be eb ed 54 3e 56 da a2 be 41 e4 44 3c
       -0.34198323 0.20793884 -0.31807202 0.012017311
000210 c8 ea 4b be 70 26 d9 be 16 a2 dd 3d 13 89 a3 bd
       -0.1991378 -0.42412138 0.10821931 -0.07985129
000220 4a b2 a2 be 10 a7 ab bd d3 ea a6 be 28 7b 2d 3e
       -0.3177665 -0.08381474 -0.32601032 0.16941512
000230 94 9e df 3e 2f d2 09 3e c8 12 b7 be 14 c3 45 be
       0.43675673 0.13459085 -0.35756516 -0.19312698
000240 7d ee 0f be 45 2d 7d 3d 2d 18 c5 be 07 a8 bd bd
       -0.1405582 0.06181075 -0.38495007 -0.09260564
000250 83 7a 38 be a6 a2 4f 3e 19 c6 80 be f9 bd e1 3e
       -0.18015485 0.20276889 -0.25151137 0.4409025
000260 87 98 c7 3d 6b 06 ee be 17 c6 08 3f 4d 04 c9 be
       0.09745889 -0.46489272 0.5342726 -0.39261094
000270 8d 2c 04 be 1d d0 20 3b de 73 9b 3e b7 d9 c0 3d
       -0.1290762 0.0024538108 0.30361837 0.09416526
000280 7f 02 7f be 29 0f a0 be d3 fa 6c be d8 ac 7d bd
       -0.24903296 -0.31261566 -0.23142557 -0.061932415
000290 b7 93 3d 3e 97 5e 4e be c6 d4 e7 bd 02 6e 62 bd
       0.1851338 -0.2015327 -0.1131988 -0.055280693
0002a0 bd 20 4a 3d 50 64 a2 3e b2 b9 3d 3e 78 8b 71 3e
       0.049347628 0.31717157 0.18527868 0.2358836
0002b0 b9 89 05 bf 24 98 ba 3d d0 3a e4 3c f4 7d a3 bb
       -0.52163273 0.0911105 0.027860075 -0.00498938
0002c0 51 5f 84 3e 87 4b 92 be 93 4f 05 3c 80 11 e6 3d
       0.2585397 -0.28573248 0.008136648 0.112338066
0002d0 d4 9f 21 3d a0 7f df 3d dd 38 ca be b5 da 65 be
       0.039459065 0.109130144 -0.39496508 -0.22446711
0002e0 fd a6 00 3f 44 b8 c8 3e 2b 5d 96 be f6 ea cd 3e
       0.50254804 0.39203084 -0.29367957 0.40218323
0002f0 4a 19 e5 3e c0 2c ca 3e 17 08 c1 bd ff c2 d8 bd
       0.44745857 0.39487267 -0.09425371 -0.105840676
000300 72 89 95 3e 7a 32 6b be 10 4b 86 3e 1c 8c 7a 3b
       0.29206425 -0.22968474 0.26229143 0.0038230484
000310 65 53 19 3e c4 20 0a be 53 df 1f be d4 77 ac be
       0.14973219 -0.13489062 -0.15612535 -0.33685172
000320 db b9 8d 3c 3c 3c 7a 3e 21 cd c8 bd 58 b1 2b bf
       0.017300537 0.2443704 -0.0980475 -0.6706748
000330 f6 e0 a3 be 0e 2f 63 be d5 63 56 be 10 5c 56 be
       -0.3200757 -0.22185919 -0.2093652 -0.20933557
000340 bc c9 07 3d 5b 1a b4 3e 74 b2 50 bd 20 38 fe 3d
       0.033151373 0.35176358 -0.050951436 0.12413049
000350 c8 db dc 3e f9 0d 1c be 64 b6 42 3e d7 29 08 bf
       0.4313643 -0.15239705 0.19014889 -0.5318884
000360 0a 0e 7a be 4d 5e 73 be e7 26 be be fc b1 cf be
       -0.24419418 -0.23766442 -0.37139055 -0.4056548
000370 50 ad 75 be e7 25 71 3e 84 54 a1 3e a8 0a 7d be
       -0.23991895 0.23549615 0.31509793 -0.24711096
000380 fd 91 85 3d 12 8a 7d be c1 dc 94 3e 33 86 05 bc
       0.06521986 -0.24759701 0.29074672 -0.008149671
000390 e1 3f 7a bd 2b 29 fe 3d 2d 3d af be ce 2d e9 bd
       -0.061096076 0.12410196 -0.3422636 -0.1138569
0003a0 12 17 8a bd 16 5f 55 3d 15 c6 be 3d 07 ab 51 3e
       -0.067426816 0.052092634 0.09315125 0.20475398
0003b0 a2 ee 36 3e 7c c4 0b be 77 bd e1 3e 32 5a c1 3e
       0.17864469 -0.13649172 0.44089863 0.37764126
0003c0 33 60 5e 3e ff 3d db bd e3 85 ca 3e f8 79 d4 bb
       0.21716385 -0.10705184 0.39555272 -0.0064842664
0003d0 58 6a 00 3f 9d d3 bb 3d 36 0f 12 be bc a4 c2 be
       0.5016227 0.091712214 -0.14263615 -0.38016307
0003e0 96 3b 80 3e 22 59 85 be d9 b1 a1 be 0d 77 74 3e
       0.2504546 -0.26044565 -0.31581 0.2387354
0003f0 e8 29 90 3e 04 3a 0c bd 3f 46 af be 3c 8e 17 be
       0.28156972 -0.034235016 -0.3423328 -0.14800352

encoder.0.fc.bias f4 [16]
000000 8a 9e f8 3d a9 42 41 bd dc 8a 99 3d f1 d8 7a 3d
       0.12139614 -0.047182713 0.074971884 0.061242048
000010 d1 99 af bd 1d f2 4b bd 0f ab 1f 3d 04 f8 5a 3c
       -0.0857426 -0.049791444 0.038981494 0.013364796
000020 1f 65 d3 3c 58 d3 e3 3d a6 63 d5 bc 03 76 27 3d
       0.025805054 0.11124295 -0.026048493 0.04088403
000030 7b ec ac bc 2a 89 6f 3d 37 eb 9a bc f8 2c ac 3d
       -0.021108856 0.05848042 -0.018910987 0.084070146

encoder.0.norm.weight f4 [16]
000000 ea e0 a0 3f bf 70 88 3f 98 7b a0 3f 54 7f a1 3f
       1.2568638 1.0659407 1.2537718 1.2616982
000010 cb 2b 87 3f e6 d1 98 3f f3 e6 9d 3f 31 1a 9e 3f
       1.056024 1.1939056 1.2336105 1.2351743
000020 d3 5c 99 3f ac 77 9d 3f 7e e8 a6 3f 5c 10 92 3f
       1.1981453 1.2302146 1.3039701 1.1411242
000030 a6 cf 97 3f b9 20 9c 3f 0c 1b 7e 3f 51 66 98 3f
       1.1860244 1.2197486 0.9926002 1.1906224

encoder.0.norm.bias f4 [16]
000000 9f 96 83 3e b1 58 40 3e 32 74 96 3e 86 96 87 3e
       0.25700852 0.18783833 0.29385525 0.26482028
000010 58 a8 22 3e aa 05 88 3e 73 7c 89 3e 48 61 73 3e
       0.1588453 0.2656682 0.2685276 0.23767579
000020 1e 50 82 3e 6f 4d 9f 3e b3 3c ab 3e fc 19 89 3e
       0.2545175 0.31113765 0.33444747 0.26777637
000030 42 2c 8b 3e 41 53 8d 3e 80 48 77 3c 87 4d 46 3e
       0.27182204 0.2760258 0.015092969 0.19365512

encoder.0.norm.running_mean f4 [16]
000000 b1 38 65 3d c5 c5 ac 3f c7 9b a4 bd 4d e8 de bd
       0.05596227 1.3497854 -0.08037525 -0.108841516
000010 06 52 85 3e 6b eb 16 c0 e6 4f 10 bf 7c 2a d2 bf
       0.2603914 -2.3581188 -0.56371915 -1.6419215
000020 e4 13 6e bf 88 70 17 3f 88 bf f6 ba 1f 85 31 be
       -0.929991 0.59156084 -0.0018825391 -0.17335938
000030 38 bd 84 bf 36 d1 56 bf 67 ad d4 3f 4d 34 25 bf
       -1.0370245 -0.8391298 1.6615418 -0.6453293

encoder.0.norm.running_var f4 [16]
000000 f0 6e 0e 3f 45 c4 d9 3f 8e 6f 34 3f 7c 7a 02 3f
       0.5563803 1.7013022 0.7048272 0.50968146
000010 1e 32 88 3f 1e c3 4d 40 96 45 3e 3f 3e 6a c3 3f
       1.0640295 3.215034 0.7432493 1.5266798
000020 44 3e 9b 3f aa 99 a6 3e 86 de fd 3e c8 aa 85 3f
       1.2128377 0.3253911 0.49583834 1.0442743
000030 78 17 50 3f 87 9d 1f 40 57 b4 a3 3f 2a 19 9f 3e
       0.8128581 2.4939897 1.278941 0.31073886

encoder.1.fc.weight f4 [16, 16]
000000 d6 ae 24 bd 1c 0f af bd ec 0f da be e8 a0 1e bd
       -0.0402058 -0.08547804 -0.42590272 -0.03872767
000010 6e a1 7a 3e ac 39 b4 be 4c 66 61 bd a7 a3 bd 3d
       0.24475643 -0.3520025 -0.0550292 0.0925973
000020 89 0c 81 be cf fd 4b 3e c4 1f 1e be a9 e5 3d 3e
       -0.25204876 0.19921039 -0.15441805 0.1854464
000030 d2 6e d5 be 16 b8 79 be 3d d0 dc 3e 13 31 52 be
       -0.41686112 -0.2438663 0.43127623 -0.20526533
000040 1e 63 99 3e b6 80 78 be f1 b8 b6 3c 7e 3b 24 3d
       0.29958433 -0.2426785 0.022304984 0.0400958
000050 fd 7a 9d bd 08 b2 82 bc b5 68 8b bc f4 d2 db 3d
       -0.07689474 -0.015954033 -0.017017702 0.107335955
000060 95 44 b9 3d 6b 2f dd be b2 22 30 3f 2f 4a 0f bf
       0.09046284 -0.4320024 0.6880294 -0.5597257
000070 81 04 ed be eb d5 16 bc 43 64 d3 be e7 49 39 3e
       -0.462925 -0.009206275 -0.4128743 0.18094598
000080 b8 b8 47 3e 8c 26 df bd 40 52 3e 3d 77 6d 8a 3d
       0.19504058 -0.10896024 0.04646516 0.0675916
000090 54 4f 3f 3e 09 57 07 3e 68 50 9b 3a 38 44 ba be
       0.18682605 0.13216795 0.0011849524 -0.36380172
0000a0 eb cc d6 be fd 29 d1 3e 85 da 68 be 6d 14 15 bf
       -0.41953215 0.40852347 -0.22739609 -0.5823429
0000b0 17 13 3c 3b 24 45 ab be 5f 6c 85 3e be 3c 12 be
       0.0028697902 -0.33451188 0.26059243 -0.14280984
0000c0 f2 c2 3d 3e 2b 06 97 be c4 95 cb be f9 58 9b 3d
       0.18531397 -0.29496893 -0.397627 0.075853296
0000d0 0b f4 84 3e 1d 0f b0 be f4 6f 2e 3c b5 d7 00 bf
       0.2596744 -0.3438653 0.010646809 -0.5032914
0000e0 8b 96 36 3e b3 0b da bc 82 d5 86 be ca 5a e7 be
       0.17830865 -0.026616907 -0.2633477 -0.45186454
0000f0 8e 85 8b 3e 5e 65 ad be cc 2d 54 3e 10 eb 79 be
       0.27250332 -0.338664 0.20720595 -0.24406075
000100 b1 f1 59 3e 71 a1 81 3e b9 ea 24 bf d6 5f 44 bd
       0.21283604 0.25318483 -0.6442066 -0.04794296
000110 9e e0 4a 3e a7 87 3f be 70 46 8d be 28 8d 63 3d
       0.19812247 -0.18704091 -0.27592802 0.05555454
000120 96 65 84 3e 11 ec 04 3e d1 87 be 3e fb af 5f be
       0.25858754 0.12980677 0.37212995 -0.21844475
000130 ef 25 56 3d e0 d9 65 3e 41 fa da bb c0 50 5c be
       0.05228227 0.22446394 -0.0066826646 -0.21515179
000140 98 1d 86 be bd 4a 98 be 09 94 b5 3e c7 e1 fc 3d
       -0.26194453 -0.2974452 0.35464504 0.12347751
000150 e9 55 e1 be 09 fe 20 3e da 3f be be 4b c0 bf be
       -0.44010857 0.15721907 -0.3715809 -0.37451395
000160 5f 79 3a be 28 47 08 be d2 49 50 3e 99 58 82 be
       -0.18210362 -0.13308394 0.2034066 -0.2545822
000170 2e fc be 3b 18 af 06 bf 56 69 af be bf bf b3 be
       0.005828402 -0.5261092 -0.34260052 -0.35107228
000180 b1 74 73 be 50 95 8f be 87 7f ff bd 46 19 09 be
       -0.23774983 -0.28043604 -0.12475496 -0.13388547
000190 5c f1 e6 bd 52 68 38 be f1 58 d5 bd 68 f8 58 be
       -0.112765044 -0.18008545 -0.10417355 -0.2118851
0001a0 6c d4 9e 3e 50 0f a7 be 40 41 78 3d 7b e0 e4 3e
       0.3102144 -0.3262887 0.060609102 0.44702515
0001b0 0b df 4d be cd 3f 97 be 29 7d 17 3e b5 d4 11 be
       -0.20104615 -0.29540864 0.14793839 -0.14241298
0001c0 fe ac 5e be 6e 15 79 3e 87 be e6 bc 99 25 7d be
       -0.21745679 0.24324581 -0.028167022 -0.24721374
0001d0 96 06 da be ec b4 37 be 26 97 cc 3d 8b cb e7 be
       -0.4258315 -0.1794011 0.09989767 -0.45272478
0001e0 33 30 8b 3e e4 a9 ae be 8d 0e ab be 69 7f 61 3d
       0.2718521 -0.3411399 -0.3340954 0.05505315
0001f0 90 dd 2e be 88 84 88 be 63 ea e3 3e 20 cc 34 be
       -0.17076707 -0.26663613 0.4451476 -0.17655993
000200 50 33 f8 bd cc fc b7 be af 51 36 be 63 32 e3 bc
       -0.12119162 -0.35935056 -0.17804597 -0.027733987
000210 e6 52 98 3d de 1a 96 bc e7 b0 ed bd e7 bf a6 be
       0.074376866 -0.018323358 -0.11606007 -0.32568285
000220 79 79 e5 3c cc 08 45 be 5d 40 88 be 47 4f 9d 3e
       0.028012024 -0.19241637 -0.26611605 0.30724546
000230 ae b7 cf be 35 af d3 be cf 4a 01 3e 5f 24 00 bc
       -0.40569824 -0.4134461 0.12626193 -0.007821172
000240 c5 d4 bd 3e f0 93 6b 3e 2b c6 bd 3d 8b db 86 bc
       0.37076393 0.23005652 0.09266313 -0.016462108
000250 83 26 97 be 78 46 e8 be fd 4f 61 be 5b 23 4d be
       -0.2952157 -0.45366263 -0.2200317 -0.20033018
000260 7d 4b a6 be 99 b3 56 be 15 ed c1 bd b7 58 1c be
       -0.32479468 -0.20966949 -0.09469048 -0.15268217
000270 5c bc 19 bf 3e 23 78 3d 83 5d 6c bd 24 5a bc bd
       -0.6005304 0.060580485 -0.057706367 -0.091968805
000280 f9 61 70 3e 1e a4 52 be 1a fe 1e bf 94 6c 1e be
       0.23474874 -0.20570418 -0.6210648 -0.15471107
000290 83 3c 06 be 32 10 6a bc 77 7a 1d be 5b 51 1c be
       -0.13109021 -0.014286088 -0.15378748 -0.1526541
0002a0 34 b5 04 bf b9 9c ee bd 6c 89 c6 be 19 08 dc be
       -0.51838994 -0.11650986 -0.3877672 -0.42974928
0002b0 17 76 a7 3d a2 8d 8f 3e 4a de dd bd c5 d2 05 3e
       0.08176821 0.28037745 -0.10833414 0.13068683
0002c0 d7 c8 e1 be b8 d3 ea be a2 5b a3 bb 1e 81 3e 3d
       -0.4409854 -0.45864654 -0.0049852887 0.046509854
0002d0 35 ce cf be 8e 65 8d 3d 5c 22 5c be 08 67 54 be
       -0.4058701 0.06904136 -0.21497482 -0.20742428
0002e0 4e 5f fa 3d f6 1e 9b bd 20 7e 27 3d 47 e1 02 bf
       0.12225209 -0.07574265 0.040891767 -0.51124996
0002f0 73 a4 38 3d b8 e9 c1 be f2 cf 1b bd f2 a2 71 be
       0.045078706 -0.37873626 -0.03804011 -0.23597315
000300 12 ab 82 bc af 1d 65 3e 73 3d 66 3d 4b bb 67 bc
       -0.015950713 0.22374605 0.056210946 -0.014143775
000310 66 72 54 3e 3b ef 5b be a1 38 ae bd a2 28 39 3c
       0.20746765 -0.21477978 -0.08506895 0.0113011915
000320 96 96 8a be d4 ef 87 3e 23 66 d1 be d3 31 e4 be
       -0.27068013 0.26550162 -0.40898237 -0.44569263
000330 ea 87 ed 3d df 48 71 bd 9a c7 cd be e5 3a e3 bb
       0.11598189 -0.058907386 -0.40191346 -0.006934511
000340 9c 4d 94 3e 4d 25 89 3e 75 ba c4 3d 4a b4 40 bd
       0.2896546 0.2678627 0.09605876 -0.047046937
000350 ce a2 dc bd 15 17 7c be 4f b6 ea be bc 63 08 bd
       -0.1077324 -0.2461818 -0.45842215 -0.03329824
000360 40 1f 9d be e7 d6 f4 3d d0 52 8d 3e 6d a6 81 3d
       -0.30687904 0.11955052 0.27602243 0.06330571
000370 17 de af be 44 7f 7d 3d 6f db 47 be 8c 9a 34 be
       -0.3434913 0.061888948 -0.19517301 -0.1763708
000380 bc e5 91 be 74 30 fd 3d 2f 23 af bd da b4 ad 3e
       -0.28495586 0.12362757 -0.085516326 0.3392704
000390 8e bf ce 3d 94 6e a7 be 70 3a 89 3e be 7c a9 3e
       0.1009513 -0.32701552 0.26802397 0.33102983
0003a0 e9 f4 59 be 76 6f 0e 3e 1a 47 9a 3e 72 e3 7a 3c
       -0.21284832 0.13909706 0.3013237 0.015313016
0003b0 63 0c 59 3e a3 14 c8 3e ce 64 a6 3e fb f0 6f bd
       0.21196131 0.39078245 0.32498783 -0.058579426
0003c0 52 e3 86 be 80 57 c1 bd c8 e6 8b be 55 d8 3a be
       -0.26345307 -0.094405174 -0.2732451 -0.18246587
0003d0 04 0c 02 bf cd f2 a6 be 5c 9f 5e 3d 67 2a ab be
       -0.50799584 -0.32607117 0.054351196 -0.33430788
0003e0 a1 41 b0 be a9 a3 a2 3b ec 1f 72 bd f6 fb d9 3d
       -0.3442507 0.0049633575 -0.059112474 0.10643761
0003f0 a2 e0 9c be 23 32 95 3e 9d 67 c8 bd 6a fa b3 3d
       -0.3064013 0.29139814 -0.09785388 0.08787997

encoder.1.fc.bias f4 [16]
000000 d0 77 6f 3e 24 03 cd bc 05 d4 a3 3d d9 72 a0 3c
       0.23385549 -0.025025912 0.07999424 0.019586014
000010 02 52 05 3e 69 f0 b3 3d 15 0e cc 3d f7 00 94 3d
       0.13019565 0.08786089 0.099636234 0.072267465
000020 50 1b d1 3c 96 aa a2 3d f8 06 03 3e a9 1e 5a 3d
       0.025525719 0.07942693 0.12795627 0.053251896
000030 c2 75 dc 3d e6 dd b2 3d 7c 26 19 3c 2e d2 b7 3d
       0.10764648 0.0873373 0.009347554 0.089756355

encoder.1.norm.weight f4 [16]
000000 22 cb a2 3f f7 75 8f 3f df 1a 9f 3f d4 9e 9e 3f
       1.2718241 1.1207875 1.2430075 1.239222
000010 e7 6c 90 3f 0d 50 a0 3f 8d a9 a5 3f c8 29 a5 3f
       1.1283234 1.252443 1.2942368 1.2903376
000020 78 c2 a0 3f 12 a5 a4 3f 0b d3 9f 3f 05 60 a0 3f
       1.2559347 1.2862875 1.248628 1.2529303
000030 ce 3c a0 3f 2c f7 a3 3f 06 a9 5c 3f 17 f5 9a 3f
       1.2518556 1.2809806 0.8619541 1.2106045

encoder.1.norm.bias f4 [16]
000000 a6 e7 87 3e e8 3c 3a 3e ef 0a 85 3e 32 dc 89 3e
       0.2654392 0.18187296 0.25984904 0.26925808
000010 bd f9 f6 3d 52 8c 78 3e 20 22 93 3e 5d 59 8b 3e
       0.120593525 0.24272278 0.28736973 0.27216616
000020 3d 6a 6d 3e 1e 3b 9d 3e 89 4c a4 3e 7e 58 87 3e
       0.23185058 0.30709165 0.32089642 0.26434702
000030 a1 f0 85 3e ad bf 90 3e 25 89 1e be 8f cf 4f 3e
       0.26160148 0.28271237 -0.15482004 0.20294021

encoder.1.norm.running_mean f4 [16]
000000 17 a8 b9 bf b3 55 3e 3e 8e 3f 8b bf 5a 15 0a c0
       -1.4504422 0.18587379 -1.087877 -2.1575532
000010 7b 0f 19 bf 3c f8 47 c0 20 f1 ba bf 81 1a ea bf
       -0.59789246 -3.124526 -1.4604836 -1.8289338
000020 94 d0 ab bf 1b 1f d2 bf 9d e9 30 bf 66 69 24 c0
       -1.3423028 -1.6415743 -0.69106466 -2.568933
000030 d1 8e 36 bf 59 c8 93 bf b1 7d 5d 3f da 03 5f bf
       -0.7131167 -1.1545516 0.86519915 -0.8711525

encoder.1.norm.running_var f4 [16]
000000 55 73 b7 3e ba fc b8 3f d3 82 a8 3f ee 0a f0 3f
       0.3583018 1.4452126 1.3164924 1.8753335
000010 ee 35 9a 3f c0 b0 42 40 ce bb 85 3f 0a 4a 21 3f
       1.2047708 3.042038 1.0447938 0.630036
000020 b5 47 21 3f 46 b0 ba 3f 19 18 d3 3f 90 1c 1a 40
       0.6300004 1.4585044 1.6491729 2.4079933
000030 c2 ee 87 3f fd 0e ca 3f 17 23 33 3f 92 f5 68 3f
       1.0619738 1.5785824 0.6997542 0.9099971

encoder.2.weight f4 [32, 16]
000000 f6 97 65 be 1f 0a 77 be 08 72 b5 be c4 b5 f6 3d
       -0.2242125 -0.24124955 -0.3543856 0.12046388
000010 87 2b 92 3e 11 ce ab 3d 7c 80 2b 3e bb 85 97 be
       0.28548834 0.083889134 0.16748232 -0.29594216
000020 51 ea 93 3e 4a a5 ce bd f2 12 03 bf 93 ca dc 3d
       0.28889707 -0.1009012 -0.51200783 0.107808255
000030 8b e4 89 be 0b ef ee 3d 47 c6 49 3e 5f 94 50 3e
       -0.26932177 0.116666876 0.19704543 0.20369099
000040 c4 3e aa bd 8c 3a ea 3d 41 73 93 3d 6e 99 8b 3e
       -0.08312753 0.11436948 0.07199717 0.27265495
000050 a0 80 fa bd 1f c3 8d be 3e f4 9f 3e 43 4b 1a 3e
       -0.122315645 -0.27687928 0.3124103 0.15067773
000060 a8 43 ba bd e0 68 c0 3e 0b 1f c4 3c 2b b7 02 bd
       -0.09094936 0.37580013 0.023940584 -0.031912964
000070 29 8a 9c 3e 93 6e 48 3e eb 68 80 be 44 50 a5 be
       0.30574158 0.1957343 -0.25080046 -0.322878
000080 42 81 cf bc 14 65 8f 3d f5 21 9e be 7c cf 4f be
       -0.02533019 0.07001701 -0.30885282 -0.20293993
000090 64 d5 26 3e 1d 43 c3 bd ff 7e a3 be d1 0b 69 3e
       0.1629234 -0.09534285 -0.31932828 0.22758414
0000a0 84 df 39 3e 6b ae d4 be 48 72 88 be f2 72 14 3d
       0.1815167 -0.4153932 -0.2664969 0.036242433
0000b0 66 ff f2 be 97 08 3c 3e db fb 87 3e 94 b1 58 bd
       -0.4746048 0.18362652 0.26559338 -0.052903727
0000c0 fa 5d e0 be 4e 67 a3 3a 96 2c 34 be 15 7c 87 bc
       -0.43821698 0.00124667 -0.17595133 -0.01653866
0000d0 e9 09 a0 be ad d0 51 3e a3 7e 39 be 6a 2a 65 3e
       -0.3125756 0.2048976 -0.18114714 0.22379461
0000e0 00 50 5c 3e b5 dc a2 3d 33 83 06 bf 50 ee f2 be
       0.21514893 0.07952253 -0.52543944 -0.47447443
0000f0 29 80 ef bd 1d 4f 01 3e 89 66 b5 be 18 44 4a be
       -0.116943665 0.12627836 -0.3542979 -0.19752538
000100 6b 93 7a be b1 b9 0c bf a4 28 5c be d1 9e da 3d
       -0.24470298 -0.5497084 -0.21499878 0.10674823
000110 4e 66 a2 be 4b 51 23 3e a0 69 ed bd 2a b1 88 be
       -0.31718677 0.1594898 -0.11592412 -0.26697665
000120 48 31 d3 3d d2 ea 20 3d c3 a8 15 be 5f d0 97 be
       0.10312134 0.039286442 -0.14615159 -0.29651162
000130 b2 7d 1d be ad 32 82 be 8d ae ee 3c bf a4 cb bd
       -0.1537998 -0.25429288 0.029135967 -0.09943532
000140 33 17 c8 be a6 90 84 be d3 1f db be c2 55 af 3d
       -0.390802 -0.25891608 -0.42797717 0.08561279
000150 5d 9f cc be d2 e4 2b be 24 9c 95 3d ed a2 cb be
       -0.39965335 -0.16786507 0.07305172 -0.3977274
000160 4d ef 6a be 6f c9 c5 bc 65 f5 c8 be 5e 84 88 3d
       -0.22942849 -0.024143903 -0.3924972 0.06665872
000170 92 1a 54 3d 43 ad d8 be e4 6f 71 be 9d 5a 0b be
       0.051783152 -0.42319688 -0.23577839 -0.13608785
000180 0e 21 e9 bd 16 62 69 be a2 64 a2 be bb c0 96 bb
       -0.11383258 -0.22791323 -0.31717402 -0.004600612
000190 a6 8f 77 3d 63 7a 46 be b6 49 89 bd 86 e3 1f be
       0.06043973 -0.19382624 -0.06703512 -0.15614137
0001a0 0e 91 ab be 01 71 cb bd b9 8d f6 be 83 51 5f 3d
       -0.33509105 -0.09933663 -0.48155 0.054521095
0001b0 5f f2 00 3d 56 15 1d 3d 1c ac b6 3e e2 bc 7b be
       0.031481143 0.038350426 0.35678184 -0.24583772
0001c0 0c 11 5e bd e3 fc 7e be 0a a2 f1 bd eb 7c 13 3e
       -0.054215476 -0.24901156 -0.117984846 0.14403121
0001d0 f9 0a 63 be 83 b1 33 bd a9 df 9d 3e d9 70 47 3c
       -0.22172154 -0.04387046 0.30834702 0.012172901
0001e0 9e 83 14 3c ac 51 c9 3d 19 9e 9a be 9f b6 02 be
       0.009064583 0.09830031 -0.30198744 -0.12764977
0001f0 9d 5f 29 bd 17 d1 a1 3e cb 45 70 3e f4 e0 07 3d
       -0.04135095 0.31604835 0.23464124 0.033173516
000200 fd d2 f6 be 34 52 42 bd 13 50 23 3d 9c 6b da be
       -0.48207846 -0.047441676 0.039871287 -0.42660224
000210 f8 a7 01 3c e2 75 de bd ab db 98 be a1 28 57 be
       0.007913582 -0.10862328 -0.29855093 -0.21011592
000220 62 dc f7 3d 59 58 5f 3d 72 6f 07 3d ac 9a cd bd
       0.121025816 0.054527614 0.033065267 -0.10039267
000230 01 00 a2 bd c9 13 e6 bc 4c 10 01 3e 0f 0f ac be
       -0.07910157 -0.028085606 0.12603873 -0.3360524
000240 af a3 f8 be ac b1 8f be 15 a6 e4 be d9 fa 21 be
       -0.4856238 -0.2806524 -0.4465796 -0.15818347
000250 e4 96 8a be bc d7 a8 be 81 a9 f2 be e5 3b d4 be
       -0.27068245 -0.32977092 -0.47394946 -0.41451946
000260 52 8d 37 be d2 0f 88 3d 68 aa a3 bd d2 30 10 be
       -0.17925003 0.066436425 -0.07991487 -0.14081123
000270 ba 41 d4 be 83 fb 3f be 43 ed 04 be ec b6 64 3e
       -0.41456395 -0.18748288 -0.12981133 0.22335404
000280 c5 36 21 be f5 a2 03 bf db 7b b3 bd be 79 90 be
       -0.15743549 -0.5142053 -0.08763858 -0.28217882
000290 cd 19 b5 bb cb 46 71 bc 6e 57 5a be c7 7c 9b be
       -0.0055267573 -0.014726351 -0.21322414 -0.30368635
0002a0 fa 76 96 3d 27 d1 f6 bd 09 33 a5 be c3 1f e2 be
       0.07346912 -0.120516114 -0.322655 -0.44164857
0002b0 07 c9 e9 be 6f 83 dd bb 67 93 61 3e 1a 26 35 3d
       -0.45661184 -0.006760053 0.22028886 0.04422579
0002c0 27 ff e2 3d 23 51 2f bd 7e eb 98 3e e8 d6 e2 3e
       0.11083823 -0.042801987 0.29867166 0.44304585
0002d0 ca 8e 82 be 7c 3f e2 3d 05 69 cf 3e 4f 2b 58 3d
       -0.25499564 0.11047265 0.4050981 0.052775677
0002e0 78 03 d1 bd 88 0a 17 bd 70 b6 eb ba 1f c8 d0 3e
       -0.1020574 -0.036875278 -0.0017983448 0.4077768
0002f0 42 bc 87 3e 27 1a 37 3e a9 3f 75 be 50 23 c5 bd
       0.26510817 0.1788107 -0.23950066 -0.09625876
000300 93 b2 98 3c ae bd 96 3e 50 99 be 3e f8 a7 5b 3e
       0.018639838 0.2944159 0.37226343 0.21450794
000310 61 35 d4 bc f3 99 ce 3d da ee 02 3f f6 12 95 3d
       -0.02590436 0.10087957 0.5114571 0.07279007
000320 c0 62 80 3e 45 b4 0b be 69 04 c5 3e 1c b4 6f 3d
       0.2507534 -0.13642986 0.38479927 0.058521375
000330 b0 f2 ab bd b9 68 23 be db 63 5c 3d 46 a8 23 3e
       -0.08395898 -0.15957917 0.053806167 0.1598216
000340 16 b6 34 3e b1 e6 ea 3d 14 5e 14 be 97 c4 da 3e
       0.17647585 0.11469782 -0.14489013 0.4272811
000350 df f4 d6 3e 7f f4 96 3e 40 05 e7 3e a3 b8 c5 3e
       0.41983697 0.2948341 0.45121193 0.3861743
000360 2f bf 94 3e b6 29 c4 3e ef a6 15 3f 25 e9 0c 3f
       0.29052112 0.38313073 0.58457845 0.5504325
000370 66 bd ef 3e 26 b7 98 3e a6 cc fb bd 17 f0 dd bd
       0.46824187 0.2982723 -0.12294893 -0.10836809
000380 5c 6e 59 be 32 18 74 3d 63 b6 d0 be 6b 1a 39 be
       -0.21233505 0.059593387 -0.4076415 -0.18076484
000390 42 28 a3 3d b2 af d5 be f9 46 36 3d 10 a1 0e 3e
       0.07966663 -0.41735607 0.04450128 0.13928628
0003a0 86 63 b7 be ab 3f 95 be a6 80 3e be 33 a7 f1 be
       -0.35818118 -0.29150137 -0.18603763 -0.47197875
0003b0 ae e5 83 be 80 dd 4c be 51 84 de bc 6c 01 72 be
       -0.2576117 -0.2000637 -0.027162703 -0.23633355
0003c0 81 4f 50 be 9c 54 ef bd c1 3a 67 bd 21 3e 8e 3d
       -0.20342828 -0.1168606 -0.056452516 0.06945444
0003d0 e7 58 6e bd d7 8f 2a bd 90 2a 6b 3d 36 d0 0f 3e
       -0.058190253 -0.041641083 0.057413638 0.1404427
0003e0 94 3c f0 3d bf 8d 31 3d 90 0d 7e be a0 53 98 bc
       0.11730304 0.04334807 -0.24809861 -0.018594563
0003f0 5e a6 94 be e5 f2 16 3e 81 88 90 3d 21 8b 1e bd
       -0.29033178 0.14741094 0.07057286 -0.038706902

encoder.2.bias f4 [32]
000000 85 f7 44 be ef 23 e5 3d ff 8a 71 be 97 c8 8d be
       -0.19235046 0.111884944 -0.23588179 -0.276921
000010 12 e6 7e be b9 c3 85 be 5e 09 e8 bd 91 ed 57 3d
       -0.24892452 -0.26125887 -0.11329912 0.052716795
000020 46 e5 81 be c5 57 7e be ec 77 8c be eb de 76 3e
       -0.25370234 -0.24838169 -0.27435243 0.24108474
000030 6e 71 78 3e d6 eb 7c 3e 0e 9e 7f be 8e 26 ea bc
       0.2426202 0.2469934 -0.24962637 -0.028582837
000040 d9 11 78 be a6 db 14 3e 6f 2c 87 be c1 aa 7a 3e
       -0.24225558 0.14536914 -0.26401088 0.244792
000050 8f bc 8c 3e 6d 05 13 be 9b 5e 62 3e ae 61 59 be
       0.2748761 -0.14357539 0.22106402 -0.21228668
000060 7c e3 83 3e 72 97 79 be e0 dc 85 3e 6e aa 78 3e
       0.25759494 -0.24374178 0.26145077 0.24283764
000070 6c 31 84 be 05 90 7c be f1 73 39 be ec 02 77 3e
       -0.25818956 -0.24664314 -0.18110634 0.24122208

residual.0.fc.weight f4 [16, 32]
000000 bd ed 23 3e 47 96 a1 3e 0a 93 96 3c f3 c0 a7 be
       0.16008659 0.31559965 0.01838066 -0.32764396
000010 80 22 b2 3e 2d 1b 62 be 22 1f 85 bd 34 7f 87 3e
       0.34791946 -0.22080679 -0.06500079 0.26464236
000020 78 22 07 bd 02 72 76 3e 19 62 82 3e 07 c5 a3 be
       -0.032991856 0.24066928 0.25465468 -0.31986257
000030 7f be 17 be bd 6a b4 be 25 c7 9d be a8 92 b8 3e
       -0.14818762 -0.35237685 -0.30815998 0.3604939
000040 69 20 93 3c a3 43 ae 3e 8a 77 0d 3e b4 49 ec bc
       0.01795979 0.34035978 0.13815132 -0.028843738
000050 f2 46 8a 3e 44 84 7b 3d 95 f9 95 3c eb 6a a2 bd
       0.27007252 0.061405435 0.018307487 -0.07930549
000060 6b 6c 86 be 1b 9a 08 3e 9f 3f c6 3c c7 4a 2c be
       -0.2625459 0.13340037 0.024200259 -0.168254
000070 cf 81 39 be f7 36 15 be f4 1c 64 3d 47 6c 13 3e
       -0.18115924 -0.14571749 0.055691674 0.14396773
000080 7c 6f 9f be c9 09 a5 be e4 e5 22 be 93 d8 f7 3d
       -0.31139743 -0.32234028 -0.15908009 0.12101855
000090 38 fd 13 be a6 1a 6d be 5a 3f 7c 3e ee c3 6b be
       -0.14452064 -0.23154697 0.24633542 -0.2302396
0000a0 f9 e7 87 bd 00 18 58 3d 16 c6 a6 3e 47 3a a1 be
       -0.06636042 0.052757263 0.32573003 -0.31489775
0000b0 bb 62 93 3e 4d ff 36 be 26 8c ca bd 45 70 d6 bc
       0.28786263 -0.17870827 -0.098900124 -0.026176581
0000c0 32 3f 09 be e9 26 8b 3e b8 67 68 bd a3 63 24 be
       -0.13403013 0.27178124 -0.05673954 -0.16053633
0000d0 23 89 37 be d6 9e 48 3e 24 c4 2a 3e e3 53 73 bd
       -0.17923407 0.19591841 0.16676384 -0.059406172
0000e0 47 f8 e6 3d ae 9a 3c 3e 31 28 fb bd 98 a2 5b 3d
       0.11277824 0.1841838 -0.12263525 0.05362186
0000f0 3a dd 09 be 36 bc a9 3e 91 0d 8e 3c 64 39 cb 3c
       -0.13463297 0.33151406 0.017340453 0.02480764
000100 dd f2 87 3c ec 69 47 be a4 2e ba bd a6 d4 93 be
       0.016595298 -0.19474 -0.09090927 -0.28873175
000110 40 88 40 3d b5 d3 57 be 53 08 99 bd c9 49 c0 bd
       0.047004938 -0.21076854 -0.07472291 -0.093890734
000120 3e 0b 89 3e 9b 5b 1b be cc c6 9a 3e 4c 4c 67 3e
       0.2676639 -0.15171663 0.30229795 0.22587699
000130 46 30 4e 3d 78 aa d8 3d 5e ca a6 3d 8b 75 4f 3e
       0.050339006 0.10579389 0.08144067 0.20259683
000140 8e 7e 34 3e fc 4a ae be bb 86 56 be 91 9e 0a be
       0.17626402 -0.34041584 -0.20949833 -0.13537051
000150 76 1e 85 3c 46 55 a6 3e 5b 7d e0 3d b4 3a 8e be
       0.016249876 0.32486933 0.1096141 -0.27779162
000160 12 5a 88 3e 39 7a 1d bd 0f 28 99 3e 85 ce 46 3d
       0.26631218 -0.03844664 0.29913375 0.048536796
000170 1d d3 ce bd 0d 2d 98 3d 9b 34 90 bd 16 0e 0e 3e
       -0.100988604 0.07430468 -0.07041284 0.13872561
000180 75 f5 09 be 0b 71 e4 bd 71 b3 7c be e4 7e 2d 3e
       -0.1347254 -0.11154374 -0.24677826 0.16942936
000190 5b 5a 83 3e 27 09 88 3e 49 4d ae be 5b 9d 8f 3d
       0.25654873 0.26569483 -0.3404334 0.07012435
0001a0 3f 26 80 be a3 1f 3a be 8d 32 cd 3d c9 ce 34 3d
       -0.2502918 -0.18176131 0.100194074 0.04414252
0001b0 0c 4a 37 be 0b 07 35 3e 19 14 72 3e e5 9a 4b bc
       -0.1789934 0.17678468 0.23640479 -0.012427066
0001c0 00 c8 57 3e 1c 86 2c bd 10 b2 40 be e0 2c cb bd
       0.21072388 -0.042120084 -0.18817925 -0.099206686
0001d0 42 63 9f be 30 92 20 be 65 3f 1a 3d 9f d8 9d be
       -0.31130415 -0.15680766 0.037658114 -0.3082933
0001e0 e4 a7 45 3d 50 b6 40 3e 80 1f 93 3e ef 51 4c 3d
       0.048255816 0.18819547 0.2873497 0.049882825
0001f0 da 1c 01 be cd 63 76 be d4 eb 80 be 8c a5 a4 be
       -0.12608662 -0.24061508 -0.25179923 -0.32157552
000200 2f f8 ce bd 93 93 87 be 7d 21 b3 be 53 6d fc bd
       -0.10105931 -0.26479778 -0.34986487 -0.123255394
000210 9b 33 a4 3e 1e cc 42 be 39 86 43 3a 85 35 1e bd
       0.32070622 -0.19023177 0.00074586604 -0.03862526
000220 d0 0d b4 3e 77 18 82 3e ee 7a 81 3e aa 90 13 3d
       0.35166788 0.2540929 0.252891 0.036026634
000230 d8 26 f7 3d 4f 1b 7f bd a2 af a6 3e ca 71 20 3e
       0.12067956 -0.062281903 0.32555872 0.15668407
000240 90 f4 33 3e 1c 23 96 3d e9 9e a3 3d de d6 98 3e
       0.17573762 0.07330915 0.07989294 0.2985143
000250 0f a0 9d bd 90 d2 2f be 13 69 ff bd e8 50 87 3e
       -0.076965444 -0.17170167 -0.12471213 0.26428914
000260 4c f2 18 3e 56 33 39 3c da cc 54 3e 98 dd 3f 3e
       0.14936179 0.011303743 0.2078127 0.18736875
000270 6b 97 1c be 8c 28 ae be a7 1b 9d be 91 b1 01 be
       -0.15292136 -0.3401531 -0.3068516 -0.12665392
000280 d9 f6 69 3e 7f a1 92 3d 40 5f 29 3e 6f 5a 59 3e
       0.22848071 0.07159709 0.16540241 0.21225904
000290 55 b4 e7 3b 0d 38 88 be 27 be 34 be 6a e9 14 be
       0.007071058 -0.26605263 -0.17650662 -0.14542165
0002a0 68 9b 16 bd fc 51 61 3e d8 e5 d0 3d 3f aa b4 3e
       -0.0367693 0.22003931 0.10200089 0.35286137
0002b0 0e 5c a9 be bf 9a 88 bc af c1 e6 bd 5c 99 83 be
       -0.33078045 -0.016675351 -0.11267411 -0.2570294
0002c0 cd c6 fa bb 3e 93 3d 3e 39 bd fa 3c f2 c6 0e 3e
       -0.0076530934 0.185132 0.030607807 0.13943079
0002d0 5f 80 98 3d 86 61 88 3e 51 03 2c 3e 69 14 b1 3e
       0.0744636 0.26636904 0.1679814 0.34585884
0002e0 d6 81 a4 3e d1 ae a3 bd 69 31 55 ba eb 36 c1 3d
       0.32130307 -0.07992328 -0.0008132668 0.09434303
0002f0 1d 96 f4 bd 78 62 85 3e e9 34 b0 3e 0d 19 87 be
       -0.11942694 0.26051688 0.34415367 -0.263863
000300 69 66 65 be 0d a7 6d 3e 2f a3 a2 be 2c 08 a7 3e
       -0.22402348 0.23208256 -0.31765124 0.32623422
000310 67 84 29 3e 1f 7b 94 be 53 66 7b 3e 97 6d 7a be
       0.16554414 -0.29000184 0.24550752 -0.24455868
000320 eb 4f 86 be 08 fb 40 3e 5a f0 ae be 31 7f 43 3e
       -0.26232848 0.18845761 -0.3416775 0.19091488
000330 b5 38 89 3c e9 6d 38 be a8 a5 b4 bd e2 b1 c0 3d
       0.016750673 -0.18010677 -0.08820659 0.094089285
000340 3b f9 1c 3d 51 9b 6e 3d e6 ce e4 3c 15 99 86 bd
       0.038323622 0.05825359 0.027930688 -0.06572167
000350 e1 3b be 3d d4 94 6c be 05 51 f5 bd 3b 51 8e 3e
       0.09288765 -0.23103648 -0.11978344 0.2779635
000360 71 15 a7 bd 5c a2 2a be 56 bf 95 be 8e ac 38 bd
       -0.081583865 -0.16663498 -0.2924754 -0.045086436
000370 e9 9e 27 3e 2d 44 4a 3e 8a 3b 6f 3e ea e2 ab 3e
       0.16369213 0.1975257 0.23362556 0.3357156
000380 4d 3d 39 be 47 29 2c bd 94 ea 6a be 82 c9 f6 3d
       -0.1808979 -0.042031553 -0.22941047 0.12050153
000390 ed 73 11 be dc 25 b1 be 5c fe f1 bd 44 28 9b 3e
       -0.14204378 -0.34599197 -0.11816093 0.30304158
0003a0 20 86 28 3e 9b c4 a4 3e 49 3f f9 3d 8f 42 70 3e
       0.16457415 0.32181248 0.12170274 0.2346289
0003b0 5d 06 25 3e 12 fb 80 be bb ba 01 3e 00 91 0a be
       0.16115709 -0.2519155 0.12668888 -0.13531876
0003c0 8e 3b 8f 3e 40 02 8b be de 9f 9b 3e 7d b4 b5 3e
       0.27975124 -0.27150154 0.30395406 0.35489264
0003d0 4f 96 95 3e c8 71 52 be 13 20 56 be 1e 1c 95 be
       0.2921624 -0.20551217 -0.20910673 -0.29123014
0003e0 44 87 6a 3e a3 ee cb 3d 74 7b 99 be cd c6 2a 3e
       0.22903162 0.09957626 -0.29977 0.16677399
0003f0 fd b6 49 bd 4f f8 5c 3e a7 e1 21 3e 88 c2 4f bc
       -0.049246777 0.21579097 0.15808736 -0.012680657

residual.0.fc.bias f4 [16]
000000 0a cd 95 3b f2 5f e7 3a 0a f0 99 bb 86 e5 e9 3a
       0.0045715617 0.0017652495 -0.0046978043 0.0017844893
000010 98 a3 11 bb d6 4c 06 bb 98 02 9a 3b c0 dc 66 ba
       -0.0022222754 -0.0020492575 0.004700016 -0.0008806698
000020 e8 e9 2c b9 8a d6 36 3a 2f bf 4c bb a4 4d d1 39
       -0.00016490335 0.0006974718 -0.0031241884 0.00039921433
000030 d9 69 77 bb 12 01 3e bb e6 fe ea 3b 6f ed 95 3b
       -0.00377523 -0.0028992337 0.0071714995 0.0045754234

residual.0.norm.weight f4 [16]
000000 ee 31 7c 3f cc f2 7c 3f b7 32 7d 3f ac 1e 84 3f
       0.98513687 0.9880798 0.9890551 1.032186
000010 32 56 7c 3f 3c dc 7f 3f 0e 99 7c 3f c4 53 81 3f
       0.98569024 0.99945426 0.9867104 1.0103688
000020 08 5a 81 3f c1 86 7d 3f 53 9a 7b 3f d7 80 81 3f
       1.01056 0.99033743 0.98282355 1.0117444
000030 2f c8 80 3f 47 c3 7d 3f 90 13 7a 3f 27 ee 80 3f
       1.0061091 0.99126095 0.976861 1.0072678

residual.0.norm.bias f4 [16]
000000 2b c7 38 3b 81 63 93 39 8c 6e 6d bc a0 da ce 3c
       0.0028194885 0.0002811216 -0.014491688 0.025250733
000010 2d 38 6b bc d5 ca 78 3c d6 2d 51 bc f9 fb 9e 3b
       -0.014356655 0.015185078 -0.012767276 0.004851815
000020 09 a0 29 3c 28 7c 64 bc 0b 7b 8e bb ca 46 86 3b
       0.010353097 -0.013945617 -0.004348164 0.004097794
000030 7a 77 96 3b 3f 8f cf bb e5 22 a0 bb a9 27 6a 3c
       0.0045918794 -0.006334215 -0.0048869723 0.014291682

residual.0.norm.running_mean f4 [16]
000000 30 d8 9b bf b0 0e a8 bf 45 e8 8f 40 85 a5 1e 3f
       -1.217535 -1.3129482 4.497103 0.6197131
000010 59 c6 64 3f e6 b9 14 3f 0d ae 20 c0 10 b1 14 c0
       0.89365155 0.5809616 -2.5106232 -2.323307
000020 73 1a 62 be a2 74 92 3e 21 0b bb 40 17 05 6f c0
       -0.22080402 0.2860461 5.8451085 -3.7346857
000030 db 45 e1 c0 1f 95 0b 40 c1 b0 ac c0 80 85 01 41
       -7.0397773 2.1809766 -5.3965764 8.095093

residual.0.norm.running_var f4 [16]
000000 81 e5 a3 3f 9e 44 c0 3f ad 12 b1 3f 34 5b 27 40
       1.2804414 1.502094 1.3833824 2.6149416
000010 80 03 d4 3f 33 b1 58 3f 3b e2 04 40 51 14 0a 40
       1.6563568 0.84645385 2.076308 2.15749
000020 07 13 ab 3f d6 6e cb 3f 6e fe c1 3f 91 4e 38 40
       1.3365182 1.58932 1.5155771 2.8797953
000030 77 a2 17 40 8a a3 5d 3f 99 e4 ee 3f 83 ff 1d 40
       2.369291 0.86577666 1.8663512 2.4687202

residual.0.projection.weight f4 [16, 32]
000000 29 73 9f bd d5 3d 4e be 3b 82 35 be 8d ce 94 3e
       -0.07785637 -0.20140775 -0.1772546 0.29063836
000010 53 03 3a 3e 3f 58 18 3d 65 56 4f be 01 e8 bd 3e
       0.1816533 0.037193533 -0.202478 0.37091067
000020 9c 6c d7 b9 b2 08 45 bc 0e 1e 3b 3e c4 01 0f 3d
       -0.00041088916 -0.012025999 0.18273184 0.034913793
000030 0d 51 67 3e 87 5d 9c be 57 b6 79 3d 17 1c b3 3e
       0.22589512 -0.30540106 0.06096491 0.34982368
000040 c2 0f 06 bd 6d 98 4b 3e 64 ad 9b bc 15 b5 b1 be
       -0.03272987 0.19882365 -0.019003578 -0.34708467
000050 a5 4b a6 be 4b 9d 36 be b7 f7 3b be e6 60 45 3e
       -0.32479587 -0.1783344 -0.18356214 0.19275245
000060 bf 6c 40 be a7 49 a3 be 69 97 1d be 79 c2 6e 3e
       -0.18791483 -0.3189213 -0.1538979 0.23316373
000070 05 a2 6c be 38 47 67 3d 1d df 64 bc fe 42 08 3e
       -0.2310868 0.056464404 -0.01396921 0.13306805
000080 65 0d 8f be a4 e2 9d be 43 2c a3 be 4b a2 72 3d
       -0.27939907 -0.30836976 -0.31869707 0.059236806
000090 8e 60 d5 bd 7a 45 1c bd 0f 43 7e 3e c0 2b da 3c
       -0.10418807 -0.038152196 0.24830268 0.02663219
0000a0 a5 88 29 be 72 01 03 3e 24 f6 96 3e 2e 23 a8 bd
       -0.16556032 0.1279352 0.29484665 -0.08209835
0000b0 75 6d 2b 3c bb 01 94 bd 33 fd a7 3e 1e 65 db bb
       0.010463108 -0.072268926 0.32810363 -0.0066954037
0000c0 1c 23 a0 3e 83 82 8e be 18 5e 28 3e da 5d 95 be
       0.31276786 -0.27833948 0.16442144 -0.29173166
0000d0 3c 7d 05 3e 83 22 66 3d cb 44 b0 be b6 90 42 3e
       0.13036054 0.056185257 -0.34427485 0.19000515
0000e0 e3 26 72 3e 2a 75 9d bd 4d b7 c7 bd df 6e 91 bd
       0.23647647 -0.07688363 -0.09751759 -0.07101225
0000f0 26 c0 1d bc d8 1f b0 be 8e 94 d5 3c f1 c2 0d bd
       -0.009628331 -0.34399295 0.026071813 -0.03460974
000100 d3 a1 e1 3d 1c 24 a2 3e c4 1e 8e 3e 7c 14 6f 3c
       0.11017194 0.31668174 0.27757847 0.014592286
000110 ad f2 90 3e 75 02 91 3e 5b 3b 8f 3e 1d 7c 9f bd
       0.28310147 0.28322187 0.27974972 -0.077873446
000120 39 18 64 3e 72 11 19 3e d2 fe ac bd 7b 23 15 3e
       0.22274865 0.14948061 -0.084470406 0.14564316
000130 51 ac 37 3e a1 89 4e 3e 12 44 a9 3e 42 d1 8b bd
       0.17936827 0.20169689 0.33059746 -0.06827022
000140 39 c0 ab be ee 9b a5 3e 43 e0 e8 bd f3 c4 85 be
       -0.33545092 0.32345527 -0.113708995 -0.26126823
000150 46 20 8e be 35 1f 8b 3e fc bc e0 3c 63 41 51 be
       -0.27758998 0.27172247 0.027433865 -0.204351
000160 71 a7 07 3e 03 04 80 be 3a 9d 4e be dc 30 4d 3a
       0.13247468 -0.2500306 -0.20177165 0.000782741
000170 10 2e 9f bc b2 b2 a4 bd ce 54 7b be bc 4f 8b 3e
       -0.019431144 -0.08041896 -0.24544069 0.2720927
000180 00 39 31 bd bc 67 74 be cd 98 8d 3e f1 ba bd ba
       -0.04326725 -0.23867697 0.2765564 -0.0014475269
000190 3d 3d 96 be 93 9c 64 3e 6f 7c 10 3e 00 ab 64 3e
       -0.29343596 0.22325353 0.14109968 0.22330856
0001a0 d3 70 e6 3d 20 70 99 3e 85 99 65 3e b9 c6 1c be
       0.11251988 0.29968357 0.22421844 -0.15310182
0001b0 8d 6e 67 3e b3 e8 b2 be 9b 89 b3 3d ec 81 56 3e
       0.22600766 -0.3494316 0.087664805 0.20947999
0001c0 ee dd 95 3e f3 9e 30 3e b5 53 7d 3e 36 34 aa 3e
       0.2927088 0.17248134 0.24738963 0.3324296
0001d0 be ad 7e be 58 96 91 3e 17 f7 f9 bd 71 f3 a7 be
       -0.24870965 0.28435016 -0.12205332 -0.3280292
0001e0 be c0 9a 3d 47 6a a1 3d 87 de 44 bd 01 70 9e 3d
       0.07556294 0.07881599 -0.04806378 0.07736207
0001f0 5b 33 8b 3e 51 cb e7 3d 8e 29 25 be 5b aa b2 be
       0.2718762 0.113180764 -0.16129133 -0.34895596
000200 fc 98 38 be 12 5d b2 3d 01 c6 44 3d c3 e2 06 be
       -0.18027109 0.08709158 0.048040394 -0.1317244
000210 c8 dc 99 3e 23 86 3a 3e 3c ad e0 3d d8 72 07 be
       0.30051255 0.18215232 0.10970542 -0.13227403
000220 5e d3 a9 3e 44 e7 5c 3d 2f 3e ab 3e 5f ce cf 3d
       0.33169073 0.05393149 0.3344588 0.10146784
000230 20 3b 94 bd 58 28 9d be ce de a8 3d fd f1 81 3d
       -0.0723784 -0.30694842 0.082456216 0.06344984
000240 b7 24 9b be 49 4b 02 3e 54 9c 2f 3e 1a 57 8d 3e
       -0.3030145 0.12724032 0.17149478 0.27605516
000250 1f c7 4a be da 1a 73 3e a9 f0 a1 be 29 71 df 3c
       -0.19802521 0.23740712 -0.31628922 0.027275639
000260 90 ae 7c 3e 97 cf 0b be c5 44 90 3d bb 47 8a 3d
       0.24675965 -0.13653408 0.07044367 0.06751963
000270 2c a2 58 be f0 a4 01 be ea f6 39 3e a8 01 a4 3c
       -0.21155614 -0.12660575 0.18160596 0.020020321
000280 3b 2c 98 3e eb d7 ab 3d 43 ad 9b be 29 7a 92 3e
       0.29721245 0.083907925 -0.30405626 0.28608826
000290 8d 36 4c 3d 6b c7 65 be 09 6a 7a 3e 50 0e 98 3e
       0.04985671 -0.22439353 0.24454512 0.2969842
0002a0 be 4c a9 be 54 93 22 bd b1 be 23 be a1 b2 3e bc
       -0.33066362 -0.039691284 -0.15990712 -0.011639268
0002b0 ec 43 13 3e 90 be 7e 3e 92 6e 9a 3e 81 0e 6a be
       0.14381379 0.24877381 0.30162483 -0.22857095
0002c0 a9 71 fd 3d 82 ab 7f 3d 80 69 c7 3d 71 de 58 3d
       0.123751946 0.062419422 0.097369194 0.05294651
0002d0 eb ae 81 bc 42 30 5a 3d 11 f1 70 3e eb 5b 96 be
       -0.015830478 0.05326868 0.2352946 -0.29367003
0002e0 f7 69 87 bd 41 86 01 be d3 f3 86 3e 11 43 e8 bd
       -0.06612008 -0.1264887 0.26357898 -0.11340917
0002f0 36 62 db bc 1e 48 15 be d9 a8 a7 be 86 7c 2d 3b
       -0.026780229 -0.14578292 -0.32746008 0.0026471927
000300 05 da a7 3e 5c 63 13 bd 97 bb 2b 3e 4c 62 36 bd
       0.32783523 -0.03598343 0.16770779 -0.044527337
000310 38 02 d9 3d 5a 40 73 be a9 45 b4 3e 13 bb 8f 3e
       0.10596126 -0.23755017 0.35209396 0.28072414
000320 2d 04 74 be f4 6b a1 be f5 f5 97 be 85 a6 a0 be
       -0.23829718 -0.31527674 -0.29679838 -0.31377044
000330 fc 3b 9e 3e 64 9c 8c bd 80 66 4f 3e 67 72 65 3e
       0.3090514 -0.06865767 0.20253944 0.22406922
000340 a6 e4 6c 3e f9 fd 70 3e 54 b7 b7 3e bd dc 04 be
       0.23134097 0.23534383 0.35882056 -0.1297483
000350 21 17 9f 3e 69 b0 f0 3d dd cf a0 3e 42 9b a7 3c
       0.31072333 0.117523976 0.31408587 0.020459775
000360 a6 16 29 ba 50 b6 ae be b5 77 af be c8 91 8d be
       -0.0006450213 -0.34123468 -0.34271017 -0.27650285
000370 c8 e9 12 3e 73 84 01 bd 5a af 4a 3e 56 16 62 3e
       0.14346993 -0.031620454 0.19793454 0.22078833
000380 74 23 15 3e 46 bf 0e 3e a4 bc ad bd 6c 2b 0a be
       0.14564306 0.13940153 -0.08483246 -0.13493127
000390 72 d8 ae 3e a4 9c df 3d a4 80 4d be ac c0 31 bc
       0.3414951 0.10918549 -0.20068604 -0.010849159
0003a0 a8 6b a6 3b 8b 70 76 3d 21 49 6f 3e b0 1a 09 3e
       0.0050787516 0.060165923 0.2336774 0.13389087
0003b0 01 e2 83 3e 3d 62 54 3e 27 c6 96 3e 9b 44 64 bd
       0.25758365 0.207406 0.29448053 -0.05572949
0003c0 9e 86 b8 3e 57 cd 33 3e 8e f2 82 be 3f 58 5c bb
       0.36040205 0.175588 -0.2557568 -0.0033621935
0003d0 37 76 86 be 48 1f 0f be fe 36 04 3e ef ba a4 be
       -0.26262066 -0.13976777 0.12911603 -0.3217387
0003e0 74 41 b6 be 6b ca 7c 3e e9 96 03 be d6 fe 86 be
       -0.35596812 0.24686591 -0.12850536 -0.263663
0003f0 a4 8b 29 3e 88 4a 94 be 2d bb 9b 3e 52 00 a3 3e
       0.16557175 -0.28963113 0.3041624 0.31836182

residual.0.projection.bias f4 [16]
000000 e8 e1 27 b9 a5 af bb b8 69 9e 82 38 6b c1 e9 38
       -0.00016010518 -8.949571e-05 6.228389e-05 0.00011146333
000010 31 70 4a 39 4d 3b e0 b8 42 03 c0 38 56 ba 4c 39
       0.00019306016 -0.00010692198 9.15588e-05 0.00019524372
000020 20 ff be 39 7a 67 17 39 a9 e5 7e 38 38 d1 0d 39
       0.00036429707 0.0001443903 6.0772207e-05 0.00013524748
000030 b6 40 ca b8 12 4b 95 39 e1 7d ab b8 b4 ab 65 b9
       -9.644164e-05 0.00028475426 -8.177362e-05 -0.00021903106

residual.1.fc.weight f4 [16, 16]
000000 7d de 2e 3d 96 89 a7 3e 32 0c 9d be 4a be b0 be
       0.04269265 0.32722157 -0.30673367 -0.3452018
000010 55 6e 84 3a e1 30 aa 3e 6c 61 ca 3c c6 8b 37 be
       0.0010103682 0.33240417 0.024704657 -0.17924413
000020 7c aa dc be 6d 94 93 3e f6 72 3e be 42 b2 01 be
       -0.4309882 0.28824177 -0.18598542 -0.12665656
000030 10 aa 9c be a6 d9 87 3b 51 e2 bd 3e c2 b1 89 be
       -0.30598497 0.0041458188 0.37086728 -0.2689343
000040 76 dc 93 be a1 11 e9 3d 07 f4 a8 3e 29 10 c3 3d
       -0.28879136 0.113803156 0.32998678 0.09524567
000050 f5 8e 56 be 0b 50 43 be 3b 0b 21 3e 77 a9 9f be
       -0.20952971 -0.19073503 0.1572694 -0.3118398
000060 c8 3d 10 be 59 9c be bd dc c0 95 be 48 ea df 3e
       -0.14086068 -0.09307165 -0.29248703 0.4373343
000070 d6 11 a2 bd 62 71 9e 3e 83 5d 80 bd be 9a 7f be
       -0.07913558 0.3094588 -0.06267836 -0.24961373
000080 88 31 51 be 9c 83 54 be c6 c4 83 3e df c3 1e be
       -0.20429051 -0.2075333 0.25736064 -0.15504406
000090 9f 1e 6f bd 1d c4 81 3e aa 81 ac be 14 55 ce bd
       -0.058378812 0.25344935 -0.33692676 -0.10074821
0000a0 75 6b 01 3e b4 3c 44 3e 05 96 54 3e 38 b0 a4 3d
       0.12638648 0.19163781 0.20760353 0.080414236
0000b0 24 97 65 3e a1 61 20 3e 58 83 59 3e 6c 7b bb bc
       0.22420937 0.15662242 0.2124151 -0.022886
0000c0 5b 27 1a bd 00 f0 8c be c4 e0 92 3d 94 a4 80 be
       -0.03763519 -0.27526855 0.07171777 -0.25125563
0000d0 22 19 eb 3d 55 3e ab 3d 66 fa ae be 5a 67 8b be
       0.11479403 0.08361498 -0.34175414 -0.27227288
0000e0 61 c6 79 3e 23 f8 0d be ff fb c7 3d 24 c4 94 3e
       0.24392082 -0.13864188 0.09764861 0.29055893
0000f0 12 c3 99 3e 6c f0 55 3d e1 93 8e bd 9b bd d0 3d
       0.3003164 0.052231237 -0.069617994 0.101924144
000100 81 1a a2 be 8b 4e 07 be 03 46 84 3e 32 89 50 3c
       -0.31660846 -0.13213556 0.25834665 0.012728022
000110 a9 10 ce 3e 7c 48 1f be 9f 1c a5 3d 57 5d 62 be
       0.40247086 -0.15554994 0.080621 -0.22105919
000120 8e 5e 31 be ca 09 91 3c b1 e4 32 3e d6 60 51 3e
       -0.17321226 0.017704863 0.17470051 0.20447096
000130 99 a8 43 be 79 ff 9f 3e aa 13 c1 3e 1c ef 6b bd
       -0.19107284 0.31249598 0.37710315 -0.05760108
000140 6d 15 de bd f9 63 d5 be 1c f7 ab 3c 14 ec 05 bd
       -0.108439304 -0.41677836 0.020991854 -0.032695845
000150 fe 99 91 be 68 fd 81 3d 01 c0 c8 be b5 8f ea bd
       -0.284378 0.063471615 -0.39208987 -0.11453191
000160 b8 c8 b8 bd 58 26 ef 3d a0 c9 ce be 16 7b 37 be
       -0.09022659 0.11677235 -0.40388203 -0.17918047
000170 29 ff be be 61 42 b5 be 69 23 80 3c b8 70 01 be
       -0.37304047 -0.35402206 0.015641885 -0.12640655
000180 95 d2 81 be 92 87 b8 be 17 4e 76 bd 55 32 4e 3e
       -0.25355974 -0.36040932 -0.060133066 0.20136388
000190 ff c7 71 be ee 0d 43 be 0b 2d ef bd bb a5 93 be
       -0.23611449 -0.19048283 -0.11678513 -0.2883738
0001a0 ea 8e 03 3e 3b 3e 38 be 68 2c d2 be 0c 24 c5 bd
       0.12847486 -0.17992489 -0.41049504 -0.09626016
0001b0 23 71 df bd b2 27 13 be f9 58 e4 3e 61 09 b3 be
       -0.10910251 -0.14370611 0.4459913 -0.34968093
0001c0 cf 63 15 be 24 31 07 be ad f1 97 be 2a 07 67 3c
       -0.14588855 -0.1320234 -0.2967657 0.014100829
0001d0 37 20 da 3e 36 41 6b bd ef f0 c9 3e 95 5b 53 3e
       0.42602703 -0.057435237 0.3944163 0.20640405
0001e0 50 57 fb 3b 7a cb 9e 3e e7 3a cd 3e c0 d8 10 be
       0.0076703206 0.31014615 0.40084 -0.14145184
0001f0 74 9b 0d 3d c2 d1 be be 33 d6 72 be 7c 2c 30 be
       0.03457208 -0.37269408 -0.23714523 -0.1720447
000200 5f 65 99 be 9f d3 3d be 4e f6 48 be a7 99 ac be
       -0.29960153 -0.18537758 -0.19625208 -0.33710977
000210 70 02 b9 be 37 d2 6a 3e df 13 69 be 2f 80 72 bc
       -0.36134672 0.22931753 -0.22761486 -0.014801069
000220 68 2e 51 be 04 3f 02 be 25 42 7f bd 4f 8d 34 3e
       -0.20427859 -0.12719351 -0.06231894 0.1763203
000230 29 72 5f be 3d cc 4c be dd a2 af be 78 6a f6 bd
       -0.21820892 -0.19999786 -0.34303942 -0.12032026
000240 b2 bc 45 3e a3 24 62 be 99 db 97 3c 5c 3b 93 bb
       0.19310263 -0.22084288 0.01853733 -0.00449316
000250 a5 22 8b be 65 b9 8c 3e 8e 90 af bc 8f 40 fc bd
       -0.2717487 0.27485195 -0.021431234 -0.12317001
000260 36 dc 34 bd 49 1f 47 3e c8 19 b6 be 63 a2 1c 3e
       -0.044155322 0.19445528 -0.35566545 0.1529632
000270 5b 5f 4d 3e 22 bd 99 3e d4 c6 14 be 8f db 6f 3e
       0.20055906 0.3002711 -0.14528972 0.23423599
000280 a5 37 de bd e5 f8 07 be 21 ea 2b bc 28 88 d7 3e
       -0.10850457 -0.1327854 -0.010492832 0.42096066
000290 17 86 b6 3e 4a 9a f1 3c 23 02 d2 bd fa ce 2b be
       0.35649177 0.029492516 -0.10254314 -0.16778174
0002a0 7d 80 bd 3e 08 0b c0 be cc 00 c8 be a5 14 75 be
       0.3701209 -0.37508416 -0.39063108 -0.23933657
0002b0 50 ce b2 3e 8a a4 ae be 71 97 2f 3e a6 95 8f be
       0.3492303 -0.34109908 0.17147614 -0.2804386
0002c0 f7 66 4b 3e f4 32 2d 3d 83 cd 42 be 10 40 96 3d
       0.19863497 0.04228492 -0.19023709 0.07336438
0002d0 6f c0 80 3e 72 cf c2 bd 4a d7 94 be 56 e0 0b 3d
       0.25146815 -0.09512223 -0.29070503 0.03414949
0002e0 1c d6 b7 3e 7c c9 94 be ff 40 24 be e4 3f b3 be
       0.3590554 -0.2905997 -0.16040419 -0.35009682
0002f0 60 d9 e5 bd b5 63 b0 3e a0 83 2f 3c eb 0d bb be
       -0.112231016 0.3445107 0.010712534 -0.36534056
000300 a9 15 ce bd 9f f4 45 bc cd e1 93 be 3c 35 06 3e
       -0.10062725 -0.012082248 -0.2888321 0.13106245
000310 82 78 34 be 08 95 35 3e 9e d6 ec 3e 21 8a 97 bb
       -0.17624095 0.17732632 0.4625749 -0.0046246205
000320 0f f7 00 3e 77 53 ae 3e b0 3b a8 3e 51 db 3f bc
       0.12594245 0.34048054 0.32858038 -0.011710004
000330 49 dd 38 be 0e d1 8c 3e a8 c8 90 3e 1d 8e 9f 3d
       -0.18053164 0.27503246 0.2827809 0.07790778
000340 b5 f6 59 3d 9c e7 88 3e 1a 3e a7 be f7 cd 40 bd
       0.053213794 0.26739204 -0.32664567 -0.047071423
000350 63 5e 34 3d a2 5e 05 3e 9f a6 ab 3e 6a d6 81 3d
       0.044035327 0.13024381 0.3352556 0.06339724
000360 a6 b8 40 be 41 2d 2f be 9b 26 70 3e 7e 7d 81 be
       -0.18820438 -0.17107107 0.23452227 -0.25291055
000370 05 4c a3 be 0f 7e ca be eb c6 5f be ed 34 ed bb
       -0.31893936 -0.395493 -0.21853225 -0.0072389753
000380 3b ab bd be 56 c9 91 3e ae 13 f4 3d 12 29 b9 be
       -0.370447 0.2847392 0.11917816 -0.36164147
000390 1f 8f 8b 3e f0 9b ba 3e b6 09 bb be 45 0a 92 3e
       0.2725763 0.36447096 -0.36530846 0.2852346
0003a0 7f 28 43 bd 29 0b 83 bd 84 10 7a 3e 6d f9 e7 3e
       -0.047646042 -0.06398613 0.24420363 0.45307484
0003b0 1b c1 67 be a8 21 c8 3d ca ee 85 3e 2a 3c 27 be
       -0.22632258 0.097720444 0.26158744 -0.16331545
0003c0 3f c1 97 be 69 5b 95 be b0 2a 29 be 25 6f 17 be
       -0.29639623 -0.29171303 -0.1652019 -0.14788492
0003d0 d1 8f fe bb db 27 f9 bc e3 c1 9e 3e c7 67 bd 3e
       -0.007768609 -0.030414512 0.310073 0.36993238
0003e0 62 86 c0 bd 7a c0 96 be 23 f1 01 3e 5b dc 25 be
       -0.094006315 -0.29443723 0.12689643 -0.1619734
0003f0 77 c6 87 3e 6a 6e b4 3e 9f 96 85 bc 20 c0 91 3d
       0.26518604 0.3524049 -0.016307173 0.07116723

residual.1.fc.bias f4 [16]
000000 b3 bf 3d bc 3c de 60 3b 01 09 91 b9 3c 13 82 bb
       -0.011581349 0.003431215 -0.00027663264 -0.003969578
000010 1d e7 0b bb d3 52 2f bb 92 15 c8 3a 42 ad b1 3a
       -0.002134747 -0.0026752248 0.0015265218 0.0013555663
000020 dd 36 2a b9 3d d6 8c ba 53 3d dd 3b 93 1c 6d ba
       -0.00016232902 -0.0010745 0.006751695 -0.00090450904
000030 28 09 60 bb c7 b8 33 3a 2b ea 07 bc cd 77 69 3b
       -0.0034185145 0.0006855842 -0.008295576 0.0035624385
