climate/FCNN_small/best_model.pth (torch, 29282 bytes, 29 tensors)

encoder.0.weight f4 [16, 16]
000000 b5 25 93 be 82 0e bb be 2e 68 fd 3d 57 e8 3f 3d
       -0.28739706 -0.36534506 0.12373386 0.046852436
000010 50 0e 0c 3e 79 13 42 bd c1 a4 17 be c6 be 7e be
       0.13677335 -0.04738185 -0.14808942 -0.24877462
000020 79 3e d9 3e 12 81 10 be 3c db 81 bd 5c 67 74 3d
       0.42430475 -0.14111736 -0.06340644 0.059668884
000030 28 8c d0 3e b7 89 24 3e 2f fe 77 3b ea 2c 8c 3e
       0.4073193 0.16068159 0.0037840714 0.27378017
000040 a5 70 97 3e f6 87 6e be cf 89 53 3e 32 1f 3b 3e
       0.29578128 -0.23294052 0.20658039 0.18273619
000050 83 2a 57 3e f2 f6 56 3e e2 0d 2b 3e f1 66 97 be
       0.2101231 0.2099264 0.16704515 -0.29570726
000060 af c9 94 be 70 fe dc 3d 78 47 75 3e a3 5f 98 3e
       -0.29060122 0.107907176 0.23953044 0.29760465
000070 78 fd a4 3d 5d 39 71 bd 67 94 83 3e 93 a1 c8 be
       0.08056158 -0.058892597 0.2569916 -0.3918577
000080 59 01 b8 3e dd ad be 3e aa 12 8a be a7 d5 a1 3e
       0.35938528 0.37242022 -0.26967365 0.31608316
000090 3c f7 b5 3e 25 7f 0d be f1 d2 f6 bd 90 da a7 3e
       0.35540187 -0.13818033 -0.12051953 0.32783937
0000a0 65 11 6b be 37 86 64 be 26 77 13 3c ce 8b e8 3c
       -0.22955854 -0.22316824 0.009000575 0.028386977
0000b0 3b 27 89 be f2 87 7a 3e 6e 0f d1 be 40 d2 fd 3d
       -0.26787743 0.24465922 -0.40832084 0.12393618
0000c0 64 8b b8 3e 20 eb 6f 3e fa 7a 72 3e f6 90 9e 3e
       0.36043847 0.23429537 0.23679724 0.3096997
0000d0 f4 de af 3e 18 db ca 3e 78 7b b4 3e e5 88 3f be
       0.34349787 0.3962028 0.3525045 -0.18704565
0000e0 2c 5a ee 3e fb 7a 32 3e f6 db 0d 3e a0 2c b3 3e
       0.4655317 0.17429726 0.1385344 0.34994984
0000f0 19 a2 cc 3c 01 b5 90 be 0b 9b 25 3e 8c c2 9a 3e
       0.024979638 -0.28263095 0.16172425 0.30226552
000100 b4 fa 1c 3e 4b 1f 76 be ca 8f a6 be 5c 97 8d bd
       0.1533001 -0.24035375 -0.32531577 -0.06913635
000110 f7 66 8a 3e 9a 49 75 bd be 99 82 3d 3d a4 58 3a
       0.2703168 -0.059884645 0.0637698 0.00082642195
000120 20 47 8b be 63 0a 72 3e 3f fd d3 be 31 50 b6 be
       -0.27202702 0.23636775 -0.4140415 -0.35608056
000130 34 23 b4 3d 5e d2 d8 3e 38 d9 89 3e 3d 23 be 3d
       0.08795777 0.42347997 0.26923537 0.09284065
000140 2f 40 70 3e b9 9b 25 3e 4a 31 ba 3e c3 24 08 be
       0.23461984 0.16172685 0.3636573 -0.13295273
000150 1b ef c2 3e fb e4 ad 3e 3c 7d aa 3e 67 16 73 be
       0.38073048 0.3396376 0.3329867 -0.23739015
000160 8a 3f 88 be 75 35 d7 be eb 80 ac 3e e6 ff 10 3e
       -0.26610976 -0.42032972 0.33692107 0.14160118
000170 be 0e 8c 3d d0 aa 8e 3e 7c 6e ad bd 05 0e a1 be
       0.06838749 0.27864695 -0.08468339 -0.3145601
000180 a2 f1 32 be 85 15 d2 be e2 4a 8e 3c aa 22 79 be
       -0.17474988 -0.41032043 0.017369691 -0.2432963
000190 a9 a8 d0 bd 81 3d 31 3e ab dd 86 3e 12 79 d6 3d
       -0.10188419 0.17308618 0.26340994 0.10472311
0001a0 33 24 14 3e 11 37 de 3b 17 58 b0 be cb ae 6a bd
       0.14466934 0.006781467 -0.34442207 -0.0572956
0001b0 71 9b d3 bc 2c 55 ab 3e ee 10 7a 3e 7c aa 95 bd
       -0.025830956 0.33463418 0.2442052 -0.07307908
0001c0 b8 80 ce 3e 3c bc 52 be 91 41 c5 be 48 38 98 bd
       0.4033258 -0.20579618 -0.38526586 -0.0743261
0001d0 43 9a aa be df fe c9 3e ea f8 c5 3d dc d3 3d 3e
       -0.33320817 0.39452264 0.09666617 0.18537849
0001e0 a1 05 92 3e fd 58 be 3e 16 35 c0 bd 5c 49 8a 3e
       0.2851992 0.37177268 -0.09385125 0.27009094
0001f0 a3 68 08 bd 73 8e 81 be 48 96 08 3e 57 89 ad be
       -0.033302914 -0.25303993 0.13338578 -0.33893844
000200 ce b7 39 3e d6 c2 a5 be a1 df ee 3d 89 75 c0 bd
       0.18136522 -0.3237521 0.116637476 -0.09397418
000210 bc 72 ac 3e 1b 44 28 bb 47 33 c2 3e 82 24 36 bb
       0.33681285 -0.002567536 0.37929747 -0.0027792756
000220 39 74 91 bc 5f af 9d be 11 b6 9c 3e 8c eb dd be
       -0.017755615 -0.3079786 0.30607656 -0.4334377
000230 f6 df c2 be 94 4a db 3e c5 cf 95 3e 42 8e 4f be
       -0.38061494 0.42830336 0.29260078 -0.20269111
000240 3e a2 83 3d d8 60 5f 3e af 98 25 be 68 b6 db be
       0.064274296 0.21814287 -0.16171525 -0.42912602
000250 b8 9d 63 bd 59 56 9c bd 1b 4c 65 be b7 1c 5b be
       -0.055570334 -0.07633657 -0.22392313 -0.21397673
000260 5e a1 8a 3e fd 44 93 3d 7b f2 d1 be 11 8c a8 3e
       0.27076238 0.07190893 -0.4100531 0.32919362
000270 33 b8 b6 be 30 7e 3c 3d 29 05 20 3e 27 20 da be
       -0.35687408 0.04601878 0.15626968 -0.42602655
000280 2b c2 c3 3e fa 82 ac be 5d 31 6b be 31 c7 b7 be
       0.38234076 -0.33693677 -0.2296805 -0.35894158
000290 7e e9 bf 3e b1 b5 c5 3d c4 6d 6b 3e f5 27 40 3e
       0.37482828 0.096537955 0.22991091 0.18765242
0002a0 58 2c 0d 3e 1e a7 73 3e ef cb 0f be 99 1f 87 3e
       0.13786447 0.23794219 -0.14042638 0.26391295
0002b0 7b ee d1 3e 8f 15 80 be 99 60 9e be 3b e0 7a be
       0.4100226 -0.25016448 -0.30933073 -0.244996
0002c0 e9 6b 0d bd 46 12 e8 3e ef 1b c6 bd ba d4 6b 3e
       -0.03452674 0.45326442 -0.09673297 0.23030367
0002d0 44 a2 9f bd 17 81 a9 be b8 9e 9a 3e 87 96 c3 bb
       -0.077946216 -0.331063 0.30199218 -0.005968872
0002e0 7d 8d 81 bc d8 5f 85 3e 38 c0 8b be db d0 eb bd
       -0.015814537 0.26049685 -0.2729509 -0.115144454
0002f0 47 c3 ab bd 50 d1 d4 3e 59 a6 8c 3d c0 08 f5 3d
       -0.083868556 0.41565943 0.06867666 0.119645596
000300 32 17 ba be f2 c9 c0 bd 8c 05 90 3e 92 78 e8 3e
       -0.36345822 -0.09413518 0.28129232 0.45404488
000310 4e 16 31 be 4e c2 d7 3e b3 5f e4 3d 92 df 3a be
       -0.17293665 0.4214043 0.11151066 -0.18249348
000320 13 b2 48 3e a1 fb 71 be 71 51 7d 3d bb ad a6 be
       0.1959918 -0.23631145 0.061845247 -0.3255442
000330 bf 0b a9 be 42 b7 90 bc 56 26 35 bd 4b b5 8a 3e
       -0.33016774 -0.01766551 -0.044226013 0.2709144
000340 04 c1 af bd 4a 3b 37 3e 4c 0f c8 be a2 dc dc be
       -0.08581737 0.1789371 -0.3907417 -0.4313708
000350 f3 77 91 3d ec d5 9e 3e 35 6c c9 3e 92 60 58 be
       0.071029566 0.31022584 0.39340368 -0.21130589
000360 3b e7 48 be 61 fd 82 3e 73 79 3c bd 29 d2 b0 3e
       -0.19619457 0.25583938 -0.04601426 0.3453534
000370 b1 f1 44 3e ae 1c 4b 3c e7 7f 10 bd db df c2 be
       0.19232823 0.0123969745 -0.035278227 -0.38061413
000380 be 37 12 be 92 72 b6 bd a6 bb c0 be 57 a1 98 be
       -0.14279076 -0.08908571 -0.37643164 -0.29810593
000390 d5 03 c8 bb 63 64 83 bd 14 26 7d 3e f3 c7 a9 be
       -0.0061039724 -0.064156316 0.24721557 -0.33160362
0003a0 ab 1e 3d bc 65 93 2b be 16 a9 03 3e 41 fb 86 be
       -0.011542956 -0.16755445 0.1285747 -0.26363567
0003b0 72 be 99 be ec 57 4d 3e 9c 22 59 3e 79 7d c5 be
       -0.3002811 0.20053071 0.21204609 -0.3857229
0003c0 ee a7 d2 3e 60 82 33 3d c6 02 9a be 71 07 67 be
       0.41143745 0.043825507 -0.3008024 -0.22561432
0003d0 ec 77 df 3e 9d ff d6 be 4d bc 01 3d dd 2e 6b 3e
       0.4364618 -0.41991892 0.03167372 0.22967096
0003e0 8b 95 2f 3e fe fb e0 3e 5d e8 35 3e 07 6a 64 3d
       0.1714689 0.43942255 0.17764421 0.055765178
0003f0 ae 2b c8 3e c5 b9 8d 3e 32 f2 71 3e f9 70 c6 bd
       0.39095825 0.27680793 0.23627546 -0.096895166

encoder.0.bias f4 [16]
000000 d2 13 5c bc 63 0f 18 bd c5 f9 00 bd bf d4 41 3d
       -0.01343246 -0.03712405 -0.0314882 0.04732203
000010 3e 14 7c bc 70 b2 02 bd 29 8d 36 3d 38 a1 12 3d
       -0.0153856855 -0.031908453 0.044568215 0.03579828
000020 6e 05 e6 3b 77 1d 2d bd 48 f4 07 3d 29 ff 56 3d
       0.0070196902 -0.042264428 0.03319195 0.052489433
000030 d9 cb 2e 3d fa ca df bc 68 4e ec ba f9 cf 97 3c
       0.042674873 -0.027318466 -0.0018028738 0.018531786

encoder.2.weight f4 [16, 16]
000000 10 e4 9e bc ef 4e 9a 3e 13 16 f1 3d d7 ce b2 be
       -0.019395858 0.30138347 0.117717884 -0.3492343
000010 34 0b 27 3e 40 cd 24 3e 4f f1 ac 3e c7 42 9b be
       0.16312867 0.16093922 0.33777854 -0.30324385
000020 ea 72 ae be ef ce 8e 3e 4a b2 cc be 5a ee 9d be
       -0.34072047 0.27892253 -0.39979774 -0.3084591
000030 9f 19 8f 3a 3b eb b7 3e 58 2f 97 be 86 72 54 be
       0.001091767 0.35921654 -0.29528308 -0.20746812
000040 3d a6 17 be fd c0 fd bd 8e c1 18 3e 44 fc a3 be
       -0.14809509 -0.12390325 0.14917585 -0.320284
000050 6e 28 e4 3e 58 8b 1f 3e 8d bb 0a be 78 33 2d 3e
       0.44562095 0.15580499 -0.13548107 0.16914165
000060 b7 fc 9d 3d 58 16 d9 3e 8c a8 87 be d8 87 58 be
       0.07714217 0.4239986 -0.2649578 -0.2114557
000070 5d fa 7e be 39 2d f2 3d 8d 67 c8 be 6a 88 7e be
       -0.24900194 0.11825032 -0.39141503 -0.24856725
000080 20 a7 ef be f3 f5 3d 3d 61 ad a3 be fd f0 a5 bd
       -0.46807194 0.046377134 -0.31968215 -0.081026055
000090 e4 22 e0 be 3b d0 10 3e 34 4b 89 3e ff d6 0f be
       -0.4377662 0.14141934 0.26815188 -0.14046858
0000a0 0f e0 53 3e 63 b4 93 bd a2 05 8d be 82 23 b1 3e
       0.2069094 -0.072121404 -0.2754336 0.34597403
0000b0 79 3b 89 3e cc ab 3a 3e 69 d5 d1 be 1e 8c 13 3e
       0.26803187 0.18229598 -0.40983132 0.14408919
0000c0 2e fb 0b bd 78 3e 4c 3e e7 2b 70 be ba 80 05 bd
       -0.03417509 0.19945705 -0.23454247 -0.032593466
0000d0 3a 78 1d bd db c9 d2 be fc 99 8e bd 6c 90 72 3d
       -0.038444735 -0.41169629 -0.06962964 0.059219763
0000e0 09 98 ad be b7 0e 7b 3e 7a 20 c0 3e 68 f4 25 bd
       -0.33905056 0.24517332 0.37524778 -0.040516287
0000f0 40 ad 7f be f9 b2 69 bd 61 f8 a5 be 69 c8 a1 be
       -0.24968433 -0.057055447 -0.3241606 -0.31598213
000100 79 db 19 be 2e 2a 47 bd 4b a4 96 3d d5 24 b9 3e
       -0.15025128 -0.04862421 0.07355555 0.36160913
000110 62 41 12 3d 05 2b 71 be b2 6d e5 3d 18 5f 08 3d
       0.035706885 -0.23551567 0.11202563 0.033293813
000120 a0 fa 4b bc 3a 30 c9 be 0c 51 8b 3e d9 1b 99 3e
       -0.01244989 -0.39294606 0.2721027 0.2990406
000130 79 0d ec 3e 0b a6 dc 3e c5 3d 47 bd 67 e8 cb 3d
       0.4610403 0.4309543 -0.048642892 0.099564366
000140 a4 4b 3a bc 63 f2 85 bd ea 84 a6 bd 62 30 a4 be
       -0.011370573 -0.06540372 -0.0813082 -0.32068163
000150 66 dc de bd 74 ba 1d 3e a5 74 89 bb df 30 9b 3c
       -0.108818814 0.15403157 -0.0041948133 0.018944202
000160 72 99 fa bd 1e 2d c0 be 0a fe 90 3e 92 b7 3c 3d
       -0.122362986 -0.37534422 0.28318816 0.046073504
000170 a1 8a 44 be 4f 06 65 3d cc d6 a4 be 41 4c 28 3e
       -0.19193508 0.05591422 -0.32195127 0.16435339
000180 e2 f3 c4 bd 32 d7 1c 3d 37 82 0d 3e f0 92 25 3e
       -0.096168295 0.038291164 0.13819204 0.16169333
000190 b5 f0 8a 3e 97 6d 5e 3e 88 40 6f bd 57 94 7b 3c
       0.2713677 0.21721493 -0.05841115 0.015355191
0001a0 0b 0b a4 3d ff de b9 3e ef e4 dd be 6b f7 da 3b
       0.08009919 0.36302945 -0.43338725 0.0066823266
0001b0 bf 3e 84 be c1 ec b1 3e b7 ff d1 be 30 52 1d 3e
       -0.2582912 0.3475094 -0.41015407 0.15363383
0001c0 9d 65 23 3e 8a 55 e2 be d4 a1 4a be 17 b5 a1 3e
       0.15956731 -0.44205886 -0.19788295 0.31583473
0001d0 4a 7e ab be 18 7c 7c 3e c5 08 96 3e ab 5d 20 bc
       -0.33494788 0.24656713 0.29303566 -0.009787957
0001e0 43 c1 7d bc 61 f6 cd be 32 c9 85 be b9 15 ee 3e
       -0.015487972 -0.40227035 -0.26130062 0.46500948
0001f0 52 53 07 be 95 aa 7d be 93 33 a8 bd e0 c9 df 3e
       -0.13215378 -0.24772103 -0.08212962 0.43708706
000200 52 75 8c 3e 67 40 4c 3c 27 b3 82 3d c6 31 b3 be
       0.27433258 0.012466527 0.06381827 -0.34998912
000210 73 b1 c5 3e 68 59 c4 3e e9 10 6a bd 71 88 14 be
       0.38611946 0.38349462 -0.057145033 -0.14505173
000220 b0 17 99 3e 97 57 36 be 75 dd 83 be 85 47 92 3e
       0.29900885 -0.1780685 -0.25754896 0.2857019
000230 75 fb 86 be 09 fa c8 3e ba 58 ce be 14 44 99 be
       -0.2636372 0.39253262 -0.40302068 -0.29934752
000240 bf a4 9e 3d 7a 7a ff 3d 4f 3c 27 be db 99 ab 3e
       0.077462666 0.124745324 -0.163316 0.3351582
000250 20 18 76 bc 52 b4 6f bd df 32 48 3e 2d a9 b8 bd
       -0.0150204 -0.058521576 0.19550656 -0.09016643
000260 6a a9 36 3e 31 81 cd 3e ef 0f bf be 48 1f ee 3e
       0.17838064 0.40137628 -0.37316844 0.4650824
000270 e2 85 84 be 83 81 87 3d 27 0b 75 be 46 a1 8b 3e
       -0.25883394 0.06616499 -0.23930036 0.2727148
000280 1d c4 c4 be 4f df 08 3e f2 de 84 be 56 1c 95 bd
       -0.38430873 0.13366435 -0.25951344 -0.07280795
000290 80 6c ad be 77 05 9b be 07 48 20 be 34 66 71 be
       -0.3387184 -0.30277607 -0.15652476 -0.23574144
0002a0 f6 c2 a1 3e 1e fe 16 3d 5c 1c 55 be f3 86 80 bd
       0.31594056 0.03686344 -0.208116 -0.062757395
0002b0 f0 50 78 be 3b a8 c2 3e f1 07 e5 3e 39 79 92 3e
       -0.24249625 0.38018975 0.4473262 0.2860811
0002c0 64 2f 24 3e 0a fb b9 be fa 00 21 be 5e ff bf bd
       0.16033703 -0.3632434 -0.15723029 -0.09374879
0002d0 70 b0 ed bd dd a0 be be 80 a4 0e be 86 03 22 be
       -0.116059184 -0.37232104 -0.1392994 -0.15821657
0002e0 8f dd 8b be 1e 33 87 3e 72 24 5a be 27 8e 96 3e
       -0.27317473 0.26406187 -0.21302965 0.2940533
0002f0 2c cd 9e be 5d f6 fe bd d3 88 06 3e 6a 08 81 be
       -0.3101591 -0.12449334 0.13138132 -0.25201732
000300 fe ce bb 3d f9 76 ba be e8 e6 b8 3e 7b c5 5f be
       0.0917034 -0.36418894 0.36113667 -0.21852677
000310 8e b2 db bd 7e 1e 04 be 5c 41 05 be 0c 05 07 3d
       -0.10727416 -0.12902257 -0.13013214 0.032963797
000320 2d 89 cf 3e 76 b4 d3 3c 55 24 ec bc 97 f3 6d 3d
       0.40534344 0.025842886 -0.028825918 0.058093634
000330 dd b4 93 be ce 3c 43 3d d9 e0 2d be f8 bc 3d 3e
       -0.28848925 0.04766541 -0.16980304 0.18529117
000340 d8 35 1b bd b0 c3 ef bd 68 37 6a bc fe b8 e4 3e
       -0.037893146 -0.11707246 -0.014295436 0.44672388
000350 ea 34 e9 3e dc d7 98 be c8 7a 74 3e fb 14 2d 3d
       0.45548183 -0.29852188 0.23874962 0.042256337
000360 ff af 8a 3e fd ae 41 3e 13 3b ed 3e 13 03 bf 3e
       0.270874 0.18914409 0.46334133 0.37307033
000370 06 15 2a 3e ea e6 4f be 29 db 64 be e5 38 a1 bd
       0.16609582 -0.2030293 -0.22349228 -0.0787218
000380 28 ff cf 3b 07 d8 32 be ed cb c4 3e 29 2d 72 be
       0.0063475557 -0.1746522 0.38436833 -0.2365004
000390 e7 6f ac 3e e9 d4 bf 3e 09 c6 c8 be b9 52 ae be
       0.33679125 0.37467125 -0.3921359 -0.34047487
0003a0 75 46 8f 3e 4b 2b 17 3e 8c 63 57 3e a5 68 aa 3e
       0.27983442 0.14762609 0.21034068 0.33282962
0003b0 b8 c1 3a be d5 22 b7 3e a4 1f 8d 3e 24 c5 bd 3e
       -0.1823796 0.35768762 0.27563202 0.3706447
0003c0 41 f1 f7 bd 08 c9 6a bd 31 7a 67 be 4c fe 18 3e
       -0.121065624 -0.057320625 -0.22605206 0.14940757
0003d0 9f fe 89 bd c5 b9 83 be 55 10 20 bc 52 fb ef bd
       -0.06738018 -0.25727668 -0.009769519 -0.117178574
0003e0 58 6a fb 3d 75 91 9b bd 97 80 99 3e 42 f0 22 3e
       0.12276143 -0.07596103 0.2998092 0.15911964
0003f0 3a 1a 41 be a0 06 a8 be d1 74 c4 be 0b 65 b0 be
       -0.18857661 -0.32817554 -0.38370374 -0.3445209

encoder.2.bias f4 [16]
000000 17 91 c3 bc 8d ae 22 3d b6 4d 21 bd 1e 4a ad bc
       -0.023872895 0.039717246 -0.03938075 -0.021153506
000010 0f 92 3f 3d a0 d7 0b bd 08 2e 19 bd 94 06 37 3d
       0.04677015 -0.034141183 -0.037397414 0.044684008
000020 ee 5d 07 bd 71 33 28 3d df f7 16 3d d7 12 f5 bc
       -0.033048563 0.041064683 0.036857482 -0.02991621
000030 1d 22 37 3d 4c 5d 64 3d f1 ce 41 bc 2f 52 ed bc
       0.044710267 0.055753037 -0.011829124 -0.028969852

encoder.4.weight f4 [32, 16]
000000 42 4c 47 3d ef ce 0b 3e 39 43 53 be 8f ef 83 3e
       0.04865671 0.13653158 -0.20631112 0.25768706
000010 10 2d 94 3e f6 79 8f 3d 07 6e 9b be 7b 7f 11 bd
       0.2894063 0.07005684 -0.30357382 -0.035521965
000020 fe 50 a4 3d c6 ed 88 3e 22 72 6e bd 78 1f 62 bd
       0.080232605 0.26743907 -0.058214314 -0.055205792
000030 d9 9c 9f be 97 f1 6b bd 5e 5f 1d 3e 81 3b e5 3c
       -0.31174353 -0.057603445 0.15368411 0.027982475
000040 f4 d3 b4 3e fa 68 7c be 45 9d fe 3d 9b 2f ce 3d
       0.35317957 -0.2464942 0.124323405 0.10067674
000050 65 e1 ad 3e de 43 9c be 84 67 59 be 09 7f 99 bd
       0.33961025 -0.3052053 -0.21230894 -0.07494933
000060 34 49 79 3d 68 cd 98 be 12 09 38 3d 06 3d 4b 3e
       0.060860828 -0.29844213 0.044930525 0.19847497
000070 ff 49 83 3e 0f 12 15 3e ec d7 e9 3d a5 cb 14 3e
       0.25642392 0.1455767 0.11418137 0.14530809
000080 4e 5b ab 3e f7 6b f7 3a b5 9a a6 3e 9a d4 69 3e
       0.33468097 0.001887678 0.32539907 0.22835007
000090 75 5e d0 bb 62 fa aa be 27 0b 70 be 86 74 95 3d
       -0.0063589164 -0.33394152 -0.23441754 0.07297616
0000a0 33 60 f7 3c ac 6a 28 3e 21 37 dd bd de 1f 97 3d
       0.030197239 0.16446942 -0.10801531 0.07379125
0000b0 c9 a1 08 be ea e4 11 3e 7a d8 11 be 75 3c 6e 3e
       -0.13342966 0.1424748 -0.14242736 0.2326525
0000c0 f3 78 4f 3a 51 c7 45 be 54 ef ab bd 12 f8 5e 3e
       0.0007914446 -0.19314314 -0.083952576 0.21774319
0000d0 4f b1 4f 3d ad c0 3c be 54 fa 17 3d 10 7c 65 bd
       0.050706204 -0.18432875 0.037103966 -0.05602652
0000e0 6f b7 75 3e 89 17 f4 bd 24 b6 d5 3c 71 80 30 be
       0.23995756 -0.119185515 0.026087828 -0.17236497
0000f0 19 64 b3 bd 9f f3 8a 3e 63 c5 23 be f3 44 f1 3d
       -0.087593265 0.27138993 -0.15993266 0.11780729
000100 ef 3b 4c 3d 70 59 f3 bc 06 cb 3f 3e 22 1e 8d 3e
       0.049861845 -0.029705733 0.18729791 0.27562052
000110 b6 9b 86 bd f3 65 30 3c 90 26 62 3e d8 8f 82 be
       -0.06572668 0.010766494 0.22085023 -0.2550037
000120 ae 1d 0b be be f6 99 3e 54 78 84 be 1f a0 96 3e
       -0.1358554 0.30071062 -0.25873053 0.29419038
000130 b4 c0 1c be d8 53 e8 3d d1 31 a0 3e cc e9 8a 3e
       -0.15307885 0.11344117 0.31288007 0.27131498
000140 c4 43 6f be 91 9e 8d be a3 3b 10 3e 08 ae b6 3d
       -0.23365694 -0.2766004 0.1408525 0.089199126
000150 fa 78 ff bd 4f 89 db 3d ad 66 42 3e e9 01 50 be
       -0.12474246 0.10719549 0.1898448 -0.20313229
000160 6a 8d 51 be bd ab 1b be fd 40 eb bd 30 08 89 be
       -0.20464101 -0.15202232 -0.11487005 -0.2676406
000170 a0 11 88 be 20 5d 0f bb 7b 25 03 be a4 c7 b7 3d
       -0.26575947 -0.0021875575 -0.12807266 0.08973625
000180 23 1e 17 be 27 6e 07 3e d8 67 df bd c9 6f fa b7
       -0.1475759 0.13225614 -0.109084785 -2.9854376e-05
000190 23 69 33 3e 2a ae 82 be 2d d1 93 3d 89 9b 15 be
       0.17520575 -0.25523502 0.072176315 -0.14610113
0001a0 b6 e6 90 bd 55 f7 e0 3d 53 33 f0 3d 3a 35 40 be
       -0.070752546 0.10984675 0.11728539 -0.18770304
0001b0 44 5f 00 be 43 d0 16 be df 26 8b 3e 53 d9 76 be
       -0.12536341 -0.14727883 0.27178094 -0.2410634
0001c0 32 30 90 3d d1 a2 23 bd 81 b2 7a be 47 e1 99 3e
       0.070404425 -0.039950196 -0.24482156 0.30054685
0001d0 00 ab fb bd 3f 7d 6e be 69 72 b3 be 73 10 29 be
       -0.12288475 -0.23289965 -0.35048226 -0.16510181
0001e0 77 65 d6 3d 2a d1 44 be dd 17 82 bd 58 70 00 3d
       0.10468572 -0.19220415 -0.06352208 0.03135714
0001f0 47 be b8 be fe e3 5a 3e d1 f1 cf bd 8c c8 02 3e
       -0.3608267 0.21376035 -0.10153545 0.12771815
000200 f5 b1 23 3e 36 4f 93 3e 56 80 c7 3d 1b 50 30 3d
       0.15985854 0.2877137 0.09741275 0.043045145
000210 52 e0 7c 3d 35 96 ef bd 7b 19 67 bd ca c8 81 be
       0.061737366 -0.116985716 -0.056420784 -0.25348502
000220 a2 67 0f bd 5f 6c 06 3e 1f 1c c8 bd 7b 8c 98 3e
       -0.03501094 0.13127278 -0.09770989 0.29794678
000230 7d ed 82 be 22 30 00 3e a5 89 8f 3c 0c 98 35 3e
       -0.25571814 0.12518361 0.017521689 0.17733783
000240 5e cf 9e 3e f2 19 8a be 0d f8 a7 be 97 8e 98 3c
       0.31017584 -0.2697292 -0.32806435 0.01862268
000250 2c 5b 14 3e 23 ad 6f be e5 e9 ac be fc 31 1e 3e
       0.14487904 -0.2340589 -0.33772197 0.15448755
000260 3b c0 4f 3d d5 99 b3 be c1 07 bb bb 09 bc c1 3d
       0.050720435 -0.35078302 -0.0057077114 0.09459693
000270 22 c2 91 3d d3 33 6c be d3 09 17 bc 35 06 32 3d
       0.07117106 -0.23066644 -0.009218651 0.04346295
000280 6f 98 1d 3e 53 04 8d be fd 4e 17 be f4 0a 98 3e
       0.1539018 -0.27542362 -0.14776225 0.29695857
000290 38 a9 5d be e6 88 2d be 3f c5 38 3e f5 0f b3 be
       -0.21646583 -0.16946754 0.18043993 -0.34973112
0002a0 94 3c 5c 3e f8 5b 93 be a4 2c 8c be 66 4c 9e bd
       0.21507484 -0.28781104 -0.27377808 -0.077294156
0002b0 ba ba 68 bd 12 ee c2 be 8c 6d df 3d 42 ce 95 3e
       -0.0568187 -0.38072258 0.10909566 0.29258925
0002c0 aa a9 a1 3e a1 b7 7b be 92 0c c0 3c f1 4c fd bd
       0.31574756 -0.24581768 0.023443494 -0.12368191
0002d0 35 67 71 be 80 55 5d 3e 6e 36 77 be 16 5b 4a bc
       -0.23574527 0.21614647 -0.24141857 -0.012350818
0002e0 71 ba 8f 3e 0f 30 45 be db 8f 89 3e fe d6 00 be
       0.2807193 -0.19256614 0.26867566 -0.12582013
0002f0 a5 36 16 3e da c6 95 3d 23 9a 47 3e 92 99 19 be
       0.14669283 0.073133186 0.19492392 -0.14999989
000300 fb c2 f5 3d d6 69 22 3e 25 ee 4c 3e 2a eb be 3d
       0.1200008 0.15860686 0.2001272 0.09322198
000310 94 e6 29 3e 49 cc b1 bd da dd 69 3e 5e 43 99 be
       0.16591865 -0.086815424 0.22838536 -0.2993421
000320 ef ae 13 bd a1 19 d3 3d 07 98 82 bd 20 93 86 3e
       -0.0360555 0.10307623 -0.06376653 0.26284122
000330 21 ad 92 bd 05 0a 92 3e 34 4b 7b be 13 35 a0 3e
       -0.07161928 0.2852327 -0.24540406 0.31290492
000340 d3 44 8a be 8b 28 a3 3e 72 4c 9a 3e 9d 28 69 bc
       -0.27005634 0.3186687 0.30136448 -0.014230874
000350 71 3f c4 be b6 a5 12 be 80 b3 87 3c 50 1b ba be
       -0.38329652 -0.14321026 0.016565084 -0.36348963
000360 2f c5 81 3d a6 5f 5f 3e 12 7e 28 3e 04 78 99 bd
       0.06336438 0.2181383 0.16454342 -0.07493594
000370 1d 47 9e 3e 7e f6 85 bd c3 fe 98 bd 98 a5 82 3e
       0.3091363 -0.06541155 -0.07470467 0.25516963
000380 30 73 15 be 15 7a 05 be 2d 11 97 bd 55 fa 84 3e
       -0.14594722 -0.13034852 -0.07376323 0.25972238
000390 73 d6 a1 be 47 23 a3 3c 66 90 90 3e 0d 23 b7 be
       -0.31608924 0.019914282 0.28235167 -0.3576893
0003a0 99 f0 b1 bd 46 45 90 3e ac a5 81 be 8d 6b 8c bd
       -0.086884685 0.2817785 -0.2532171 -0.06856451
0003b0 cb fe 66 3c 7e 73 06 3e 11 1d 9d 3e 97 8b 20 3e
       0.014098833 0.13129994 0.30686238 0.1567825
0003c0 0e ed 7c 3e 95 67 88 be fa eb 97 bd b6 ca 56 3e
       0.24699804 -0.26641527 -0.07418056 0.20975766
0003d0 b4 a7 4c 3d e8 5c 98 3e b2 7e 14 be 13 be 25 be
       0.04996462 0.29758382 -0.14501455 -0.16185789
0003e0 fd 60 89 be ac c2 2d 3e 21 72 5b 3e ad e1 d9 3d
       -0.2683181 0.16968793 0.21430255 0.10638747
0003f0 d8 2d cd ba 7d ac 9f 3d fe cd 4f be 2e 97 27 be
       -0.0015653921 0.077965714 -0.20293424 -0.16366264

encoder.4.bias f4 [32]
000000 bf ac 27 3d 7f 75 1f 3d 92 4c 2b 3d 21 bd 1e 3d
       0.040936228 0.038930412 0.04182107 0.038754586
000010 31 bc 24 bd 71 a5 42 bd cb 55 42 3d e8 5b 2f bd
       -0.040218536 -0.04752106 0.0474451 -0.042812258
000020 ad e3 66 3c d6 f9 19 bd 76 1a 4b bd 0e fd 12 3d
       0.014092368 -0.037591778 -0.049585782 0.035885863
000030 4e 84 01 3d c5 5d 3c bd 01 b3 c9 bc de 46 54 bd
       0.031620316 -0.045987863 -0.024621489 -0.051825397
000040 46 5f 73 ba e0 53 3d bd 01 2c 28 3d e8 2d 4c 3d
       -0.0009283911 -0.046222568 0.04105759 0.049848467
000050 a1 5f 45 3d 08 4e 2e bd 07 fd 06 3d f6 1b 1c 3d
       0.048186902 -0.042554885 0.03295615 0.038112603
000060 06 18 35 3d 9e f5 1e 3c e4 f2 40 bc 01 d8 49 3c
       0.044212364 0.009702114 -0.01177666 0.012319566
000070 fc 5b 25 bc c7 14 0b bd e5 cc 41 bd 02 44 2d bd
       -0.010092732 -0.03395536 -0.047314543 -0.042301185

residual.0.weight f4 [16, 32]
000000 33 7b 8a be 3a fd 06 3e 27 3b 96 be ca 3d 93 3e
       -0.2704712 0.13182536 -0.29342005 0.2875808
000010 0c 8b 15 3e 26 ec db bd 74 f1 9c be 2a 95 ea bb
       0.14603823 -0.10738401 -0.30652964 -0.007158895
000020 a9 a6 ab be 58 4a 48 be 09 88 30 3d be 77 2b 3e
       -0.3352559 -0.1955961 0.043098483 0.16744897
000030 ff 84 4f be 48 c4 36 3d fa 3f 10 be b2 10 56 be
       -0.20265578 0.044620782 -0.14086905 -0.20904806
000040 3e 7f fb bd a2 41 4d bc 74 a4 16 3d 02 81 32 be
       -0.12280129 -0.012527855 0.03677793 -0.17432025
000050 fb 44 6b be 0d 4e 45 3d db c0 a9 be 54 52 a9 3d
       -0.22975533 0.04817014 -0.3315495 0.08267656
000060 d0 df 91 bc c6 9d 8f bd 5b e6 32 3e 9a c3 81 be
       -0.017806917 -0.07012515 0.17470686 -0.25344545
000070 ff 47 8e be 24 df 86 3e 97 4f a9 3d 56 e0 62 3c
       -0.27789304 0.26342118 0.08267134 0.013847431
000080 dc 98 2a 3e 4d 06 9a be 3e 90 15 be 9f 87 4c 3d
       0.16659874 -0.30082932 -0.14605805 0.049934026
000090 35 49 8a 3e ac 4d 0f be cc cd 7f 3e 2c b3 2b bc
       0.27008978 -0.13994473 0.24980849 -0.01047973
0000a0 06 04 b9 3d c0 bc 05 3e fb 42 4b be a0 4d ad 3e
       0.090339705 0.13060284 -0.1984977 0.33848286
0000b0 13 32 da 3d 9e 61 00 3e 3b 80 28 3e 8c 5a 69 3d
       0.10654082 0.12537238 0.16455166 0.056971118
0000c0 8c 4f ab 3e 8e 6c 50 3e 3b 7a aa be a4 8b fb 3d
       0.33459127 0.2035391 -0.3329638 0.12282494
0000d0 36 09 7d 3d b7 43 22 3e 58 ad 87 3e 5b c1 14 be
       0.061776362 0.15846144 0.26499438 -0.14526884
0000e0 6a 16 9b 3e 71 e0 a8 bd 5c 91 91 3e 39 84 4f bc
       0.30290538 -0.08245934 0.28431213 -0.012665802
0000f0 82 dd 6a be 6e 5e d1 bd 6d 1a aa 3e 2f 6e 95 3e
       -0.22936061 -0.10223089 0.33223286 0.29185626
000100 f3 6b 91 3e c7 48 a0 3e da 6b 90 3e 52 3f a7 be
       0.2840267 0.31305525 0.28207284 -0.32665497
000110 d0 fc 87 3e 91 44 2d 3e a4 13 44 be 5a a4 89 be
       0.26560068 0.16920687 -0.19148117 -0.26883203
000120 9b 43 93 be 55 d0 35 bd 81 10 59 3e 40 85 21 3e
       -0.28762516 -0.044388134 0.21197702 0.15773487
000130 33 81 ad 3d 99 a2 e6 bd 6e fc 0c 3e 41 bb 96 3e
       0.084719084 -0.11261482 0.1376817 0.29439738
000140 35 fe 7c be 46 2c 61 bd 5e 9a 87 3e 42 0c 9d bd
       -0.24706347 -0.054973863 0.2648496 -0.076683536
000150 2d 19 7b bd 85 ac 96 be 52 17 a7 3d 1c 45 7a be
       -0.061303306 -0.29428497 0.08158745 -0.24440426
000160 d5 a0 8d 3d d6 05 e7 3d 1f a2 9d bd 2f 1d 08 3e
       0.06915442 0.1128041 -0.07696938 0.13292383
000170 1b c4 23 be 41 d9 55 be 50 1b 3d be 7d e7 d7 3d
       -0.15992777 -0.20883657 -0.1846745 0.105422
000180 86 3f 12 3e 1a 6e 54 3e 62 9e 2a 3d ce 12 5f 3e
       0.14282045 0.20745125 0.041654952 0.21784517
000190 da 4c b3 be 05 ea fa 3c f9 01 9f 3e bb 96 1f 3d
       -0.3501957 0.030629167 0.31056193 0.038962107
0001a0 d5 f2 7b be 60 54 16 bd 36 91 4c bc b4 09 0a bd
       -0.24604352 -0.03670156 -0.012485793 -0.03370066
0001b0 67 09 8f 3e 54 5d 4c 3e e5 a5 61 3e 3b 73 b6 bd
       0.2793686 0.19957477 0.2203594 -0.08908697
0001c0 39 45 9d be ad ee 34 3d 03 a9 58 bd b9 7d 69 3d
       -0.30716875 0.04417293 -0.052895557 0.057004664
0001d0 83 f1 fe 3c b4 83 5a be 51 dc 79 3e 6a 93 9b bd
       0.031121021 -0.21339303 0.2440045 -0.075964764
0001e0 ad 6c ef bd b1 e2 07 bd a6 f4 78 be b3 c4 13 be
       -0.1169065 -0.033175174 -0.24312076 -0.14430504
0001f0 3b 49 a3 3e 8f 74 87 3e c7 bc 50 be 5e d9 86 be
       0.31891808 0.26456115 -0.20384513 -0.26337713
000200 6a f8 03 be c1 04 97 bd 72 27 8f be e4 ab c2 3d
       -0.12887731 -0.073739536 -0.27959782 0.09505442
000210 cc c9 93 be c5 89 64 3e 7b ed 58 be 04 d0 32 3d
       -0.28864896 0.2231818 -0.21184342 0.04365541
000220 a2 61 f7 bd b6 5e aa be 42 a3 43 3e c4 ff 98 be
       -0.12079169 -0.33275384 0.19105247 -0.29882634
000230 42 73 db bd 69 8a 1f be dc b1 8a be 91 9a 6e 3e
       -0.10715343 -0.15580143 -0.2708882 0.2330115
000240 3c 5e 56 3e 4b 60 b4 be 44 2b 20 3d 36 8d 5d be
       0.20934385 -0.35229716 0.03910376 -0.21635899
000250 a1 ab 48 3e 66 e0 e7 3d 44 ad c1 3b db 7a 8c 3e
       0.19596721 0.113220975 0.0059105475 0.2743748
000260 22 85 88 be 18 7c 14 3e ae 33 66 3e 64 b7 3c 3e
       -0.26664072 0.14500463 0.22480652 0.18429333
000270 b4 16 87 3e 14 23 9a 3e 0c ef a8 be 17 72 6d 3e
       0.2638451 0.30104887 -0.32994878 0.23188053
000280 9f f4 23 3d 8c 22 8e 3e 39 fe a1 3e 85 57 8f 3e
       0.04002821 0.27760732 0.3163927 0.2799646
000290 87 84 a8 be cb 48 a4 3e 39 23 31 be ff fa 14 bd
       -0.3291361 0.32086787 -0.17298593 -0.03637218
0002a0 07 cf 9f be 1a 36 93 3e fd 52 1d bd a1 d1 75 be
       -0.31212637 0.28752214 -0.038409222 -0.24005748
0002b0 77 5e f4 3d f5 6d 99 be b3 e6 8e 3d 83 9a 40 bd
       0.1193208 -0.29966703 0.06977596 -0.047022354
0002c0 6c 62 d6 bd 43 aa 9f bd 16 d2 8d 3e e7 cb 61 bd
       -0.10467991 -0.07796147 0.27699345 -0.055126097
0002d0 00 0d a8 3e 16 e5 30 3e ac 93 d7 bd 0a 33 38 be
       0.32822418 0.1727489 -0.10526213 -0.1798822
0002e0 00 c7 9f 3e fc bb 08 be 3f 7c 21 3e c1 5d d3 bc
       0.31206512 -0.1335296 0.15770052 -0.025801541
0002f0 72 d6 47 be 12 94 07 3d 74 74 63 3e 20 96 01 be
       -0.19515398 0.033100195 0.22212392 -0.12654924
000300 ad 8f e7 bd e5 61 ac be cc 4b 41 be ad ca a2 be
       -0.11306701 -0.33668438 -0.1887657 -0.31795254
000310 15 b1 2d 3d 1f 8c 9e be 87 8f ab 3e b4 75 00 3e
       0.042405207 -0.3096628 0.3350794 0.125449
000320 2c 4b 20 3c c0 00 44 3e 1c 78 1e 3e 75 50 f8 3c
       0.009783547 0.19140911 0.15475506 0.030311802
000330 ef 05 9e 3b 9a 65 f0 3d bd 26 96 be 5f ec 0f be
       0.0048224847 0.11738129 -0.2932643 -0.14055012
000340 86 50 d2 bd 63 53 58 3e c3 a1 bb 3a 5f 9c 28 be
       -0.10269265 0.2112556 0.0014315177 -0.16465901
000350 dd d4 52 be c8 86 33 3e 26 d3 4c be f3 bc 27 3e
       -0.20589013 0.17531884 -0.20002422 0.16380672
000360 61 f4 93 be fe 34 c9 3d a4 23 87 3d c1 82 51 bc
       -0.28897384 0.098245606 0.06598595 -0.012787522
000370 72 9e 46 3e fa 84 83 3e 59 73 a8 be c8 79 ad be
       0.1939638 0.2568739 -0.32900503 -0.33881974
000380 45 e7 35 be e1 29 a3 be f4 22 8d be 79 4a 8e 3e
       -0.17764004 -0.3186789 -0.2756573 0.27791193
000390 8e 29 bb bd 4f 8e 71 be de 29 0c 3e 2b dd 1c be
       -0.09138785 -0.23589443 0.13687846 -0.15318744
0003a0 c4 66 82 be 8d e3 2b be 48 55 09 be 06 48 8c be
       -0.2546903 -0.16786022 -0.13411438 -0.273987
0003b0 1c 54 09 be 9f 68 1d 3e d8 7e d5 bd 5f 4a 47 3e
       -0.13410991 0.15371941 -0.10424584 0.19461964
0003c0 c4 f1 63 3d 3a c5 e1 bc a9 a9 b4 3e 1f d8 7c 3e
       0.055650488 -0.027559865 0.3528569 0.24691819
0003d0 2a f9 98 3c 15 44 82 be f6 19 14 3d 10 08 3e 3e
       0.018673498 -0.25442567 0.03615757 0.18557763
0003e0 79 32 52 bc 87 56 53 be aa fd a2 bb d7 e6 4e 3e
       -0.012829416 -0.20638476 -0.004974087 0.20205246
0003f0 ca 10 4d be 30 b8 85 bc 0e 64 22 be a5 fc a9 3e
       -0.20025936 -0.016323179 -0.1585848 0.33200565

residual.0.bias f4 [16]
000000 00 00 00 00 00 00 00 00 00 00 00 00 00 00 00 00
       0.0 0.0 0.0 0.0
000010 00 00 00 00 00 00 00 00 00 00 00 00 00 00 00 00
       0.0 0.0 0.0 0.0
000020 00 00 00 00 00 00 00 00 00 00 00 00 00 00 00 00
       0.0 0.0 0.0 0.0
000030 00 00 00 00 00 00 00 00 00 00 00 00 00 00 00 00
       0.0 0.0 0.0 0.0

residual.2.weight f4 [16, 16]
000000 d1 6f 36 be 10 48 22 3e 51 e2 04 3e e4 38 5d be
       -0.17816092 0.15847802 0.12976958 -0.21603733
000010 76 a7 12 be db 94 65 be ad f5 78 3d 5c 31 9c 3e
       -0.14321694 -0.22420065 0.06078117 0.30506408
000020 f4 a0 3c 3e 4f 12 8d 3e 93 5f 11 be c2 78 71 3e
       0.18420774 0.2755303 -0.14196615 0.23581222
000030 fc d0 33 bd 9d d6 b8 3e 45 bb a8 be 7c 0e e0 3c
       -0.043900475 0.36101237 -0.32955375 0.027350657
000040 68 26 c4 3e f4 77 e3 3d 10 02 39 bc 48 55 9c 3d
       0.38310552 0.111068636 -0.011291996 0.076334536
000050 61 9d 9e 3e e5 a7 44 3d 1b 33 9b be 3b 29 b8 be
       0.30979446 0.04801168 -0.30312428 -0.35968956
000060 27 40 42 bd d8 db 86 be 5c be 2d bd a5 59 73 3e
       -0.04742446 -0.26339602 -0.04241787 0.23764665
000070 5d ec 3e be e0 8a 7b 3e 86 19 43 3d 66 4e d6 3e
       -0.18644853 0.24564695 0.047631763 0.41856688
000080 b6 d5 7c 3d bb 81 bb 3e 43 5b b9 bd 08 dc 5b 3e
       0.061727248 0.36622414 -0.0905061 0.21470654
000090 7d f4 6e be e7 b7 98 3d d8 a7 fb bd 79 59 76 3e
       -0.23335452 0.074569516 -0.12287873 0.24057569
0000a0 19 a8 95 bc 96 c5 54 3d f4 48 72 be 37 52 d1 3e
       -0.018268632 0.051946245 -0.23660642 0.40883037
0000b0 61 d1 2e bd bb ef 6a bd 29 4b d3 be df ff cd be
       -0.042680148 -0.05735753 -0.4126828 -0.40234277
0000c0 06 de c7 be 15 5f 20 be 0e 9b 81 3d ab 09 f7 3d
       -0.39036578 -0.15661271 0.063284025 0.12062391
0000d0 4a 03 19 3e f8 64 97 3e 1f 32 96 3d e6 6a b5 be
       0.14942661 0.2956922 0.073337786 -0.3543312
0000e0 28 30 a8 bd d1 e8 17 be 8a cd ca 3e cf f5 31 3d
       -0.0821231 -0.14834906 0.3960994 0.043447312
0000f0 8d 2e c0 bd 8c 1b 28 be d4 ec 9c be e5 f8 d2 be
       -0.09383879 -0.16416758 -0.30649436 -0.41205516
000100 44 3a ba bb 7a 4a 4a bd 78 1a 8c 3d c3 65 80 3e
       -0.0056832153 -0.049387433 0.06840986 0.25077638
000110 b2 68 a7 3e 2c e7 5e 3d 02 a3 b1 3e 3e 69 80 bc
       0.32697064 0.05441968 0.34694678 -0.015675183
000120 70 c5 85 be 97 e9 03 3e 2b 7b 05 3e 56 2c bc 3d
       -0.26127195 0.12882076 0.13035266 0.09188144
000130 7f b4 69 3d 61 0d 28 be b9 e0 90 3e c4 2b 43 bd
       0.0570569 -0.16411354 0.2829645 -0.04764916
000140 6e a0 35 be de cf aa 3e ea fd d3 3e 83 a2 37 be
       -0.1773698 0.33361715 0.4140466 -0.17933087
000150 8f 1d 77 3e 5b c7 ed 3d b8 5c b4 be a8 4d 8d 3e
       0.2413237 0.1161029 -0.3522699 0.2759831
000160 73 26 ff 3d a1 55 33 3d 36 b3 80 3e 2a 9d b3 3e
       0.124585055 0.043782834 0.25136727 0.35080844
000170 f5 db 16 3e 36 9d a1 3e 90 d0 9f 3e 4b 82 25 bc
       0.14732344 0.31565255 0.31213808 -0.010101865
000180 92 66 cd 3c 04 93 cd be d5 da 80 3e d1 f7 69 3e
       0.025073323 -0.40151227 0.25166956 0.2284844
000190 9b 19 02 be c5 bd ab 3e 46 81 43 3e 7e ac 3b 3c
       -0.1270508 0.3354322 0.19092283 0.0114547
0001a0 cc 0f 27 ba b0 a0 84 3e 45 fb c1 be ff fc d5 be
       -0.00063728984 0.25903845 -0.37887016 -0.41794583
0001b0 32 59 5e bd 59 d5 7d bd a3 39 41 bc bd f7 7e 3d
       -0.054284282 -0.061971042 -0.011793527 0.06224798
0001c0 28 0c 5d be 62 aa a7 bb a3 e0 f6 3d e5 ea e6 3b
       -0.21586668 -0.0051167468 0.12054565 0.0070470446
0001d0 9e 17 cb bd 8f a1 c3 3e b7 4c 24 be 20 45 cb be
       -0.09916614 0.38209197 -0.1604489 -0.39701176
0001e0 ee 11 90 3e d7 70 c1 be 56 86 27 bd 6b 35 c4 bd
       0.2813868 -0.37781402 -0.040899597 -0.09580501
0001f0 9f 7e 9b be 85 66 5a be 46 d8 86 3e 3c 3e 81 3e
       -0.30370042 -0.2132817 0.2633688 0.25242794
000200 4d 89 03 3e 4f de c8 be 56 de 4f be 11 6c a6 bd
       0.12845345 -0.39232108 -0.20299658 -0.08126081
000210 0e 8a 2c be 7f 5e 0d 3e 6f 81 7c bc 6d e2 bc be
       -0.16849539 0.13805579 -0.015411719 -0.368915
000220 36 27 86 3e 2c 03 ce 3e f7 ed 23 be d9 fe 2f be
       0.2620179 0.40236795 -0.16008745 -0.1718706
000230 7b f5 1c be 92 85 b5 be c9 35 8b 3d 16 b5 3e 3e
       -0.15328018 -0.3545347 0.06797368 0.18623766
000240 f2 cf c2 3e 6f ec d6 bc 52 f2 97 3e cb 58 6e 3d
       0.38049275 -0.026235787 0.29677063 0.05819015
000250 57 9e 2f 3e f7 89 2a bd 0f ab 8d bd 0b be c2 be
       0.17150246 -0.04163548 -0.069173925 -0.38035616
000260 c4 43 64 3e 2c 19 6a be 78 3f 41 be 59 f3 d1 be
       0.22291476 -0.22861165 -0.18871868 -0.41005972
000270 84 39 1f 3e 97 ea 34 3e b6 13 a2 3c 29 4c c7 be
       0.15549284 0.17667614 0.01978479 -0.38925293
000280 11 36 27 3e f1 13 a5 3e 4a 1c 15 3e b8 69 be 3e
       0.16329218 0.32241777 0.14561573 0.37190032
000290 7c 98 25 3d 94 30 9b 3e 09 6a e4 bb 20 9f 9d 3e
       0.040428624 0.303105 -0.006970648 0.30785465
0002a0 e7 0c 41 be 28 70 7a 3e 51 b8 29 3e 13 eb 1c 3e
       -0.18852578 0.24456847 0.16574217 0.15324049
0002b0 e5 7f b4 be 7c f7 9f 3e 85 16 7c 3e b1 d4 c4 be
       -0.35253826 0.31243503 0.24617966 -0.3844352
0002c0 51 d2 8c be ac 9a 77 3e 93 9b dc 3d 30 55 96 be
       -0.2750421 0.24180096 0.10771861 -0.29361868
0002d0 5b f0 12 bd 60 62 cd be f3 5c 90 3e 01 cf bb 3e
       -0.035873752 -0.40114117 0.28195915 0.3668137
0002e0 5e ce cc 3c 69 1c a6 3e a2 27 69 3e 7c 89 d0 3d
       0.025000747 0.3244355 0.22769025 0.10182473
0002f0 d0 02 4f be 7f b0 8a 3e 68 8a e0 3d d2 5a cc 3e
       -0.20215917 0.2708778 0.10963899 0.3991304
000300 fd 58 d4 be d4 b7 b4 3e 0e f1 8c 3d 04 48 af be
       -0.41474143 0.352965 0.06881915 -0.3423463
000310 36 58 ba be d9 f4 27 be 05 52 9b be 35 d8 66 3e
       -0.36395425 -0.16401996 -0.30336013 0.22543414
000320 cf 27 e1 3d 45 0c cc be 5f 63 44 bc 1a 47 90 be
       0.10993921 -0.3985311 -0.011986583 -0.28179246
000330 12 09 9f be 8d 34 aa be 7c 8d d8 3e da c8 5a 3e
       -0.31061608 -0.33243218 0.42295444 0.21365681
000340 2d 55 d6 be af 0f 71 3e 85 5f ab bd e4 3f 9e be
       -0.4186186 0.23541139 -0.08367828 -0.3090812
000350 d5 13 cd 3e 8e 70 85 3e 55 51 84 3e 8f f3 94 bd
       0.40054193 0.26062435 0.258433 -0.072730176
000360 3f 2c 09 bd 82 d7 e7 bd 54 db 0b bd 2b fc b5 3e
       -0.033489462 -0.11320402 -0.034144714 0.3554395
000370 cb fa b9 be 43 30 75 be c6 c4 eb 3d 8c 9b d7 3e
       -0.36324152 -0.23944192 0.11512141 0.4211086
000380 fb bb c7 bd a5 af 43 3e 27 9d b6 be bc a0 4b 3e
       -0.09752651 0.19109972 -0.35666773 0.19885534
000390 f4 ca 43 3d 7a e2 82 be 03 80 43 be 67 df db 3d
       0.047800973 -0.25563413 -0.19091801 0.1073597
0003a0 50 48 88 3e f0 ba 6b 3e 94 39 11 3e 23 10 b7 be
       0.2661767 0.2302053 0.1418212 -0.357545
0003b0 28 32 b7 3e 0c 43 01 3d 07 f1 ce 3e b6 19 4d be
       0.35780454 0.03155808 0.40418264 -0.20029339
0003c0 de 2a ca 3d 31 a0 b1 3e ee 9a d8 3d e4 db 21 3e
       0.098714575 0.3469253 0.105764255 0.15806538
0003d0 11 1b a9 3d 9e ae ed 3d ed 77 9d be 3e ac dc bd
       0.08257116 0.11605571 -0.3075556 -0.1077504
0003e0 d6 50 d4 3e 08 2b 69 be b4 5c 09 3e cb d3 2a 3d
       0.41467923 -0.22770321 0.1341427 0.041705888
0003f0 bb 63 8f bd cf d3 f6 3c 26 b1 dc 3e 54 22 8e 3d
       -0.07001444 0.030130295 0.43103904 0.06940141

residual.2.bias f4 [16]
000000 00 00 00 00 00 00 00 00 00 00 00 00 00 00 00 00
       0.0 0.0 0.0 0.0
000010 00 00 00 00 00 00 00 00 00 00 00 00 00 00 00 00
       0.0 0.0 0.0 0.0
000020 00 00 00 00 00 00 00 00 00 00 00 00 00 00 00 00
       0.0 0.0 0.0 0.0
000030 00 00 00 00 00 00 00 00 00 00 00 00 00 00 00 00
       0.0 0.0 0.0 0.0

residual.4.weight f4 [8, 16]
000000 c0 a7 42 3d 80 cc c0 bc de 3d e8 3e 1e 98 84 3e
       0.04752326 -0.023535013 0.453597 0.25897306
000010 40 b5 9f 3e 68 ff e5 be 86 86 f4 3e 48 9c e3 be
       0.3119297 -0.44921422 0.47758883 -0.4445517
000020 16 3b e3 be 2c 92 0d be 00 99 00 3d c8 f8 94 be
       -0.44381016 -0.13825291 0.031395912 -0.29096055
000030 a0 c6 a1 be 94 82 61 be 5a 47 ac be 34 27 c5 3e
       -0.3159685 -0.22022468 -0.33648187 0.38506472
000040 9a 2a a0 be 10 43 05 bd a8 6d 12 3e d0 1c 2c 3d
       -0.31282502 -0.03253466 0.14299643 0.042019665
000050 e0 41 36 3e cc 82 13 be b0 f0 aa 3d be ac f9 3e
       0.17798567 -0.14405364 0.08346689 0.48764604
000060 98 22 c9 bd f8 f6 b1 3d a4 b6 be 3e 54 67 17 be
       -0.09821051 0.08689684 0.3724872 -0.1478551
000070 dc b8 04 3e 10 3e 25 be 6e 63 d4 3e 88 d1 c3 3d
       0.12961143 -0.16136956 0.4148211 0.09561449
000080 90 73 0b 3d 80 e3 4d bc b8 c3 c7 3d a0 fe 8a 3c
       0.034045756 -0.012566447 0.09754127 0.016967118
000090 b0 2e c9 3d 34 f9 dc be 68 1e 62 3e 8e cf f4 3e
       0.09823358 -0.43158877 0.22081912 0.47814602
0000a0 e0 77 82 bd 86 26 c7 3e 24 f7 f1 be ec f8 e5 be
       -0.063705206 0.3889658 -0.47258866 -0.44916475
0000b0 f0 58 a7 3e b2 02 d6 be b2 97 b3 be 98 95 dd be
       0.3268504 -0.4179893 -0.35076672 -0.43278193
0000c0 08 ed b7 bd c6 e7 a0 3e a0 fa 88 bd 12 13 c0 be
       -0.08980757 0.3142683 -0.06688428 -0.3751455
0000d0 5e 4b ab be 7a 62 d5 3e c0 a3 7a 3d 78 f5 88 bd
       -0.33455938 0.41676694 0.06119132 -0.066874444
0000e0 14 ba 72 be 14 98 36 be 0e 15 c5 be 8c d1 13 be
       -0.23703796 -0.1783145 -0.38492626 -0.14435405
0000f0 b8 ad 24 be 00 60 54 bc 00 60 1f 3d 40 5b bc 3e
       -0.16081893 -0.012962341 0.038909912 0.36788368
000100 cc 06 3a 3e b0 31 0a 3d de da f7 be 82 b8 e8 3e
       0.18166655 0.033738792 -0.4840917 0.45453268
000110 30 f1 c0 bd 12 43 8a 3e d0 51 e9 3d cc 1c e6 be
       -0.09421003 0.27004296 0.113925576 -0.44943845
000120 7c 70 b0 3e 94 7a bb 3e f0 d6 24 be 00 b5 10 be
       0.3446082 0.36616957 -0.16097617 -0.14131546
000130 e0 ee 70 be 80 f2 ff bd 80 12 d9 bd c0 c5 27 3e
       -0.23528624 -0.12497425 -0.10599232 0.1638403
000140 08 17 a6 3d f4 2b 7c be 04 36 93 3e c2 30 9f be
       0.081098616 -0.24626142 0.28752148 -0.31091887
000150 6c ab 7d be d0 e2 c0 3e ee 81 82 3e c0 5d 54 3e
       -0.24772424 0.37673044 0.25489753 0.20738888
000160 9a 59 88 3e 40 48 b1 bc 8a 71 ca 3e b4 fd 24 3e
       0.2663086 -0.021640897 0.39539748 0.16112405
000170 5c a3 fa be 3a 41 fe be c0 eb 0d 3d e0 65 43 3e
       -0.48952758 -0.4965914 0.034648657 0.19081831
000180 a2 08 8e be 0e f7 82 be e4 94 5c be 48 c1 a8 3d
       -0.2774096 -0.25579113 -0.21541172 0.082399905
000190 08 15 87 be 38 29 8f 3d 80 01 40 3d d6 4e d1 3e
       -0.26383233 0.06990284 0.04687643 0.4088046
0001a0 24 f4 a7 3e 02 e7 e7 3e d8 31 2f be 3e dd ca 3e
       0.32803452 0.45293432 -0.17108858 0.3962192
0001b0 58 5e e2 3e 98 cd 4d 3e 02 5d 83 be b8 57 ba 3d
       0.44212604 0.20097959 -0.25656897 0.09098762
0001c0 7a be 87 be 3c ba d0 3e e8 fb 09 be 80 ec 99 3e
       -0.2651251 0.40767086 -0.13475001 0.30063248
0001d0 46 51 b1 be 80 68 aa 3b 8a 1a e7 be 94 5f a2 3e
       -0.3463232 0.0052004457 -0.45137435 0.31713545
0001e0 4c 7f d4 be e0 db df 3d 22 68 a2 be 70 a2 e5 bd
       -0.4150337 0.1093061 -0.31720072 -0.11212623
0001f0 2c d1 35 be 5c 5a 9a 3e 38 4c 58 be fe aa d4 be
       -0.17755574 0.30147064 -0.21122825 -0.41536707

residual.4.bias f4 [8]
000000 00 00 00 00 00 00 00 00 00 00 00 00 00 00 00 00
       0.0 0.0 0.0 0.0
000010 00 00 00 00 00 00 00 00 00 00 00 00 00 00 00 00
       0.0 0.0 0.0 0.0

residual.6.weight f4 [1, 8]
000000 9c 31 09 3f 1c 61 77 3e 91 13 23 bf a7 c0 50 3f
       0.5359132 0.24158138 -0.6370173 0.81543964
000010 31 9f 36 3e 4c f9 c9 be 7f 8b 0a bf 9d cb 25 be
       0.17834164 -0.3944801 -0.54119104 -0.16190954

nee_decoder.0.weight f4 [16, 32]
000000 51 04 5b be c6 d6 03 3e 00 a6 14 bc 69 fb 0a be
       -0.21388365 0.12874898 -0.009072781 -0.13572468
000010 93 83 88 be 86 4f a0 3e 1b 44 1e 3e 71 c1 3b 3e
       -0.26662883 0.31310672 0.15455668 0.18335511
000020 36 3e 96 3e 56 ee 38 3d 60 64 85 3d a2 4f e5 3d
       0.29344338 0.04514917 0.06513286 0.111968294
000030 97 54 74 3e 08 c2 92 3d c2 b1 ab 3e 86 52 7d 3d
       0.23860393 0.07165915 0.33534056 0.06184628
000040 51 71 61 3e a8 d6 ff 3d a6 0e ba 3d 43 ae 62 3e
       0.22015883 0.12492114 0.09084825 0.22136788
000050 4a dc 9b be a6 94 a5 3e 4b cb 0c 3d 46 ad a5 3e
       -0.30441505 0.32339972 0.034373563 0.3235876
000060 8d 77 43 be d4 fc aa bd b7 7b b9 3c 9c a0 98 3e
       -0.19088574 -0.083490044 0.022642 0.29810035
000070 e1 20 b2 be fb 50 9d be f8 09 91 be b2 47 a1 3e
       -0.3479071 -0.30725846 -0.28327918 0.31500012
000080 65 d6 21 3e 2a 15 7f 3e bd d6 f8 3d cc f2 25 be
       0.15804441 0.24910417 0.12150333 -0.16205901
000090 0d 8f 91 3e 4d 35 87 be 6e cf aa 3e 21 8f 8e 3e
       0.28429452 -0.26407853 0.3336138 0.27843574
0000a0 88 a4 42 3e 3a 79 15 3e 79 2d 96 3e 21 b7 a8 be
       0.19008076 0.14597026 0.29331568 -0.32952216
0000b0 e7 a8 04 bb 7f 79 3f 3d 29 ea 37 bb be f5 93 3e
       -0.0020242275 0.046746727 -0.0028063154 0.28898424
0000c0 e0 ee 47 be d5 03 2b be c6 5f 2d 3e a0 25 87 3e
       -0.19524717 -0.1670068 0.16931066 0.26395893
0000d0 b7 62 31 3e 81 02 96 3e 30 ad 0b be 9b f1 90 bd
       0.17322813 0.29298785 -0.13640285 -0.070773326
0000e0 3b bf 7b 3e 78 39 b6 3c 48 f4 6d be 9b 98 92 bb
       0.24584667 0.0222442 -0.23237717 -0.0044737584
0000f0 f9 0e a2 be e5 3a c7 bc 31 19 19 be 75 2f 6c bd
       -0.31652048 -0.024320075 -0.14951016 -0.057662446
000100 67 24 39 3e 6a 82 af 3e c9 ca 8e 3e 9b 7f 6f bd
       0.18080293 0.34279186 0.27889088 -0.058471303
000110 bd 8a 49 3e 00 4f 6e 3e 66 46 cc 3d 6e 4e b2 be
       0.1968183 0.23272324 0.09974365 -0.34825462
000120 b9 1e b8 3e 4f f9 c5 be 4b 4b a6 3d 12 5c 81 3d
       0.3596094 -0.3866677 0.0811983 0.06316389
000130 ed 88 8a be 57 d6 4d 3e ac 5a 85 be 63 22 2a be
       -0.2705759 0.20101295 -0.2604574 -0.1661468
000140 f9 8b 81 3e b0 4c 86 3e 62 5b 55 be 75 24 88 bc
       0.25302103 0.26230383 -0.20835641 -0.016618947
000150 fb eb b6 3e d5 0e 47 3d 55 39 06 3e dd 64 88 3e
       0.35726914 0.04859813 0.13107808 0.26639453
000160 0f f6 5c 3c 83 fa 14 3e ea d4 1e be 49 d5 0c be
       0.013486399 0.14548688 -0.15510908 -0.13753237
000170 8a 90 6f 3e 21 db 9c 3d 30 01 6e be 75 03 d9 3d
       0.23394981 0.07658983 -0.2324264 0.105963625
000180 d7 93 0f 3e a2 e0 21 3d a7 3c 47 3e c5 83 c2 3e
       0.1402124 0.039520867 0.19456731 0.37991157
000190 83 6d b7 3e 5d a4 76 3e ce 0a c6 bc 83 67 54 3e
       0.35825738 0.24086137 -0.024175074 0.20742612
0001a0 91 63 8e 3c 39 4e 3a bd 81 09 f9 bc 77 91 94 bc
       0.017381461 -0.045484755 -0.03040004 -0.01813577
0001b0 2f da b4 3e d3 6d bc be fc 5b 0e be 08 41 84 3d
       0.3532271 -0.3680254 -0.13902277 0.06457716
0001c0 35 20 83 3e 0a d2 8d be d2 f2 d7 3a 3d 08 9f 3d
       0.2561051 -0.2769931 0.0016475564 0.07765243
0001d0 59 28 fb 3d df a5 95 3c 91 ba 27 be 60 01 8d be
       0.12263555 0.01826757 -0.16379763 -0.27540112
0001e0 5c 09 10 be 7a cc 04 3c ad 17 6a be 1f 5d b2 3e
       -0.1406607 0.008105392 -0.22860594 0.3483667
0001f0 fc f7 f5 bd ae 29 70 3e 28 08 0a 3e 7a 0b 09 be
       -0.1201019 0.234534 0.13479674 -0.13383284
000200 07 22 83 bd 9d bd bb bd 0d 77 2a 3e 9e 2f f5 3d
       -0.064029746 -0.09167025 0.16646977 0.11971973
000210 5b af 1a 3d 9a 39 90 be ec bb ba 3e a5 bd 86 be
       0.03776489 -0.28168947 0.36471498 -0.26316562
000220 2c 06 b2 be f5 14 58 3e d6 01 2b 3e ae 0a 9b 3e
       -0.34770334 0.21101744 0.16699919 0.30281585
000230 4b ab 02 3e dc a4 30 be aa 13 ce bc 37 44 c0 be
       0.12760656 -0.17250389 -0.02515586 -0.37552044
000240 51 72 af 3e 1d 6a fd bd 88 19 44 3e ad 06 38 be
       0.34266904 -0.12373755 0.19150364 -0.17971297
000250 10 12 e0 3d 3b aa 99 be ea 03 cf bd b3 92 98 be
       0.10940945 -0.30012688 -0.101081684 -0.29799423
000260 7d bd 46 be 11 87 87 3e 38 6e 1d be 88 0a ed bc
       -0.19408222 0.26470235 -0.15374076 -0.028935686
000270 ee bc 89 3e 4e 9f 24 3e ba 35 3e 3e 57 e7 f8 bc
       0.26901954 0.16076395 0.18575183 -0.030383749
000280 f1 43 af 3e 10 c3 13 3e f3 95 af 3a 56 6b 87 3e
       0.34231523 0.14429879 0.0013396129 0.26449078
000290 f4 ee 27 be d1 e0 90 3e cb d8 97 be 25 b2 a0 3e
       -0.16399747 0.2829652 -0.29657587 0.31385913
0002a0 c3 b1 b2 bc 4e c9 71 3d e0 6d 95 3e 66 0b 4a bb
       -0.021813279 0.05902987 0.2918539 -0.0030829548
0002b0 2d 34 00 be 36 32 96 be 7d cf c1 bd 5d cc 71 3e
       -0.12519903 -0.29335183 -0.094634034 0.23613115
0002c0 31 0c 73 be ed fb 8f 3e 36 67 b8 be 1e 83 78 3e
       -0.2373512 0.28121892 -0.36016244 0.24268767
0002d0 c3 b7 c1 3e 7b 8c 6c be 25 71 b2 3e 19 7b a5 3e
       0.37835512 -0.23100464 0.34851947 0.3232048
0002e0 e0 c7 b3 bd eb 37 a8 3d 04 dd b4 be da 90 56 be
       -0.087783575 0.082137905 -0.35324872 -0.20953694
0002f0 db b2 aa be 64 3c ac 3e be 82 87 3e 32 69 41 be
       -0.3333958 0.33639824 0.26466936 -0.18887785
000300 d2 4b 81 bd 2b 02 38 3d bd 46 a2 be 6a ce 14 3c
       -0.0631329 0.044923943 -0.31694594 0.009082416
000310 0d f3 55 be 71 b5 66 bc 09 78 b9 3d 69 27 17 3e
       -0.20893498 -0.014081345 0.09056098 0.14761128
000320 40 38 62 3e 89 99 89 bd c9 72 62 be e3 ac 8c 3e
       0.2209177 -0.06718738 -0.221141 0.27475652
000330 c5 5b 32 3e 4a 61 98 be f2 2a ad 3e e4 42 17 3e
       0.1741782 -0.29761726 0.33821827 0.1477161
000340 72 2c 2f 3e 13 cc 0c be 3e fc 4d be 66 9a 9f 3e
       0.17106798 -0.13749723 -0.20115754 0.31172484
000350 02 29 fb 3d a6 93 45 bd bd 12 87 3e c7 89 a3 be
       0.12263681 -0.04823651 0.26381484 -0.31941053
000360 44 34 b0 3d 17 e6 f4 bd 63 ad 17 3d 0d 7a 31 be
       0.08603719 -0.11957949 0.03703059 -0.17331715
000370 04 46 27 3d b5 29 7c 3e b3 ba 80 be 16 a5 b2 3e
       0.040838256 0.24625285 -0.2514244 0.34891576
000380 ce 8b d6 3d 1e 52 2d be 33 e1 01 3e ef 81 97 be
       0.104758844 -0.16925856 0.12683563 -0.2959132
000390 a0 91 e4 bd b5 46 ee 3d 3d 0e 40 be 81 ff 07 bd
       -0.11160588 0.1163458 -0.18755431 -0.033202652
0003a0 c8 ac 85 3e 69 99 8f be 8c 08 81 be 20 f1 b1 be
       0.26108384 -0.2804673 -0.25201833 -0.34754276
0003b0 8c dd 80 3e d4 a2 00 be 2f e7 08 be 73 db 8f 3e
       0.25169027 -0.12562114 -0.1336944 0.28097114
0003c0 d1 c9 9c be 1e 8e 94 be d2 81 90 3d 29 43 82 be
       -0.30622724 -0.29014677 0.07056011 -0.25441864
0003d0 30 fa aa bd ea f4 84 be 18 e2 80 be 96 82 65 3b
       -0.08348501 -0.25968105 -0.25172496 0.0035020462
0003e0 e7 17 77 3e ae d5 69 3e cf 97 86 3e 42 be 60 3e
       0.24130212 0.22835419 0.26287696 0.21947578
0003f0 71 14 fd 3d 0d 76 a4 be 2e ea 6c bd b6 3d 3f bd
       0.123574145 -0.32121316 -0.05784052 -0.04668971

nee_decoder.0.bias f4 [16]
000000 36 0b 49 3b 8c 18 38 3d c3 c7 2d 3d 82 46 12 3d
       0.0030676848 0.044945285 0.042426836 0.035711773
000010 31 75 19 3d 88 91 15 3d e1 0a cd bc 33 6c bb 3c
       0.037465278 0.036515743 -0.025029602 0.022878742
000020 50 cf c8 3c 82 42 8c bc 10 57 9c 3c 4b 8a cb bc
       0.024512917 -0.017121557 0.019084483 -0.024846217
000030 4d b3 d8 bc 9b 4d 6d bc 62 5e 20 3d 7b 9f a6 bc
       -0.026452685 -0.014483835 0.03915251 -0.020339718
