climate/PINN/best_model.pth (torch, 46754 bytes, 60 tensors)

encoder.0.fc.weight f4 [16, 16]
0	0x3df430c5	0.119233645
1	0xbeafc535	-0.34330145
2	0xbeb4bfb7	-0.35302517
3	0xbd214b3a	-0.039378382
4	0x3ee35b62	0.44405657
5	0x3e347832	0.17623976
6	0xbdf0794f	-0.11741888
7	0x3daf18e6	0.08549671
8	0xbed6c29c	-0.4194535
9	0xbe06f70f	-0.13180183
10	0xbea6d095	-0.3258101
11	0x3e072747	0.13198577
12	0x3eb4adc2	0.35288817
13	0xbe540935	-0.20706637
14	0x3afeda6a	0.0019443755
15	0x3dd30c58	0.10305089
16	0x3e017890	0.12643647
17	0xbedcac3b	-0.4310015
18	0x3e813ef1	0.25243333
19	0xbd7bb1c9	-0.061448846
20	0xbe5d2193	-0.21594839
21	0x3f0774e7	0.52912754
22	0xbefc8b59	-0.49325064
23	0x3d0bec4e	0.034160905
24	0xbe4c8cde	-0.19975612
25	0x3ef7828c	0.48341787
26	0x3da56db6	0.08077566
27	0x3ea525bb	0.3225535
28	0xbea88fbd	-0.32922164
29	0x3ef77d12	0.4833761
30	0xbc3a629a	-0.0113760475
31	0xbe2fd871	-0.1717241
32	0x3df21a71	0.118214495
33	0xbe24d98a	-0.1609861
34	0xbe9a3ea8	-0.30125928
35	0xbc9d7ebd	-0.019225473
36	0xbd97dd02	-0.07415201
37	0xbda479d3	-0.080310486
38	0xbea6f902	-0.32611853
39	0xbe1b68e1	-0.15176727
40	0xbe39516a	-0.18097463
41	0x3e4add5e	0.19811007
42	0x3ec94171	0.3930774
43	0x3ea3e5a6	0.32011145
44	0x3efce315	0.49392
45	0xbce719a7	-0.028210474
46	0xbf59fb1a	-0.85148776
47	0xbc9ad5f2	-0.018900845
48	0xbf1e9193	-0.6194088
49	0xbeabcce7	-0.33554766
50	0xbe2bedcd	-0.16789933
51	0xbdfeab42	-0.124350086
52	0xbe6aaa8d	-0.22916622
53	0xbed9e2d4	-0.4255587
54	0xbdea88c7	-0.114518695
55	0x3eb78ce5	0.35849681
56	0xbc4658c0	-0.012106121
57	0x3eaa2892	0.33234078
58	0xbec24b93	-0.37948284
59	0x3f064ab8	0.5245776
60	0xbeb60224	-0.35548508
61	0xbcad7a50	-0.021176487
62	0x3f32d78f	0.69860166
63	0x3df52f87	0.11971956
64	0xbee34bf3	-0.44393882
65	0xbd967486	-0.07346444
66	0xbe58b768	-0.21163714
67	0xbeda66a7	-0.42656443
68	0x3e2cd2a4	0.16877228
69	0x3f0f2dd9	0.5592933
70	0xbd588dc9	-0.05286959
71	0x3e4ed9d8	0.20200288
72	0xbe66cc0a	-0.22538772
73	0x3e03aa64	0.12857968
74	0xbe7e5579	-0.24837293
75	0xbe841f36	-0.25805062
76	0xbe4c6645	-0.19960888
77	0x3d12c645	0.035833616
78	0x3f084e7a	0.53244746
79	0x3d46d5d1	0.048543755
80	0xbe450a10	-0.1924212
81	0xbe126e91	-0.1429999
82	0xbe792544	-0.24330622
83	0x3e24eada	0.16105214
84	0x3e32bb0b	0.17454164
85	0x3e300eda	0.17193165
86	0xbe4bb48d	-0.19893093
87	0xbe00c4c8	-0.12575066
88	0x3e33d84b	0.17562978
89	0x3e1c5a78	0.15268886
90	0xbe927b36	-0.28609627
91	0xbf6725f6	-0.902923
92	0x3e429f5d	0.19006105
93	0x3eb07569	0.34464577
94	0xbec43c5b	-0.38327298
95	0xbdcaa08b	-0.098939024
96	0xbe1b8693	-0.15188055
97	0xbdefa455	-0.11701266
98	0x3e90d4d2	0.2828737
99	0xbceb0fab	-0.028693995
100	0x3e998bc9	0.2998946
101	0x3dca9fe6	0.098937795
102	0xbd10f47a	-0.0353894
103	0xbef0aa5d	-0.47004977
104	0xbdb15fcd	-0.08660851
105	0xbebd6970	-0.36994505
106	0xbe23187a	-0.15927306
107	0x3d80d93f	0.062914364
108	0xbeeccd63	-0.46250448
109	0xbd9f3112	-0.07773031
110	0xbec41acb	-0.3830169
111	0x3c5263e5	0.0128411995
112	0x3e8453bf	0.25845143
113	0xbd3c743d	-0.04600929
114	0x3e0c1c05	0.13682564
115	0xbc9f2571	-0.019427033
116	0xbda22ded	-0.07918916
117	0xbe34f10e	-0.1767008
118	0xbe4adb8c	-0.19810313
119	0x3c881471	0.01661131
120	0xbeb74f98	-0.35802913
121	0x3d279ded	0.040922094
122	0xbe7361f8	-0.23767841
123	0xbce9f083	-0.028557068
124	0xbf2881a7	-0.65822834
125	0x3ec3dc74	0.3825413
126	0xbd3f771c	-0.04674445
127	0xbd0d8a84	-0.034555927
128	0xbe3bc303	-0.1833611
129	0xbd04fceb	-0.032467764
130	0xbbeb39f7	-0.007178541
131	0x3d87ecfa	0.066369966
132	0x3efe56dd	0.49675646
133	0xbd46f1d6	-0.048570476
134	0xbe8df031	-0.27722314
135	0xbea0e101	-0.31421664
136	0xbdd31b0c	-0.10307893
137	0x3d18c468	0.037296683
138	0x3c85f6f9	0.016353117
139	0xbf2380d3	-0.63868445
140	0x3e142406	0.14466867
141	0x3daea904	0.08528331
142	0x3ef259a8	0.47334027
143	0xbc326178	-0.010887496
144	0xbd9f09c0	-0.077655315
145	0x3e10e5f0	0.14150214
146	0x3e1898a2	0.14901975
147	0xbebe990a	-0.37226135
148	0x3bf15265	0.0073645585
149	0x3d42d937	0.047570433
150	0x3cf0ed50	0.029410034
151	0xbe31fd0f	-0.1738169
152	0xbe8d6db6	-0.27622765
153	0xbeabb68a	-0.33537704
154	0x3e861bd2	0.261931
155	0x39c0588f	0.00036687075
156	0xbe17462d	-0.14772864
157	0x3de3f075	0.11129848
158	0x3e602b3b	0.21891491
159	0xbc2fb164	-0.010723446
160	0x3f2395fb	0.6390073
161	0x3de79acd	0.11308823
162	0x3da5321e	0.080662
163	0xb9d03035	-0.0003970877
164	0xbd3ca742	-0.046057947
165	0x3db4eca1	0.08834196
166	0xbd022c20	-0.031780362
167	0x3e02a8ca	0.127597
168	0xbf50059c	-0.8125856
169	0x3d54eabf	0.051981684
170	0x3f22eb6f	0.63640493
171	0x3eb08c60	0.34482098
172	0xbd0f77bb	-0.035026293
173	0xbe169fd1	-0.14709403
174	0x3f283fed	0.65722543
175	0x3c965047	0.018348826
176	0xbeb60a06	-0.35554522
177	0xbe0ea311	-0.13929392
178	0xbf18fa8b	-0.597573
179	0x3c4c5ece	0.012473775
180	0xbd2b6e57	-0.041853275
181	0xbe24eb6e	-0.16105434
182	0x3d1e94b3	0.03871603
183	0x3d4f0e4f	0.050550755
184	0x3e7cbd93	0.24681692
185	0x3e9fcdf9	0.31211832
186	0xbf92d4c0	-1.1471176
187	0x3d75b1db	0.05998407
188	0x3eef1764	0.46697533
189	0xbf63432d	-0.8877438
190	0xbec05fb1	-0.37573007
191	0xbda6ac9a	-0.0813839
192	0xbe6e673b	-0.23281567
193	0x3c86cefc	0.01645612
194	0xbe958124	-0.2920009
195	0xbf220807	-0.632935
196	0x3e409223	0.18805747
197	0x3e8128a3	0.25226316
198	0x3c31cb9d	0.010851768
199	0x3ded6b73	0.1159276
200	0xbe2804e0	-0.1640811
201	0x3dbaf1e2	0.09128167
202	0xbf71cdf9	-0.94454914
203	0xbe8dd5f3	-0.27702293
204	0xbcd7febd	-0.026366586
205	0xbe2a2725	-0.16616495
206	0xbe4ffd02	-0.20311359
207	0x3d223bb8	0.039607733
208	0x3ed0f5f4	0.40812647
209	0xbe7cb1bf	-0.2467718
210	0x3e406596	0.18788752
211	0x3c916170	0.017746657
212	0x3e2d874e	0.16946146
213	0x3d6f7298	0.058458894
214	0xbd9354be	-0.07193898
215	0x3e2287ab	0.15872066
216	0x3d9324d1	0.071847565
217	0x3e14f03d	0.14544769
218	0x3f76786c	0.962775
219	0xbd52e61d	-0.051488984
220	0x3e67db5a	0.2264227
221	0xbdda81e8	-0.10669309
222	0x3d07c6b6	0.03314849
223	0xbeb6345c	-0.35586822
224	0xbe604d7f	-0.21904562
225	0xbe47b393	-0.19502096
226	0xbe959c65	-0.29220882
227	0x3c423e4b	0.011855672
228	0x3e014b3c	0.12626356
229	0xbe9de044	-0.30835164
230	0xbe015453	-0.12629823
231	0x3cac06ae	0.020999279
232	0x3edb6900	0.42853546
233	0xbdafe0bf	-0.08587789
234	0xbeb12d79	-0.34605005
235	0xbefb4d7d	-0.49082556
236	0x3d1e811e	0.038697354
237	0xbda9b419	-0.08286304
238	0xbf072425	-0.5278953
239	0xbd882e26	-0.06649427
240	0xbdb523c9	-0.08844716
241	0xbe7229f1	-0.23648812
242	0x3e625cc7	0.22105704
243	0xbd8a9326	-0.067663476
244	0xbe326b3a	-0.17423716
245	0x3bd883cc	0.0066075083
246	0xbcdfb28a	-0.027306814
247	0xbd120788	-0.035651714
248	0x3c8777bd	0.016536588
249	0x3c859128	0.016304567
250	0xbe99c698	-0.30034328
251	0x3e8742ce	0.26418155
252	0xbe885f96	-0.26635426
253	0xbec631bb	-0.38709816
254	0xbf101622	-0.5628377
255	0xbec3149a	-0.38101655

encoder.0.fc.bias f4 [16]
0	0x3e7766ce	0.2416031
1	0x3d86e50b	0.06586655
2	0x3e5741ee	0.21021244
3	0x3e91b9ac	0.2846197
4	0x3ca7e0ac	0.020492874
5	0xbd8743a9	-0.06604702
6	0x3edc2354	0.42995703
7	0x3e63e7a1	0.22256328
8	0xbdb3d874	-0.087815195
9	0x3dfec9fe	0.12440871
10	0x3e84964a	0.2589591
11	0xbddf3134	-0.108980566
12	0x3d38b144	0.04509093
13	0xbdda9c82	-0.10674383
14	0x3e1a1acd	0.15049286
15	0xbe72e6d0	-0.2372086

encoder.0.norm.weight f4 [16]
0	0x3fa10bc3	1.2581714
1	0x3fa84b54	1.3147988
2	0x3fa16654	1.2609353
3	0x3f934fb2	1.1508696
4	0x3f9c6da3	1.2220958
5	0x3f91c42b	1.1387991
6	0x3fb53ed0	1.4159794
7	0x3f8cfb0d	1.1014115
8	0x3f8487b9	1.0353919
9	0x3f76c760	0.9639797
10	0x3fba5e8b	1.4560102
11	0x3f9a3415	1.2047144
12	0x3f9e0881	1.2346345
13	0x3fa6aaa9	1.3020831
14	0x3f9e05c5	1.2345511
15	0x3fa6e45c	1.303844

encoder.0.norm.bias f4 [16]
0	0x3e5ccd73	0.21562748
1	0x3ea925b0	0.33036566
2	0x3e7c184f	0.24618648
3	0x3e614f6b	0.22002952
4	0x3e16fcb0	0.1474483
5	0x3e8813c7	0.2657759
6	0x3e95ea89	0.292805
7	0x3e1ef89e	0.15524527
8	0x3e5d128a	0.21589103
9	0x3e7936c8	0.24337304
10	0x3e74d965	0.23911054
11	0x3e015fa3	0.12634139
12	0x3e99a4da	0.30008584
13	0x3d8d0567	0.06885796
14	0x3ec472c2	0.38368803
15	0x3e2cd0c1	0.16876508

encoder.0.norm.running_mean f4 [16]
0	0x3f1a4df3	0.6027519
1	0xbeb564b6	-0.354284
2	0xbe200218	-0.15625799
3	0x3f7a210c	0.97706676
4	0x3f075103	0.5285799
5	0xbecef6ae	-0.40422577
6	0x3e9e423b	0.30909905
7	0x3e062d1b	0.13103144
8	0x3d1ea565	0.03873195
9	0x3e05c170	0.13062072
10	0x3eda5da2	0.4264956
11	0xbf45f13e	-0.7732123
12	0x3e329d7f	0.17442892
13	0xbfcfdfb0	-1.6240139
14	0xbeade738	-0.33965468
15	0xc0076696	-2.1156363

encoder.0.norm.running_var f4 [16]
0	0x3e93b014	0.28845274
1	0x3ff37e54	1.9022927
2	0x3f2251b0	0.63405895
3	0x3f35288d	0.70765
4	0x3ebc0e0d	0.3672947
5	0x3f827a35	1.0193545
6	0x3ee30943	0.44343004
7	0x3f0a93b1	0.5413161
8	0x3f9918cf	1.1960696
9	0x3e8845b7	0.26615688
10	0x3eafd458	0.34341693
11	0x3f4917ed	0.7855213
12	0x3f15fe78	0.58591413
13	0x3f5104bd	0.81647855
14	0x3f1f8435	0.62311107
15	0x3f81ce5d	1.0141102

encoder.1.fc.weight f4 [16, 16]
0	0xbe0e37a2	-0.1388841
1	0xbe09cf11	-0.13457896
2	0x3e020bf9	0.1269988
3	0x3abaf866	0.0014264702
4	0x3d733395	0.059375364
5	0x3d8c201a	0.068420604
6	0xbe6dfc96	-0.23240885
7	0x3e1c7b0e	0.15281317
8	0xbe162dbd	-0.14665885
9	0xbed3df9e	-0.41381544
10	0xbe958658	-0.2920406
11	0xbeb697e3	-0.35662755
12	0xbec096a6	-0.37614936
13	0x3d483e59	0.048887584
14	0xbf08c672	-0.53427804
15	0xbe1c7a24	-0.15280968
16	0x3e9f48db	0.31110272
17	0xbf47d825	-0.78064185
18	0xbedd0660	-0.43168926
19	0xbd3e8564	-0.04651393
20	0xbdc61ad4	-0.09673086
21	0xbe246049	-0.16052355
22	0xbe5bf567	-0.21480332
23	0xbde093b6	-0.109656736
24	0x3e039c0d	0.12852497
25	0x3e6d1ee4	0.23156315
26	0xbf03ac07	-0.5143437
27	0xbf0df596	-0.5545286
28	0xbd9a27c0	-0.07527113
29	0x3d8344e6	0.06409626
30	0xbe54dbeb	-0.20787017
31	0xbe85c2c1	-0.26125148
32	0xbe9dba63	-0.30806264
33	0xbe090e3c	-0.13384336
34	0x3e26472d	0.16238089
35	0x3d65f69f	0.0561434
36	0x3e09df4f	0.13464092
37	0xbee93e53	-0.45555362
38	0xbddf42d7	-0.109014206
39	0x3e955292	0.2916456
40	0xbe11eb1f	-0.14249848
41	0x3ec8a3fe	0.39187616
42	0xbe900a48	-0.28132844
43	0xbe5cbee7	-0.21557198
44	0xbe84c61f	-0.25932404
45	0xbe98eed4	-0.2986971
46	0xbd66069a	-0.05615864
47	0x3e864d96	0.26231068
48	0x3e28de58	0.16491067
49	0xbece1afd	-0.40254965
50	0xbe6a4a94	-0.22880012
51	0x3c8b7f8e	0.017028596
52	0xbd658264	-0.056032553
53	0xbf0252ef	-0.50907797
54	0xbe8ae27b	-0.27125916
55	0xbd9430fe	-0.07235907
56	0xbd15fca5	-0.036617894
57	0x3ee4ef6d	0.44713917
58	0xbe99a0dc	-0.30005538
59	0xbea50ebb	-0.322378
60	0xbe34c12a	-0.17651811
61	0x3e63b7d3	0.22238092
62	0x3e81f8ff	0.2538528
63	0xbe16ab32	-0.14713743
64	0xbdaec1ab	-0.08533033
65	0xbe3c99b1	-0.18418004
66	0xbeaeb69f	-0.34123704
67	0x3e0d930f	0.1382563
68	0xbf187bf9	-0.5956417
69	0x3e29a71f	0.16567658
70	0xbedf91a5	-0.43665805
71	0x3e54f89b	0.2079796
72	0x3e340519	0.1758007
73	0x3d02fffa	0.0319824
74	0xbbaa9866	-0.0052061556
75	0xbe9c9b4d	-0.30587235
76	0xbe833061	-0.25622848
77	0xbecee893	-0.40411815
78	0x3d9d2fe0	0.07675147
79	0x3c313bc7	0.010817475
80	0xbeeb4c7c	-0.4595679
81	0xbeb51c52	-0.3537317
82	0x3e224063	0.15844874
83	0xbc51da6c	-0.0128084235
84	0xbe0752e2	-0.13215211
85	0xbe4ef53d	-0.20210738
86	0xbe47caf9	-0.19511022
87	0xbe3f3fc6	-0.18676671
88	0x3e93aeb8	0.28844237
89	0x3d8224d1	0.063546784
90	0xbe5ce42c	-0.21571416
91	0xbe840605	-0.25785843
92	0x3db852fc	0.09000203
93	0x3e8bd382	0.27309805
94	0x3f58d19e	0.8469485
95	0xbbd361e7	-0.00645088
96	0xbedeb35c	-0.43496215
97	0xbe83cc24	-0.25741684
98	0x3edf96a4	0.43669617
99	0xbd98a9af	-0.074542396
100	0x3da3717d	0.079806305
101	0x3e2157b0	0.15756106
102	0xbd3acf94	-0.04560812
103	0xbeaad13f	-0.33362767
104	0x3e5f2591	0.21791674
105	0x3c8ee64c	0.017443798
106	0xbf26cdb3	-0.6515762
107	0xbecf060a	-0.40434295
108	0xbe0cf30c	-0.1376459
109	0x3d7873d4	0.060657337
110	0x3e1ee3b8	0.15516555
111	0x3e0ae26a	0.13562933
112	0xbf1e58b1	-0.6185408
113	0xbe86f7ff	-0.2636108
114	0xbecde563	-0.4021407
115	0xbd7fe9e8	-0.06247893
116	0xbd86ac58	-0.06575841
117	0x3ded80d8	0.115968406
118	0xbd3739ec	-0.044732973
119	0x3df7e939	0.121050306
120	0x3cbb364b	0.022853037
121	0x3ee524c5	0.44754615
122	0x3e49a252	0.19690827
123	0x3e52eeed	0.20598955
124	0xbe1e8933	-0.15482025
125	0xbe3a0268	-0.1816498
126	0x3ee4a19f	0.44654557
127	0x3e7049bf	0.23465632
128	0x3e8d2dfe	0.27574152
129	0xbe93ed30	-0.28891897
130	0x3dedb56f	0.11606871
131	0xbd108e76	-0.03529211
132	0xbea94407	-0.33059713
133	0x3e625f9f	0.22106789
134	0xbc70fe66	-0.014709091
135	0xbf1a73e9	-0.60333115
136	0xbe6d8e2b	-0.23198764
137	0x3e899780	0.26873398
138	0xbd81b7e9	-0.06333906
139	0x3b9ceb43	0.0047887876
140	0x3dd67908	0.10472304
141	0xbf0f339d	-0.5593813
142	0xbee8ab1b	-0.45443043
143	0xbe4b4de1	-0.19853927
144	0x3ea743bd	0.32668868
145	0xbf4aa71c	-0.7916124
146	0x3e63b62c	0.22237462
147	0x3e453f51	0.19262435
148	0xbdf211ab	-0.11819776
149	0xbeb7880c	-0.35845983
150	0xbef75388	-0.48305917
151	0xbeb54d1b	-0.3541039
152	0xbe8caa09	-0.27473477
153	0xbe0358d4	-0.12826854
154	0xbe2d5f47	-0.16930877
155	0xbdc901c8	-0.09814793
156	0xbed834d3	-0.42227802
157	0xbda931c0	-0.08261442
158	0x3e0df913	0.13864546
159	0xbe63f1a6	-0.2226015
160	0xbe7cb405	-0.24678047
161	0xbe28bd08	-0.1647836
162	0xbe2d2e47	-0.16912185
163	0xbce2ca53	-0.027684366
164	0x3e6a42a2	0.22876981
165	0xbed00e74	-0.40636027
166	0xbe814b16	-0.252526
167	0xbf06fd6b	-0.52730435
168	0x3d057fc1	0.03259254
169	0xbe921c6a	-0.28537303
170	0x3e92548a	0.28580123
171	0xbef14e33	-0.47129974
172	0xbe04dfd5	-0.1297601
173	0xbf2b0aeb	-0.66813534
174	0xbef637ab	-0.48089346
175	0x3d409cba	0.047024466
176	0xbedc028a	-0.42970687
177	0xbd4f5a98	-0.050623506
178	0xbc909674	-0.017649867
179	0xbdb4b664	-0.08823851
180	0x3e3a6b9f	0.18205117
181	0x3e3da0da	0.18518391
182	0x3df248de	0.118303046
183	0x3b49e88b	0.0030808772
184	0xbd6c97b5	-0.057761867
185	0x3f0d6147	0.5522656
186	0xbed9e0a5	-0.42554203
187	0x3e7daa92	0.24772099
188	0xbf166e9c	-0.58762527
189	0xbdae4998	-0.08510131
190	0x3ef930c6	0.48670024
191	0x3e8b58a7	0.27216074
192	0xbe84e5e4	-0.25956643
193	0xbeb78682	-0.3584481
194	0xbf1df4ab	-0.6170146
195	0xbd78afb1	-0.060714427
196	0xbe66e86c	-0.225496
197	0xbd9251a6	-0.071444795
198	0xbed2fee8	-0.41210103
199	0x3dfa87cf	0.12232935
200	0x3e7893d2	0.24275139
201	0x3e523af0	0.20530295
202	0x3d6a14b4	0.05714865
203	0x3eb273e5	0.34854046
204	0x3d6f4ecb	0.058424752
205	0x3e88723e	0.2664966
206	0xbec55f05	-0.38549057
207	0x3ccf21b1	0.02528462
208	0x3e72d4f9	0.23714055
209	0xbe773793	-0.24142294
210	0xbf02f078	-0.51148176
211	0x3ecda815	0.401673
212	0xbe0742ec	-0.13209122
213	0x3daa81a8	0.08325511
214	0x3cef70fa	0.029228676
215	0x3da4a8f4	0.08040038
216	0x3e3d9de2	0.18517259
217	0xbe816be9	-0.2527764
218	0x3c9af20c	0.018914245
219	0xbf010e45	-0.504124
220	0x3c100fc4	0.008792821
221	0xbddfc384	-0.109259635
222	0xbecf6712	-0.40508324
223	0x3de780ab	0.11303838
224	0xbd4433b5	-0.047900874
225	0xbed58e4c	-0.41710126
226	0xbeb40c21	-0.35165504
227	0x3b8b8098	0.004257273
228	0xbe93c64f	-0.28862235
229	0xbdd24090	-0.102662206
230	0xbdf92f34	-0.121672064
231	0xbeab33c5	-0.33437935
232	0xbe39d0af	-0.18146013
233	0xbf14241b	-0.5786759
234	0x3d6d32eb	0.057909887
235	0xbded2cf7	-0.11580842
236	0xbea5f0a0	-0.32410145
237	0x3ec56aa3	0.3855792
238	0xbe2f8f0f	-0.17144416
239	0xbbe2de30	-0.0069234595
240	0x3e8eeb30	0.2791381
241	0xbf037f53	-0.51366156
242	0xbdeea9b9	-0.11653466
243	0x3e55dd18	0.20885122
244	0xbd67adb8	-0.056562155
245	0x3d96141e	0.07328056
246	0xbdf77904	-0.12083629
247	0xbdac05e7	-0.08399563
248	0x3e602448	0.2188884
249	0x3eb82186	0.35963076
250	0x3e4dae79	0.20086087
251	0xbe2a52a1	-0.16633083
252	0xbd755427	-0.059894707
253	0xbe04c642	-0.12966254
254	0xbefe6ac2	-0.49690825
255	0xbebd2b59	-0.36947134

encoder.1.fc.bias f4 [16]
0	0x3dcf75eb	0.10129913
1	0x3e6e583b	0.23275845
2	0x3e17fe2f	0.14843057
3	0x3e7aa931	0.24478604
4	0xbc186b51	-0.00930293
5	0x3d7f6505	0.0623522
6	0x3eb54d85	0.35410705
7	0xbddfa228	-0.10919601
8	0x3e5d4668	0.21608889
9	0xbdad4f49	-0.08462388
10	0x3e536cd1	0.20646979
11	0xbd07fcba	-0.033200003
12	0xbc3b81b3	-0.011444497
13	0x3db20f31	0.08694304
14	0x3efa83ce	0.48928684
15	0xbd53d823	-0.051719796

encoder.1.norm.weight f4 [16]
0	0x3fb062f6	1.37802
1	0x3fa67ca1	1.3006784
2	0x3f9ebb8e	1.2400987
3	0x3fa86b4b	1.3157743
4	0x3f8af415	1.0855738
5	0x3f971b4b	1.1805204
6	0x3fada234	1.3565125
7	0x3f8b7928	1.0896349
8	0x3fa20a3b	1.2659372
9	0x3f854e37	1.0414494
10	0x3fb055c3	1.3776172
11	0x3fa81352	1.3130896
12	0x3fb608ff	1.4221495
13	0x3f94ab5a	1.1614792
14	0x3f95c1cd	1.1699768
15	0x3faaa9f3	1.3333114

encoder.1.norm.bias f4 [16]
0	0x3eb298d2	0.34882218
1	0x3e950637	0.29106304
2	0x3e2f5710	0.17123055
3	0x3e71fef7	0.23632418
4	0x3e32ac3f	0.17448519
5	0x3e35d6eb	0.17757766
6	0x3e6f00c6	0.23340139
7	0x3d7d565e	0.061849944
8	0x3dd57696	0.10423009
9	0xbd8a3cc7	-0.067498736
10	0x3e65f55c	0.22456878
11	0x3e1bb945	0.15207393
12	0x3e8aff1f	0.27147767
13	0x3e1a34ba	0.15059176
14	0x3d049e8d	0.03237777
15	0x3ddc6dec	0.107631534

encoder.1.norm.running_mean f4 [16]
0	0xc00e25ef	-2.2210653
1	0xc02b9f3b	-2.6815937
2	0x3eb184fa	0.34671766
3	0xbf9dd21f	-1.2329749
4	0xbf8a43aa	-1.08019
5	0x3e7b4463	0.24537806
6	0x3eb03c07	0.34420797
7	0x3f841a78	1.0320578
8	0xbff7749e	-1.9332464
9	0xc02ec284	-2.7306223
10	0xc000cc66	-2.0124755
11	0x3fbb2a1d	1.4622227
12	0xbf3c9843	-0.7366983
13	0xbe623e8f	-0.22094177
14	0xbf8a5f8f	-1.0810412
15	0xc0137f28	-2.304636

encoder.1.norm.running_var f4 [16]
0	0x3f4adab0	0.7923994
1	0x4000397a	2.003508
2	0x3faf5dbc	1.370048
3	0x3f657f47	0.89647335
4	0x3f93e765	1.1554991
5	0x3fe46d87	1.7845925
6	0x3fbc3239	1.4702827
7	0x3f7c7894	0.9862149
8	0x3fbe43d1	1.4864446
9	0x3faf9e1a	1.3720124
10	0x3f7a0687	0.9766621
11	0x3fb94a31	1.4475766
12	0x3ec0b5a8	0.37638593
13	0x3f7446a2	0.9542028
14	0x3f205874	0.6263497
15	0x3ebaec24	0.36508286

encoder.2.weight f4 [32, 16]
0	0x3e84830d	0.25881234
1	0xbe6d30ca	-0.23163143
2	0x3d2c24fe	0.042027466
3	0x3e14b215	0.14521058
4	0x3ca98323	0.020692414
5	0x3e01c7ec	0.1267392
6	0x3d1acb5f	0.037791606
7	0x3ab5b820	0.0013864078
8	0x3e4e5e98	0.20153272
9	0x3e11b655	0.1422971
10	0x3b7e9f72	0.003885236
11	0xbe9972db	-0.2997044
12	0xbe88c064	-0.26709282
13	0x3ce401a1	0.027832808
14	0x3edcd53c	0.43131435
15	0xbdddcf17	-0.10830515
16	0x3ea4df22	0.32201487
17	0x3e074995	0.13211663
18	0x3dc2cf39	0.09512181
19	0x3e16377d	0.14669605
20	0x3d86eb33	0.065878294
21	0x3e4d67d0	0.20059133
22	0x3d275c64	0.040859595
23	0xbe9012c1	-0.28139308
24	0x3e398da1	0.18120433
25	0xbe13357f	-0.14375876
26	0x3d6e3e5a	0.05816493
27	0x3f06ae0b	0.5260932
28	0x3e3a1098	0.18170393
29	0xbeb7cf3f	-0.35900304
30	0x3ccccff1	0.025001498
31	0x3de2c757	0.11073177
32	0xbf28da48	-0.6595807
33	0x3daa81f1	0.083255656
34	0xbe9307a0	-0.28716755
35	0xbe22f327	-0.15913068
36	0x3e66e16c	0.22546929
37	0xbe2eaf7f	-0.17059134
38	0xbe0b355c	-0.13594574
39	0x3d9e2aa0	0.07722974
40	0x3ea82b16	0.32845372
41	0xbcd3a8ab	-0.025837263
42	0xbeaaf91e	-0.33393186
43	0x3c0f4acf	0.008745863
44	0xbe57463a	-0.21022883
45	0x3db7dfef	0.08978259
46	0x3d89efce	0.06735192
47	0xbe427d52	-0.18993118
48	0xbdd829a1	-0.10554815
49	0xbed3d278	-0.41371512
50	0xbeca2d3b	-0.39487633
51	0xbe13a758	-0.14419305
52	0x3dc246a7	0.09486132
53	0x3dd7ef7b	0.10543724
54	0xbf0c0286	-0.5469135
55	0x3dbaf643	0.09129002
56	0xbe175a98	-0.14780653
57	0xbea68773	-0.32525215
58	0xbef786ff	-0.4834518
59	0xbc1a36c0	-0.0094124675
60	0xbe12b4e7	-0.14326821
61	0x3ddd8189	0.108157225
62	0x3e251e14	0.16124755
63	0xbe467eaa	-0.19384256
64	0x3f51ab3c	0.8190191
65	0xbd06b4aa	-0.03288714
66	0xbe3bc376	-0.18336281
67	0x3edfdf13	0.4372488
68	0x3da644e8	0.081186116
69	0xbca61eaa	-0.020278294
70	0x3e1323b4	0.14369088
71	0x3eb12175	0.34595838
72	0xbe600d35	-0.21880038
73	0xbd423e65	-0.047422785
74	0x3e451dcc	0.19249648
75	0x3ec68bc6	0.38778514
76	0x3f07665e	0.52890575
77	0x3dada2d1	0.084783204
78	0x3e1cfbd6	0.15330443
79	0xbe1b1daa	-0.15148035
80	0x3ed64297	0.4184768
81	0xbd81f9ac	-0.06346449
82	0x3dcfe236	0.10150568
83	0x3e95cd72	0.29258305
84	0x3e1ba7b2	0.1520069
85	0xbdeba3ef	-0.11505877
86	0x3dbb7105	0.09152416
87	0x3ea3c019	0.31982496
88	0xbe0917f1	-0.13388039
89	0x3dfee97d	0.12446878
90	0x3ed75086	0.42053622
91	0xbd097e46	-0.03356769
92	0x3ebe2181	0.37134936
93	0x3e7a4cad	0.24443312
94	0x3e00d7fc	0.12582392
95	0xbe55fcc3	-0.20897202
96	0x3f41045e	0.7539729
97	0x3eee714a	0.46570808
98	0x3e73a083	0.23791699
99	0x3e72b23a	0.237008
100	0x3b64f5f0	0.003493663
101	0xbe78c72b	-0.24294727
102	0x3ed51401	0.41616824
103	0xbd1f0a32	-0.038828082
104	0x3d1ab9b5	0.03777476
105	0xbe10ffab	-0.1416003
106	0x3d8bdf82	0.0682974
107	0x3ec7fa21	0.3905802
108	0x3dcf55f9	0.1012382
109	0xbec7a420	-0.38992405
110	0x3db461f6	0.08807747
111	0xbdc5b544	-0.09653714
112	0xbe96c8de	-0.29450125
113	0xbea324fd	-0.31864157
114	0xbe249ff4	-0.16076642
115	0xbf06acfa	-0.5260769
116	0x3d3d448b	0.046207946
117	0x3df4a92f	0.11946332
118	0xbede6e81	-0.43443683
119	0xbb594d02	-0.0033157472
120	0x3e90c604	0.28276074
121	0xbc780697	-0.01513829
122	0xbe15b9a1	-0.14621593
123	0xbf0a83ae	-0.5410718
124	0xbed535c7	-0.4164259
125	0x3d631b9d	0.055446256
126	0xbecae7b9	-0.39629915
127	0x3e195353	0.14973192
128	0xbf42a311	-0.7603007
129	0xbef43ac6	-0.4770109
130	0xbe9e84fa	-0.30960828
131	0xbed6f3a2	-0.41982752
132	0x3e4eb10e	0.20184729
133	0x3e803301	0.25038913
134	0x3d5e7b25	0.05431666
135	0xbdfb8661	-0.1228149
136	0xbe84594d	-0.2584938
137	0xbe6c879f	-0.2309861
138	0xbc92290c	-0.017841838
139	0xbedaf85c	-0.42767608
140	0xbea011a7	-0.31263468
141	0x3eaa0e69	0.3321412
142	0xbdb0240b	-0.08600625
143	0x3d8a0293	0.06738772
144	0x3dd6bd82	0.104853645
145	0x3eb08938	0.3447969
146	0x3c62058e	0.01379527
147	0x3ef054dd	0.46939746
148	0xbdea610f	-0.11444294
149	0xbe420170	-0.18945861
150	0x3d1884cb	0.037236016
151	0x3e3ae446	0.18251142
152	0xbdceea10	-0.10103238
153	0x3d7c9fbf	0.061675783
154	0x3e39fa9d	0.18162008
155	0x3e83a337	0.2571046
156	0x3edb4a25	0.42830005
157	0xbbf4b2dd	-0.007467611
158	0x3d89ecd4	0.067346245
159	0xbdc7aea9	-0.09750111
160	0xbf297f89	-0.6621023
161	0xbeded73f	-0.43523595
162	0xbcc8cfbe	-0.024513122
163	0xbeab0ae3	-0.33406743
164	0xbe671356	-0.2256597
165	0xbe9cf0a7	-0.30652353
166	0xbf124d83	-0.57149523
167	0xbeb10188	-0.3457148
168	0xbd0759b0	-0.033044517
169	0xbe215376	-0.15754494
170	0xbf14d9d3	-0.58144873
171	0x3d13db1a	0.036097623
172	0xbe844638	-0.25834823
173	0xbd138d46	-0.0360234
174	0x3c48f371	0.012265072
175	0x3ef3c905	0.47614303
176	0x3f266758	0.6500144
177	0x3efeec46	0.49789637
178	0x3ec93275	0.39296308
179	0x3e1a2b23	0.15055518
180	0xbe8af581	-0.2714043
181	0x3e27c192	0.16382435
182	0x3eae1a2e	0.3400435
183	0x3dab7668	0.083721936
184	0x3e7b23f1	0.2452543
185	0x3d38f56f	0.04515594
186	0x3edef28e	0.4354443
187	0x3eca5b1c	0.39522636
188	0x3f02e748	0.5113416
189	0x3e2e8c53	0.17045717
190	0x3e9a7d44	0.30173695
191	0xbec94340	-0.3930912
192	0x3f2d0861	0.6759091
193	0x3ed05411	0.40689138
194	0xbe6c2259	-0.23059978
195	0x3ecb191f	0.39667603
196	0xbe823b7a	-0.25436002
197	0xba9b901e	-0.0011868512
198	0x3e2f2aab	0.1710612
199	0xbea6c8a1	-0.32574943
200	0xbe9bc179	-0.30421045
201	0xbe8b3b35	-0.2719361
202	0x3e85068f	0.25981566
203	0x3ea3c64b	0.31987223
204	0xbe0d2bd5	-0.13786252
205	0xbebc21ab	-0.36744437
206	0xbe6b7fad	-0.22997923
207	0xbd3fddde	-0.04684245
208	0xbf033324	-0.5124991
209	0xbea46d18	-0.32114482
210	0x3e23d31f	0.15998505
211	0xbde242c0	-0.11047888
212	0x3e6e2d83	0.23259549
213	0xbeb4c5ee	-0.35307258
214	0xbeb03dc2	-0.34422117
215	0x3c77c95a	0.01512369
216	0xbe6078b1	-0.2192104
217	0x3e7c5540	0.24641895
218	0xbe58e99a	-0.21182862
219	0xbc1021aa	-0.008797089
220	0xbf091085	-0.5354083
221	0x3e1a2222	0.15052083
222	0xbe8ea12f	-0.27857348
223	0x3dfbf499	0.12302513
224	0xbe324f62	-0.17413095
225	0xbe955068	-0.29162908
226	0xbe75fe63	-0.24022822
227	0xbd227be1	-0.03966892
228	0x3ed50472	0.41604954
229	0xbe87f1b1	-0.26551583
230	0x3df5548e	0.11979018
231	0xbe8cd433	-0.27505645
232	0xbe82d066	-0.2554962
233	0x3ddb2fa7	0.10702448
234	0xbe969288	-0.2940867
235	0xbe9770cc	-0.29578245
236	0x3d43365b	0.04765926
237	0x3d3ac573	0.04559846
238	0xbe26cdc7	-0.16289435
239	0x3cc1a88a	0.023639936
240	0x3f1b5054	0.60669446
241	0xbdafa72e	-0.08576809
242	0xbec14479	-0.37747553
243	0x3e7aecc6	0.24504384
244	0xbf0ecf76	-0.5578531
245	0xbdcd51eb	-0.1002539
246	0x3e9ac321	0.30226997
247	0x3e3dbbfd	0.18528743
248	0xbe9dc1f3	-0.30812034
249	0x3d54c260	0.051943183
250	0x3eca5016	0.39514226
251	0x3e9ecb4e	0.31014484
252	0x3e7f2cc5	0.24919422
253	0xbeefdf99	-0.4685028
254	0x3bed107b	0.0072346306
255	0xbe008427	-0.12550412

encoder.2.bias f4 [32]
0	0xbdc5794c	-0.09642276
1	0x3e752fa7	0.23943959
2	0xbe7f6200	-0.24939728
3	0xbe7ddc79	-0.24791135
4	0x3e963c66	0.29342955
5	0x3e8ed623	0.27897748
6	0x3e9cf81f	0.3065805
7	0xbe9485ae	-0.2900824
8	0xbe8ba4e5	-0.27274242
9	0x3e950b72	0.29110295
10	0xbe960248	-0.29298615
11	0x3e91dc27	0.28488275
12	0x3e410063	0.18847804
13	0xbe8ddd1a	-0.2770775
14	0xbe748527	-0.23878919
15	0x3d5d3bb6	0.054012023
16	0xbe8399b4	-0.25703204
17	0x3d3f0ebf	0.046644922
18	0x3e8f44d6	0.27982205
19	0x3e84e0b6	0.2595269
20	0xbe8062e0	-0.25075436
21	0x3e8a917d	0.27064124
22	0xbdf45632	-0.11930503
23	0xbe59f8b1	-0.21286274
24	0xbe6f8e66	-0.23394164
25	0x3e01b71f	0.12667511
26	0x3e9294dc	0.28629196
27	0x3e8c7089	0.27429608
28	0x3cdf6098	0.02726774
29	0x3e7dd2f3	0.24787502
30	0x3e8c8f41	0.27453044
31	0x3e82154b	0.2540687

nee_decoder.0.fc.weight f4 [16, 32]
0	0xbea8534a	-0.32876045
1	0xbddd9c3f	-0.10820817
2	0xbeb27b52	-0.3485971
3	0xbcb37ec3	-0.02191103
4	0x3db95cac	0.09050879
5	0xbe44658f	-0.19179367
6	0xbb8b5d65	-0.004253077
7	0xbdf50318	-0.11963481
8	0x3e082163	0.13293986
9	0x3e5cd8c6	0.21567068
10	0x3e23383f	0.15939425
11	0x3e8f3546	0.27970332
12	0x3ea4671f	0.32109925
13	0x3de7ba9f	0.11314892
14	0xbb39e9d6	-0.0028368137
15	0xbd43c806	-0.04779818
16	0xbedc6f51	-0.43053678
17	0xbdf653a8	-0.12027675
18	0xbe2e3f54	-0.17016345
19	0x3e5eba1b	0.21750681
20	0x3db7dbd9	0.089774795
21	0x3e677cce	0.22606203
22	0x3e71a085	0.2359639
23	0x3dfcdb30	0.12346494
24	0x3e41c018	0.18920934
25	0x3de88f26	0.113554284
26	0x3deb86af	0.11500298
27	0x3e647590	0.22310472
28	0x3dbc836e	0.09204756
29	0xbe31b58f	-0.17354415
30	0xbeeb0daa	-0.45908862
31	0x3eda8ebb	0.4268702
32	0xbb52552f	-0.003209423
33	0x3c555d04	0.013022665
34	0xbc9c350a	-0.01906826
35	0x3e53374d	0.20626564
36	0xbe09b94c	-0.13449591
37	0xbe41f77f	-0.18942069
38	0xbe91ca93	-0.28474864
39	0x3e181397	0.14851223
40	0x3e083b28	0.13303816
41	0xbd1a40a9	-0.03765932
42	0xbe536312	-0.20643261
43	0xbe2690b6	-0.1626614
44	0xbdde5f23	-0.1085799
45	0xbeb2da14	-0.34932005
46	0xbe4e865c	-0.20168442
47	0xbe34352d	-0.1759841
48	0xbe9c0eaf	-0.30479953
49	0xbe757267	-0.23969422
50	0x3d09b023	0.033615243
51	0x3d7ed1f5	0.06221195
52	0xbd3affd3	-0.04565413
53	0xbe829fee	-0.25512642
54	0xbe849122	-0.25891978
55	0xbe9ab836	-0.30218667
56	0xbe857c3f	-0.26071355
57	0xbe394b49	-0.18095125
58	0x3d7499dd	0.059717048
59	0xbdf31590	-0.11869347
60	0xbec456da	-0.38347512
61	0x3d982e90	0.07430756
62	0xbe81fcc3	-0.25388154
63	0xbe828ed0	-0.25499582
64	0xbd2d5b73	-0.04232354
65	0xbd872295	-0.06598393
66	0x3e5f653a	0.21815959
67	0x3e297b40	0.16550922
68	0x3c3af462	0.011410804
69	0x3dea99a4	0.11455086
70	0xbcaeadfc	-0.021323197
71	0x3e47def4	0.19518644
72	0x3eddc9b9	0.43317965
73	0xbe825f1b	-0.25463185
74	0xbd9dfc52	-0.07714142
75	0xbe173cd5	-0.147693
76	0xbe4dbe18	-0.20092046
77	0xbe69e535	-0.22841342
78	0xbe998310	-0.29982805
79	0xbe440b9e	-0.19145057
80	0xbe316565	-0.17323835
81	0xbe095269	-0.13410343
82	0x3c49cc80	0.012316823
83	0xbe86ef13	-0.26354274
84	0xbde31bdb	-0.110892974
85	0x3eaf29a4	0.34211457
86	0x3b99d297	0.0046942937
87	0xbe48acd1	-0.19597174
88	0x3dc3ca27	0.09560042
89	0xbebbe0b4	-0.36694872
90	0xbed7c13f	-0.42139623
91	0xbb441deb	-0.002992506
92	0x3ca1c0d1	0.019745262
93	0x3e3c4d29	0.1838881
94	0xbc09791d	-0.008390692
95	0xbe9a2322	-0.3010493
96	0xbee768d2	-0.4519716
97	0xbd9e80ec	-0.07739434
98	0xbec5b75f	-0.38616464
99	0x3e6ea99f	0.23306893
100	0x3ccd233c	0.025041215
101	0xbe5744a6	-0.21022281
102	0xbe683cfc	-0.22679514
103	0xbdb5f502	-0.08884622
104	0xbd30946d	-0.0431103
105	0xbcd152f4	-0.02555225
106	0xbd54f2a5	-0.051989216
107	0xbd9e1e72	-0.07720651
108	0xbd110f22	-0.035414822
109	0xbdbb4a50	-0.09145033
110	0x3e83a4a0	0.25711536
111	0x3d9ca7f5	0.07649223
112	0xbe1e59b1	-0.15463902
113	0x3dec7f77	0.115477495
114	0x3e834e9e	0.25645918
115	0x3eace155	0.33765665
116	0xbead33c6	-0.33828562
117	0xbe5a20e4	-0.2130161
118	0xbdeb4d09	-0.11489303
119	0x3ed54f10	0.41661882
120	0x3d38da5d	0.045130122
121	0x3e9a8006	0.301758
122	0x3e03afcc	0.1286003
123	0x3e63a46b	0.22230689
124	0x3e261298	0.1621803
125	0xbe663c85	-0.22484024
126	0xbe1b7652	-0.15181854
127	0x3e773fe5	0.24145468
128	0x3df7df09	0.121030875
129	0xbd445981	-0.04793692
130	0xbe0e4e4e	-0.13897058
131	0xbe85a748	-0.26104188
132	0xbdb5fab4	-0.088857085
133	0xbd202e00	-0.03910637
134	0xbd8b99f0	-0.068164706
135	0x3df149e5	0.117816724
136	0x3eb1ac7c	0.34701908
137	0xbd954e7e	-0.07290362
138	0xbe85fc14	-0.26168883
139	0xbec7233d	-0.38894072
140	0x3dc618d6	0.09672706
141	0xbe905a8e	-0.28194088
142	0x3daf4631	0.0855831
143	0x3df59397	0.11991041
144	0xbe111578	-0.14168346
145	0x39ea0ed5	0.0004464301
146	0x3cfd58e8	0.030926183
147	0xbe8984a8	-0.2685902
148	0xbe565efd	-0.20934673
149	0xbd8e1ce0	-0.06939101
150	0xbedc9c88	-0.43088174
151	0x3e7078f4	0.2348364
152	0x3ec4b7e6	0.38421553
153	0xbe1360ac	-0.14392346
154	0x3e9409df	0.2891378
155	0xbe70e2a8	-0.23523962
156	0xbe9b6273	-0.30348548
157	0x3e201f2d	0.15636893
158	0xbe64d958	-0.22348535
159	0x3cd21e32	0.025649164
160	0x3e2c31c0	0.16815853
161	0xbe4cc12b	-0.19995563
162	0xbd2f584e	-0.042808823
163	0xbe7b4de4	-0.24541432
164	0x3e3b79d8	0.18308198
165	0xbe8a4eae	-0.27013153
166	0x3dad5327	0.08463126
167	0x3ec99299	0.39369658
168	0x38dce7f6	0.000105336236
169	0x3e301019	0.17193641
170	0xbd10a0f0	-0.035309732
171	0xbead7c80	-0.33884048
172	0xbcaa22bf	-0.020768521
173	0x3e640288	0.2226659
174	0xbda86eea	-0.0822428
175	0xbed3e171	-0.41382936
176	0x3d620b23	0.055186402
177	0xbe33efd0	-0.1757195
178	0x3d0c97b5	0.034324367
179	0x3e567bfd	0.20945735
180	0xbe747516	-0.2387279
181	0x3bb4d49f	0.0055185105
182	0xbe5a7cfa	-0.21336737
183	0x3e5b993a	0.2144517
184	0xbe87fc6f	-0.2655978
185	0x3e82d8fe	0.25556177
186	0xbeb7a6b4	-0.35869372
187	0xbb0ad60c	-0.002118471
188	0x3e5beec0	0.21477795
189	0x3bd8e79c	0.006619407
190	0xbd83a45a	-0.06427832
191	0xbe65ce08	-0.22441876
192	0xbe899b22	-0.2687617
193	0xbcbb5830	-0.0228692
194	0x3d99e728	0.07514793
195	0xbe634917	-0.2219585
196	0x3e92a034	0.2863785
197	0x3e89e655	0.26933542
198	0xbe5d5875	-0.21615775
199	0x3e83e122	0.257577
200	0x3e55106c	0.20807046
201	0x3e44142d	0.19148321
202	0x3e79e323	0.24403052
203	0xbd05c347	-0.032656934
204	0x3ea49e3c	0.32151973
205	0x3d6ffffa	0.058593728
206	0x3e7e5585	0.2483731
207	0xbea4d4ec	-0.32193696
208	0x3e7a50de	0.24444911
209	0x3d340a86	0.04395535
210	0x3dec1353	0.11527123
211	0xbcf9fa23	-0.030514782
212	0x3d87adcd	0.06624947
213	0x3e76600b	0.24060075
214	0xbe1c0e10	-0.1523974
215	0xbeaca8db	-0.33722576
216	0x3e978def	0.29600474
217	0x3b4612c8	0.0030223597
218	0x3e173779	0.14767255
219	0xbd6b3f64	-0.0574335
220	0x3c2fedc3	0.010737839
221	0xbdcefc38	-0.10106701
222	0xbcec0dfc	-0.028815262
223	0x3e1d1f58	0.15343988
224	0x3db2a889	0.08723552
225	0x3bf6cb67	0.0075315717
226	0xbe89709c	-0.26843727
227	0x3e2b1104	0.1670571
228	0x3e56122b	0.20905368
229	0xbeb104fa	-0.3457411
230	0xbb85e789	-0.004086439
231	0x3e424cc2	0.18974593
232	0x3e1549d7	0.14578949
233	0x3da5fd10	0.081049085
234	0x3e067723	0.13131385
235	0x3ea00a47	0.3125784
236	0xbe352491	-0.1768973
237	0x3e206709	0.15664305
238	0x3e6b575b	0.22982542
239	0x3dd223f7	0.10260766
240	0x3c3eff7f	0.011657595
241	0x3e67b5a2	0.22627881
242	0xbe6f5ecf	-0.2337601
243	0xbd56faae	-0.05248516
244	0x3e12a166	0.14319381
245	0x3e8abb03	0.27095804
246	0xbe385500	-0.18001175
247	0x3e76aa70	0.24088454
248	0x3e99b300	0.3001938
249	0xbdcc8037	-0.099853925
250	0xbd9f8f82	-0.07791044
251	0xbd65ff1f	-0.056151506
252	0xbd25cb62	-0.040477164
253	0xbe26cdc2	-0.16289428
254	0x3e97c734	0.29644167
255	0x3e50e1f0	0.20398688

nee_decoder.0.fc.bias f4 [16]
0	0x3b0a0ce9	0.0021064824
1	0x3c1822c2	0.009285631
2	0xbd2243ff	-0.039615627
3	0x3cf1a77e	0.029498812
4	0x3ca8889a	0.02057295
5	0x3d3a3e98	0.04546985
6	0x3c504396	0.012711426
7	0x3ca10e5b	0.019660166
8	0xbc3b5aa5	-0.011435186
9	0xbbe7cf1e	-0.007074251
10	0x3cc25f0a	0.023726959
11	0x3c598f68	0.01327882
12	0x3c1482e7	0.009064413
13	0x3d674fdc	0.056472644
14	0x3da8bb62	0.082388654
15	0x3e2d7b4d	0.16941567

nee_decoder.0.norm.weight f4 [16]
0	0x3f8775ab	1.0582784
1	0x3f6fedc6	0.9372219
2	0x3f83da27	1.030095
3	0x3f85d5b0	1.0455837
4	0x3f67877d	0.90441114
5	0x3f8a75bd	1.0817181
6	0x3f5986e4	0.8497145
7	0x3f87643b	1.0577463
8	0x3f6d0828	0.9259057
9	0x3f7c4999	0.985498
10	0x3f76b64e	0.96371925
11	0x3f886089	1.065446
12	0x3f676520	0.9038868
13	0x3f81d233	1.0142273
14	0x3f7ff4fc	0.9998319
15	0x3f83736a	1.0269597

nee_decoder.0.norm.bias f4 [16]
0	0x3d14fe9d	0.03637563
1	0xbab5d0b7	-0.0013871406
2	0xbceaa702	-0.028644089
3	0xbe10baf6	-0.1413382
4	0x3b6889ab	0.0035482447
5	0xbd9a5cfe	-0.07537268
6	0xbdc4eeb5	-0.09615842
7	0x3cf0ad9e	0.029379662
8	0xbc65cdc0	-0.014026105
9	0x3cab5724	0.020915575
10	0x3cfc1ca9	0.030775385
11	0x3d3637ce	0.044486813
12	0xbccb9a7f	-0.024853943
13	0x3c9a5ba3	0.018842524
14	0xbe05bc35	-0.13060077
15	0x3c027c28	0.0079641715

nee_decoder.0.norm.running_mean f4 [16]
0	0x40506bdd	3.2565835
1	0xbf89a56d	-1.0753609
2	0xc0606517	-3.50617
3	0x40674dd4	3.6141253
4	0xc02dc216	-2.714971
5	0x3e0b2934	0.13589936
6	0xc004f19a	-2.0772462
7	0xc052a0ce	-3.2910647
8	0x3ec2182d	0.3790907
9	0x3f886a07	1.0657357
10	0xc08d73d4	-4.420389
11	0xc0571c43	-3.3611
12	0x3f82ae98	1.0209532
13	0x4008abe7	2.135492
14	0x401fd32f	2.4972646
15	0x404836a1	3.1283343

nee_decoder.0.norm.running_var f4 [16]
0	0x404af012	3.1709027
1	0x4014a1df	2.3223798
2	0x40618b54	3.524129
3	0x3fde1d70	1.7352734
4	0x40140f50	2.3134346
5	0x400722a2	2.1114888
6	0x3f1ab808	0.6043706
7	0x3f50d97d	0.8158186
8	0x401c2c1d	2.4401925
9	0x3f57b891	0.84266
10	0x3f8d65e7	1.1046723
11	0x3fd9e401	1.7022706
12	0x3ec22756	0.37920636
13	0x3efd1f05	0.4943773
14	0x3f3f6a5a	0.74771655
15	0x3f25f608	0.6482854

nee_decoder.0.projection.weight f4 [16, 32]
0	0x3dd2084e	0.1025549
1	0xbd5ae972	-0.053445287
2	0x3b1b2cb7	0.0023677775
3	0xbe32111f	-0.17389344
4	0x3ceec11b	0.029144814
5	0xbe925e9e	-0.28587812
6	0x3e97df2f	0.29662463
7	0xbd257cd2	-0.04040224
8	0xbe88ac1f	-0.26693818
9	0x3b4bdc6d	0.0031106726
10	0xbde2b1cd	-0.11069069
11	0x3e8f843e	0.2803058
12	0x3e268416	0.16261324
13	0x3e22d258	0.15900552
14	0xbdab2566	-0.083567426
15	0xbeb9e472	-0.36307102
16	0x3e9b45ec	0.30326784
17	0x3ddcd0f2	0.10782041
18	0x3e3a5b3a	0.18198863
19	0x3d7d12fb	0.06178568
20	0xbe54eacc	-0.20792693
21	0xbd9aa4a3	-0.07550933
22	0xbe21347d	-0.15742679
23	0xbdd1239f	-0.10211872
24	0xbdfd52c6	-0.123693034
25	0xbebb340a	-0.3656314
26	0x3e2459be	0.16049859
27	0x3e4a10c9	0.19732966
28	0x3e513fa1	0.20434429
29	0xbdfdffbd	-0.12402294
30	0x3eacd205	0.33753982
31	0xbe8d4075	-0.2758824
32	0xbbbb3a8f	-0.005713768
33	0x3e8a11cb	0.269667
34	0xbeaeb6ff	-0.3412399
35	0x3e9b6d9a	0.30357057
36	0x3e809efb	0.25121292
37	0x3c410690	0.01178135
38	0xbe3a1bc9	-0.18174662
39	0x3eac0d80	0.3360405
40	0x3e6f5b41	0.23374654
41	0xbdad515e	-0.08462785
42	0xbe86a7d2	-0.26299912
43	0x3d815f0d	0.063169576
44	0x3eb5577c	0.35418308
45	0xbe17dbe2	-0.14829972
46	0x3e8ec9d3	0.27888355
47	0xbe971bac	-0.295133
48	0x3e64b58d	0.22334881
49	0x3e90540c	0.28189123
50	0x3e3b101c	0.18267864
51	0x3c9dc17a	0.019257296
52	0xbeb23d96	-0.3481261
53	0xbda0a077	-0.07843106
54	0x3e33ee87	0.1757146
55	0xbdafe143	-0.08587887
56	0xbeaeaf7c	-0.3411826
57	0x3e954f98	0.29162288
58	0x3e88b016	0.26696843
59	0x3ea7c752	0.32769257
60	0x3e8ab1d6	0.27088803
61	0x3eb3b227	0.35096857
62	0x3e1b067f	0.15139197
63	0x3eb592f6	0.35463685
64	0x3e99962c	0.29997385
65	0xbe97000c	-0.29492223
66	0xbd6993a3	-0.057025563
67	0x3ebd0ec8	0.3692534
68	0x3c02075b	0.007936324
69	0xbe92df3e	-0.28685945
70	0xbe8383b9	-0.25686434
71	0xbe6fa9ed	-0.23404665
72	0x3e7e55af	0.24837373
73	0xbeaddade	-0.33956045
74	0xbeaa7abc	-0.33296764
75	0x3d6dbb35	0.058039863
76	0xbe79fc17	-0.24412571
77	0xbe3ed1c2	-0.18634704
78	0x3e1a41ad	0.15064116
79	0x3ecbc58e	0.3979916
80	0x3e58d6ae	0.21175644
81	0x3db968cc	0.090531915
82	0x3e47a194	0.19495231
83	0x3dffce3c	0.12490508
84	0x3ebfae4f	0.37437674
85	0x3dd55192	0.10415949
86	0xbe376d8e	-0.17912886
87	0xbe4db52b	-0.20088641
88	0xbe247517	-0.16060291
89	0xbe13411d	-0.14380307
90	0xbcb30e27	-0.021857334
91	0xbc9e5913	-0.019329583
92	0x3dbf4980	0.09340191
93	0x3e21d1c4	0.15802675
94	0x3d931964	0.07182577
95	0xbeb31d9f	-0.34983537
96	0xbe6e818b	-0.23291604
97	0x3d1679a9	0.036737118
98	0x3c3fa3b4	0.011696745
99	0xbddcd7c0	-0.107833385
100	0xbd0e32a2	-0.034716256
101	0xbdc9a61c	-0.09846136
102	0xbe96a515	-0.29422823
103	0x3e9f7041	0.3114033
104	0xbe66eada	-0.22550526
105	0x3e5fe9d9	0.2186655
106	0x3e748dc8	0.2388221
107	0xbd719aef	-0.058985647
108	0xbc8f71b5	-0.017510274
109	0x3e8dd050	0.27697992
110	0x3e6974c4	0.22798449
111	0x3ea2f4cf	0.318274
112	0xbe9ab65b	-0.3021725
113	0x3e4621d2	0.19348839
114	0x3d265fb8	0.04061863
115	0x3e8015f9	0.25016764
116	0xbe7a2bcc	-0.2443077
117	0x3d76e61e	0.06027805
118	0x3e72ef9b	0.23724215
119	0xbe99d4c6	-0.30045146
120	0x3e84ef82	0.2596398
121	0x3e94176e	0.28924125
122	0xbeaa2886	-0.33234042
123	0xbe64e0f2	-0.22351435
124	0x3db5f1f4	0.088840395
125	0x3e6b1400	0.22956848
126	0x3e2020fa	0.1563758
127	0xbeac8f15	-0.33702913
128	0x3d03d417	0.032184687
129	0xbe9fb462	-0.3119231
130	0x3e8db679	0.27678278
131	0x3da1604f	0.078796975
132	0x3eacc0fa	0.3374098
133	0xbe2cab45	-0.16862209
134	0xbd66db95	-0.056361753
135	0xbdb7343c	-0.0894551
136	0x3e053988	0.13010228
137	0xbdfab1e4	-0.12240961
138	0x3e9312b5	0.2872521
139	0x3e9ab08f	0.3021283
140	0xbeb26af4	-0.34847224
141	0xbdf37fba	-0.11889596
142	0x3e88bb41	0.26705363
143	0x3de4d89c	0.111741275
144	0xbdcf74b2	-0.1012968
145	0x3e567410	0.20942712
146	0xbe76ca7b	-0.24100678
147	0xbb2b13fd	-0.0026104443
148	0x3dfe8a3c	0.1242871
149	0x3e974d01	0.29550937
150	0x3ec236d2	0.3793245
151	0x3e81d056	0.2535426
152	0xbdea0bee	-0.11428057
153	0x3e1b872d	0.15188284
154	0xbdb93b22	-0.09044482
155	0x3ea0832f	0.31350085
156	0xbe70f5c7	-0.23531257
157	0xbe85c33c	-0.26125515
158	0x3e845718	0.25847697
159	0xbea40ecc	-0.3204254
160	0x3eab34fe	0.33438867
161	0xbe89c0a3	-0.26904783
162	0x3e6c885e	0.23098895
163	0xbe1e4e47	-0.15459548
164	0xbe29444b	-0.16529958
165	0xbdc203b9	-0.09473366
166	0x3de437c4	0.11143449
167	0x3e628479	0.22120847
168	0x3e6b6358	0.22987115
169	0xbe0caa56	-0.13736853
170	0xbd9a4408	-0.07532507
171	0x3e25f6da	0.16207448
172	0xbe37a6da	-0.17934743
173	0xbe52d542	-0.20589164
174	0x3e022a5a	0.12711468
175	0x3e94f459	0.29092672
176	0xbdf14801	-0.11781312
177	0x3c7bf491	0.015378133
178	0x3ea72279	0.32643488
179	0x3ead6b32	0.33870846
180	0x3e74d946	0.23911008
181	0xbd96e6f5	-0.0736827
182	0x3eaa65ef	0.33280894
183	0x3e00f836	0.12594685
184	0x3d10d506	0.035359405
185	0x3ebba408	0.36648583
186	0xbe1c03c4	-0.15235811
187	0x3e9d1f96	0.3068816
188	0x3dd53708	0.10410887
189	0x3e5654b6	0.20930752
190	0xbd8dcd61	-0.069239385
191	0xbda10334	-0.07861939
192	0xbef60fcd	-0.4805893
193	0x3e6857a4	0.22689682
194	0xbd783bef	-0.060604032
195	0x3e9e51ed	0.3092188
196	0xbe1f21ec	-0.15540284
197	0x3e58f691	0.21187808
198	0xbeadc80a	-0.3394168
199	0xbe850955	-0.25983682
200	0xbebebc42	-0.37253004
201	0x3d13572e	0.035971813
202	0x3d0bd5d3	0.034139466
203	0xbdecb6dc	-0.11558315
204	0x3cbf42c2	0.023347262
205	0x3d9347bd	0.07191417
206	0x3e38235e	0.17982242
207	0xbe620359	-0.2207159
208	0xbd497c11	-0.049190585
209	0x3e1faf9a	0.1559433
210	0x3ebc1982	0.3673821
211	0x3e83c4ab	0.25735983
212	0x3d9d222d	0.07672534
213	0x3e931914	0.2873007
214	0xbe3a1396	-0.18171534
215	0xbe2d74a0	-0.1693902
216	0x3e6b5f02	0.22985461
217	0x3ddaccaa	0.10683568
218	0xbe8ae475	-0.27127424
219	0xbe529f1f	-0.20568512
220	0xbe5833d6	-0.21113524
221	0x3e93a1ef	0.28834483
222	0xbdb891e8	-0.090122044
223	0x3ea6600f	0.32495162
224	0xbd80407e	-0.06262301
225	0xbeb5e920	-0.35529423
226	0x3e76f033	0.24115066
227	0xbe253838	-0.16134727
228	0xbd2accc4	-0.041699186
229	0xbe5b61fc	-0.21424097
230	0xbe49924e	-0.19684717
231	0xbe255f33	-0.16149597
232	0x3e2f8638	0.17141044
233	0xbe90d633	-0.2828842
234	0xbe9448c4	-0.28961766
235	0x3dc1ed46	0.094690844
236	0x3cca63fa	0.024705876
237	0xbe9dd0ae	-0.30823272
238	0x3df387fb	0.118911706
239	0x3e92766c	0.28605974
240	0xbd632cf5	-0.055462796
241	0x3e6fbf9f	0.23412941
242	0xbdc025db	-0.0938222
243	0xbdde9d70	-0.108698726
244	0xbe22bbcd	-0.15891953
245	0xbebc05d0	-0.36723185
246	0xbed13da1	-0.40867332
247	0x3e6c6eb9	0.23089112
248	0x3d958ca0	0.07302213
249	0x3cfc0916	0.030766051
250	0x3cb76f27	0.022391869
251	0xbb2a5c98	-0.0025995132
252	0xbe0d3d63	-0.13792948
253	0xbdbb4f56	-0.091459915
254	0x3e92b7ff	0.28656003
255	0xbe2ce2ac	-0.16883343

nee_decoder.0.projection.bias f4 [16]
0	0xbb5af789	-0.0033411703
1	0x3aa38456	0.0012475352
2	0x3864b088	5.4523844e-05
3	0xbb580961	-0.0032964575
4	0x3b5a4459	0.0033304899
5	0x3a87276a	0.0010311429
6	0xbb1bab4b	-0.0023753222
7	0xb93ea110	-0.00018179812
8	0x3b2b58e6	0.0026145517
9	0x3aaee056	0.0013342004
10	0x3afee5bb	0.0019447127
11	0xbabf2290	-0.0014582444
12	0x3b2fbfa9	0.002681712
13	0x3b99d104	0.004694106
14	0xba78f852	-0.0009497452
15	0x3b878e10	0.004136808

nee_decoder.1.fc.weight f4 [16, 16]
0	0x3e949274	0.29017985
1	0x3e496573	0.19667606
2	0x3ebff41a	0.37490922
3	0x3dc4cdda	0.096095756
4	0xbd3c9877	-0.04604384
5	0x3dfd64d2	0.123727456
6	0xbf09b4b1	-0.5379134
7	0xbdaf4760	-0.085585356
8	0x3e06c9bf	0.13162898
9	0x3ea1520c	0.3150791
10	0xbe39df17	-0.18151508
11	0x3e46c984	0.1941281
12	0x3c9bcbfa	0.019018162
13	0xbd7c11e9	-0.061540518
14	0xbd873edb	-0.066037856
15	0x3e6df6e2	0.2323871
16	0xbe987b4f	-0.29781577
17	0x3e08d280	0.1336155
18	0x3e55b6c7	0.20870505
19	0xbe82c1c8	-0.25538468
20	0x3e73d0bb	0.23810093
21	0xbed6f5e9	-0.4198449
22	0xbded37f8	-0.11582941
23	0xbeb54486	-0.35403842
24	0xbd50506a	-0.05085794
25	0x3db75dcf	0.089534394
26	0xbee397d8	-0.44451785
27	0x3d8d573c	0.06901404
28	0xbe89e77b	-0.26934418
29	0x3e6cbe64	0.23119503
30	0x3eaba9d0	0.33527994
31	0x3eb8a267	0.36061403
32	0xbe88bbcb	-0.26705775
33	0x3e781edf	0.24230526
34	0x3ec0f047	0.37683317
35	0x3e010898	0.12600935
36	0x3ebe046c	0.3711275
37	0xbd04c1c6	-0.03241136
38	0xbefea073	-0.49731788
39	0xbdba0352	-0.090826645
40	0x3e909ddc	0.28245437
41	0xbd078c28	-0.033092648
42	0xbe5ccbc9	-0.21562113
43	0xbe0e6585	-0.13905914
44	0xbc0a1345	-0.008427446
45	0x3e37991c	0.179295
46	0x3e3b00e2	0.18262056
47	0x3edc1106	0.42981738
48	0x3e482dcd	0.19548722
49	0x3eeb83eb	0.45999083
50	0xbee7aee2	-0.45250612
51	0x3e126cdc	0.14299339
52	0x3deebb70	0.116568446
53	0x3dbd519d	0.09244082
54	0x3db21d0b	0.08696946
55	0xbec3678d	-0.3816494
56	0xbdaece2d	-0.08535419
57	0xbd64be83	-0.05584575
58	0x3ba1025b	0.004913611
59	0xbf373685	-0.71567565
60	0x3d12d07e	0.035843365
61	0xbe0d24cc	-0.13783568
62	0xbe1dcc11	-0.15409876
63	0xbe8bf1ce	-0.2733292
64	0x3deea9e0	0.11653495
65	0x3e095bbd	0.13413902
66	0xbe534f21	-0.20635654
67	0x3b32e42e	0.002729665
68	0xbede3489	-0.43399456
69	0xbd26dc4a	-0.040737428
70	0xbed4166e	-0.41423362
71	0xbe0eb6a9	-0.13936867
72	0x3e8119fb	0.25215134
73	0xbe7a55b7	-0.2444676
74	0xbdc3c415	-0.09558884
75	0xbc8c48be	-0.01712453
76	0xbdb156df	-0.086591475
77	0x3e8500ab	0.25977072
78	0x3dc492af	0.0959829
79	0x3e5d8017	0.21630894
80	0xbdb087ce	-0.08619653
81	0xbe016664	-0.12636715
82	0xbebec276	-0.37257737
83	0x3d8e9ddf	0.06963705
84	0xbe658836	-0.22415242
85	0x3c0c175a	0.008550489
86	0x3e5bd99e	0.21469733
87	0x3eb80929	0.3594449
88	0xbe333ee5	-0.17504461
89	0xbed64427	-0.4184887
90	0xbf019c26	-0.5062889
91	0xbc8143d4	-0.015779413
92	0xbdad5731	-0.08463896
93	0x3e8a95a6	0.27067298
94	0x3d92d489	0.07169444
95	0x3e5e42d1	0.21705176
96	0xbb0ec5a0	-0.0021785274
97	0xbec25028	-0.3795178
98	0xbea3f020	-0.32019138
99	0x3ec8f33f	0.39248082
100	0xbeec186d	-0.46112385
101	0xbd03b806	-0.03215792
102	0x3e37964a	0.17928424
103	0x3e995f15	0.29955354
104	0x3dda7057	0.106659584
105	0xbe8477d2	-0.25872666
106	0xbe8b5246	-0.27211207
107	0x3ea49518	0.32145
108	0xbe45b123	-0.19305854
109	0xbec1aae4	-0.37825692
110	0x3e1cd836	0.15316853
111	0x3c0632ea	0.00819085
112	0x3d0d95f0	0.03456682
113	0xbe94ad68	-0.29038548
114	0x3e639577	0.22224985
115	0x3ee83cc1	0.45358852
116	0xbe49b7a6	-0.19698963
117	0x3e7d118d	0.24713726
118	0x3e36d0fa	0.17853156
119	0xbf0ae8dd	-0.5426157
120	0x3ec41851	0.38299802
121	0xbde3e5c0	-0.11127806
122	0x3d5e869f	0.054327603
123	0xbd70456d	-0.05865996
124	0xbe1902fe	-0.14942548
125	0x3e94f8b6	0.29096
126	0xbc1d3773	-0.00959574
127	0xbec0e978	-0.37678123
128	0x3e2f105e	0.17096087
129	0xbee65bca	-0.44991904
130	0x3e9fb25b	0.31190762
131	0x3cdb6a4a	0.026784081
132	0x3d50ed47	0.051007535
133	0xbeaddac0	-0.33955956
134	0x3eaa92f1	0.33315232
135	0x3ea787a4	0.32720673
136	0xbe6ac5bf	-0.22926997
137	0x3e807046	0.25085658
138	0x3e30267f	0.17202185
139	0x3e7b2912	0.24527386
140	0xbe88361e	-0.26603788
141	0x3ccdff0e	0.025146034
142	0x3d9a414f	0.07531988
143	0x3e0701c0	0.13184261
144	0x3ec481bc	0.3838023
145	0xbeb79bd0	-0.35861063
146	0x3e0852a9	0.13312782
147	0x3d2763a6	0.040866517
148	0x3dd9b0fe	0.10629462
149	0xbe8e275f	-0.27764413
150	0x3ed1a136	0.40943307
151	0xbe43b184	-0.19110686
152	0x3db86427	0.090034775
153	0x3ea89cc0	0.3293209
154	0xbec11763	-0.37713155
155	0xbeae87a1	-0.34087852
156	0x3d984f2d	0.074369766
157	0xbe9e461d	-0.30912867
158	0xbe56be7d	-0.20971103
159	0xbe41257f	-0.1886196
160	0xbed2366d	-0.4105715
161	0x3e823505	0.25431076
162	0xbe0b73f2	-0.13618448
163	0xbddb3e75	-0.10705272
164	0x3e144977	0.1448115
165	0xbef3cc3c	-0.47616756
166	0x3e780439	0.24220361
167	0xbd551872	-0.052025266
168	0xbb5bfcc1	-0.00335674
169	0xbef4b06f	-0.47790858
170	0x3e855fdb	0.26049694
171	0xbd41087d	-0.047127236
172	0x3e0f94d9	0.14021625
173	0xbdf8be39	-0.12145657
174	0xbe6bd540	-0.23030567
175	0x3dbb9210	0.091587186
176	0xbd22c722	-0.03974069
177	0x3c0a0dfe	0.008426188
178	0x3e90fa7f	0.28316113
179	0x3e8586a7	0.26079294
180	0xbe345539	-0.17610635
181	0x3f004c59	0.501165
182	0xbe6f11a7	-0.23346578
183	0xbe2d9e8d	-0.16955014
184	0x3ea35fd7	0.31909057
185	0x3e91132b	0.28334936
186	0xbe165832	-0.14682081
187	0xbe305e5a	-0.17223492
188	0xbe76d46a	-0.24104467
189	0x3e26b2e6	0.16279182
190	0x3e8fec55	0.28109995
191	0xbe9c49a8	-0.30524945
192	0x3ec201b5	0.37891927
193	0x3d52e404	0.051486984
194	0xbde627e0	-0.11238074
195	0x3e8a53d7	0.2701709
196	0xbe06d3fa	-0.131668
197	0xbf105164	-0.5637419
198	0xbe7ad401	-0.24494936
199	0xbe1c3e68	-0.15258181
200	0x3e8d4e31	0.27598718
201	0xbe81ad0c	-0.25327337
202	0xbee4be9f	-0.44676682
203	0xbec2528d	-0.37953606
204	0xbea666d7	-0.32500336
205	0xbdc20ff9	-0.09475703
206	0xbed806c4	-0.42192662
207	0xbe9dfc76	-0.30856675
208	0xbe4d1333	-0.20026855
209	0x3ec83e05	0.39109817
210	0xbd765d90	-0.060147822
211	0xbe9a6fbb	-0.3016337
212	0xbe9957eb	-0.2994989
213	0xbe8943be	-0.26809496
214	0xbe970a37	-0.2949998
215	0xbe3409e8	-0.17581904
216	0x3e1f5534	0.15559846
217	0xbeabbbd6	-0.33541745
218	0xbe8616a0	-0.26189137
219	0x3e6e5a46	0.23276624
220	0x3e0986fc	0.13430399
221	0x3d236800	0.039894104
222	0x3ede40d5	0.43408838
223	0xbe80a337	-0.25124523
224	0xbdbe8a2d	-0.09303699
225	0x3f02d7f8	0.5111079
226	0xbcf13706	-0.029445183
227	0x3ea79f07	0.32738516
228	0x3da89382	0.0823126
229	0xbe15f668	-0.14644778
230	0xbcf2db7a	-0.02964567
231	0xbe6c7860	-0.23092794
232	0x3ecd192a	0.4005826
233	0x3ec26040	0.37964058
234	0x3ec666a8	0.38750196
235	0xbe912edb	-0.2835606
236	0x3c88bc4a	0.016691346
237	0x3e9c4aa0	0.30525684
238	0x3dfcb8a7	0.12339907
239	0xbe6cf811	-0.23141505
240	0x3e977bd5	0.29586664
241	0x3dd31a29	0.10307724
242	0xbe605608	-0.21907818
243	0x3e0e7efb	0.13915627
244	0xbf05c4c1	-0.5225335
245	0xbe952b97	-0.2913482
246	0xbe8b53dc	-0.27212417
247	0xbe1fd60f	-0.15609
248	0xbe3bd1d2	-0.18341759
249	0xbe99a7e5	-0.30010906
250	0xbd143523	-0.036183488
251	0xb9e196c8	-0.00043027685
252	0x3dd227dd	0.102615096
253	0xbdbb2aa7	-0.09138995
254	0x3e1225fe	0.14272305
255	0xbe4f83cf	-0.20265125

nee_decoder.1.fc.bias f4 [16]
0	0xbc804cbb	-0.015661588
1	0x3ba232ec	0.004949918
2	0x3c758af2	0.01498674
3	0x3d7644bd	0.060124148
4	0xbae89cd3	-0.0017746933
5	0xbdcb9d9a	-0.099421695
6	0xbbf42c03	-0.0074515357
7	0x3c1b3ec2	0.009475412
8	0x3b842e21	0.0040338193
9	0xbc5206a4	-0.012818966
10	0xbd7c6f23	-0.061629426
11	0x3d159a8c	0.03652434
12	0x3baef4f9	0.0053392616
13	0x3b06dc6f	0.0020578166
14	0x3de89ddf	0.113582365
15	0xbb86efa9	-0.004117925

nee_decoder.1.norm.weight f4 [16]
0	0x3f888232	1.0664732
1	0x3f73e8fb	0.95277375
2	0x3f831e21	1.024357
3	0x3f87ebde	1.0618856
4	0x3f785fa9	0.97020966
5	0x3f79abba	0.9752766
6	0x3f7dcfa8	0.99144983
7	0x3f854ba5	1.041371
8	0x3f82c555	1.0216471
9	0x3f7c396f	0.98525137
10	0x3f71b2c3	0.94413394
11	0x3f8b7473	1.0894912
12	0x3f7ae391	0.9800349
13	0x3f7aa069	0.97901016
14	0x3f9a3c23	1.2049602
15	0x3f7d5664	0.98959947

nee_decoder.1.norm.bias f4 [16]
0	0xbc1a5133	-0.009418773
1	0xbc666a40	-0.014063418
2	0xbd3b1a45	-0.04567935
3	0x3cc84189	0.024445312
4	0xbc5b4044	-0.013382021
5	0xbb596c7a	-0.003317623
6	0xbc3725f6	-0.011178484
7	0x3b02bd6e	0.0019949335
8	0xbd0c0902	-0.034188278
9	0xbcb61599	-0.022227095
10	0xbc084173	-0.008316386
11	0xbd1794b8	-0.037007064
12	0xbc9e5b5a	-0.01933067
13	0x3d081f9e	0.033233277
14	0xbcbc7108	-0.023003116
15	0xbc969bae	-0.01838478

nee_decoder.1.norm.running_mean f4 [16]
0	0x3f315995	0.69277316
1	0xc026bad0	-2.6051521
2	0xc0a574e3	-5.1705184
3	0x40b1d6b9	5.5574613
4	0xbe7e33b7	-0.24824415
5	0xc0453e3d	-3.0819237
6	0xbfd15406	-1.6353767
7	0xbfc416a2	-1.5319407
8	0xbee252e9	-0.4420388
9	0xbf829372	-1.0201247
10	0xbfae6e43	-1.3627399
11	0xbe0a52f1	-0.13508202
12	0xbfa1170a	-1.2585156
13	0x3c11eea0	0.00890699
14	0x40586d3e	3.3816676
15	0x4026a434	2.6037722

nee_decoder.1.norm.running_var f4 [16]
0	0x400d01c2	2.2032323
1	0x3f1949ad	0.59878045
2	0x40583876	3.378446
3	0x40a4558e	5.1354437
4	0x3fa6df8e	1.3036973
5	0x3fccb8fb	1.5993952
6	0x408a7f0e	4.3280096
7	0x40704007	3.753908
8	0x40170dd4	2.360219
9	0x3fa977c3	1.3239673
10	0x3f6af58f	0.9178094
11	0x3f5ee7f8	0.87072706
12	0x408c6927	4.387836
13	0x3fe78609	1.8087779
14	0x3ff81e13	1.9384178
15	0x3fbe7940	1.4880753

nee_decoder.2.weight f4 [1, 16]
0	0xbdf4c6cb	-0.11951979
1	0x3ed40a81	0.41414264
2	0xbed24fd1	-0.4107652
3	0xbdfc330a	-0.123144224
4	0x3e9ff6d7	0.3124301
5	0x3e6c5a6c	0.23081368
6	0x3cfcd79b	0.030864527
7	0xbf03a510	-0.5142374
8	0x3ebe1bce	0.37130588
9	0x3f105a27	0.5638756
10	0x3ee338bb	0.4437922
11	0xbed8ddb9	-0.4235666
12	0x3edfd6f0	0.43718672
13	0x3e020cbb	0.12700169
14	0xbe57def7	-0.21081148
15	0x3dfe7a0a	0.12425621
