climate/Final Experiments/PERNN255/best_model.pth (torch, 29282 bytes, 29 tensors)

encoder.0.weight f4 [16, 16]
000000 b9 61 e8 3d 77 f0 a6 3e 56 4a 08 bf fa 03 94 3d
       0.11346764 0.32605335 -0.5323843 0.07227321
000010 93 52 dd 3e 9d 8b af be 44 82 43 bf bf 89 b4 be
       0.43227062 -0.34286204 -0.76370645 -0.35261342
000020 c5 52 b0 be 65 8c 63 be 83 38 c7 bc 45 73 16 bf
       -0.34438148 -0.22221525 -0.02431894 -0.5876964
000030 25 22 86 be f5 93 16 be 36 a3 2c bc 27 a8 59 bd
       -0.26197925 -0.14704879 -0.010536959 -0.05313888
000040 65 b9 26 bd 91 46 47 3d 31 f3 cd 3e 82 28 c4 3d
       -0.04070415 0.04865128 0.40224603 0.09578039
000050 ce 79 02 be 10 48 94 3e 48 ea 52 3e fe 14 97 be
       -0.12741777 0.2896123 0.20597184 -0.29508203
000060 19 6f d6 3d 06 92 d4 3e 07 53 59 3e b6 dc a3 be
       0.10470409 0.41517657 0.21223079 -0.32004327
000070 e0 af 2f be 1b 4e ff 3c 0b c5 37 bd b4 c8 ce bd
       -0.17156935 0.031165173 -0.04486565 -0.10096875
000080 2f ea f7 be ac f2 18 be 53 fe 7b be cb 41 65 be
       -0.48420855 -0.14936322 -0.24608736 -0.2238838
000090 44 4a 9e 3e e8 df 16 3e 7d 5b dd 3e 04 33 10 be
       0.30916035 0.14733851 0.43233863 -0.14081961
0000a0 7a 17 d1 be c1 9a a2 3e 6f a0 8d bd a9 fd 21 bf
       -0.40838224 0.31758693 -0.06915366 -0.6327768
0000b0 ed 98 8d 3d d9 87 cd bd f6 86 bb bd 2e f0 e7 3e
       0.06913934 -0.100356765 -0.09156601 0.4530043
0000c0 9a 5a c8 be 41 71 c9 bd 35 26 78 3e 61 ed 56 3e
       -0.39131624 -0.098360546 0.24233325 0.2098899
0000d0 60 7c da bd ee f3 8d 3e 94 af da 3e cd f5 70 be
       -0.10668254 0.27725166 0.4271208 -0.23531266
0000e0 72 2e 71 3d 03 78 47 3d 92 43 9c 3c 84 1e 0c bf
       0.058882184 0.048698436 0.019075189 -0.54734063
0000f0 45 76 25 be da cb a4 3d 7c 58 b2 be 1d fa b7 3e
       -0.16158397 0.08046694 -0.34833133 0.3593301
000100 dc a1 f9 be cb 0e a2 3e e0 1c 22 3e 2b b5 36 bd
       -0.487563 0.3165191 0.15831327 -0.04460637
000110 af dc ae be 8a 74 52 3e 39 41 08 3d 70 20 ad 3e
       -0.34152743 0.20552269 0.033265326 0.3381381
000120 64 5a 80 3e dc a9 d8 be 28 52 11 be c8 0c c9 3e
       0.25068963 -0.42317092 -0.14191496 0.39267564
000130 3d 99 01 3e 6e ba 68 3d 59 fd bc 3e 3c 57 aa 3d
       0.12656112 0.05681842 0.3691204 0.0831742
000140 17 25 48 3e 48 58 1c be e5 96 70 be ed 0f dc 3b
       0.19545399 -0.15268052 -0.23495062 0.0067157657
000150 85 76 1c 3e e5 8a aa 3e ce de 2c bf 29 0c 81 bd
       0.15279587 0.33309093 -0.6752747 -0.063011475
000160 3a c2 a7 3e 13 bd ed bc f2 63 ee 3e bf 60 c6 3e
       0.3276537 -0.029020822 0.46560627 0.38745686
000170 8c 16 ae bc de f4 8e be 89 50 dd be d3 86 76 bd
       -0.021250986 -0.27921194 -0.43225506 -0.060187172
000180 13 ac 57 3d 73 08 46 3e c1 ff 08 be 5c 5b ab 3e
       0.052654337 0.1933916 -0.13378812 0.3346814
000190 49 55 dc 3e 4d 85 8d bd 5c 6d 01 be e6 88 49 be
       0.43033817 -0.06910191 -0.12639374 -0.19681129
0001a0 be 63 cd 3b ad 19 0d bf 4b 55 7a be 75 5a 42 3d
       0.0062679937 -0.55117303 -0.24446599 0.047449548
0001b0 f1 14 c2 bd 3d e7 a1 be 31 13 6f 3e 6a 29 95 bd
       -0.094766505 -0.31621733 0.23347165 -0.0728329
0001c0 65 dc a7 3e 8f 80 a6 be d7 4a 04 3e f0 53 a2 3e
       0.32785335 -0.32519957 0.12919174 0.31704664
0001d0 80 c9 1a 3d 46 6f d8 be f2 3f 3f bf e9 03 b3 be
       0.03778982 -0.42272395 -0.7470695 -0.3496392
0001e0 ed 6a 5e 3e 84 9c bd bd f4 55 2e be 0e bf 3c 3e
       0.21720476 -0.092583686 -0.17024976 0.18432257
0001f0 ca 22 3d 3e 5b 34 a1 be d3 12 93 3e b3 44 e9 3d
       0.18470302 -0.31485257 0.287253 0.113900565
000200 44 21 5e be 0c d2 ca 3e 18 ff 87 3d 75 3b 07 bd
       -0.21692377 0.39613378 0.06640452 -0.033015687
000210 fd 54 ca bd 5f a6 bd 3e 97 2c 5e 3d af 53 ba 3e
       -0.098794915 0.37040994 0.054241743 0.3639197
000220 7f 43 73 be 59 cb 88 bd 7e 97 73 3d ac 22 72 3e
       -0.23756216 -0.066794105 0.059470646 0.23646039
000230 56 fa 36 3e 73 35 12 3e 18 86 6b be a3 07 7e 3e
       0.17868933 0.14278202 -0.23000371 0.248076
000240 d9 b5 5d 3d df ba 9b be ab ff 22 bd 8a 6f 00 3e
       0.0541285 -0.3041601 -0.039794605 0.12542549
000250 23 f5 41 bd c7 1e ac be 94 4c 4f bf 95 50 1d be
       -0.04735292 -0.3361723 -0.80976224 -0.15362771
000260 d7 09 12 bc 9e 15 e6 be 56 47 be 3e ba 4d f0 be
       -0.008913479 -0.44938368 0.371638 -0.469343
000270 e6 8c 41 3e 69 bb 96 3e 37 00 e1 3e f9 46 be 3e
       0.18901405 0.29439858 0.43945476 0.37163523
000280 d1 fc 10 3f c8 c6 85 3e 7f 0a 2b be 1e 66 17 bc
       0.5663577 0.2612822 -0.16703223 -0.009240655
000290 8f b1 73 be e0 9b 51 be 8d 5b 7e 3e 2a 2e 99 3e
       -0.23798202 -0.20469618 0.24839611 0.29918033
0002a0 2b 0e 89 3e 5c 06 60 be 0f 60 82 3d 84 9c 28 bf
       0.26768622 -0.21877426 0.06365978 -0.65863824
0002b0 22 46 18 3f a2 e6 16 3d d5 aa 80 be b4 a1 01 be
       0.59482014 0.036841042 -0.25130334 -0.12659341
0002c0 46 8a d4 be b2 6c c1 3e a2 65 75 3e 5d 1d fc be
       -0.41511744 0.3777824 0.23964551 -0.49241152
0002d0 34 d8 0a 3e 21 57 34 3e c6 a2 2b bd e6 16 44 3d
       0.13559037 0.17611362 -0.04190328 0.0478734
0002e0 17 c9 d1 be 6a 79 fb bd 00 2f 26 bd 2b a0 56 bd
       -0.40973732 -0.12279017 -0.040572166 -0.05239884
0002f0 7d 0e a3 bc 7a 96 14 3d 66 c0 63 bc 8c 2c 99 3d
       -0.01990437 0.036276318 -0.013900852 0.074792
000300 62 51 4f be f3 db 45 be e4 15 46 3e ed 37 8d bd
       -0.20245889 -0.19322185 0.19344288 -0.068954326
000310 ab ab 89 be 90 ba 8a 3e 78 2c c4 be 1d cf b0 be
       -0.26888785 0.2709546 -0.38315177 -0.34533015
000320 b3 45 08 be c4 72 b9 be bc 7b 08 3f 6f 44 4f 3e
       -0.13307838 -0.36220372 0.53313804 0.20240949
000330 1c 73 b4 bb 99 12 cf bd 7b 49 11 be 47 47 ad 3e
       -0.005506886 -0.10110969 -0.14188187 0.33843443
000340 40 5d 92 3d 7d 3d ec 3d 62 32 0f 3e 3d ac c9 be
       0.07146692 0.115351655 0.13984063 -0.3938922
000350 f3 74 26 be 51 f1 be be dc 2e 0d be e8 6e 67 3e
       -0.1625555 -0.37293485 -0.13787407 0.22600901
000360 f0 07 13 be 99 af be 3e 7f f5 a0 3d 02 64 51 3d
       -0.14358497 0.37243345 0.07859325 0.051120766
000370 33 71 57 be fb 4c 4d bd 51 ef 18 be 70 6e 8c be
       -0.21039276 -0.050122242 -0.14935042 -0.27428007
000380 17 8d d5 bd bd d7 f2 3d bf ad 1d 3e 0c 39 ce 3d
       -0.104273014 0.11857555 0.1539831 0.100694746
000390 1d cc b4 be 72 85 01 3e c6 6f 97 3e 71 45 04 bc
       -0.35311976 0.12648562 0.29577464 -0.008073197
0003a0 53 0f 33 be a3 b1 ba 3e 94 07 13 3f fe 5a 3f bf
       -0.17486314 0.3646365 0.5743344 -0.7474822
0003b0 c7 ce 2a bf 95 82 b6 be 4d c9 3c 3d fb 97 d5 bd
       -0.6672177 -0.356465 0.046090413 -0.104293786
0003c0 31 40 b5 bc 2a 8e 61 be e2 c8 aa be 50 af 8f 3e
       -0.022125335 -0.22026888 -0.33356386 0.2806344
0003d0 30 37 52 be 5e d1 4b be fe c7 cb ba 41 af 87 be
       -0.20528865 -0.19904086 -0.0015547273 -0.26500896
0003e0 e5 04 c9 bd e8 e0 90 3e 65 e8 89 bd 56 db 19 3f
       -0.09815387 0.2829659 -0.06733779 0.60100305
0003f0 b7 c2 a8 bd 18 b4 e4 3e a7 8d e1 3e 33 4d 95 3e
       -0.08240264 0.4466865 0.44053385 0.2916046

encoder.0.bias f4 [16]
000000 d7 14 c9 3e 65 49 b5 be 88 d8 ce bc 9a d6 c7 be
       0.39273712 -0.35407558 -0.025249735 -0.39030915
000010 39 3e 4f 3e 86 c9 00 3f a4 11 42 be 24 35 d8 3e
       0.2023858 0.503075 -0.18952042 0.42228043
000020 d8 c5 99 3e d0 21 d6 3e bd ef c2 3e 4f e3 6f be
       0.30033755 0.41822672 0.3807353 -0.23426555
000030 d7 ff b8 3e 5d 3e 34 be a8 b2 13 3f c6 72 89 3e
       0.3613269 -0.17601915 0.5769448 0.26845378

encoder.2.weight f4 [16, 16]
000000 a6 57 9d 3e cd ad 13 bf c2 24 3a ba e4 2d 39 be
       0.30730933 -0.57687074 -0.0007100814 -0.18083912
000010 2a 70 f6 3d 57 9c 04 3f 5e cc cc be cf 5e 09 3e
       0.12033112 0.51801056 -0.3999967 0.13415073
000020 39 1b 40 3e 3f 13 6d 3d 65 b8 eb 3e 6c 94 d4 be
       0.18760385 0.057879683 0.4603912 -0.41519487
000030 41 01 2f 3e 7a d1 7b 3d 91 fa e3 3c dc 25 8e 3e
       0.17090322 0.06147907 0.02782944 0.2776326
000040 09 04 68 3e 88 a3 e8 be 75 58 46 be b6 bb 69 be
       0.2265779 -0.45437264 -0.19369681 -0.22825512
000050 58 03 2a 3d 34 56 da 3e fb 00 2f bd 38 d9 a3 bd
       0.041507095 0.42643893 -0.042725544 -0.080004156
000060 96 5e c9 be 6b d9 b7 3e 16 d5 80 3d dc 7e 2a 3e
       -0.39329976 0.35908064 0.06290643 0.16649956
000070 a5 db c2 3e 0a 5e 53 3e d6 b3 11 3e ea fd f0 bd
       0.380582 0.20641342 0.14228758 -0.1176718
000080 0d dd a7 3e 87 ab 66 be 14 c0 a0 be 32 dc 85 be
       0.32785836 -0.2252637 -0.31396544 -0.26144558
000090 b1 bb e0 3e 55 96 1d 3f 1e bf e0 be a2 d5 d8 3e
       0.43893197 0.61557513 -0.4389581 0.4235049
0000a0 da 4c be 3e 1a 25 dc 3e 13 71 b0 3e 6a ca 70 be
       0.37168008 0.42997056 0.3446127 -0.23514715
0000b0 36 e9 a0 3b ed d9 2a 3e 75 5d 5f 3e ba b4 b1 3d
       0.0049106134 0.16684695 0.21812995 0.08677049
0000c0 8a 0f c8 3d 1f 42 16 bf 45 68 4d 3e 48 f9 39 be
       0.09768589 -0.5869464 0.20059307 -0.181615
0000d0 6d fb 62 3e d3 44 38 bc e2 81 28 bd 77 4c 90 3e
       0.22166224 -0.011246878 -0.04113949 0.28183338
0000e0 6d cf 3b bd b0 71 ba be b1 ca eb 3e b5 af 5d be
       -0.045852114 -0.36414862 0.4605308 -0.21649058
0000f0 2b 29 e5 3e 59 1b 86 3e d3 4c 34 3e 2e b2 a9 be
       0.4475797 0.2619274 0.17607431 -0.33143753
000100 e9 e1 00 bf 65 58 38 be 9b bc 99 bb 3d 05 f9 be
       -0.5034471 -0.1800247 -0.004691673 -0.4863681
000110 19 24 96 bc 06 c3 3c bf 1b e4 7b be 99 16 42 3d
       -0.01832776 -0.7373508 -0.24598734 0.047384832
000120 c6 ad a0 3e e7 3a 4a be e7 d2 cf be 85 cf 8e bc
       0.3138258 -0.19749032 -0.40590593 -0.017432937
000130 fd 51 c1 bc 7c 9f 18 be 26 b4 0f bf 93 17 b0 3e
       -0.023598665 -0.14904588 -0.5613426 0.34392986
000140 0c 38 99 bd 7a 55 a4 be 12 b7 fc 3e c4 ee 98 3e
       -0.07481393 -0.32096463 0.49358422 0.29869664
000150 5d ae 04 bf e7 fa ef bc 3b 09 5b be 90 3e 93 be
       -0.5182856 -0.029294444 -0.2139024 -0.2875867
000160 ab 30 6f 3e 04 bb 18 be d1 2d eb 3e bc a5 1e be
       0.23358409 -0.14915091 0.45933393 -0.1549291
000170 e4 ab 93 be 39 80 58 3e 34 a7 82 3e 85 d7 c8 be
       -0.2884208 0.21142663 0.2551819 -0.39226928
000180 5b 29 0d 3d 9d 98 03 bf 7e 28 15 bf db de f3 be
       0.034463268 -0.51404744 -0.5826491 -0.47630963
000190 71 09 db bc c2 96 aa 3e 88 6f 49 3d d9 c8 7a 3e
       -0.0267379 0.33318144 0.04917863 0.2449068
0001a0 85 5f a5 3e 80 7f 93 be 3e 2b 05 bf 26 7d fd bd
       0.32299438 -0.28808212 -0.5201911 -0.12377386
0001b0 db 5e fc bd 70 60 c0 3d ba af 4c 3e 84 3f e6 3e
       -0.1232278 0.09393394 0.1998891 0.44970334
0001c0 c8 55 e5 3e 9b 65 08 bf 3d 1e 8f be d4 84 a0 bd
       0.44792008 -0.5328004 -0.27952757 -0.07837835
0001d0 34 bd e2 3e 39 b4 ba 3e e8 a0 d8 bd 30 b6 39 bc
       0.44284976 0.36465624 -0.105775654 -0.011334941
0001e0 cc 98 47 3a 99 a8 9c 3e 31 62 3d 3b 1f af 71 be
       0.0007614016 0.3059738 0.0028897638 -0.2360196
0001f0 ae eb 09 3e 5e 90 9d 3d 94 c7 97 3e 58 b5 08 be
       0.13468811 0.076935515 0.29644454 -0.13350427
000200 ce d8 54 3e db e1 17 3f d5 97 c2 be 39 70 97 be
       0.2078583 0.59329003 -0.38006464 -0.29577807
000210 ee c4 f2 3c 3d 2c 06 bd 7d 1e 2a be 56 42 ab be
       0.029634919 -0.032757033 -0.16613193 -0.33449048
000220 25 83 42 bc 3b 05 e7 bd e3 d5 08 bf d7 fc aa bd
       -0.011872088 -0.112802945 -0.53451365 -0.083490066
000230 9d c6 f1 be 75 82 47 3e 2f ae 2c bf 6d 33 30 3e
       -0.47221842 0.19483359 -0.67453283 0.17207117
000240 07 b0 8c be 20 f1 95 3d 91 b0 b7 3e bd 47 57 bc
       -0.27478048 0.073213816 0.35876897 -0.013139662
000250 9f 65 bc 3e ce d5 e6 bd 6b b0 b0 3e 72 86 96 be
       0.3679628 -0.11271249 0.34509596 -0.2939945
000260 9c e8 44 be 3a 3c 88 be f1 a2 9a bd 86 51 ea 3e
       -0.19229358 -0.2660845 -0.0755061 0.45765322
000270 1b de a6 bd 94 3f 93 3e 57 cc f1 be d6 28 54 be
       -0.08147832 0.28759444 -0.4722621 -0.20718703
000280 5e 94 e9 3e 04 60 1d bf b1 65 94 3e 0d 4e 1a bd
       0.45621008 -0.61474633 0.28983834 -0.03767209
000290 27 54 48 be da 1f 0b be b1 70 ea be a0 61 82 3d
       -0.19563352 -0.13586369 -0.45789102 0.06366277
0002a0 35 cf c0 3e de b3 98 be de fd 8f bd cc b7 89 be
       0.37658086 -0.29824728 -0.07030843 -0.26898038
0002b0 0b 94 b8 3e 8f 3a 07 be 79 29 2b 3f d4 8a 42 3e
       0.36050448 -0.13205932 0.6686016 0.18998271
0002c0 96 c3 e4 be f6 e1 ba 3e df d1 65 3e f8 4f be be
       -0.4468047 0.3650052 0.2244334 -0.37170386
0002d0 fd eb 88 3e 1b a4 c2 be dc 15 98 be c0 7b 59 be
       0.26742545 -0.38015828 -0.29704177 -0.21238613
0002e0 16 0a a8 be a1 7d 59 3e 95 37 a3 be b9 44 a0 be
       -0.32820195 0.2123933 -0.31878343 -0.3130243
0002f0 7a da e0 be 0c 49 05 bf e9 ca 2a bd a3 cf 87 be
       -0.43916684 -0.52064586 -0.041697416 -0.26525602
000300 dc ec e2 be 42 64 81 be d7 ba c1 be d2 97 5f 3c
       -0.44321334 -0.25271803 -0.3783786 0.013647037
000310 3d 42 3f bd 54 89 14 bf e9 09 d2 bc aa da af be
       -0.04669403 -0.58022046 -0.025639491 -0.34346515
000320 d0 74 b3 bd 48 ba c8 be 63 4c 23 3e d5 ff 41 be
       -0.087625146 -0.3920462 0.15947108 -0.18945248
000330 15 31 80 be b1 20 c2 3d 09 90 b3 3c 8c 32 1d be
       -0.25037447 0.09478892 0.021919267 -0.15351313
000340 a2 6e ac 3e 63 2f df bd 36 cc 4c be b8 00 04 be
       0.33678156 -0.1089771 -0.19999775 -0.12890899
000350 f9 27 8e be 70 22 25 3f fa 68 b1 be 02 5a 67 bd
       -0.27764872 0.6450567 -0.34650403 -0.056482323
000360 09 0c 74 be 07 b2 e7 3e 54 8b 1f 3f a3 09 d9 bd
       -0.23832716 0.45253012 0.6232197 -0.10597541
000370 63 01 87 3c 7a eb de 3e 82 24 74 3e 80 33 b4 3d
       0.016480153 0.4353903 0.23842052 0.08798885
000380 3b f8 b8 3d 63 76 e7 3e 47 f2 e0 be 37 17 c2 3e
       0.09031721 0.4520751 -0.43934843 0.37908337
000390 fa d2 b4 be 37 ef ed be 07 1e 51 be 0e ba ea be
       -0.35317212 -0.4647157 -0.20421611 -0.45845073
0003a0 8a ce ab be fa 81 d5 be a9 f7 f6 be bf 08 92 3e
       -0.33556014 -0.41700727 -0.48235825 0.28522298
0003b0 28 2b ad 3e 39 0b 63 3e c0 71 05 be 4f a7 6d be
       0.33821988 0.2217225 -0.13031673 -0.23208354
0003c0 5a e9 12 be 57 0d b2 bd 85 6b b4 3d 43 17 ae be
       -0.14346829 -0.086939506 0.0880957 -0.34002122
0003d0 b3 0d 80 be 85 01 12 3f 46 09 9a be 7a fe 96 3e
       -0.25010452 0.5703357 -0.300852 0.29491025
0003e0 22 e7 e1 b9 6a 69 e5 3e e1 6c 97 3d ec b7 6e 3d
       -0.00043087552 0.44806987 0.07393814 0.05828087
0003f0 92 41 57 be 7a 89 0f 3e 06 d9 f4 3e b7 f6 6f be
       -0.21021107 0.14017287 0.47821826 -0.23433958

encoder.2.bias f4 [16]
000000 87 da c0 3e 5c 0f d9 3e 3e 30 cd 3e 41 54 93 3e
       0.37666723 0.4239453 0.40075868 0.28775218
000010 46 04 13 be 76 4f b6 3e e8 33 d2 3e 70 01 cc 3e
       -0.14357099 0.356075 0.41055226 0.39844847
000020 bb eb c0 be a6 01 44 be 1e 84 c6 3e 32 62 b3 be
       -0.37679848 -0.19141254 0.38772672 -0.35035855
000030 03 70 c0 be d2 11 ef 3e a1 11 9b be 92 cd fe 3e
       -0.37585458 0.46693283 -0.30286887 0.49766213

encoder.4.weight f4 [32, 16]
000000 95 73 ff 3b 69 c3 78 bd 24 5f 8b 3d e0 14 9a 3e
       0.007795761 -0.060733233 0.06805256 0.3009405
000010 4f 08 ca be 6b a6 1a be e6 3c ae 3d c3 80 99 3e
       -0.39459464 -0.15102546 0.08507709 0.2998105
000020 45 44 5b 3e 20 d8 a2 bd 56 81 75 3e f0 4a 0e 3e
       0.21412762 -0.07951379 0.23975119 0.13895774
000030 1a 3b 0f be 7b e3 16 3f 90 56 28 3e 18 b3 21 3e
       -0.13987389 0.5894086 0.16439271 0.15790975
000040 56 cb 94 be c3 0a 58 3e 8a d8 01 3e 67 b2 56 bd
       -0.29061383 0.21097855 0.1268026 -0.05241623
000050 b5 77 bf be 91 d5 ae 3d c5 32 24 3f 2e 59 35 be
       -0.37396017 0.08536828 0.6413997 -0.177098
000060 db f5 a6 bc 3d cd 72 3e 49 b0 75 3e 8a 1b 94 3e
       -0.020380905 0.23711105 0.23993029 0.2892726
000070 33 1f 9a be 29 e5 ee 3e 11 67 75 bd 3d 32 c7 3e
       -0.30101928 0.4665921 -0.059912745 0.38905516
000080 eb 7a e3 be 32 8b 9a be c1 64 b3 be 00 c5 75 3d
       -0.44429716 -0.30184323 -0.35037807 0.060002327
000090 64 7d a5 3d 90 eb e5 3d b5 7e 09 be 81 22 df be
       0.08080557 0.112265706 -0.13427241 -0.43581012
0000a0 de b8 4d be d4 5e 83 3b 61 f7 0c be 84 1a 5b be
       -0.20090052 0.004009107 -0.13766243 -0.21396834
0000b0 cc 53 0c be cb 5b 06 bd af 51 94 be 38 17 93 be
       -0.13703841 -0.032802384 -0.2896857 -0.28728652
0000c0 98 49 54 3e 25 eb b8 be 54 ca 85 be 97 0e fd 3d
       0.20731199 -0.361169 -0.26130927 0.123562984
0000d0 e9 12 a0 3e 31 1c b9 be 57 67 eb be 30 c5 a7 be
       0.31264427 -0.3615432 -0.4597728 -0.3276763
0000e0 d2 8a e2 3d 2e 02 51 be 28 5d 10 be 69 66 ae 3c
       0.11061634 -0.20410988 -0.14098036 0.021289067
0000f0 9f 86 88 3e 37 02 1a bf e1 4f b4 3d f7 c0 13 3d
       0.26665208 -0.6015963 0.08804298 0.036072697
000100 21 f3 9a 3e 14 82 d8 bc 10 9f d2 3d a2 02 b6 bd
       0.30263618 -0.026429214 0.10284245 -0.08887221
000110 00 0b 2b 3e 7b 30 22 3e ec 82 a3 3e 02 59 0a 3e
       0.16703415 0.15838806 0.31935823 0.13510516
000120 84 e2 85 bd d6 2b b8 bc b7 cc 21 3e 20 18 8c be
       -0.06537345 -0.02248184 0.15800749 -0.27362156
000130 6d 68 8c 3e 58 ab 24 3e 02 bb ce bd 48 7d de 3d
       0.2742342 0.16080987 -0.10094263 0.10863739
000140 b2 68 9a 3e b4 0e 91 3e 31 b9 8c 3e ad a5 ee 3e
       0.30158 0.2833153 0.2748504 0.46610776
000150 fd f8 b6 be fa f6 40 3e d0 88 1d 3f ce a6 c1 3e
       -0.35736838 0.18844214 0.61536884 0.37822574
000160 65 8b 25 be 15 c7 4e be cb 0c 42 3e 11 53 6b 3e
       -0.16166456 -0.20193131 0.18950193 0.22980906
000170 7e 76 d6 be 2d 9d ec 3d e5 71 9f be c9 2a 41 3e
       -0.41887277 0.115534164 -0.31141582 0.18863977
000180 9e e5 30 be 4a 01 a6 3e 34 63 e2 3e 33 46 5b 3c
       -0.17275092 0.32422858 0.4421631 0.013383436
000190 d9 e7 67 be a3 c2 a2 3e b2 b2 27 3d 31 46 24 3e
       -0.22647037 0.3178912 0.0409419 0.16042401
0001a0 d7 de ab be 82 b3 7a be a5 76 37 3e b5 22 c6 be
       -0.3356845 -0.2448254 0.17916353 -0.38698354
0001b0 c0 81 ee 3d 78 45 9b 3e 3d 22 c7 be 31 b6 04 3f
       0.116458416 0.30326438 -0.3889331 0.518405
0001c0 2d 51 bb 3c 2c 63 7e be 00 96 84 be c4 39 ce be
       0.022865856 -0.24842519 -0.2589569 -0.40278447
0001d0 5b a3 a5 bc 94 9b 88 be 64 60 9b be 40 f6 bb be
       -0.020219496 -0.26681197 -0.30346978 -0.3671131
0001e0 94 e5 31 3e 92 5a 6f 3e 15 38 4f be 90 5c 89 3e
       0.17372733 0.23374394 -0.20236237 0.26828432
0001f0 b5 b6 ab 3e 80 f6 c7 be ad d5 9f 3e 8c 74 c2 be
       0.33537832 -0.39055252 0.3121771 -0.37979543
000200 63 2a 1a be b8 8d c2 3d c0 a5 dc bc c0 28 1c 3e
       -0.15055232 0.09499687 -0.026934505 0.1524992
000210 44 1e 90 3e db c2 4f bd 5b ac 72 bd 84 b0 22 3e
       0.2814809 -0.050722938 -0.059246402 0.15887648
000220 94 3e 3a 3e 5d 32 7f 3e 68 a9 c2 be 27 90 69 3e
       0.18187934 0.24921556 -0.38019872 0.22808896
000230 55 b5 a8 3d 06 6c 7f be 36 79 0b 3e 3a c8 85 bd
       0.08237711 -0.24943551 0.13620457 -0.06532331
000240 08 af a4 be 91 cd ea be f1 a3 69 3d fe 2c 30 be
       -0.32164788 -0.4585996 0.057041112 -0.17204663
000250 fb ea 7d 3e 68 c7 e8 3c 29 e0 dc be 2e 4c b5 be
       0.24796669 0.028415397 -0.4313977 -0.35409683
000260 f5 6e 37 3e 36 2f 9a 3e d6 e0 1c be 41 82 a2 3e
       0.1791342 0.30114144 -0.15320143 0.3174
000270 e9 cf 05 3e f1 ee dd be e8 8c 8a 3e 3b 01 d8 3d
       0.13067593 -0.4334636 0.27060628 0.1054711
000280 2c bd c5 bd aa 98 e2 be 0a 2c 8e be 61 0b ea be
       -0.09655222 -0.44257098 -0.27767974 -0.45711806
000290 48 19 97 3e 23 11 03 bf b2 e5 22 bf bc 8b 32 3e
       0.29511476 -0.51198024 -0.6363174 0.17436117
0002a0 ee 98 2c 3d b7 ad 8b 3e ed 45 00 be d9 48 1c 3e
       0.042138033 0.2728097 -0.12526675 0.15262164
0002b0 7e 84 92 bd d1 4e b3 bd a2 c8 77 3e ae 09 36 be
       -0.07154177 -0.087552674 0.24197629 -0.1777713
0002c0 5f 60 99 be b3 77 e1 be 6f 37 c1 be a9 a7 cf be
       -0.29956338 -0.44036636 -0.37737605 -0.40557602
0002d0 9b 5b 95 3e a8 4f 58 be 52 d1 26 bf a1 ae 1a be
       0.29171452 -0.21124136 -0.6516315 -0.15105678
0002e0 69 a5 bd 3d d6 a8 83 be 5b a6 9b be 51 92 4a 3e
       0.09260065 -0.2571475 -0.30400357 0.19782378
0002f0 00 90 88 3e 5e 50 78 3d e9 12 bf bc 4b 18 d4 be
       0.26672363 0.06062352 -0.023324447 -0.41424784
000300 8e ad 0c bd 70 a5 c1 bd 76 55 a7 bd 56 4a e1 bc
       -0.034345202 -0.09455383 -0.08170597 -0.027501266
000310 c6 e9 1b 3e 7d e3 03 bf 21 98 72 be 43 bb 0e be
       0.15225896 -0.51518995 -0.23690845 -0.13938622
000320 21 22 7f bc a5 d3 39 3d 84 d3 98 be b8 e1 bf 3d
       -0.015572102 0.045367856 -0.29848874 0.09369224
000330 37 91 26 3e 0c 7e 8c be ba 38 91 be 2e 7f 4b 3d
       0.16266333 -0.27439916 -0.2836359 0.049681835
000340 1c 41 83 be 16 27 fb bd 92 f9 ba be fe 97 8b 3c
       -0.25635612 -0.122633144 -0.36518532 0.017040249
000350 8a b9 cd 3e d4 1e cb be 38 de 16 bf 9d 48 97 be
       0.40180618 -0.39671957 -0.5893283 -0.29547587
000360 49 25 bc 3d 8b 3d 9b 3e 6a 33 d7 bb 19 f4 83 3d
       0.09186799 0.3032039 -0.0065674083 0.06443042
000370 d8 fd d8 3e 68 ba 42 be 9d ae 05 3b 5f 9c 68 be
       0.42381167 -0.19016421 0.0020398267 -0.22715901
000380 1b de 05 3c a7 76 48 bc ec 86 1d be f5 3b 13 3e
       0.00817063 -0.01223532 -0.153835 0.1437834
000390 81 8a ec bd e9 7a fc be 7e e2 34 bf 05 2f 30 be
       -0.11549855 -0.49312523 -0.706581 -0.17205437
0003a0 8e 25 88 3d 1a f5 76 3e 33 0e ed bc 63 c1 65 be
       0.06647788 0.24116936 -0.028937435 -0.22437052
0003b0 c8 53 d0 bd 51 6a f0 be c6 77 06 3e 7f e5 3f be
       -0.1017223 -0.46956113 0.13131627 -0.1873989
0003c0 24 17 ed bd 2d ea 86 3e 81 a4 f9 3d ac 4d 86 bd
       -0.11576679 0.26350537 0.1218958 -0.065577835
0003d0 8a 9f 40 be ff e0 fc 3e ae 42 1e 3e 44 b6 9d 3e
       -0.1881086 0.49390408 0.15455124 0.3080312
0003e0 ab 34 21 be 34 a3 36 be 7f f3 7e 3d c1 1c 5a be
       -0.15742747 -0.17835695 0.062243935 -0.21300031
0003f0 b7 a2 ee 3d 66 6c fb 3e 0f ff 4c bd e0 9b 86 3e
       0.11652129 0.4910614 -0.05004793 0.26290798

encoder.4.bias f4 [32]
000000 29 f1 c8 3e 98 4f b4 3e 1d 8f cb be 1f a0 d2 be
       0.3924649 0.35216975 -0.39757624 -0.41137788
000010 fa aa c1 3e 0f 85 ce 3e 55 eb c9 3e 15 00 c4 be
       0.37825757 0.4033589 0.39437357 -0.38281313
000020 e8 d4 c5 be 10 eb cf be 7b 8a ac be 4e 52 c9 be
       -0.38638997 -0.40609026 -0.33699402 -0.39320606
000030 c0 32 c9 be 81 e1 cb be 5e 72 ce be 7f 73 c2 3e
       -0.39296532 -0.39820483 -0.4032163 0.37978742
000040 8d 0c cc be b8 c6 cb 3e db c2 bd 3e 9b c1 b8 be
       -0.39853325 0.39800048 0.37062725 -0.3608521
000050 89 54 8d 3e 83 72 ce 3e 8a c5 c1 3e ee 5e c5 be
       0.27603558 0.4032174 0.37846023 -0.38548988
000060 b4 ee d1 be 99 bf c3 3e 7b e5 cf 3e a9 69 de 3e
       -0.4100243 0.38232115 0.40604767 0.43439987
000070 85 aa c9 3e 7e 8f bb be 87 8a cb be ea 59 bb be
       0.3938791 -0.36632913 -0.39754125 -0.36592036

residual.0.weight f4 [16, 32]
000000 45 db 21 be 8d ec 4a be e0 79 b8 bd 79 bc a3 3b
       -0.15806301 -0.198168 -0.09007621 0.004996833
000010 e1 32 38 be ad 7a b0 bc 25 8b 1e 3d ac dd d1 3d
       -0.17988159 -0.021542871 0.038706917 0.10247359
000020 1a 90 96 3d c6 97 b2 3e 59 5f ab bd 36 f4 f2 bd
       0.07351704 0.3488142 -0.083677955 -0.11862986
000030 39 00 1d bd 67 76 02 bb 97 2a b5 3e 79 8b 57 3e
       -0.03833029 -0.0019907 0.35384056 0.21049298
000040 ee 13 37 be 35 56 15 3e 8c 24 94 3e cb 93 3a bd
       -0.17878696 0.14583667 0.28934133 -0.045551103
000050 36 5e 9d 3e ca c8 9d 3d 0f 10 e8 bd e8 50 85 be
       0.3073594 0.07704313 -0.11331188 -0.2603829
000060 42 e9 a7 be 4b 7e fc 3d 46 d1 9f 3e ed 59 90 3d
       -0.3279515 0.12328776 0.3121435 0.07048402
000070 aa 68 b3 be f2 2b 0d 3e 97 2d 07 3e b4 1c a8 be
       -0.3504079 0.13786295 0.13200985 -0.328344
000080 ed d4 94 bd aa 5b 1d 3e cd d8 9b 3e 27 d7 93 bd
       -0.07267175 0.15366998 0.30438843 -0.072187714
000090 a0 f1 a1 be 15 14 4b be 58 86 cc bc 21 b9 3d be
       -0.31629658 -0.1983188 -0.024966404 -0.18527652
0000a0 39 fa 54 be 7d 20 08 3e 2e a7 89 3d 02 f1 13 3e
       -0.20798577 0.13293643 0.0672134 0.14447406
0000b0 2b 47 21 be 5a 52 f9 bd 7e 78 74 3d 1c db fa 3d
       -0.15749805 -0.121739104 0.059685223 0.12248823
0000c0 d1 ed 89 bd 52 25 a5 3e 85 5e 6d 3e 72 e6 9e 3d
       -0.06734813 0.32255036 0.23180588 0.07758798
0000d0 25 cd 12 bc 3d 59 a6 3e 29 68 62 3d 83 39 8d be
       -0.008960043 0.32489958 0.055275116 -0.2758294
0000e0 f2 83 a3 be 66 67 6d be 38 12 af 3e 3e 2f 3d be
       -0.31936604 -0.23183975 0.34193587 -0.18475053
0000f0 ff f4 1c bb 85 56 6f bb 59 b8 9a 3e d3 44 87 3d
       -0.002394974 -0.0036520076 0.3021877 0.06604924
000100 87 94 48 3e 32 cd 75 be 04 26 40 be 45 10 94 be
       0.19587909 -0.24004057 -0.18764502 -0.28918663
000110 82 f9 01 3e 65 6a 46 3e ab da 18 3e 0f 31 81 3e
       0.12692836 0.19376524 0.14927165 0.2523274
000120 20 7b 91 be ac 89 94 3e 6c 63 d4 3d 77 de 70 3e
       -0.2841425 0.29011285 0.10370526 0.23522364
000130 6c 53 c1 bd bb f2 18 bd 29 ce 6a 3e c9 6b b6 3c
       -0.094397396 -0.03734086 0.22930206 0.022268193
000140 06 6e 1c be a2 50 b0 bc bb 55 8b be 67 af 87 be
       -0.15276346 -0.021522824 -0.27213845 -0.2650101
000150 c3 d5 86 be 07 ab a8 be 55 d1 05 bd fc 06 2e be
       -0.26334962 -0.32942984 -0.032670338 -0.16994852
000160 74 e0 dc bd ba 8d 86 3d af bf 66 3e 2d 47 81 3d
       -0.107849985 0.06570001 0.22534059 0.06312404
000170 62 09 be 3d db e0 e5 3d ae df ba 3d 1a 30 a5 3e
       0.092791334 0.112245284 0.09124695 0.3226326
000180 ea dc 6b be ce 8e 01 be 58 33 08 3e 97 29 8b ba
       -0.23033491 -0.12652132 0.13300836 -0.0010617253
000190 fa 08 59 3e 0e e3 ad 3e 68 24 9f 3d cb 01 28 bd
       0.2119483 0.3396229 0.07770616 -0.041017335
0001a0 30 92 ad bd 15 12 0a be b0 8f 81 3e 5d 47 92 3e
       -0.08475149 -0.1348346 0.25304937 0.2857007
0001b0 0b 09 ae 3e 7a a2 8b be 25 7e 28 be 25 cb 0f 3e
       0.33991274 -0.27272397 -0.1645437 0.14042337
0001c0 c6 2b 8d 3e 96 a7 8d 3d 06 21 97 be fb 0b 3f 3e
       0.2757246 0.0691673 -0.29517382 0.18656914
0001d0 2f 25 51 3e 13 93 a3 3e a4 1b 7d 3e 1f 9f 59 3e
       0.2042434 0.31948146 0.24717575 0.21252106
0001e0 f6 7c 8c bd 91 64 5e be a0 a4 5c be 45 2d 6b be
       -0.06859772 -0.2171805 -0.21547174 -0.22966488
0001f0 32 8d 24 3e 6d 5a 6f 3e f8 0f b0 3e 47 d4 7d be
       0.16069487 0.23374338 0.34387183 -0.24788009
000200 b7 af 37 3d 90 17 11 3e d5 1f 8d 3e 56 e6 4f bd
       0.04484531 0.14169145 0.27563348 -0.050756775
000210 93 75 d4 3d a0 b2 3d bc 26 0d 3b be 2d 15 11 bd
       0.10373988 -0.011578232 -0.18266734 -0.035420585
000220 3a da 50 be 07 83 83 be d2 41 d2 3c 2a 3a 67 3e
       -0.20395747 -0.25685903 0.025666151 0.22580782
000230 b9 d3 44 3e 2e 96 95 bd 7e bf 35 be 9a fb 9b be
       0.19221391 -0.07304035 -0.1774883 -0.30465394
000240 48 2e b8 3e f2 e0 93 be 82 32 71 3e 19 c0 9c 3e
       0.3597281 -0.28882557 0.23554423 0.3061531
000250 dc 6d 0a 3c 84 17 94 3d d0 49 9e 3e 8b dc d5 bd
       0.008449044 0.07231048 0.3091569 -0.10442456
000260 50 e6 bb bd 9f 8e b0 be 21 c4 0d 3e 74 c0 0c 3e
       -0.09174788 -0.3448381 0.13844348 0.1374529
000270 39 51 1c be f2 24 a9 3e de d6 77 3d 9d fc 28 be
       -0.15265359 0.33036 0.060507648 -0.16502614
000280 91 82 2f bd 56 eb 64 3e 8b 48 1f be 12 de 79 be
       -0.042849127 0.22355399 -0.15555017 -0.2440112
000290 e9 a7 cf bd 1e 90 92 be 08 f6 b6 be 89 26 41 3e
       -0.10139448 -0.28625578 -0.35734582 0.18862356
0002a0 c1 f5 77 3d 99 10 ec 3d 62 5b 20 be f9 d9 3b be
       0.060537104 0.11526603 -0.1565986 -0.18344869
0002b0 df 4a a2 bd 84 18 b4 3e 1d 79 0d bd 70 f2 85 be
       -0.07924437 0.35174954 -0.03453933 -0.26161528
0002c0 e0 ad b1 be bf 95 57 be dc d6 35 3e ad fb 95 3d
       -0.3470297 -0.21053217 0.17757744 0.07323394
0002d0 03 51 75 3e c9 f1 14 3e 27 b3 9e 3e 9e 66 35 be
       0.23956685 0.14545359 0.30996057 -0.17714927
0002e0 23 ac f9 3d 28 11 83 bd 94 0b a7 3e 88 68 80 3e
       0.121910356 -0.06399757 0.3262602 0.2507975
0002f0 ec b9 89 3d 56 83 10 3e ea 13 da bd c7 02 56 3e
       0.06724915 0.141126 -0.106483296 0.20899497
000300 19 19 8a 3e 0e 6e 26 3e 8d e9 2e be 4c b5 83 3e
       0.26972273 0.1625292 -0.1708128 0.25724256
000310 fd 56 ad be 49 d8 91 3e 4f 1b b4 bd 9d bd c5 3d
       -0.3385543 0.28485325 -0.08794271 0.096553065
000320 ca cd 37 be 7e 5a a5 3e d5 32 aa 3e d9 cc 60 be
       -0.17949596 0.32295603 0.33241907 -0.21953143
000330 4a ed 53 be be a7 91 be 1b c0 ad 3e f8 f6 af be
       -0.20695987 -0.2844829 0.33935627 -0.3436811
000340 e2 43 84 3d 5f ef 65 be 3a 06 82 3e 9a 07 b7 bc
       0.0645826 -0.22454594 0.25395375 -0.022342492
000350 61 ac 9c be 5a 90 ae bd cf a8 5b 3d 1b 0d 3d 3e
       -0.30600265 -0.085236266 0.053627785 0.1846203
000360 bb 55 8a 3e 9c a1 60 3e 49 e4 89 3d e1 3b 80 bd
       0.27018532 0.21936649 0.06732995 -0.06261421
000370 e5 a0 e0 bd aa f5 96 3d 66 64 e6 3d 32 93 12 3e
       -0.10968188 0.073710755 0.11249618 0.14313963
000380 3c 20 e6 bd 76 92 87 3e 21 00 80 bd 59 dd 91 3e
       -0.11236617 0.26478928 -0.062500246 0.28489187
000390 3e 4e a6 3e c3 db ee 3d cf b2 6e 3e b8 c0 1e bd
       0.3248157 0.1166301 0.23310398 -0.03875801
0003a0 f5 97 33 be 16 ee cd bd 47 8f 7d be 08 b8 4a be
       -0.17538436 -0.10055177 -0.24761687 -0.19796765
0003b0 b4 08 d7 bd a1 89 4c be fe 7e dc bd a0 8b 5c 3e
       -0.10499707 -0.19974376 -0.10766409 0.21537638
0003c0 87 2a b6 be ba 9d 9e 3e 38 89 5e be b0 a8 9c be
       -0.3557932 0.3097971 -0.21732032 -0.30597448
0003d0 c0 73 a6 be ae 44 93 be 6a 5d 64 be ab 59 9f 3e
       -0.32510185 -0.28763336 -0.2230126 0.311231
0003e0 aa 7c 75 3e b9 a5 60 be f2 bc 55 be dc 81 95 3e
       0.23973337 -0.21938218 -0.20872858 0.29200637
0003f0 de 5c 97 3d 18 c6 9c be f4 30 44 be 73 25 df bd
       0.0739076 -0.30619884 -0.19159299 -0.10895815

residual.0.bias f4 [16]
000000 78 e0 a2 bc b7 e7 52 ba be 9f 65 bc 8b cd 8c bb
       -0.019882426 -0.00080453925 -0.014015136 -0.0042969636
000010 1b c2 57 b9 6b c6 aa bb ec 73 0b bd 61 b9 de 3b
       -0.00020576308 -0.0052116415 -0.0340461 0.006797001
000020 89 86 81 bb ac 72 c0 3b 27 88 d1 ba 9d ba 18 3c
       -0.0039528054 0.005873045 -0.0015986011 0.009321836
000030 55 88 2f 3c 68 12 e6 3b 04 9f 77 bc 7f 98 0a bb
       0.010713656 0.007021237 -0.015113596 -0.0021148024

residual.2.weight f4 [16, 16]
000000 a6 c6 ec 3d b8 03 4f be a2 be 94 bd 5b 99 97 3e
       0.11561327 -0.20216262 -0.07262923 0.29609188
000010 7a 9a 0a 3e be 6c 97 be 6d 50 50 be 77 f9 ba 3e
       0.1353549 -0.2957515 -0.2034318 0.36518452
000020 5d 00 18 be f2 0a ad 3e 95 b2 1a be 06 2e 9e 3e
       -0.14843889 0.33797413 -0.15107186 0.30894488
000030 09 b0 98 bd 53 83 1c be 57 f1 87 3e 2b 7a 55 be
       -0.07455451 -0.15284471 0.26551315 -0.20847385
000040 a6 9a b6 be 53 22 fd 3c 37 46 9c 3e 21 88 aa be
       -0.35664862 0.030900156 0.3052232 -0.33306983
000050 74 e4 f9 3d 4b 1a 20 be 89 bd 39 3e 86 a4 8b be
       0.12201777 -0.1563503 0.18138708 -0.2727396
000060 b9 6e 29 bd 7f 0c b3 be 60 4d 18 be 6e 3a d9 be
       -0.04136536 -0.3497047 -0.14873266 -0.4242739
000070 ef 5d 37 3e 81 56 68 3e b8 22 34 3d 6a 62 53 3e
       0.17906927 0.22689249 0.043978423 0.2064301
000080 32 7e 00 3e f6 22 06 3e cc 99 88 be dd a9 3e bc
       0.1254814 0.13099274 -0.26679838 -0.011637178
000090 46 7a a2 3c aa a8 90 3e 41 59 1c 3e 10 04 91 be
       0.019833695 0.2825368 0.15268423 -0.28323412
0000a0 bb ca 9f 3d 6a b6 81 3e d5 be af be d3 05 01 3e
       0.0780234 0.25334483 -0.3432528 0.12599878
0000b0 9d f8 76 3e 59 18 5f be e9 f0 81 be 11 7a bd be
       0.24118276 -0.21786632 -0.25379112 -0.37007192
0000c0 64 d3 07 3e 73 71 48 be a2 2f e7 be 15 ef d1 3e
       0.13264233 -0.19574527 -0.45153528 0.41002718
0000d0 2c bc c5 3e f5 4c 22 be 8f 98 e1 be e1 3a ca be
       0.38620126 -0.1584967 -0.44061705 -0.39498046
0000e0 cc 54 95 3c dc 64 ba be b1 bf e8 bd 8c 06 15 3d
       0.01822891 -0.36405075 -0.11364687 0.036383197
0000f0 64 e4 d9 be bd 9b bb 3e 75 fb 33 be ab 95 21 3e
       -0.4255706 0.36642256 -0.17576392 0.1577975
000100 90 8c c7 3e df d9 86 bd 7b 7a 93 be b0 11 68 be
       0.38974428 -0.06584524 -0.28804383 -0.22662997
000110 4a 26 7a be 76 23 5a 3e 2a fc a7 be 92 04 ab be
       -0.24428669 0.2130259 -0.32809573 -0.33401924
000120 42 8b cd 3e db 5a 8f 3e 5e 86 9b 3e ff 8f d1 3e
       0.40145308 0.27999005 0.30375952 0.40930173
000130 43 e5 d3 3e 43 3a 18 be cb f0 aa 3e d1 0c 78 3e
       0.4138585 -0.14865975 0.33386835 0.24223639
000140 19 1d db 3d 64 75 0a be 0b 6a 9a be 5a 83 ac bd
       0.10698909 -0.13521343 -0.3015903 -0.08423491
000150 79 5a d2 be 9c 62 19 be 2f 8c 4a 3e 59 58 3e be
       -0.4108465 -0.14979023 0.19780038 -0.1858839
000160 eb ed ad be 11 98 3b 3d bf 3a 88 3e dc fc d5 3d
       -0.3397058 0.04579932 0.2660732 0.1044862
000170 00 1c ae 3e 44 3f b6 be 6a 61 d9 bc 72 c5 c6 be
       0.34005737 -0.35595143 -0.026535708 -0.38822514
000180 6d 41 c2 be ef 99 b8 be 94 36 51 3e 73 e9 70 3e
       -0.3794054 -0.36054942 0.20430976 0.23526554
000190 d9 86 ad be d6 87 67 3d 92 6b 97 be 4a ab 85 be
       -0.33891943 0.056526028 -0.29574257 -0.26107246
0001a0 7c a3 9f be 5b e8 d4 be 4b ea 5e be db e1 99 bc
       -0.31179416 -0.41583523 -0.21769063 -0.018784454
0001b0 60 0a a6 be eb 52 87 3e f8 8f c3 3e 44 39 e1 3e
       -0.3242979 0.2643045 0.38195777 0.43989003
0001c0 5f 55 a7 3d e2 5c ef bd e9 28 08 3e 7e 63 9b 3e
       0.0817058 -0.11687638 0.13296856 0.30349344
0001d0 a7 c6 90 be f9 f1 ab 3e 53 59 d3 3e 51 0f 94 3e
       -0.2827656 0.33583048 0.41279086 0.28917935
0001e0 e4 35 80 be f6 7d b4 3e c1 0f 97 be f4 57 8d be
       -0.25041115 0.3525235 -0.29504207 -0.27606165
0001f0 3e 58 70 3e 87 c4 9c 3e cd cc e3 3e 00 19 9b be
       0.23471162 0.30618688 0.44492188 -0.3029251
000200 4c f8 c2 be 02 39 6b be 55 1f a0 3e 87 0a a5 3e
       -0.3808006 -0.22970966 0.31273904 0.32234594
000210 2c 70 52 be bb f4 b0 3e 01 82 03 3d 02 26 f0 bd
       -0.20550603 0.34561715 0.032106403 -0.117259994
000220 0d 61 23 be 73 be c4 3d 84 69 5f 3e 18 55 70 3d
       -0.1595499 0.09606638 0.21817595 0.0586749
000230 07 1c d9 3d 57 eb 01 bc f5 90 81 3c 3f d9 e3 bd
       0.10601049 -0.007929645 0.015816191 -0.11125421
000240 8e 2c 23 bd f9 39 c2 3e 66 65 ad be aa 4f c5 bd
       -0.039837413 0.37934855 -0.33866423 -0.09634335
000250 5b db cf be 15 1a a4 3e 1f cb c3 be 05 c8 34 be
       -0.40597042 0.3205115 -0.38240907 -0.17654426
000260 37 77 ae bd ec 5c 21 be 22 81 a3 3c fe ab d4 bd
       -0.08518832 -0.15758103 0.019959036 -0.103843674
000270 b7 f6 a3 3e 86 b7 22 3e 7b b6 23 3e f6 0e 59 be
       0.32024166 0.15890321 0.1598758 -0.21197113
000280 f9 db 14 3d 43 5c 60 be 2a a1 af 3e 5a 0f 90 3e
       0.036342595 -0.21910195 0.34302646 0.28136712
000290 41 53 6f be e1 ca a3 3e 6a 99 af 3e 87 46 56 3e
       -0.23371603 0.31990722 0.34296733 0.20925342
0002a0 7b ca 2c be 94 8d b9 3e 52 84 88 3e 87 ec 8f be
       -0.16874115 0.36240828 0.26663452 -0.28110144
0002b0 d4 3b 80 3e 97 ed 29 3e a3 6a 6b 3e dc 87 c3 3e
       0.25045645 0.1659454 0.22989897 0.3818959
0002c0 dd 6a 8d bd 2a 7e f0 3b a2 90 d5 3e ee 30 98 bd
       -0.06905148 0.0073392587 0.4171191 -0.074312076
0002d0 72 e8 83 be e5 17 0c be 57 d1 66 bc 48 2f 20 be
       -0.2576328 -0.1368099 -0.014087996 -0.15643036
0002e0 40 7c 1e be bd 34 df bd 5e 26 54 be f7 48 b0 bd
       -0.15477085 -0.10898731 -0.20717761 -0.08607667
0002f0 f9 62 cf 3e de ee 91 bd 89 4c f0 3d 6a b5 11 be
       0.40505198 -0.071256384 0.11733348 -0.1422936
000300 e4 9e 4c bd 96 3b 6e bd 74 b7 38 be 6a 61 56 bd
       -0.049956217 -0.058162294 -0.18038732 -0.052338995
000310 53 10 62 be 72 e0 25 be 4e 69 00 be fc 17 91 3e
       -0.2207654 -0.161989 -0.1254017 0.2833861
000320 14 51 76 3d 99 e2 94 3d ba 9b 8d 3e e0 40 7a 3d
       0.060135916 0.072697826 0.27657872 0.061097026
000330 4c cc 18 bd 49 99 d3 bd fd 9a 33 3d ee 52 a8 3e
       -0.037304208 -0.10331971 0.04384898 0.3287577
000340 fb bc c9 be 50 04 a0 be 62 42 1d 3e 45 47 98 3e
       -0.39401993 -0.3125329 0.15357354 0.29741874
000350 46 48 c4 be 15 e2 11 3e 37 a6 a3 be a8 00 d4 3d
       -0.3833639 0.142464 -0.3196275 0.10351688
000360 8d 75 b6 3b 44 58 a0 3e 5e 82 8d 3e f7 28 b4 3e
       0.0055682124 0.3131734 0.27638525 0.35187504
000370 be 8e f3 bd 46 62 64 bd b2 33 67 be e1 92 5f be
       -0.1189246 -0.055757783 -0.22578314 -0.21833374
000380 9d 81 b5 3e 5d 35 98 be 29 c1 4d 3c 55 64 77 be
       0.3545045 -0.29728213 0.01255826 -0.24159367
000390 5b 38 3c be b9 cf 1f bc 53 7e b4 bc d4 05 1b be
       -0.18380873 -0.009754115 -0.022032892 -0.15138942
0003a0 18 35 a5 bc ad f1 bf 3e e9 05 c3 be 22 ba 92 be
       -0.020166919 0.3748907 -0.38090447 -0.28657633
0003b0 76 6a 64 3d 37 0c f9 bd ea 3d 18 bd 6c 17 c4 be
       0.05576559 -0.12160533 -0.03716842 -0.3829912
0003c0 3a 55 c1 be 93 ca 3a be bb 5e af 3e 8a ec c7 3e
       -0.37760335 -0.18241338 0.3425196 0.39047652
0003d0 02 25 90 3e d0 1b c6 3e 3a 40 9f be 83 57 a1 3e
       0.28153235 0.38693094 -0.31103688 0.3151208
0003e0 92 b7 7e be 52 4f c7 3e dd 04 ec 3c 1c d1 97 be
       -0.24874714 0.38927704 0.028810913 -0.29651725
0003f0 90 2c 60 3c 3c b0 64 be 06 10 ad be fb 9d 7c 3e
       0.0136824995 -0.22332853 -0.33801287 0.2466964

residual.2.bias f4 [16]
000000 f4 f8 0e 3c 5f 52 f2 bc ba 82 31 3c 07 be 85 bb
       0.008726347 -0.029580293 0.01083439 -0.004081491
000010 02 b8 a2 bb 6f ee a8 3c fe 5f f0 3c 7d 49 88 bb
       -0.004965783 0.020621506 0.029342648 -0.004159151
000020 e0 ac 0f bb 1c 8f 70 3c 14 66 3a b9 b3 18 ab ba
       -0.002192311 0.014682557 -0.0001777637 -0.0013053626
000030 49 e6 04 3d 71 e8 44 3b 7d c4 28 3c e3 29 4e 3c
       0.03244618 0.0030045772 0.010300753 0.012583229

residual.4.weight f4 [8, 16]
000000 8a 83 a2 bd e8 8a bf 3e 4c 01 65 be 5c b8 af 3b
       -0.07935245 0.37410665 -0.22363776 0.0053625535
000010 70 ea ca be 1b 4e d6 3c 4a a7 a2 be 9a 91 aa be
       -0.39631987 0.02616029 -0.31768256 -0.3331421
000020 c0 89 f3 be 04 41 e4 3e 04 b4 ec be fb ba 04 be
       -0.47566032 0.44580853 -0.4623109 -0.12961952
000030 d5 87 80 bc 88 53 a5 3c 23 d0 b8 3c cc 5c cd be
       -0.01568977 0.020181432 0.022560185 -0.4010986
000040 d9 6f 7f 3e c2 26 06 3f 2c 9a 5e be 11 eb d4 be
       0.2494501 0.5240289 -0.217385 -0.4158559
000050 a8 e2 ed 3e a6 84 73 be 67 96 cd be f0 32 75 3e
       0.46461987 -0.2378107 -0.4015381 0.23945212
000060 c7 89 a2 be 09 48 2c 3e ee 88 dd be e9 cf d1 3e
       -0.3174574 0.16824354 -0.43268532 0.40978935
000070 48 99 32 be 09 36 b4 3e 61 ca 91 be e2 a3 37 be
       -0.17441285 0.35197476 -0.28474715 -0.1793361
000080 6b b0 c0 3e 17 ea 59 be a9 11 c9 be 74 66 52 bd
       0.37634596 -0.21280704 -0.39271286 -0.05136724
000090 9d 86 80 be aa 8f c4 be 7c 5d d9 be fd 0e 4b be
       -0.25102702 -0.38390857 -0.42454135 -0.19829936
0000a0 d9 b2 cf 3d 34 ba 53 3d ae a4 26 be e7 5c e9 be
       0.10141534 0.05169125 -0.16273758 -0.4557869
0000b0 7a 08 88 3d 34 4a 44 3e 9a aa 4d bd 94 8b b5 be
       0.06642242 0.19168931 -0.050211526 -0.35458052
0000c0 f0 40 b0 3e 5d 1c 87 3e fa 2c 8a be 3c 8a 05 3f
       0.34424543 0.26388827 -0.2698744 0.52164054
0000d0 28 96 4b be d4 3c 2a 3e 2b 71 a6 be 84 4c 55 be
       -0.19881499 0.16624767 -0.32508215 -0.2082997
0000e0 bf 72 98 3e 0c 7e 50 3e 3d 1a c7 3e 7f c2 6b be
       0.29775044 0.20360583 0.38887206 -0.23023413
0000f0 4e 00 e4 bc 9c 9f b7 be 41 71 13 3e a7 c1 c1 3e
       -0.027832177 -0.3586396 0.14398672 0.37843058
000100 e2 ba b5 be 32 a9 b5 3e da a0 d5 bc 33 24 8b 3e
       -0.35494143 0.35480648 -0.026077677 0.27176055
000110 65 18 07 be b5 c5 c2 be bf 53 83 3d 73 96 d9 be
       -0.131929 -0.38041463 0.06412458 -0.42497596
000120 5f 86 73 bd e8 9a 79 be ed 94 ad 3d 1f fb ce 3e
       -0.059454318 -0.24375498 0.08475671 0.40425965
000130 cf d6 29 be 33 b0 ee 3e 4f 68 4c 3e c7 1d fd bd
       -0.16585849 0.46618804 0.19961666 -0.12359195
000140 b8 1c 59 3e 7c 3d 80 be ae c9 91 3e 64 8a c6 be
       0.21202362 -0.2504691 0.28474182 -0.3877746
000150 ee ed 1a bd f3 ad 4d 3e 4d 3b d0 3d 48 e5 0a 3d
       -0.037824564 0.20085888 0.10167561 0.033910066
000160 1b 32 ca be 13 ab ab bd 0b 7a e7 bd 26 d8 e4 3e
       -0.39491352 -0.08382239 -0.11302575 0.44696158
000170 a8 ca 97 be d7 72 fe be b9 1a 9b be 80 60 c0 be
       -0.29646802 -0.4969699 -0.30293825 -0.37573624
000180 86 c2 03 bf 3c 66 00 bf 45 4e 91 bd 8d bb fb be
       -0.51468694 -0.50156 -0.07095007 -0.49166527
000190 fa a5 f3 3e b8 24 ab be 08 22 aa 3e b1 0e e5 be
       0.47587568 -0.33426452 0.3322909 -0.4473777
0001a0 84 bb 41 bd e5 e6 e2 3b bc 25 b8 be 04 10 b2 3e
       -0.04729797 0.0069244974 -0.3596629 0.34777844
0001b0 a7 66 09 3e 25 86 03 3e 7a 70 10 3e d3 11 d7 be
       0.13418065 0.12844141 0.14105406 -0.42005786
0001c0 a8 c2 a7 be ad 80 4a 3e f8 16 da 3e bf 60 57 3e
       -0.32765698 0.19775648 0.4259565 0.21033
0001d0 4b e1 40 3e 90 dc 82 be 06 63 b8 be fe 69 97 3e
       0.18835942 -0.255589 -0.3601305 0.29573053
0001e0 d3 88 91 bc 24 f1 5f be c3 62 d7 bd 70 ca 08 3e
       -0.017765438 -0.21869332 -0.10516884 0.13358474
0001f0 7d bd 84 be 7f 5f 4d be 04 47 06 3e 4a ef 96 be
       -0.25925818 -0.2005596 0.13113028 -0.29479438

residual.4.bias f4 [8]
000000 4e e2 3b bc 50 ba 10 bd 99 f5 f0 bc 0c 03 3d bc
       -0.011467529 -0.03533393 -0.029413985 -0.011536371
000010 f3 c1 4e 3c ec f8 3b bc 76 26 ed b9 ff 82 0c bc
       0.012619483 -0.011472922 -0.00045232818 -0.008576154

residual.6.weight f4 [1, 8]
000000 0f 78 20 3f fb 26 40 be 91 c9 28 bf 4f 75 ab 3e
       0.62683195 -0.1876487 -0.65932566 0.33487937
000010 72 b6 de be 28 90 02 3f df 58 09 be 29 42 35 bf
       -0.4349857 0.51001215 -0.13412808 -0.7080408

nee_decoder.0.weight f4 [16, 32]
000000 9f c6 0b be 14 b2 87 3d cb c1 b4 be 68 3e 8b be
       -0.13649987 0.066257626 -0.35304102 -0.2719605
000010 b7 b0 8e 3e a6 4a d4 3d 14 a9 81 3e 27 72 27 be
       0.27869198 0.103658006 0.2532431 -0.1635214
000020 ad bb 69 be 3a 8d dd bc 0a c6 59 be dd c1 73 bd
       -0.22825499 -0.027044881 -0.21266952 -0.059511054
000030 1b 80 cf be f4 ca ee 3c 48 fc 90 bd 2f fc 83 3e
       -0.40527424 0.02914951 -0.07079369 0.25778338
000040 4a 53 c0 3d c8 58 cb be 90 03 60 3e 85 d4 9a be
       0.09390886 -0.39716172 0.21876359 -0.30240265
000050 ec c3 da be 8c 7f 90 3c f1 fa 4a 3c 16 c3 db bd
       -0.42727602 0.017638944 0.012388931 -0.10730569
000060 5e 61 90 3e 9f f2 72 3e 36 72 c8 be c5 77 d8 be
       0.28199285 0.23725365 -0.39149636 -0.42278877
000070 5f e5 a3 3e 4b 0f 97 bd df f8 97 be 82 91 c8 be
       0.32010934 -0.07375964 -0.2968206 -0.39173514
000080 46 4a 1d 3d a1 ce 1f be 00 23 4a bd b3 46 98 3e
       0.03840091 -0.15606166 -0.049349785 0.2974144
000090 ca 9d 23 3e b0 0c 44 be 93 9a 3d be 4f 1e 8d be
       0.1597816 -0.19145465 -0.18515997 -0.27562186
0000a0 33 36 28 3c ae a9 54 3e 73 68 89 3e 27 aa 22 3e
       0.010266828 0.20767853 0.268375 0.1588522
0000b0 57 ee 9e be c0 84 8a be ae f6 9b 3b 44 de 95 be
       -0.31041214 -0.27054405 0.004759631 -0.29271138
0000c0 45 27 20 3e 33 ba 39 be 9d b9 29 be 28 32 29 bf
       0.1563998 -0.18137436 -0.16574712 -0.6609216
0000d0 98 18 ec be 9f 2e d8 3e 51 95 d9 3d 17 19 b6 3c
       -0.46112514 0.4222307 0.10624183 0.02222876
0000e0 3a dc c9 be 1c ac 2b be cf a8 8d 3e 89 06 5c be
       -0.39425832 -0.16764873 0.27667853 -0.21486868
0000f0 89 9f 2e 3e b3 ff 0d 3e 53 05 ce be 2f 49 a7 be
       0.17053045 0.13867073 -0.40238437 -0.32673022
000100 9c f3 74 be 62 dc 6c be 4f fd 6f bc 23 5f 1e 3e
       -0.23921055 -0.23130944 -0.014647796 0.1546598
000110 bf 4c 23 3e ee e8 b1 3e 4c 7b 96 3e 22 1e d0 bb
       0.15947245 0.34748024 0.29390943 -0.0063512484
000120 ae b0 89 3e 8e 4b b9 3e f8 fb ac 3e ad ee f2 bd
       0.26892608 0.36190456 0.33785987 -0.1186193
000130 55 a1 ee 3d b9 48 8f be 1a 5d 6b be 4d 20 3e bd
       0.116518654 -0.2798517 -0.22984734 -0.046417523
000140 fc 7a f0 3b 55 fe 88 be 7a 3f a7 be 0a 60 4d 3e
       0.0073388796 -0.2675654 -0.32665616 0.20056167
000150 52 e9 be be 48 c5 92 3c d3 45 17 be c9 d8 0c be
       -0.37287384 0.017916337 -0.1477273 -0.13754572
000160 be 85 2a 3e 09 14 ad 3e 0e 46 0d 3c 5f 63 9f 3d
       0.16652581 0.33804348 0.008622659 0.077826254
000170 61 37 74 be b4 b6 a1 3e 75 84 e7 bd 54 ab 0c be
       -0.2384925 0.31584704 -0.11304561 -0.13737231
000180 da b2 57 3e 24 c3 a0 3e 42 b5 7f 3d 76 76 b2 3e
       0.2106432 0.3139888 0.06242872 0.34856004
000190 e4 d3 be 3e 5b 18 97 3e 46 ad 96 bc 70 d8 a3 3e
       0.37271035 0.2951077 -0.01839317 0.32001066
0001a0 3a c6 cd 3d 5d 08 bb 3e e3 07 86 3e ba a8 5f 3d
       0.10047574 0.36529818 0.26177892 0.05460427
0001b0 e1 ef 1d be cf 7a 76 3d 7b 10 08 3e 23 f2 23 be
       -0.15423538 0.060175713 0.13287537 -0.16010337
0001c0 33 d4 be bd 7d 1f e4 3d c3 8f 4e be 66 57 d0 be
       -0.093178175 0.111388184 -0.20172028 -0.4069168
0001d0 83 c1 ac be dc b6 30 bd b2 a3 b0 3c eb 1e 45 3e
       -0.33741388 -0.04314314 0.021562431 0.19250076
0001e0 5a 09 99 3e b7 58 b4 3e 23 7a 2d be 50 bb d4 bd
       0.29889947 0.35223934 -0.16941123 -0.103872895
0001f0 77 c3 89 be f3 81 a5 bd 91 b0 c2 bc 16 79 01 be
       -0.2690694 -0.080814265 -0.023765834 -0.12643847
000200 33 bf 8f 3e 30 9a db 3e 74 b7 79 bd 65 cb bf 3c
       0.2807556 0.42891073 -0.06096597 0.023412416
000210 ab c8 23 be 87 d1 67 3e c6 89 b5 3d 14 d8 d4 bd
       -0.15994518 0.22638522 0.08864169 -0.10392776
000220 e9 ac 93 be 1f 86 8f bd ab 59 7b be 5f c8 8d 3d
       -0.28842857 -0.070080034 -0.24545924 0.069229834
000230 0e 5c ce be 02 62 be be 90 3e f6 bc 61 15 7d be
       -0.40304607 -0.3718415 -0.030059129 -0.24715187
000240 c6 78 98 be f4 48 b6 3c 4d 04 35 be e3 99 f9 3d
       -0.29779643 0.022251584 -0.17677422 0.12187555
000250 91 94 39 3c 24 67 ae bd c1 1d c9 3e 65 2d 86 be
       0.011326925 -0.08515766 0.39280513 -0.26206508
000260 62 2c 11 be ec 51 07 be 5d 1e 29 3e b6 3c 35 be
       -0.14177087 -0.13214844 0.16515489 -0.1769894
000270 ba 1d 79 be 72 1d 0d be 4f 1f 08 3e a2 5f 0d be
       -0.24327746 -0.13780764 0.13293193 -0.13806012
000280 27 88 09 3e 2b 6c 1b bd 3b 0d 8d 3c 9e 34 ca bd
       0.13430844 -0.037944954 0.017218223 -0.09873317
000290 f5 03 c8 3d 6f 21 34 3e 4f b0 2a be bc 5f 5e be
       0.0976638 0.17590879 -0.16668819 -0.21716207
0002a0 4b b7 c2 3d 53 91 d6 bd 1f c4 3c 3c 1f 44 b1 3d
       0.095076166 -0.10476937 0.011521368 0.08655571
0002b0 f1 08 18 bd e8 55 81 bc 7c 50 7b 3e 3a fb b6 3e
       -0.037117902 -0.015788034 0.24542421 0.35738546
0002c0 0a 73 01 be 2e dd f8 3e 87 31 6c 3c 9f 63 4b 3e
       -0.1264154 0.48606247 0.014416105 0.19862221
0002d0 29 c3 5a 3e b1 57 d2 bd 35 3d 27 be 74 ff 1c be
       0.2136351 -0.10270632 -0.16331942 -0.15331823
0002e0 61 15 9e bd f4 9f 58 be 28 a0 64 be e1 bd c7 3e
       -0.077189215 -0.21154767 -0.2232672 0.39012054
0002f0 af 92 12 3e ca 18 3b be e8 50 5d 3d 40 8a 8f 3e
       0.14313768 -0.18271175 0.054032236 0.28035164
000300 1c ea 94 bd 7d d3 13 be 17 ec 86 be de eb 01 3e
       -0.07271215 -0.14436145 -0.26351997 0.12687632
000310 a2 50 1a be 47 f3 68 bd e4 ac b4 3d 4a 58 c7 3d
       -0.15069821 -0.056872632 0.08822039 0.09733637
000320 d4 1f 86 3d fb c7 f3 be d2 e4 ad be da 5b 21 3e
       0.065490395 -0.4761351 -0.3396364 0.15757695
000330 09 aa a2 3c 7e 3a eb 3c 46 4e a9 be 4f 7b 7d 3e
       0.01985647 0.028714415 -0.3306753 0.2475407
000340 e5 6e 25 3d f5 5c d5 3d 7e f1 3b bd 79 ba f0 3c
       0.04038896 0.10418121 -0.0458846 0.029385792
000350 4c d5 a9 3e ce 03 01 be 99 bb b3 3e 7e 05 a3 3e
       0.33170545 -0.12599108 0.35104063 0.31840128
000360 77 52 4b 3e d7 99 52 3e 63 29 31 3e d6 39 44 3e
       0.19855677 0.20566498 0.17300944 0.19162688
000370 2e ac 63 be 18 b1 e3 bc d6 13 b5 3c f3 ca 68 3e
       -0.2223365 -0.027794406 0.022104185 0.22733669
000380 6f ed 91 be 7c 39 60 3d cc c1 6a 3e a7 ce ab be
       -0.2850146 0.05474232 0.2292549 -0.335561
000390 4b 7e 85 3e 13 d6 81 be eb b4 73 bc b1 e1 74 3e
       0.26072916 -0.25358638 -0.014874677 0.2391422
0003a0 a6 ae 01 3f 16 97 9f 3e 91 dd a0 be 44 e1 74 3d
       0.5065712 0.31169957 -0.31419042 0.059785143
0003b0 b1 e4 8c be 0b f6 5e 3e cc 6d 9b 3e 3a f1 4a be
       -0.27518228 0.21773545 0.30357206 -0.19818583
0003c0 96 2e 94 be 88 6b 40 3e 78 d7 5b be e5 3a de 3d
       -0.28941792 0.1879102 -0.21468914 0.10851077
0003d0 dc 05 b1 3e c4 bd 4d 3e 27 c8 74 be cd eb 3a be
       0.34574783 0.20091921 -0.23904477 -0.18254013
0003e0 2b df 19 3e 0f 0d aa 3e 23 7e e6 3e 1a e6 33 bd
       0.15026538 0.33213088 0.4501811 -0.043920614
0003f0 bf 93 35 be 03 a9 7f 3e ec 2b 08 be 06 c0 34 3e
       -0.17732142 0.24966817 -0.13298005 0.17651376

nee_decoder.0.bias f4 [16]
000000 63 88 7c 3c d1 be 45 bd 8e 95 2e 3b 52 bd 51 bc
       0.0154133765 -0.04827768 0.0026639435 -0.012801485
000010 4e 8d 34 3b c7 e6 c9 3d 42 22 98 3d 36 bd 18 bd
       0.0027550044 0.098584704 0.07428409 -0.03728982
000020 d0 b6 43 3c 35 b6 a6 bd a3 01 b7 bb 22 a8 24 be
       0.011945441 -0.08140222 -0.005584912 -0.16079763
000030 e1 9a 05 3d 59 ff 20 3d 62 86 3d 3c 07 89 10 be
       0.032618407 0.03930602 0.011567684 -0.14114772
