climate/Final Experiments/PERNN_res42/best_model.pth (torch, 62626 bytes, 83 tensors)

encoder.0.fc.weight f4 [16, 16]
-0.059257146 -0.353162 -0.40738478 0.028922398 0.19353348 -0.49350953 -0.3044376 0.06280078
-0.321713 0.3640304 0.035405908 -0.4434037 0.03469629 0.29886577 0.18860236 0.059071008
0.3261824 -0.16929647 0.027710652 -0.023467815 -0.15649472 -0.304121 -0.11422839 -0.15040188
-0.31319195 0.22809538 -0.11847037 0.5804248 -0.008464268 0.18306795 0.15544295 -0.059411082
0.16843975 0.29584402 -0.17379116 -0.01950196 0.14836983 -0.28220844 -0.04028514 0.026932558
0.06600464 -0.5364549 0.18992825 -0.23769823 -0.41952947 -0.17071404 0.0060105114 -0.100771
-0.3543573 0.054448474 0.23999912 -0.19649993 0.20283806 -0.21456572 -0.11123744 0.16386977
-0.26311883 0.07740324 0.54201955 -0.12323525 -0.5118755 0.04626604 0.15028203 -0.022785852
0.061278522 -0.16737367 -0.40461642 0.047681883 -0.576968 0.08182942 0.021758549 -0.26562104
0.020578189 -0.09355527 -0.3348972 0.22766006 -0.14574474 -0.056407787 0.043142416 -0.050061498
0.39412174 0.27524838 0.24606618 -0.4795473 -0.022057524 -0.061771687 0.17167093 0.08823801
-0.46984503 0.14885601 -0.3026526 0.28424758 0.0522194 0.0385279 0.118243404 -0.18677159
-0.3118057 0.2687876 0.24724509 -0.07787069 0.46050987 -0.071599334 -0.23056746 -0.2857102
-0.288069 0.26421615 -0.24718694 -0.6006364 0.2747377 -0.10966308 0.49136254 -0.042048533
-0.12642968 0.01822382 -0.16030292 0.01791194 0.075574994 -0.3540802 -0.23451635 -0.39113206
-0.33837962 -0.11694669 -0.18812808 -0.26223984 0.13551724 0.24558121 -0.16895545 -0.14670113
-0.36409774 0.153963 -0.33068082 -0.14568369 0.112507954 -0.46044576 -0.37004068 -0.25334233
-0.3507583 0.28430375 0.031052722 -0.62942845 -0.1594123 -0.28738254 -0.110176474 0.01363959
-0.37536156 -0.38090283 -0.027890174 0.03551441 -0.42355672 0.22734569 0.12860844 -0.10433725
-0.27401906 0.16573657 0.43675187 -0.16136155 -0.63314384 -0.089895606 -0.31395978 -0.37110075
0.59967864 0.19899897 0.17515473 -0.2563311 0.43499672 0.35185602 0.07508439 0.015252946
0.3308373 0.010211039 0.58582217 0.1374378 -0.58417976 0.45557067 -0.026486592 0.11542017
0.27126458 -0.28206286 0.41778043 0.082838714 -0.25001448 0.05456941 0.10733618 0.07755838
0.33297494 0.73491347 0.36427814 0.17181648 0.06961984 0.018857928 0.077303655 0.33166572
-0.09063682 -0.26474512 -0.17581514 -0.14768897 0.16622704 -0.24936682 -0.06643629 0.09697266
-0.0711141 -0.008920432 0.21081482 0.39939222 -0.7195479 -0.2824274 0.07292288 -0.34509766
-0.33252674 0.25666147 0.15769231 -0.059755635 0.087246746 0.014210428 -0.13016076 0.33149165
0.01706512 0.3065117 -0.31554022 -0.5030984 0.05412441 0.28697044 -0.17113905 0.022396242
-0.36922386 -0.3240928 0.19079925 -0.14601266 -0.26675323 -0.10509166 -0.3025574 0.148803
-0.13012536 -0.1468358 0.35905337 0.026052918 -0.6817312 -0.383534 0.34896266 -0.0016411768
0.16049081 -0.41825157 -0.1515415 0.1688759 0.50329477 0.16402608 0.05930992 -0.16387013
-0.4124713 0.1957354 0.40028423 -0.31759396 -0.16943003 -0.100621 -0.5152655 -0.2923907
00000000: 9fb7 72bd a6d1 b4be bd94 d0be aaee ec3c
00000010: a42d 463e 48ad fcbe 3fdf 9bbe b29d 803d
00000020: 91b7 a4be 3162 ba3e c905 113d cf05 e3be
00000030: b21d 0e3d ef04 993e fa20 413e 71f4 713d
00000040: 6101 a73e 0e5c 2dbe 7301 e33c 933f c0bc
00000050: 2740 20be bfb5 9bbe 93f0 e9bd f302 1abe
00000060: b25a a0be d691 693e 98a0 f2bd b896 143f
00000070: b7ad 0abc 2a76 3b3e 702c 1f3e 0959 73bd
00000080: 787b 2c3e de78 973e 4ff6 31be 93c2 9fbc
00000090: 43ee 173e a07d 90be 0802 25bd aba1 dc3c
000000a0: 712d 873d 1c55 09bf 8d7c 423e 2a67 73be
000000b0: 91cc d6be a9cf 2ebe d3f3 c43b 0761 cebd
000000c0: 526e b5be 5d05 5f3d 54c2 753e 4737 49be
000000d0: c8b4 4f3e 1eb7 5bbe 74d0 e3bd 7acd 273e
000000e0: 83b7 86be 9785 9e3d cbc1 0a3f c362 fcbd
000000f0: 460a 03bf 7681 3d3d 88e3 193e 65a9 babc
00000100: 30ff 7a3d 0164 2bbe e229 cfbe 144e 433d
00000110: 2db4 13bf 2f96 a73d fc3e b23c 7bff 87be
00000120: 9793 a83c e899 bfbd a577 abbe b81f 693e
00000130: 1c3e 15be da0b 67bd 1ab6 303d 490d 4dbd
00000140: 53ca c93e 5bed 8c3e c6f8 7b3e 3987 f5be
00000150: fbb1 b4bc 4f04 7dbd 81ca 2f3e 21b6 b43d
00000160: 878f f0be b66d 183e 48f5 9abe e688 913e
00000170: 02e4 553d 6ecf 1d3d 9929 f23d 0d41 3fbe
00000180: ffa4 9fbe 879e 893e d12d 7d3e ab7a 9fbd
00000190: f3c7 eb3e aca2 92bd e019 6cbe 9b48 92be
000001a0: c87d 93be 5747 873e 931e 7dbe 4fc3 19bf
000001b0: 6baa 8c3e 0997 e0bd df93 fb3e 153b 2cbd
000001c0: c876 01be 1f4a 953c 7326 24be 10bc 923c
000001d0: 10c7 9a3d 004a b5be 0e25 70be 7642 c8be
000001e0: 1840 adbe bf81 efbd a6a4 40be 4d44 86be
000001f0: 08c5 0a3e a479 7b3e a802 2dbe d238 16be
00000200: 056b babe 7aa8 1d3e ff4e a9be 1b2e 15be
00000210: 926a e63d 8cbf ebbe f975 bdbe 16b6 81be
00000220: 9896 b3be 4390 913e 4762 fe3c 3922 21bf
00000230: fa3c 23be ce23 93be 34a4 e1bd 9678 5f3c
00000240: 642f c0be b205 c3be ef79 e4bc 8f77 113d
00000250: 6ddc d8be 4fcd 683e eeb1 033e c5ae d5bd
00000260: 3a4c 8cbe d9b6 293e f19d df3e f63b 25be
00000270: b715 22bf 301b b8bd 56bf a0be eb00 bebe
00000280: 8a84 193f 63c6 4b3e c35b 333e d43d 83be
00000290: e4b7 de3e 7926 b43e d8c5 993d 7ee7 793c
000002a0: 8263 a93e 344c 273c 71f8 153f 7fbc 0c3e
000002b0: ce8c 15bf 8f40 e93e 69fa d8bc 6961 ec3d
000002c0: 31e3 8a3e 8b6a 90be 51e7 d53e 58a7 a93d
000002d0: e601 80be 2c84 5f3d 12d3 db3d eed6 9e3d
000002e0: b17b aa3e 4a23 3c3f aa82 ba3e a9f0 2f3e
000002f0: d994 8e3d f17b 9a3c 6151 9e3d 17d0 a93e
00000300: cc9f b9bd ac8c 87be e208 34be c73b 17be
00000310: 6c37 2a3e 045a 7fbe c00f 88bd 9a99 c63d
00000320: 45a4 91bd 0127 12bc d7df 573e 237d cc3e
00000330: 4b34 38bf 539a 90be 9758 953d a4b0 b0be
00000340: f240 aabe 2269 833e 187a 213e 53c2 74bd
00000350: 6cae b23d dbd2 683c dd48 05be 46b9 a93e
00000360: 27cc 8b3c 1aef 9c3e 7d8e a1be 0fcb 00bf
00000370: 8fb1 5d3d caed 923e 133f 2fbe 5378 b73c
00000380: e90a bdbe 7eef a5be e160 433e 5884 15be
00000390: e193 88be 4c3a d7bd cee8 9abe d05f 183e
000003a0: 953f 05be 205c 16be d8d5 b73e ee6c d53c
000003b0: f085 2ebf 925e c4be 3cab b23e c11c d7ba
000003c0: b457 243e 1225 d6be b22d 1bbe ceed 2c3e
000003d0: edd7 003f 74f6 273e f5ee 723d 92cd 27be
000003e0: 702f d3be dc6e 483e 0ef2 cc3e ad9b a2be
000003f0: 117f 2dbe 6212 cebd 71e8 03bf 3cb4 95be

encoder.0.fc.bias f4 [16]
-0.024004217 -0.00547746 0.01629218 0.07023304 0.0060644336 -0.14079565 0.12234511 0.11285799
0.02763247 0.013788241 -0.08685563 -0.08249469 0.053394437 0.019974358 0.15582938 0.054844987
00000000: 7ea4 c4bc 447c b3bb 2e77 853c 57d6 8f3d
00000010: 28b8 c63b bc2c 10be 1390 fa3d 1722 e73d
00000020: 7d5d e23c 13e8 613c 5de1 b1bd faf2 a8bd
00000030: 20b4 5a3d 44a1 a33c bd91 1f3e 23a5 603d

encoder.0.norm.weight f4 [16]
1.199521 1.1985679 1.1588776 1.1986235 1.1480001 1.1739464 1.2648518 1.2945461
1.2164748 1.1697363 1.0413175 1.0359143 1.2519467 1.1964359 1.2584956 1.2641203
00000000: e789 993f ac6a 993f 1a56 943f 7f6c 993f
00000010: abf1 923f e043 963f aae6 a13f b0b3 a53f
00000020: 72b5 9b3f ebb9 953f e449 853f d798 843f
00000030: ca3f a03f d024 993f 6216 a13f b2ce a13f

encoder.0.norm.bias f4 [16]
0.2747261 0.21175072 0.19246739 0.29821032 0.17153598 0.052751 0.2814621 0.30113298
0.2433762 0.25753003 0.1498811 0.2066952 0.26871878 0.2564095 0.2681251 0.25116917
00000000: e6a8 8c3e 2ed5 583e 2c16 453e 06af 983e
00000010: 21a7 2f3e 6f11 583d cd1b 903e 1a2e 9a3e
00000020: 9c37 793e fada 833e 6e7a 193e e8a7 533e
00000030: 8295 893e 1b48 833e b147 893e 3f99 803e

encoder.0.norm.running_mean f4 [16]
0.3078553 -0.19005086 -0.5681596 -0.04786679 -0.14948545 -0.90344125 0.06603021 -0.55223566
-0.112367846 -1.6163956 0.5882251 1.4046475 -1.5016949 0.18288156 0.07693032 -1.3550054
00000000: 369f 9d3e b19c 42be e872 11bf f80f 44bd
00000010: b712 19be ed47 67bf d93a 873d 515f 0dbf
00000020: 1d21 e6bd 0de6 cebf ec95 163f 7dcb b33f
00000030: 8a37 c0bf 4e45 3b3e a58d 9d3d d170 adbf

encoder.0.norm.running_var f4 [16]
0.77843714 0.40064424 0.9335274 0.7380097 0.6219295 0.48782623 1.3125721 1.1680517
1.9936334 1.6117728 1.0102595 2.3318605 1.392921 0.4083497 0.98722935 0.79133695
00000000: a847 473f 3e21 cd3e a7fb 6e3f 34ee 3c3f
00000010: c636 1f3f 5cc4 f93e 5d02 a83f b882 953f
00000020: 612f ff3f 924e ce3f 2f50 813f 343d 1540
00000030: 3c4b b23f 3613 d13e 10bb 7c3f 0f95 4a3f

encoder.1.fc.weight f4 [16, 16]
-0.38769126 0.035343632 -0.4272848 -0.042268567 0.18010746 -0.11603285 -0.39232412 -0.49538052
-0.19356155 -0.3232873 0.12684444 0.39931569 -0.0016130803 0.0919545 0.25161058 -0.08865933
0.3920376 -0.3389783 -0.030310694 -0.011053315 -0.29546103 -0.23539063 -0.016223805 -0.2632546
-0.17987302 -0.33982012 -0.0011534934 0.3144155 -0.2935283 0.10344599 -0.37276897 -0.28542018
0.005262737 0.29615003 -0.5045966 -0.036640543 -0.035914395 -0.3350406 -0.37788743 0.027601773
-0.14685163 0.3734398 -0.15259778 0.43125045 -0.32949144 -0.05329316 0.26143256 -0.31858507
-0.25034234 -0.18019935 -0.060466174 -0.02839403 -0.2276378 0.13986926 -0.16597763 -0.31675977
0.3645129 0.068137154 -0.22524793 -0.082509935 -0.2424739 -0.005886696 -0.20303252 0.0074412017
-0.25808665 -0.31822872 -0.056319654 0.0049671293 -0.068539925 0.2748827 -0.20006792 -0.07970825
-0.11593243 -0.34932205 0.0955631 0.20618495 -0.120936245 -0.46976596 0.5138646 -0.080155686
0.12695086 0.15477438 -0.072179765 -0.15530322 0.055337198 0.10300235 -0.13348854 -0.226338
-0.3603942 -0.36632207 -0.37463388 -0.14600854 0.38197798 -0.3876877 -0.44470474 0.08928602
0.29547554 -0.5003159 -0.19277932 0.048931684 0.081320584 -0.35546738 -0.075054154 0.04782803
0.29110122 0.11188627 0.16090406 -0.59727496 -0.035621975 0.14794023 -0.30154747 -0.34232867
-0.5930799 0.17995301 0.17651854 0.050932817 -0.20063654 0.02448942 -0.15624963 0.00045380424
-0.5556969 -0.3414991 -0.4881299 -0.21896605 0.3308899 -0.20297274 0.17475346 -0.383278
-0.52112114 0.11529491 0.124034025 0.076852866 -0.47800756 0.11028832 -0.24289012 -0.21624328
-0.17696051 0.080108345 -0.11858906 -0.6828137 -0.37615553 -0.31044927 0.27394438 0.05067663
0.03709648 -0.58469146 -0.47876355 0.052784745 0.04543061 -0.33155748 -0.0014165668 0.15377752
0.22331236 -0.57909614 -0.2613947 -0.19911554 0.32687092 0.0681251 -0.091266766 -0.15740162
0.4160544 -0.42938483 0.035397407 -0.14071123 -0.0424516 -0.4414955 -0.030442754 -0.29499143
-0.08729197 -0.20456597 -0.051160797 -0.33471888 -0.33677012 -0.3960829 0.114352204 -0.026260316
-0.021290125 0.15599528 -0.006644039 -0.07861995 0.019723793 -0.17432064 -0.24080652 -0.21184598
0.010336472 -0.086004965 -0.24070859 0.3972449 -0.3058024 -0.2434656 0.3242288 -0.14067614
0.21519887 -0.23609215 -0.26482347 -0.17730863 0.06283307 -0.48636168 -0.017874636 -0.1571052
-0.32644197 0.01535964 0.08049804 0.3686867 -0.033980988 0.03250387 -0.3106774 -0.30328122
-0.13696292 -0.3997192 -0.01678355 -0.05675745 0.06943882 -0.23030455 -0.42108542 -0.36534214
-0.41998667 0.24981108 -0.17476158 0.33457276 -0.07895274 -0.3774483 0.018720156 -0.15315217
0.18619676 -0.26223412 -0.17682245 -0.11315665 0.067779176 -0.20776603 -0.098926544 0.05476511
-0.1427401 0.24125268 -0.38855514 -0.49647456 -0.16512406 -0.21858358 0.1691605 0.07521422
-0.3943615 0.1538953 -0.0047311815 0.1092525 0.037038587 -0.15163705 -0.26363075 -0.46900156
0.019324094 0.32935193 0.19707839 0.39516872 0.037195325 -0.11760233 0.039664507 -0.47820666
00000000: 787f c6be 7cc4 103d 13c5 dabe ce21 2dbd
00000010: 176e 383e a2a2 edbd b5de c8be 84a2 fdbe
00000020: 0035 46be ea85 a5be 82e3 013e 1b73 cc3e
00000030: fe6d d3ba a452 bc3d 1ad3 803e 0693 b5bd
00000040: 27b9 c83e 908e adbe 224e f8bc f718 35bc
00000050: ab46 97be 3e0a 71be c9e7 84bc 4fc9 86be
00000060: a230 38be e7fc adbe d130 97ba 12fb a03e
00000070: 5749 96be 7edb d33d 93db bebe 9822 92be
00000080: 0a73 ac3b faa0 973e 3e2d 01bf 6514 16bd
00000090: f91a 13bd 718a abbe 767a c1be 1d1d e23c
000000a0: 4660 16be 8033 bf3e 9842 1cbe dccc dc3e
000000b0: 1ab3 a8be ee49 5abd 7dda 853e 951d a3be
000000c0: df2c 80be 2e86 38be 61ab 77bd 999a e8bc
000000d0: e219 69be e339 0f3e 0af6 29be 562e a2be
000000e0: 6fa1 ba3e 7e8b 8b3d 65a7 66be f8fa a8bd
000000f0: 144b 78be 2fe5 c0bb c2e7 4fbe 53d5 f33b
00000100: ef23 84be e0ee a2be 70af 66bd 4dc3 a23b
00000110: a95e 8cbd 6dbd 8c3e 9bde 4cbe 143e a3bd
00000120: fb6d edbd 57da b2be 96b6 c33d 2622 533e
00000130: 6cad f7bd 2a85 f0be a18c 033f aa28 a4bd
00000140: 68ff 013e 2d7d 1e3e fcd2 93bd cf07 1fbe
00000150: 42a9 623d e5f2 d23d 38b1 08be 26c5 67be
00000160: 9785 b8be 918e bbbe 03d0 bfbe 4383 15be
00000170: 9e92 c33e 017f c6be 57b0 e3be 97db b63d
00000180: 9248 973e b414 00bf f167 45be 976c 483d
00000190: 688b a63d d2ff b5be feb5 99bd 53e7 433d
000001a0: 380b 953e a124 e53d 09c4 243e 03e7 18bf
000001b0: 59e8 11bd a57d 173e 6e64 9abe b445 afbe
000001c0: 16d4 17bf 9a45 383e 47c1 343e ee9e 503d
000001d0: aa73 4dbe 099e c83c e7ff 1fbe 93ec ed39
000001e0: 2742 0ebf f8d8 aebe 2aec f9be a338 60be
000001f0: 676a a93e 16d8 4fbe 92f2 323e 043d c4be
00000200: 3268 05bf bd1f ec3d 8d05 fe3d 0965 9d3d
00000210: 68bd f4be d8de e13d 30b8 78be e16e 5dbe
00000220: 2335 35be d80f a43d d2de f2bd e1cc 2ebf
00000230: 7597 c0be 35f3 9ebe 7042 8c3e 4c92 4f3d
00000240: 7bf2 173d 57ae 15bf 7f20 f5be d134 583d
00000250: 7315 3a3d e7c1 a9be 18ac b9ba db77 1d3e
00000260: ffab 643e a53f 14bf 87d5 85be f2e4 4bbe
00000270: a05b a73e 2c85 8b3d 12ea babd e42d 21be
00000280: 1505 d53e 54d8 dbbe dffc 103d 9b16 10be
00000290: bbe1 2dbd b30b e2be 1563 f9bc 1e09 97be
000002a0: 22c6 b2bd be79 51be fc8d 51bd 4660 abbe
000002b0: 226d acbe 61cb cabe 7d31 ea3d e01f d7bc
000002c0: a168 aebc 3abd 1f3e 3db6 d9bb 7f03 a1bd
000002d0: cb93 a13c 1c81 32be fc95 76be 27ee 58be
000002e0: 4e5a 293c 5f23 b0bd 507c 76be af63 cb3e
000002f0: 2292 9cbe 0c4f 79be 5101 a63e 680d 10be
00000300: 185d 5c3e 24c2 71be f196 87be 6590 35be
00000310: a0ae 803d 6604 f9be d46d 92bc 30e0 20be
00000320: 6723 a7be 00a7 7b3c 28dc a43d 81c4 bc3e
00000330: a62f 0bbd c722 053d 1c11 9fbe ad47 9bbe
00000340: 0240 0cbe ffa7 ccbe a87d 89bc 807a 68bd
00000350: f135 8e3d f5d4 6bbe 8298 d7be 200e bbbe
00000360: 7e08 d7be 7ace 7f3e b3f4 32be 1f4d ab3e
00000370: f9b1 a1bd e740 c1be 035b 993c ecd3 1cbe
00000380: 5daa 3e3e 8d43 86be f210 35be acbe e7bd
00000390: cfcf 8a3d 9ec0 54be 009a cabd 6151 603d
000003a0: 762a 12be f10a 773e b3f0 c6be ea31 febe
000003b0: 4816 29be 60d4 5fbe 6938 2d3e ea09 9a3d
000003c0: c0e9 c9be bb96 1d3e 0708 9bbb c6bf df3d
000003d0: c6b5 173d be46 1bbe 9cfa 86be f920 f0be
000003e0: 904d 9e3c d1a0 a83e ebce 493e 8e53 ca3e
000003f0: 205a 183d 7ed9 f0bd 4077 223d 81d7 f4be

encoder.1.fc.bias f4 [16]
0.20345184 0.17966025 0.09857679 -0.027988655 0.15494715 0.07755429 0.029393977 0.0831989
0.08386846 0.06525011 0.12035925 0.13131395 0.03689019 0.05915534 0.045922976 0.044486314
00000000: ae55 503e dbf8 373e a1e2 c93d 7748 e5bc
00000010: 77aa 1e3e c9d4 9e3d a3cb f03c 2f64 aa3d
00000020: 3ac3 ab3d daa1 853d e97e f63d 2a77 063e
00000030: 2b1a 173d df4c 723d bb19 3c3d 4837 363d

encoder.1.norm.weight f4 [16]
1.2020246 1.2145282 1.2168016 1.3177305 1.1078076 0.9790575 1.3294921 1.2641279
1.2929001 1.232198 1.2306838 1.2518258 1.232242 1.2759572 1.3001624 1.2300655
00000000: f1db 993f a975 9b3f 28c0 9b3f 65ab a83f
00000010: a4cc 8d3f 83a3 7a3f cc2c aa3f f1ce a13f
00000020: c07d a53f aab8 9d3f 0c87 9d3f d43b a03f
00000030: 1bba 9d3f 9152 a33f b96b a63f c972 9d3f

encoder.1.norm.bias f4 [16]
0.24705203 0.19303633 0.20107481 0.30577147 0.13553102 -0.014516883 0.2917852 0.29341263
0.29279077 0.28330788 0.21388248 0.22523247 0.27868173 0.2802908 0.29918477 0.25237978
00000000: 35fb 7c3e 51ab 453e 8ee6 4d3e 148e 9c3e
00000010: a5c8 0a3e 38d8 6dbc df64 953e 2e3a 963e
00000020: ace8 953e bb0d 913e 0204 5b3e 57a3 663e
00000030: 5faf 8e3e 4782 8f3e bf2e 993e ec37 813e

encoder.1.norm.running_mean f4 [16]
-1.037314 -2.3293712 -1.6797713 -0.8694861 -0.9057159 -0.9320099 -2.1409812 -2.8654938
-1.0595036 -1.6413103 -1.5218567 -0.9922328 -2.3687387 -2.1429846 -0.46542734 -2.399604
00000000: b5c6 84bf 6b14 15c0 bf02 d7bf a496 5ebf
00000010: ffdc 67bf 3398 6ebf d605 09c0 4064 37c0
00000020: d09d 87bf 7516 d2bf 33cc c2bf f802 7ebf
00000030: 6a99 17c0 a926 09c0 7e4c eebe 1d93 19c0

encoder.1.norm.running_var f4 [16]
1.8978864 0.37409246 1.7262307 0.24726881 1.261047 1.3731992 2.5632064 2.7418075
0.7646295 1.7480696 1.0111727 0.90394795 0.58127755 1.5910083 0.9249376 2.4603333
00000000: f1ed f23f 0c89 bf3e 21f5 dc3f 0934 7d3e
00000010: fd69 a13f fec4 af3f 930b 2440 c679 2f40
00000020: c2be 433f bfc0 df3f 1b6e 813f 2269 673f
00000030: 9bce 143f 29a6 cb3f b6c8 6c3f 1a76 1d40

encoder.2.weight f4 [32, 16]
-0.004460017 0.4768516 0.32645506 -0.016208287 0.28469166 0.22803731 -0.17942108 -0.29140705
-0.15383565 -0.017236352 0.25769746 0.23932363 0.35642615 -0.23927656 0.23623408 -0.0024792019
-0.119179145 0.020118799 0.2789589 0.4980111 -0.120179534 0.13061322 -0.12609895 0.40386522
0.17585097 -0.020260492 0.39940047 0.35535774 0.52818155 0.07969977 0.074614204 0.2090263
0.24824771 -0.031687308 0.0002157256 0.40347508 -0.069340594 0.34220964 0.15814829 0.51019067
-0.10979484 0.3260369 0.042336572 0.40888998 0.45369616 0.20347604 0.18088588 0.24689066
-0.2153874 -0.28801373 0.11065192 -0.3115016 0.096036114 0.19910617 -0.40011188 -0.05366199
0.023109172 -0.2525567 0.03705056 0.04098504 -0.48174977 -0.05687096 0.06307398 0.3680352
0.026281578 0.56763494 -0.005861653 -0.09564334 -0.0022925967 -0.16721128 0.32462394 0.40320465
-0.20667969 -0.17936149 0.4018245 0.09565434 0.5836409 0.37381443 -0.15181248 0.23603569
-0.46995825 -0.11149275 -0.34716523 -0.18806183 0.24267922 -0.03346804 -0.39311403 -0.010374941
-0.13135272 0.24979301 -0.4608407 -0.24510147 -0.5631748 -0.2537794 -0.1761668 -0.2537131
-0.15884356 0.12986901 -0.13821465 -0.07371284 0.04872033 -0.24648364 0.3678736 0.36182547
0.3768754 0.14873436 0.13506554 0.016109526 0.053457186 0.2431428 0.24200875 0.26622647
0.017925138 -0.03786846 0.18376917 0.38472158 0.0013051472 0.35837385 0.44298038 0.24992521
-0.10437739 -0.14796555 0.06237037 0.06120412 0.11121827 -0.3363315 -0.2512366 -0.20923525
0.13250008 -0.11799202 -0.47282004 -0.4407031 -0.3044682 0.26357466 -0.12472623 0.10738916
-0.37761444 0.24465477 0.07904579 -0.14877786 -0.436808 0.08073509 -0.27667576 -0.18188
0.035744783 -0.5308888 -0.05330047 -0.19376795 -0.06009539 -0.022423463 -0.0843222 -0.37419808
0.09659094 -0.36599907 -0.035100605 -0.4522479 0.06645469 0.060097143 0.055808328 0.13055864
0.03855477 -0.2791259 -0.33734235 0.14793044 0.2523 0.00035913862 -0.08064099 -0.035587948
-0.10521669 0.23050843 -0.33322626 -0.3895277 -0.17513631 -0.13250563 -0.20263387 -0.010376001
0.114767216 0.48122555 0.34290153 0.4864362 0.34052548 0.16070119 0.21467905 0.17098616
-0.16918275 0.10979425 0.10812831 0.06542329 0.54806066 0.21319868 0.29809228 0.2524669
-0.34248868 -0.1457295 -0.17495684 -0.06447431 0.10881046 -0.1506529 0.061178867 -0.13913268
-0.16573928 0.151058 0.07584441 -0.25950375 -0.038406733 -0.13001136 -0.085483186 -0.28877792
-0.018067507 0.3014049 0.059581645 0.14446558 0.1808899 -0.073669136 0.38243976 0.5093211
0.36689457 0.38249207 0.09923482 0.17790163 0.13934514 -0.118939124 0.0036389264 0.24217135
-0.20102666 0.020256402 0.21203029 0.29149333 -0.062082157 -0.04400619 0.042429756 0.30610195
0.30613345 -0.12168035 0.2392094 -0.22847809 -0.050672606 -0.04026389 -0.085308194 -0.17759144
0.15758224 -0.0803699 -0.113521315 -0.2979796 -0.09829162 0.21758634 -0.27706194 -0.14036343
0.019646218 0.13649093 0.021398375 -0.33780512 -0.12943849 0.00116258 -0.029594827 -0.3390262
00000000: 5625 92bb e525 f43e 1e25 a73e 3ec7 84bc
00000010: 1bc3 913e 9d82 693e 29ba 37be 4e33 95be
00000020: 1887 1dbe 4033 8dbc ecf0 833e 4111 753e
00000030: 7d7d b63e ea04 75be 59e7 713e 1b7a 22bb
00000040: 3214 f4bd 2ed0 a43c b3d3 8e3e 50fb fe3e
00000050: b020 f6bd 79bf 053e 1520 01be 6cc7 ce3e
00000060: 4712 343e 55f9 a5bc 387e cc3e 73f1 b53e
00000070: e836 073f a239 a33d 55cf 983d fe0a 563e
00000080: a634 7e3e 8dca 01bd 6634 6239 4994 ce3e
00000090: 7102 8ebd 1a36 af3e a0f1 213e db9b 023f
000000a0: 1edc e0bd 4fee a63e 1d69 2d3d 075a d13e
000000b0: dd4a e83e 065c 503e 263a 393e e8d0 7c3e
000000c0: 848e 5cbe 8976 93be 799d e23d 237d 9fbe
000000d0: 95ae c43d 7de2 4b3e 77db ccbe adcc 5bbd
000000e0: 724f bd3c 1d4f 81be 54c2 173d eedf 273d
000000f0: e8a7 f6be 86f1 68bd ee2c 813d 1c6f bc3e
00000100: 774c d73c 8650 113f 1c13 c0bb a8e0 c3bd
00000110: 643f 16bb 6f39 2bbe 1c35 a63e d770 ce3e
00000120: d7a3 53be 8aaa 37be f1bb cd3e 6ce6 c33d
00000130: 7d69 153f 9b64 bf3e bb74 1bbe 57b3 713e
00000140: 5e9e f0be 5056 e4bd a4bf b1be 4893 40be
00000150: e780 783e c915 09bd 3e46 c9be a8fb 29bc
00000160: 5481 06be bdc9 7f3e 50f3 ebbe e1fb 7abe
00000170: 392c 10bf 60ef 81be 1265 34be afe6 81be
00000180: e3a7 22be 62fc 043e 2488 0dbe c2f6 96bd
00000190: f88e 473d 3566 7cbe ee59 bc3e 3041 b93e
000001a0: d0f5 c03e d24d 183e 9f4e 0a3e 20f8 833c
000001b0: ecf5 5a3d 6dfa 783e 24d1 773e d64e 883e
000001c0: bdd7 923c f51b 1bbd fc2d 3c3e 3afa c43e
000001d0: 7911 ab3a c77c b73e 53ce e23e 65ec 7f3e
000001e0: d0c3 d5bd 4884 17be 1378 7f3d 2cb1 7a3d
000001f0: 68c6 e33d a433 acbe 15a2 80be c441 56be
00000200: 1aae 073e cda5 f1bd 7815 f2be d6a3 e1be
00000210: 42e3 9bbe 42f3 863e 7770 ffbd d9ee db3d
00000220: ae56 c1be c886 7a3e c2e2 a13d 3959 18be
00000230: 4ca5 dfbe 7058 a53d 72a8 8dbe c03e 3abe
00000240: 1f69 123d 54e8 07bf 9851 5abd 1b6b 46be
00000250: 9526 76bd 69b1 b7bc 1eb1 acbd e496 bfbe
00000260: 79d1 c53d 3b64 bbbe a7c5 0fbd 098d e7be
00000270: 6619 883d 6c28 763d 4697 643d 2ab1 053e
00000280: 9beb 1d3d 97e9 8ebe 23b8 acbe 147b 173e
00000290: 772d 813e c54a bc39 1a27 a5bd abc4 11bd
000002a0: d97b d7bd 670a 6c3e a29c aabe 2d70 c7be
000002b0: ef56 33be 8eaf 07be 417f 4fbe 1a00 2abc
000002c0: 130b eb3d 3263 f63e ca90 af3e 2a0e f93e
000002d0: 5b59 ae3e da8e 243e d3d4 5b3e ff16 2f3e
000002e0: 3e3e 2dbe cfdb e03d 6072 dd3d a5fc 853d
000002f0: b44d 0c3f c150 5a3e 8d9f 983e 5743 813e
00000300: ad5a afbe 1d3a 15be e327 33be 1b0b 84bd
00000310: 05d8 de3d c144 1abe b196 7a3d cc78 0ebe
00000320: 8fb7 29be f3ae 1a3e 5054 9b3d addd 84be
00000330: 6150 1dbd b321 05be cf11 afbd b3da 93be
00000340: 4f02 94bc be51 9a3e e20b 743d c9ee 133e
00000350: 343b 393e d8df 96bd 25cf c33e de62 023f
00000360: 9bd9 bb3e 00d6 c33e a03b cb3d d82b 363e
00000370: 7eb0 0e3e 5b96 f3bd 0e7b 6e3b c4fb 773e
00000380: efd9 4dbe c1f0 a53c 781e 593e 9d3e 953e
00000390: dc49 7ebd d63f 34bd d3ca 2d3d 65b9 9c3e
000003a0: 86bd 9c3e 8c33 f9bd 4ff3 743e 29f6 69be
000003b0: 148e 4fbd c0eb 24bd 10b6 aebd 88da 35be
000003c0: 3d5d 213e f998 a4bd dd7d e8bd c890 98be
000003d0: 1e4d c9bd f4ce 5e3e 10db 8dbe 6ebb 0fbe
000003e0: 1bf1 a03c 47c4 0b3e a54b af3c cbf4 acbe
000003f0: 868b 04be b661 983a da70 f2bc d894 adbe

encoder.2.bias f4 [32]
0.1580927 0.28047746 0.2594574 -0.22557926 0.25418517 -0.24427022 0.23097886 0.13461298
-0.26606935 -0.24372473 -0.12935416 0.25799972 -0.24045715 0.24300015 0.17687179 -0.24681361
0.28466302 0.2710553 0.23503844 0.260492 0.10146806 -0.24544993 -0.091416545 0.24020587
0.24869432 0.20607875 0.25334555 -0.25697368 -0.1524323 -0.27108878 -0.2452578 -0.27678356
00000000: 0ee3 213e be9a 8f3e 9ad7 843e 40fe 66be
00000010: 8f24 823e f921 7abe b985 6c3e fcd7 093e
00000020: 3e3a 88be fa92 79be 6b75 04be 8a18 843e
00000030: 663a 76be 08d5 783e e11d 353e b5bc 7cbe
00000040: 5abf 913e c3c7 8a3e ebad 703e 355f 853e
00000050: 7cce cf3d 3a57 7bbe 9938 bbbd 87f8 753e
00000060: b9a9 7e3e 4f06 533e 82b6 813e 0e92 83be
00000070: 3617 1cbe 26cc 8abe dc24 7bbe 93b6 8dbe

residual.0.fc.weight f4 [16, 32]
-0.23031738 0.115874514 -0.31568596 -0.19581318 -0.24802066 -0.1923292 -0.0750071 0.08696279
0.07151289 -0.35243624 -0.33344334 -0.050340466 0.3068737 0.13641524 0.31195483 -0.16800445
0.09187347 -0.3040812 0.19052307 -0.004882418 -0.032786194 -0.19427356 -0.3104581 -0.13065456
-0.033575762 -0.18950477 0.14467736 -0.057774886 0.027309056 -0.3280886 0.102465205 -0.17554381
-0.2685202 -0.14307089 -0.31510556 -0.2752444 0.26927096 0.2949457 -0.2490593 0.08342966
-0.17534727 0.32434958 0.21872383 0.14493419 -0.28497675 -0.17005706 -0.07579992 -0.3109176
-0.21361244 0.09732732 -0.2895034 0.09565944 -0.011961991 -0.028941205 -0.10872385 -0.18889286
-0.32922685 -0.23851815 0.26371822 -0.022037072 0.3385009 0.02406949 -0.035856515 0.2129626
-0.33309746 -0.22188324 0.19639799 -0.086457156 0.27451888 -0.035702456 0.25691256 0.0100702625
0.03551909 -0.2908444 -0.12241228 0.013711094 0.16160811 0.063394085 -0.07695412 0.0037044715
0.31031558 0.23438157 0.123233795 -0.25358465 -0.11471421 0.22442715 0.31918415 -0.17073596
0.14915538 -0.08759556 0.22931959 -0.05936265 -0.27650556 -0.35348466 -0.013059521 0.10274095
-0.20089123 0.27873272 0.1636906 0.21852934 0.16922687 -0.3488155 -0.06954742 0.17634332
0.17347391 -0.31903863 -0.20782135 0.25952372 -0.30007514 0.26049808 -0.07598857 0.020727037
0.17981799 0.08743005 -0.21971521 0.12121427 -0.30737072 -0.18475015 -0.054402072 -0.0693437
0.25008222 -0.19475876 0.29337275 0.15791573 0.12282552 0.245885 -0.24491951 -0.29899225
0.0069004586 0.17840488 0.18362732 0.017522763 0.33639434 0.13194674 0.1565386 -0.16489714
0.11239884 -0.13854034 -0.2859043 -0.23326816 -0.21151628 -0.0454983 -0.14041619 0.3274006
0.13883094 -0.28604734 0.008208232 0.30706978 -0.015073527 0.060710054 0.08938418 -0.12015514
-0.22308859 -0.13147914 -0.08768252 0.28406796 -0.29293346 0.05420555 -0.1306419 -0.04355613
-0.034450155 -0.14222276 0.0843719 0.07689804 -0.19720674 0.2212648 0.31797683 -0.14007227
0.0775627 -0.13448085 0.24779117 -0.02637143 -0.3105367 0.08513797 0.2911601 0.0061857235
-0.09564648 -0.005613966 0.20596898 0.3064374 -0.09403295 0.18458605 0.19397973 0.3144572
0.25305006 -0.29572183 -0.29284507 -0.2922056 0.21653546 -0.17693165 0.2001973 -0.05442527
-0.1423367 0.26341274 -0.07328606 -0.18867704 -0.055809785 -0.2259891 -0.3456705 -0.067064196
-0.01907661 -0.19709866 0.31232977 -0.08242217 -0.09110125 0.27266014 0.03481071 -0.079133116
0.08456963 -0.32538837 0.34778532 0.090266384 0.12508188 -0.2604336 0.27280918 -0.29082072
-0.12818561 -0.22801912 -0.18353494 0.07246072 -0.34526244 -0.3439175 0.08294058 0.12086231
0.003985646 -0.1392911 -0.10556355 -0.04842796 -0.072309285 -0.22103783 0.27028337 0.06456397
-0.23530218 -0.06460175 -0.25289348 -0.21152823 0.2715176 0.10321104 0.1519627 -0.043315865
-0.080838874 0.039736003 -0.24578388 -0.35031962 0.24777322 0.0063534356 0.21772178 0.2624344
0.14867803 -0.12606207 -0.059846338 -0.024838869 0.026848271 0.008558244 -0.27472362 -0.19708174
00000000: 52d8 6bbe 9e4f ed3d 97a1 a1be 4083 48be
00000010: 21f9 7dbe f2f1 44be 539d 99bd 8c19 b23d
00000020: 5a75 923d 8672 b4be 16b9 aabe ce31 4ebd
00000030: 8d1e 9d3e 70b0 0b3e 8bb8 9f3e 5c09 2cbe
00000040: 2828 bc3d 88b0 9bbe 7b18 433e b1fc 9fbb
00000050: d14a 06bd a6ef 46be 5df4 9ebe 4fca 05be
00000060: bd86 09bd 8a0d 42be 4d26 143e 5ca5 6cbd
00000070: 3eb7 df3c 3bfb a7be 47d9 d13d c2c1 33be
00000080: 7b7b 89be 2d81 12be 8455 a1be d6ec 8cbe
00000090: e2dd 893e 1f03 973e 6709 7fbe 2bdd aa3d
000000a0: 3c8e 33be 2611 a63e 24f9 5f3e a169 143e
000000b0: 79e8 91be 7023 2ebe fd3c 9bbd 9730 9fbe
000000c0: 38bd 5abe 8c53 c73d ca39 94be 19e9 c33d
000000d0: 3afc 43bc 1b16 edbc 9caa debd 216d 41be
000000e0: 6c90 a8be 1a3e 74be 1306 873e 1787 b4bc
000000f0: fd4f ad3e 612d c53c 48de 12bd de12 5a3e
00000100: c08b aabe 5c35 63be 8e1c 493e 7310 b1bd
00000110: bd8d 8c3e bd3c 12bd 0b8a 833e befd 243c
00000120: 777c 113d 8fe9 94be 4ab3 fabd 7fa4 603c
00000130: 997c 253e c2d4 813d 1f9a 9dbd b8c6 723b
00000140: afe1 9e3e b901 703e 0062 fc3d d9d5 81be
00000150: 49ef eabd 3bd0 653e 1b6c a33e 68d5 2ebe
00000160: 30bc 183e 4d65 b3bd c1d2 6a3e 4026 73bd
00000170: 2392 8dbe f1fb b4be 9af7 55bc d969 d23d
00000180: 6eb6 4dbe 0eb6 8e3e 829e 273e 28c6 5f3e
00000190: cf49 2d3e f297 b2be e16e 8ebd 5893 343e
000001a0: 25a3 313e 0859 a3be 1fcf 54be 4be0 843e
000001b0: 73a3 99be 0160 853e e59f 9bbd bfcb a93c
000001c0: 3522 383e 870e b33d 06fd 60be 303f f83d
000001d0: b25f 9dbe 252f 3dbe b5d4 5ebd 1204 8ebd
000001e0: c70a 803e d76e 47be f434 963e a9b4 213e
000001f0: f28b fb3d 47c9 7b3e 2ecc 7abe 8315 99be
00000200: 3e1d e23b c5af 363e cd08 3c3e e68b 8f3c
00000210: e13b ac3e 0c1d 073e a84b 203e ccda 28be
00000220: 5d31 e63d 85dd 0dbe 0c62 92be d9dd 6ebe
00000230: b997 58be 6d5c 3abd 43c9 0fbe 0da1 a73e
00000240: b329 0e3e cc74 92be d27b 063c 4038 9d3e
00000250: f4f6 76bc 1bab 783d 0e0f b73d e613 f6bd
00000260: 5671 64be 78a2 06be e592 b3bd 5b71 913e
00000270: 60fb 95be a406 5e3d fdc6 05be ea67 32bd
00000280: 9b1b 0dbd d8a2 11be 2dcb ac3d b87c 9d3d
00000290: 90f0 49be 3d93 623e dccd a23e 1b6f 0fbe
000002a0: 31d9 9e3d 59b5 09be f8bc 7d3e e608 d8bc
000002b0: abfe 9ebe d15c ae3d f012 953e 9cb1 ca3b
000002c0: 4de2 c3bd 5cf5 b7bb 88e9 523e 5de5 9c3e
000002d0: 5994 c0bd 2004 3d3e 9fa2 463e 8900 a13e
000002e0: c78f 813e da68 97be caef 95be f99b 95be
000002f0: 79bb 5d3e 922d 35be 8500 4d3e 08ed 5ebd
00000300: b6c0 11be 09de 863e 0017 96bd 8e34 41be
00000310: cd98 64bd b069 67be b9fb b0be f458 89bd
00000320: 8d46 9cbc 3bd4 49be b0e9 9f3e f4cc a8bd
00000330: 4b93 babd 1c9a 8b3e ad95 0e3d 8b10 a2bd
00000340: d832 ad3d 4e99 a6be eb10 b23e 95dd b83d
00000350: 7715 003e 8e57 85be a5ad 8b3e 74e6 94be
00000360: 1743 03be d87d 69be 95f0 3bbe 4966 943d
00000370: 3dc6 b0be f415 b0be c0dc a93d a986 f73d
00000380: 069a 823b 53a2 0ebe b431 d8bd 665c 46bd
00000390: e416 94bd be57 62be 9562 8a3e 1d3a 843d
000003a0: 0ef3 70be ec4d 84bd 417b 81be db9a 58be
000003b0: 5b04 8b3e 4f60 d33d 1c9c 1b3e fa6b 31bd
000003c0: da8e a5bd 38c2 223d c5ae 7bbe 185d b3be
000003d0: 43b8 7d3e 7b30 d03b 75f2 5e3e cd5d 863e
000003e0: 0e3f 183e 6a16 01be 6f21 75bd e27a cbbc
000003f0: e8f0 db3c e137 0c3c 93a8 8cbe cccf 49be

residual.0.fc.bias f4 [16]
-0.0006741552 0.00011608166 -0.0008283446 -0.0016169518 -0.00097327883 9.7047654e-05 0.00019606722 -0.00048592483
0.00041550782 0.0016243118 -0.00042112384 -0.00016191966 -0.0012647947 0.0019884284 0.0004922764 0.001109517
00000000: cab9 30ba de70 f338 4425 59ba e6ef d3ba
00000010: a323 7fba 1086 cb38 6597 4d39 bac3 feb9
00000020: 84d8 d939 dce6 d43a 49ca dcb9 fac8 29b9
00000030: 78c7 a5ba 4b50 023b 1c0c 013a 366d 913a

residual.0.norm.weight f4 [16]
0.995985 0.99963665 1.0005202 0.99375653 1.0048207 1.0011828 1.0001093 1.0012202
0.99730897 1.003588 1.0047089 0.9973671 0.9941625 0.9926885 1.0049509 0.9935742
00000000: dff8 7e3f 30e8 7f3f 0c11 803f d466 7e3f
00000010: f79d 803f c226 803f 9503 803f fc27 803f
00000020: a44f 7f3f 9275 803f 4d9a 803f 7353 7f3f
00000030: 6f81 7e3f d520 7e3f 3ba2 803f e15a 7e3f

residual.0.norm.bias f4 [16]
-0.0035368784 -0.0015081891 0.0030352073 -0.002881255 0.003705237 -0.001782204 0.0038150994 0.0011990685
-0.0024729075 0.002445946 0.0036927003 -0.0024695592 -0.0023464994 -0.0051796315 -0.001629236 -0.00337747
00000000: f9ca 67bb 6eae c5ba 54ea 463b 70d3 3cbb
00000010: 90d3 723b d898 e9ba bf06 7a3b 102a 9d3a
00000020: 8110 22bb 2a4c 203b 3b01 723b 54d8 21bb
00000030: bac7 19bb e6b9 a9bb 178c d5ba 8b58 5dbb

residual.0.norm.running_mean f4 [16]
1.5445931 -5.084871 5.380977 11.688492 -0.6209173 2.4774296 1.7252779 0.8041456
-3.2143178 8.584436 -8.312484 -0.82697195 2.4622326 -5.953524 1.0482293 -2.8690605
00000000: 3ab5 c53f 43b7 a2c0 f730 ac40 1004 3b41
00000010: 70f4 1ebf 358e 1e40 e8d5 dc3f 7cdc 4d3f
00000020: 62b7 4dc0 da59 0941 efff 04c1 6fb4 53bf
00000030: 3895 1d40 4583 bec0 612c 863f b09e 37c0

residual.0.norm.running_var f4 [16]
2.7989645 0.74950415 2.8500724 2.2584596 1.6632693 0.5729062 1.1444746 1.5681161
1.4949446 2.0547218 3.2405314 0.40810978 1.6486185 0.9698804 0.9851517 1.533988
00000000: 3c22 3340 81df 3f3f 9667 3640 9a8a 1040
00000010: 02e6 d43f fba9 123f 257e 923f 07b8 c83f
00000020: 585a bf3f 9080 0340 de64 4f40 c4f3 d03e
00000030: ee05 d33f 154a 783f e732 7c3f b859 c43f

residual.0.projection.weight f4 [16, 32]
0.0741428 0.26258904 0.30792162 -0.28063145 0.16857286 -0.10622492 -0.018905973 -0.00622958
0.3066455 0.29027677 -0.2863509 0.077756256 0.20809086 0.09502485 -0.0015999378 -0.16669516
-0.25624236 -0.34554937 -0.011743892 -0.13810167 0.079266645 -0.14797626 0.28899366 -0.24911715
0.31539303 -0.1354799 0.05245283 -0.12501901 0.14157563 0.28339368 0.3327999 -0.24402416
0.24341795 0.23582608 -0.2847093 0.13752428 0.0722904 0.19840592 0.30621165 0.015473157
-0.12771972 -0.16640592 0.045666516 -0.04914784 -0.2518168 0.010593796 0.2025409 0.013638379
0.21498281 -0.12915894 0.272439 0.083393015 -0.1223732 0.1709212 0.1681944 -0.14870055
-0.061588418 0.18718874 -0.3159146 0.13982028 0.071787685 -0.23536433 -0.04009346 0.10626718
0.24692635 0.25743175 -0.22948417 -0.22587776 0.16766764 0.34642172 0.30383578 0.13120645
0.3347713 -0.15690409 -0.009793039 -0.2887079 -0.21817932 -0.2384001 -0.32749927 0.09933515
0.0965989 0.14170238 0.23852727 -0.27965504 -0.099884465 0.27650696 -0.31051996 0.2471197
0.108125225 -0.29332837 0.07906668 0.007623444 0.07453322 -0.104761645 0.15882422 0.27324402
0.24800636 -0.034693453 -0.3259775 0.35088116 0.09948667 0.3116166 0.12882021 -0.0020577158
0.19044241 0.20235151 -0.023093354 0.053968277 -0.015930336 0.24289195 0.15346384 -0.05947802
0.3340783 0.3380724 0.29119763 0.06542869 0.021412946 -0.18629427 0.2611465 -0.25544792
-0.3058472 0.10032584 -0.3286018 0.109526165 -0.16344012 -0.0071853097 -0.13700563 0.28457692
-0.26147276 0.07088476 0.011339061 -0.33319205 0.27433014 0.073909216 -0.28654602 -0.3432063
0.15921585 0.28292006 -0.084616214 -0.101156734 -0.30486533 0.2405407 -0.12913723 -0.16270821
0.12696758 0.3141985 0.15670875 0.102396764 0.30957937 0.016293857 0.052505024 -0.023924693
-0.21791162 0.06993678 -0.18619514 0.2112411 -0.24725008 -0.28249702 -0.06580207 0.26281163
-0.27220556 -0.11346193 -0.026791628 -0.16137774 0.16756208 0.31123626 0.19023627 -0.066625625
-0.27613923 -0.29464698 -0.08292499 -0.11151948 -0.26569974 0.086666726 -0.12758312 0.10392984
-0.19247104 -0.030334098 -0.10904707 0.21490136 -0.32686302 -0.13821493 0.07103071 -0.09968236
-0.005258984 0.24097368 0.048970815 0.046431176 0.0957158 -0.18728909 -0.13913544 0.16933359
0.051576976 0.22835632 -0.046703637 0.3315892 0.21217367 -0.10031705 -0.18004033 0.06490445
-0.29323012 -0.15710087 0.10977737 0.029938454 0.15981582 -0.14792529 0.2908813 -0.19316654
-0.17716055 0.23584923 -0.06434822 0.10258618 -0.064985245 -0.25137514 -0.013893418 0.15846135
0.23690508 0.263765 -0.011166788 0.25325784 0.10547777 0.010914134 0.007181824 -0.035097133
0.09957664 -0.019005941 0.22642045 -0.0490679 -0.19636457 0.100982316 -0.19582643 0.21198241
0.2886161 0.061517246 -0.0703434 -0.016400998 0.1646588 -0.26908922 -0.09946424 -0.2156988
-0.3154526 -0.25295487 -0.2239013 0.27084115 0.21952516 -0.24122046 -0.27974886 0.31482822
0.08360912 0.15667291 0.058138724 -0.13493547 -0.18525133 0.18759246 -0.3502497 -0.29624358
00000000: 2ed8 973d 1272 863e e7a7 9d3e edae 8fbe
00000010: 5d9e 2c3e 738c d9bd b3e0 9abc 8121 ccbb
00000020: a400 9d3e 289f 943e 969c 92be ac3e 9f3d
00000030: c515 553e 639c c23d 01b5 d1ba 23b2 2abe
00000040: 3332 83be d9eb b0be 7469 40bc 866a 0dbe
00000050: 8d56 a23d 1787 17be faf6 933e 9118 7fbe
00000060: 327b a13e 3ebb 0abe c7d8 563d fc04 00be
00000070: 34f9 103e fa18 913e c064 aa3e 78e1 79be
00000080: 8e42 793e 647c 713e 6bc5 91be 2ad3 0c3e
00000090: fd0c 943d ec2a 4b3e c6c7 9c3e 2083 7d3c
000000a0: f5c8 02be 5066 2abe d00c 3b3d 3f4f 49bd
000000b0: 22ee 80be 9a91 2d3c e266 4f3e 8273 5f3c
000000c0: 7424 5c3e 3e42 04be 207d 8b3e f5c9 aa3d
000000d0: cd9e fabd f805 2f3e 273b 2c3e f544 18be
000000e0: 2344 7cbd 68ae 3f3e 8fbf a1be 0c2d 0f3e
000000f0: 6c05 933d 5903 71be 0a39 24bd 9ba2 d93d
00000100: 43da 7c3e 18ce 833e e6fd 6abe 804c 67be
00000110: 11b1 2b3e 305e b13e 5d90 9b3e fc5a 063e
00000120: 2567 ab3e 77ab 20be fc72 20bc 86d1 93be
00000130: 666a 5fbe 281f 74be fcad a7be 3a70 cb3d
00000140: a5d5 c53d 6e1a 113e 7e40 743e f22e 8fbe
00000150: 3a90 ccbd 5292 8d3e 79fc 9ebe f20c 7d3e
00000160: c270 dd3d 232f 96be b6ed a13d 15ce f93b
00000170: dfa4 983d 468d d6bd d1a2 223e a4e6 8b3e
00000180: 61f5 7d3e b91a 0ebd 86e6 a6be b2a6 b33e
00000190: abbf cb3d 368c 9f3e 72e9 033e beda 06bb
000001a0: 5603 433e 3c35 4f3e 462e bdbc d70d 5d3d
000001b0: 5680 82bc abb8 783e a025 1d3e 399f 73bd
000001c0: 500c ab3e d317 ad3e db17 953e 7aff 853d
000001d0: 346a af3c edc3 3ebe feb4 853e 12ca 82be
000001e0: 0198 9cbe a277 cd3d 7f3e a8be 414f e03d
000001f0: d95c 27be bf72 ebbb 344b 0cbe 11b4 913e
00000200: c2df 85be 072c 913d 78c7 393c 2698 aabe
00000210: 0075 8c3e b75d 973d 29b6 92be bcb8 afbe
00000220: 7b09 233e e6da 903e 444b adbd 432b cfbd
00000230: 4f17 9cbe 4d50 763e 8d3c 04be fb9c 26be
00000240: ca03 023e a0de a03e 4278 203e 65b5 d13d
00000250: 3081 9e3e b27a 853c 820f 573d b8fd c3bc
00000260: 3924 5fbe 043b 8f3d f0a9 3ebe 964f 583e
00000270: 202f 7dbe 73a3 90be 3cc3 86bd 3f8f 863e
00000280: 875e 8bbe ba5e e8bd 1e7a dbbc 3540 25be
00000290: 6595 2b3e 5c5a 9f3e 4ccd 423e 0473 88bd
000002a0: 1f62 8dbe f8db 96be 94d4 a9bd 5364 e4bd
000002b0: cc09 88be 537e b13d 26a5 02be 2bd9 d43d
000002c0: 2117 45be 377f f8bc 1254 dfbd 1a0f 5c3e
000002d0: 975a a7be 3788 0dbe 8d78 913d 4426 ccbd
000002e0: 8e53 acbb cec1 763e 9f95 483d 9e2e 3e3d
000002f0: a506 c43d b6c8 3fbe 8579 0ebe c965 2d3e
00000300: 6142 533d 3dd6 693e 504c 3fbd 0fc6 a93e
00000310: 0e44 593e 0773 cdbd 7e5c 38be a0ec 843d
00000320: 4222 96be 0ddf 20be f5d2 e03d 7d41 f53c
00000330: c2a6 233e ba79 17be 65ee 943e 73cd 45be
00000340: 9369 35be 7682 713e 00c9 83bd b418 d23d
00000350: fc16 85bd 3eb4 80be 38a1 63bc b143 223e
00000360: 3f97 723e 350c 873e e7f4 36bc 03ab 813e
00000370: bb04 d83d 32d1 323c 8255 eb3b 03c2 0fbd
00000380: d6ee cb3d 59b2 9bbc c3da 673e 6cfb 48bd
00000390: cb13 49be d1cf ce3d b986 48be eb11 593e
000003a0: 7dc5 933e 82f9 7b3d 3310 90bd 635b 86bc
000003b0: 519c 283e 10c6 89be e8b3 cbbd 25e0 5cbe
000003c0: 0183 a1be 4d83 81be 6246 65be b1ab 8a3e
000003d0: 34cb 603e 7f02 77be 3e3b 8fbe 2a31 a13e
000003e0: 423b ab3d dd6e 203e df22 6e3d 862c 0abe
000003f0: 86b2 3dbe 3d18 403e ee53 b3be 3dad 97be

residual.0.projection.bias f4 [16]
0.0008333867 0.00070780696 -0.00078985665 -0.00079460995 0.0006543637 0.00078215805 -0.000765915 -0.00077592715
0.0007755184 -0.00077700126 0.00078414887 0.00078213395 -0.00079061236 -0.0007767227 0.0007958785 -0.00076419977
00000000: a277 5a3a 1f8c 393a 620e 4fba 5f4d 50ba
00000010: 9b89 2b3a bd09 4d3a b0c7 48ba 9767 4bba
00000020: 294c 4b3a acaf 4bba 578f 4d3a 1f08 4d3a
00000030: 1941 4fba fa9c 4bba 81a2 503a 9454 48ba

residual.1.fc.weight f4 [16, 16]
0.35346723 -0.007819766 0.34264135 0.050457474 0.19045609 0.21964943 -0.23539743 0.3851985
0.004982454 0.16700488 -0.32535768 -0.16432828 0.27985808 -0.26579815 0.06713649 0.38685593
-0.40537682 -0.011339389 0.07649423 0.27995962 -0.14954734 -0.4192459 -0.2673714 0.1367091
-0.32604954 -0.36445257 -0.016420936 0.11032762 -0.27779794 -0.16514947 0.24181607 -0.28655592
-0.36139405 -0.12524348 0.34848955 -0.12899671 -0.2915554 -0.30892032 -0.108059034 0.29994443
0.16891386 -0.15165429 -0.3681919 -0.25756755 0.091400325 0.36361432 0.2288956 -0.06277762
0.2353032 0.0380452 0.06669572 0.20444945 -0.09884947 0.1302242 0.031627648 0.124105446
-0.08853126 0.2722359 -0.38344657 0.29503268 -0.3634718 -0.29000527 -0.26299202 -0.048842188
-0.037583724 -0.4240059 0.22888939 0.11272817 0.42293897 -0.3038614 -0.34186327 0.10761397
0.33165234 0.29532793 0.17188784 0.071751885 0.21801262 -0.17513697 -0.43480697 -0.35561088
-0.27569744 0.093666285 0.39098126 0.27416205 -0.2875094 0.12174703 0.3799579 0.0145830475
-0.085021 -0.23021956 -0.03587053 0.32157522 -0.12626353 -0.06038213 0.21486492 -0.16376987
-0.19843158 0.07819184 0.31879482 0.039924324 -0.013869183 -0.35068282 0.25184402 0.013058123
-0.18673065 -0.38938245 -0.19946225 -0.30139545 0.08341378 0.31447428 -0.08100323 0.2561767
-0.09795527 -0.1993178 -0.394193 -0.28995395 0.33044937 0.28734523 0.41106015 -0.050808817
0.15422262 -0.061250806 0.43448377 -0.3384491 -0.12087325 -0.4160301 0.046007875 -0.34167728
-0.30257934 0.096797444 0.42838106 0.3636529 0.29848644 -0.10251797 -0.008050166 -0.38349724
0.28706598 0.12613963 0.3637989 -0.425417 -0.10086367 -0.2797543 -0.33792847 -0.2572768
0.13839066 0.2916241 0.19664326 -0.1450996 0.19611837 0.42394507 0.01681734 -0.16220541
-0.3359998 0.29973897 -0.09220342 -0.33482385 0.25077343 0.08268597 -0.1743956 -0.43323344
0.060172576 -0.13572763 -0.074633114 -0.14659132 0.34860092 0.23308101 0.35022697 0.1710601
0.11486737 0.4355711 -0.008885907 0.2428673 0.17040746 -0.40902042 0.29710022 -0.0350923
-0.29363373 0.2883145 -0.35040304 0.19780414 -0.35722223 -0.12292445 -0.40164322 0.31584924
0.104328 0.35921603 0.1259124 -0.2168551 0.06584129 0.29567376 -0.34179023 -0.2823788
-0.115084246 -0.26293308 -0.08133919 0.4150604 0.24664758 -0.35635623 -0.23900549 0.33988482
-0.025710784 -0.19003601 0.092216834 -0.062389962 0.1499885 0.0021716657 0.2486972 0.23125331
0.14470214 0.14090987 -0.118882254 -0.39335656 -0.0345621 -0.3231089 -0.33907136 -0.38787705
-0.099870846 -0.32825243 0.07909387 0.19251017 0.26576656 -0.42579067 0.35598063 0.1209026
0.35751256 0.20327456 0.07682945 -0.08410485 0.3569207 -0.27689484 0.3457076 0.38425764
0.062431794 -0.17704733 -0.3571604 -0.028994475 0.3647258 0.02294419 -0.108450375 -0.20815718
0.02958902 0.24636605 0.087481186 0.07893732 -0.29280952 0.2079242 0.039062094 -0.4330928
0.36783412 0.2675519 0.010394399 -0.078576736 0.3889306 0.42353 0.07179188 0.39491504
00000000: a8f9 b43e 7a1e 00bc b06e af3e 7fac 4e3d
00000010: ec06 433e c8eb 603e 060c 71be bd38 c53e
00000020: da43 a33b 5403 2b3e 4895 a6be ac45 28be
00000030: 8f49 8f3e b216 88be db7e 893d fb11 c63e
00000040: 8d8d cfbe d8c8 39bc 02a9 9c3d de56 8f3e
00000050: f022 19be 66a7 d6be e7e4 88be 78fd 0b3e
00000060: f7ef a6be 8799 babe 3385 86bc 72f3 e13d
00000070: 883b 8ebe f11c 29be a29e 773e 75b7 92be
00000080: a408 b9be d43f 00be 396d b23e b717 04be
00000090: c046 95be ce2a 9ebe 0e4e ddbd 5192 993e
000000a0: c1f7 2c3e 434b 1bbe a683 bcbe e5df 83be
000000b0: 1830 bb3d a82b ba3e 9c63 6a3e 8e91 80bd
000000c0: 52f3 703e 49d5 1b3d c497 883d 325b 513e
000000d0: 9771 cabd 7e59 053e fe8b 013d ff2a fe3d
000000e0: e14f b5bd 8162 8b3e 1c53 c4be 860e 973e
000000f0: fa18 babe 927b 94be e4a6 86be bf0e 48bd
00000100: 64f1 19bd 4d17 d9be fb61 6a3e 07de e63d
00000110: 758b d83e b993 9bbe b408 afbe b764 dc3d
00000120: 56ce a93e 3935 973e 5e03 303e a7f2 923d
00000130: b33e 5f3e 1b57 33be 059f debe a112 b6be
00000140: 3728 8dbe 1cd4 bf3d b22e c83e f85e 8c3e
00000150: 6f34 93be 8256 f93d d889 c23e bced 6e3c
00000160: 7d1f aebd adbe 6bbe faec 12bd 82a5 a43e
00000170: 3a4b 01be 4153 77bd 8d05 5c3e 4ab3 27be
00000180: a631 4bbe 0b23 a03d 1339 a33e b087 233d
00000190: 923b 63bc b38c b3be b3f1 803e bdf1 553c
000001a0: 5236 3fbe 235d c7be d53f 4cbe 8150 9abe
000001b0: d8d4 aa3d c602 a13e 05e5 a5bd 9829 833e
000001c0: c69c c8bd f719 4cbe aad3 c9be d874 94be
000001d0: a930 a93e ea1e 933e 7a76 d23e e81c 50bd
000001e0: 89ec 1d3e 20e2 7abd a874 de3e 3349 adbe
000001f0: 658c f7bd e601 d5be c172 3c3d 53f0 aebe
00000200: aeeb 9abe bd3d c63d c354 db3e b730 ba3e
00000210: 37d3 983e f1f4 d1bd d8e4 03bc c059 c4be
00000220: 50fa 923e bf2a 013e d943 ba3e 42d0 d9be
00000230: 9d91 cebd f53b 8fbe f604 adbe c9b9 83be
00000240: 48b6 0d3e c14f 953e da5c 493e fd94 14be
00000250: 41d3 483e 540f d93e 85c4 893c 2d19 26be
00000260: 2a08 acbe 6377 993e 26d5 bcbd 086e abbe
00000270: 6065 803e 4357 a93d c394 32be c6d0 ddbe
00000280: 8577 763d 2ffc 0abe 3fd9 98bd 091c 16be
00000290: d27b b23e caac 6e3e f350 b33e 612a 2f3e
000002a0: 953f eb3d 2d03 df3e 3296 11bc 35b2 783e
000002b0: 4b7f 2e3e 206b d1be 851d 983e f2bc 0fbd
000002c0: 2957 96be f59d 933e 0768 b3be 2b8d 4a3e
000002d0: d5e5 b6be d0bf fbbd 2ea4 cdbe feb6 a13e
000002e0: eba9 d53d 2aeb b73e 2eef 003e 430f 5ebe
000002f0: ccd7 863d 8d62 973e 21ff aebe f493 90be
00000300: 4ab1 ebbd 2a9f 86be 2995 a6bd cc82 d43e
00000310: 2f91 7c3e 5374 b6be dbbd 74be 6205 ae3e
00000320: 6c9f d2bc cd98 42be 2edc bc3d 9e8c 7fbd
00000330: 9696 193e 8152 0e3b 7baa 7e3e abcd 6c3e
00000340: cc2c 143e ad4a 103e 8a78 f3bd 0866 c9be
00000350: fd90 0dbd 886e a5be c39a adbe d297 c6be
00000360: 1689 ccbd b410 a8be f8fb a13d 6321 453e
00000370: 8e12 883e 3c01 dabe 1843 b63e c89b f73d
00000380: e30b b73e 3527 503e c258 9d3d 2a3f acbd
00000390: 4fbe b63e 29c5 8dbe 9600 b13e 6bbd c43e
000003a0: 7bb8 7f3d e54b 35be badd b6be d285 edbc
000003b0: 57bd ba3e 74f5 bb3c 3b1b debd 2827 55be
000003c0: ac64 f23c 6247 7c3e 5629 b33d e4a9 a13d
000003d0: 21eb 95be 15ea 543e 93ff 1f3d 57be ddbe
000003e0: c154 bc3e 90fc 883e 454d 2a3c d7ec a0bd
000003f0: e921 c73e edd8 d83e 9f07 933d 4e32 ca3e

residual.1.fc.bias f4 [16]
-0.0022722962 0.0008195589 0.0024835095 0.0018146577 -0.0004425973 0.00024874252 0.002665198 0.0012680414
-0.0017288043 -0.0022530928 -5.0577608e-05 0.001198125 0.0010219958 -0.001660302 0.00083240145 -0.00078715343
00000000: ceea 14bb abd7 563a 60c2 223b cfd9 ed3a
00000010: 670c e8b9 a869 8239 9aaa 2e3b 6934 a63a
00000020: 0c99 e2ba a0a8 13bb 4b23 54b8 670a 9d3a
00000030: 7df4 853a 7e9e d9ba 8435 5a3a f958 4eba

residual.1.norm.weight f4 [16]
1.0083578 0.99657464 0.99366015 0.99224204 0.99831694 1.001547 0.9916122 1.0019263
0.9942849 0.9947477 1.0029073 1.0044369 0.9949607 1.0058535 1.0035586 0.9965793
00000000: de11 813f 841f 7f3f 8360 7e3f 9303 7e3f
00000010: b391 7f3f b132 803f 4cda 7d3f 1f3f 803f
00000020: 7589 7e3f c9a7 7e3f 445f 803f 6391 803f
00000030: bfb5 7e3f cfbf 803f 9c74 803f d21f 7f3f

residual.1.norm.bias f4 [16]
0.007336629 -0.0039524157 -0.0039752866 -0.005698475 -0.00473654 0.0011764263 -0.007347645 0.0023733561
-0.0051082736 -0.002210005 0.0015689938 0.0022250358 -0.0020484398 0.0053235576 0.002588728 -0.0008009497
00000000: 1b68 f03b 4483 81bb 1f43 82bb 46ba babb
00000010: fa34 9bbb 5132 9a3a 83c4 f0bb 4f8a 1b3b
00000020: 4e63 a7bb bbd5 10bb b2a6 cd3a e8d1 113b
00000030: 1e3f 06bb 3d71 ae3b a6a7 293b d3f6 51ba

residual.1.norm.running_mean f4 [16]
-3.360256 -5.1980925 -5.184941 -1.3437821 4.8637156 -1.2965682 -3.1739435 8.971012
5.087957 5.5913196 3.7424204 2.8867347 -3.4495876 -3.6012769 4.5692005 -0.36335063
00000000: 6f0e 57c0 c656 a6c0 09eb a5c0 0d01 acbf
00000010: 8fa3 9b40 f2f5 a5bf e421 4bc0 4489 0f41
00000020: 8bd0 a240 17ec b240 d183 6f40 43c0 3840
00000030: 0bc6 5cc0 527b 66c0 e436 9240 1809 babe

residual.1.norm.running_var f4 [16]
0.9833838 2.1178703 1.1422844 0.5017533 2.4201963 0.63364565 0.478 1.5359277
2.2901075 1.1266009 0.97871894 1.3437111 0.38453275 0.8442698 2.3574867 1.0971726
00000000: 0abf 7b3f 308b 0740 6036 923f e772 003f
00000010: 7fe4 1a40 9a36 223f 6abc f43e 4799 c43f
00000020: 1f91 1240 7534 903f 538d 7a3f bafe ab3f
00000030: 7ae1 c43e 1122 583f 10e1 1640 2770 8c3f

residual.2.fc.weight f4 [8, 16]
0.21984205 0.23210001 -0.024242947 -0.029037535 0.31478852 -0.21217963 -0.35060054 0.31680673
-0.12689814 0.36071324 -0.08770341 -0.3092234 -0.012085635 -0.058120806 0.11837517 -0.3782096
-0.43184856 0.033227827 0.4465503 -0.3236032 -0.24510157 0.041945398 0.36609718 0.37981144
-0.096392825 -0.034770574 -0.3896513 0.4956753 0.30705956 0.12542897 -0.49136227 0.27444574
-0.28899977 0.028218504 0.24570498 -0.027276212 -0.24727158 0.34379247 0.33060405 0.040828314
-0.31549704 -0.26709893 -0.44430608 -0.263302 -0.45402655 -0.03732577 -0.34785607 0.2768823
-0.41018626 -0.33743885 -0.31210953 -0.13112132 0.20318025 0.3619428 0.4882583 -0.12663233
0.12573841 0.026879765 0.2814053 0.24054116 0.2886892 0.33711353 0.4191614 0.018881226
0.34201655 -0.27362984 -0.10970821 -0.14541571 -0.14631233 0.028017044 -0.47801942 -0.2900272
-0.04026823 0.09335246 0.35835147 -0.33851457 0.12090393 0.2348836 -0.26363087 0.078950986
-0.2543681 -0.020340998 -0.2728893 -0.13757148 -0.20426948 0.42800337 0.12898782 -0.47784576
0.05527103 0.28077662 -0.22356994 -0.30506977 -0.09390556 -0.44195208 -0.19009031 0.06847314
-0.36594522 -0.48181686 -0.29440668 -0.36215678 0.0077290363 0.18356454 0.3231166 0.5074429
0.25366837 -0.21758005 -0.07116465 -0.26199198 0.305855 0.16751008 0.2284866 -0.3284386
0.38374996 -0.4327833 0.24358091 -0.43352738 0.38875932 -0.29860604 -0.38645312 0.24584512
0.45047346 -0.043928567 0.21291232 0.45997512 -0.40030596 0.19739741 0.111752644 -0.28623363
00000000: 461e 613e a0ab 6d3e 2599 c6bc 20e0 edbc
00000010: f62b a13e 9e45 59be ea81 b3be 7e34 a23e
00000020: 96f1 01be 68af b83e d89d b3bd 8852 9ebe
00000030: d402 46bc 1510 6ebd ae6e f23d b0a4 c1be
00000040: 411b ddbe e719 083d 3ea2 e43e 52af a5be
00000050: e8fb 7abe f0ce 2b3d 1771 bb3e a576 c23e
00000060: 9a69 c5bd 976b 0ebd 6080 c7be 27c9 fd3e
00000070: e936 9d3e 7470 003e d693 fbbe 2784 8c3e
00000080: c7f7 93be 7e2a e73c 169a 7b3e 5d72 dfbc
00000090: c334 7dbe 9105 b03e ef44 a93e 973b 273d
000000a0: d488 a1be 31c1 88be 167c e3be 85cf 86be
000000b0: 2b76 e8be e8e2 18bd 311a b2be 84c3 8d3e
000000c0: ef03 d2be c9c4 acbe d2cc 9fbe ab44 06be
000000d0: 7c0e 503e 9150 b93e fefc f93e e8ab 01be
000000e0: 92c1 003e f432 dc3c 5b14 903e 6c50 763e
000000f0: 12cf 933e 259a ac3e 539c d63e cdac 9a3c
00000100: cb1c af3e 3619 8cbe b3ae e0bd dbe7 14be
00000110: e6d2 15be 0084 e53c f6be f4be 727e 94be
00000120: 4df0 24bd 932f bf3d d879 b73e c851 adbe
00000130: 7b9c f73d 5485 703e a0fa 86be 0eb1 a13d
00000140: 893c 82be 2aa2 a6bc 25b8 8bbe 8adf 0cbe
00000150: 052c 51be 4223 db3e 6215 043e 33a8 f4be
00000160: e063 623d f4c1 8f3e 85ef 64be 1b32 9cbe
00000170: 8f51 c0bd 8b47 e2be 09a7 42be a53b 8c3d
00000180: 2c5d bbbe b3b0 f6be 79bc 96be 9d6c b9be
00000190: db43 fd3b 58f8 3b3e 8a6f a53e c7e7 013f
000001a0: d2e0 813e 4ecd 5ebe c6be 91bd d023 86be
000001b0: 0799 9c3e c387 2b3e 64f8 693e 1b29 a8be
000001c0: e07a c43e c695 ddbe 466d 793e 4df7 ddbe
000001d0: 760b c73e e4e2 98be 2fdd c5be d3be 7b3e
000001e0: 75a4 e63e 71ee 33bd b005 5a3e dc81 eb3e
000001f0: e7f4 ccbe 8c22 4a3e 92de e43d 378d 92be

residual.2.fc.bias f4 [8]
-0.00027748 -0.00077926257 0.0015940736 -4.9327504e-05 0.000119045115 3.7646023e-05 -0.00048127671 -0.00012287305
00000000: bc7a 91b9 6d47 4cba 3cf0 d03a 01e5 4eb8
00000010: dca7 f938 1ce6 1d38 de53 fcb9 7cd7 00b9

residual.2.norm.weight f4 [8]
1.0026532 0.99270016 0.9926036 0.9992256 0.9977255 1.0037189 1.0003192 1.0039264
00000000: f156 803f 9921 7e3f 451b 7e3f 40cd 7f3f
00000010: f06a 7f3f dc79 803f 760a 803f a980 803f

residual.2.norm.bias f4 [8]
-0.000553881 -0.005006508 -0.005457388 0.0013658119 -0.001558776 0.0029250006 -0.0009456686 0.0040652384
00000000: 5332 11ba a20d a4bb e3d3 b2bb 0b05 b33a
00000010: d84f ccba 5eb1 3f3b bfe6 77ba b135 853b

residual.2.norm.running_mean f4 [8]
1.0507128 -0.7192246 -4.419399 4.7789454 -0.00910371 1.1800753 4.691539 -1.2868619
00000000: c27d 863f 1a1f 38bf b76b 8dc0 1fed 9840
00000010: ba27 15bc b50c 973f 1621 9640 e4b7 a4bf

residual.2.norm.running_var f4 [8]
1.0697747 2.9406016 3.3126338 1.9475983 0.8716519 0.63252556 3.2290869 2.8522925
00000000: 61ee 883f d132 3c40 3102 5440 e74a f93f
00000010: 9424 5f3f 32ed 213f 5ca9 4e40 f68b 3640
